backend/exported_models/model_combined.tflite (tflite, 403216 bytes, 18 tensors)

sequential_3/dense_9/MatMul;sequential_3/dense_9/Relu;sequential_3/dense_9/BiasAdd f4 [64]
00000000: 7500 c3be ba6d 233d 8160 f4bd edce 353e
00000010: b579 003e 42a1 dcbd 9f3d e33d 5458 383e
00000020: 74a2 b7bd 493f 68be b1ac 2cbe a48e 9abd
00000030: 791f 87be 4b21 6bbe 5568 a5bd a0e8 aa3d
00000040: 9190 21be 6985 cabe 471c eb3d 0b10 38be
00000050: 7257 77bd 59bd 1b3e cf60 b13e eb97 8fbd
00000060: 3fb7 36be 777d 03bd 30c4 0f3f e1e5 06be
00000070: 7e57 b33d 2be0 973d ace9 e6bc 242a 8cbe
00000080: d64a 073f a749 1e3e d960 79be 6294 11be
00000090: f50c 2e3e 31c0 1a3f 94b1 35bf 6dd5 613e
000000a0: 47ac 9abd d0fb 58bd 8d9b 3ebe cd32 20bd
000000b0: f08f 61be 8022 733e 3624 1fbd c7e8 123d
000000c0: fa48 1ebe 22b2 c03d cc5a 193e 4081 9cbc
000000d0: 5d08 1d3f 03bf c5be fe78 43be 3dbf 4f3d
000000e0: e687 5cbc 2ccd 07be 0b94 e0bd 2a11 86be
000000f0: c71e 1b3f 5867 83be 8f4a 89be 32b5 773c
-0.38086286 0.039899565 -0.11932469 0.17754717 0.12546428 -0.10772945 0.11095738 0.18002445
-0.08966532 -0.22680391 -0.16862752 -0.07546738 -0.263912 -0.22961919 -0.080765404 0.08345151
-0.15777804 -0.3955491 0.11480003 -0.1797487 -0.06038613 0.15208949 0.34644172 -0.07011398
-0.1784334 -0.032102074 0.56158733 -0.1317363 0.08756922 0.074158035 -0.028187595 -0.273759
0.52848566 0.15457784 -0.2435335 -0.1421676 0.1699713 0.6044951 -0.7097409 0.22054072
-0.075523905 -0.052974522 -0.18614025 -0.039110947 -0.22027564 0.2374363 -0.038852893 0.035866525
-0.15457526 0.09408976 0.14976043 -0.0191046 0.61340886 -0.38622293 -0.19089124 0.05071949
-0.013460135 -0.1326186 -0.10965737 -0.2618497 0.6059384 -0.25664783 -0.26814696 0.015118884

sequential_3/batch_normalization_3/batchnorm/mul_1;sequential_3/batch_normalization_3/batchnorm/add_1;sequential_3/dense_9/MatMul;sequential_3/dense_9/Relu;sequential_3/dense_9/BiasAdd f4 [64, 64]
00000000: f846 313e 35f1 2ebe 330c 5fbe 7c3e 92be
00000010: ce70 903e 9c07 57be 90f6 52be 7501 7a3e
00000020: fbfa 9a3d 1349 f4bd aa79 b3bb 8235 2c3e
00000030: ab05 6c3e 0992 073e a57c b83c a6c2 8f3e
00000040: f00c ba3c 9207 513e 0d99 d0bd 8262 ea3d
00000050: 7027 233d b488 3b3e fe28 753e 4719 67bc
00000060: 379a 3fbd f883 573e e0f4 3a3d 6114 803d
00000070: 6b36 5f3e e053 ea3d 689c 0a3e 5fde 733e
00000080: a42a 1b3e 0fd1 fe3d 43d3 a6bd 19b7 84bc
00000090: eca1 423d 0364 d53d 0cf2 99bc 5834 143e
000000a0: 99a1 403e 581e 413d 0900 80be cc0e 0abd
000000b0: c0b4 633e e12c d7bd e237 3d3e 0a05 873d
000000c0: 86eb 40be dd7c 823e 7c31 763e 5221 6e3e
000000d0: f236 163d b459 283e 25d5 0e3e 2433 e83d
000000e0: fb45 9ebc 2346 393c a81f 843d 52c4 3a3e
000000f0: 5c7b a2bd 6d3b 1e3e 2bf9 35be 1ea4 8e3e
00000100: a79a 803e 1ad2 3dbe e1c6 723e 76d2 95be
00000110: 90d6 8b3e eb52 24be 0b54 5cbe edc4 5cbe
00000120: 3ab2 a93d 8776 95be c21c de3c 44d6 6e3e
00000130: 1631 74be 67ae 913e f5df 0b3e e482 993e
00000140: f8eb 023d 3ede afbd e65f 31be f9c3 453e
00000150: 38ce 053e 7ac8 b13c c6b9 483e 043f 6fbe
00000160: f95e 56be c104 ee3d dd27 13be 9938 073e
00000170: e858 063c e8c5 493e 822f 4cbe b1ea 51be
00000180: e3a3 c23d 1462 6d3e 3976 ba3d 4994 523e
00000190: c447 68be df8c 2b3d b670 99be d7b4 71be
000001a0: 8e22 8abd 7581 bb3d 8c2d 513d 8980 883d
000001b0: f1f0 ff3c b997 cb3d e06d 1a3d 4f8b 4cbe
000001c0: 4cec 303e c1d8 dbbd dde5 7cbe 3578 ebbd
000001d0: 2ebd c23d 5883 ea3d 0775 28be 9ed6 43be
000001e0: 173b 8e3e 71a4 fa3c 2d09 77be fa77 6f3e
000001f0: 364d 1b3e 37e6 6d3e c58d 233e d958 0f3e
00000200: 1fea 2b3c c73a 4c3d 7438 6b3b 1769 873c
00000210: 88db 52be 627b 32be c296 5cbe 4bc8 993c
00000220: 6d1c 4f3e 4a19 dfbc ff13 3bbe 45b2 58be
00000230: a9c4 0bbe 2a17 8c3e 9ec3 75be 9f90 80bd
00000240: a28a b9bc 7baa 7c3e b252 083c 0d47 73be
00000250: 860e ef3c 5118 923e 2c57 bf3d f2e3 073e
00000260: 1cd7 7dbe 8121 59be dcaf 443e 1441 1a3c
00000270: ed3a a8bd be69 82bd 33da 84be 1142 4abe
00000280: 8681 5cbe 1a27 343e 8393 9e3c 7d4f 20bc
00000290: 6dcc 40be e4ec 44be d89c 943e 7030 3ebe
000002a0: 840c 163e da52 e33b 0b63 fabd 5b94 73be
000002b0: 4e30 243d 9b21 7cbe 5dec e5bd 1336 b4bd
000002c0: d714 a6bd abf6 253c fcf0 2bbe b7d5 d2bd
000002d0: 7e40 3fbe d96e eabd bda6 213c 0dea 52be
000002e0: 86f5 8abe 2c3a e4bd 416d e3bc af75 403d
000002f0: da4a 0ebe 4e01 8ebb 184a 46be 921f 62bd
00000300: 50be e63c d163 fa3d bece e4bd 2ba2 9d3d
00000310: f568 203e c16a 503e 29ea a83d 6b89 243e
00000320: e392 743e 56a9 a4bd ef36 38be 3b0a c4bd
00000330: 4182 ae3c d864 4c3e 2bb1 28be 7b76 293e
00000340: a078 a33d af89 5fbe 7b22 4bbd a7c4 1fbe
00000350: f758 813e 03da 22be b060 86bd 2ba9 663e
00000360: 9c84 aabd b46b 90be be3f 013e adc0 883e
00000370: 0b48 6f3e 8098 c1bd 4547 82bd 697e c63c
00000380: 394b fc3d 4ddb 8fbd 2ef9 01bd 4bef f1bd
00000390: 0f96 0cbe 6d10 aa3d 4ab6 6dbd d800 623e
000003a0: c5c6 5ebe d6ae 18be 8191 44be 4e9a 6e3e
000003b0: 755c 383e 1871 8f3d ee93 46bd e87b 1ebe
000003c0: 06f3 413e 10ac 873e c4cc 86be 1e6a 83be
000003d0: da89 8abd b5e8 78bc 3ead 17be b87a a3bb
000003e0: 082f a53d d1a5 eb3d 7d06 a43d 177f 51bd
000003f0: 9096 02be 0833 a13d d4b3 813e 1a89 15be
0.17312229 -0.170842 -0.21781997 -0.28563297 0.28211063 -0.20998996 -0.20601869 0.24414618
0.07567402 -0.11928 -0.00547715 0.16817287 0.23049037 0.13239302 0.022520373 0.28078192
0.022711247 0.20413044 -0.10185442 0.1144457 0.039832532 0.18313867 0.23941419 -0.014105148
-0.04677793 0.21046436 0.045643687 0.06253887 0.21798103 0.11441779 0.13536227 0.23815297
0.15152985 0.124422185 -0.08145764 -0.016200589 0.047517702 0.10419466 -0.018792175 0.14473093
0.18811645 0.04714808 -0.25000027 -0.033705518 0.2223692 -0.10506607 0.18478349 0.06592758
-0.18839845 0.25485888 0.24042314 0.23254898 0.036673494 0.16440469 0.13948496 0.11337879
-0.019320479 0.011308226 0.064513505 0.18238953 -0.07933685 0.15452357 -0.17770831 0.27859586
0.2511799 -0.18537179 0.23708679 -0.2926213 0.27312136 -0.16047256 -0.21516435 -0.21559496
0.08285947 -0.29191992 0.027113322 0.23323923 -0.2384685 0.2845337 0.13659652 0.29982674
0.03196332 -0.08587311 -0.17321739 0.19313039 0.13066947 0.02170204 0.19602117 -0.23363882
-0.20934667 0.116220005 -0.14370675 0.13205184 0.008199908 0.19704401 -0.19939998 -0.20499684
0.09503915 0.23181945 0.091045804 0.20564379 -0.22683626 0.041882392 -0.29968804 -0.23604141
-0.06744872 0.09155551 0.051068828 0.06665141 0.03124282 0.09941048 0.03770244 -0.19975017
0.1727764 -0.10734702 -0.24697061 -0.11497537 0.095087394 0.11450833 -0.16450892 -0.19124839
0.27779457 0.03059599 -0.24124594 0.23385611 0.15166172 0.23232351 0.1597205 0.13998736
0.010492831 0.049860742 0.0035891803 0.016529603 -0.20591557 -0.1742988 -0.21541885 0.018772265
0.20225687 -0.027233738 -0.18269347 -0.21161754 -0.13649239 0.27361423 -0.24000403 -0.06277584
-0.022649113 0.24674408 0.008320497 -0.23757572 0.02918173 0.28534177 0.093427986 0.13270548
-0.24789089 -0.21204187 0.1920771 0.00941493 -0.08214364 -0.06367825 -0.25947723 -0.19751765
-0.21533784 0.17593041 0.019357448 -0.0097845765 -0.18827982 -0.19230992 0.29025912 -0.18573165
0.14653212 0.006937367 -0.12225922 -0.23787062 0.04008513 -0.24622194 -0.11226723 -0.08799376
-0.08109444 0.010129611 -0.16791147 -0.10294669 -0.18676946 -0.11446924 0.009866414 -0.20597096
-0.27140445 -0.11143908 -0.027762057 0.04698723 -0.13895741 -0.0043336516 -0.19364202 -0.05520589
0.02816692 0.1222607 -0.111722454 0.07696947 0.15665038 0.20353223 0.082477875 0.16068046
0.23884158 -0.08040111 -0.17989706 -0.09572264 0.021302344 0.19960344 -0.16473834 0.16549103
0.07981992 -0.21829866 -0.04959343 -0.1560236 0.25263187 -0.15903477 -0.065614104 0.2252547
-0.083260745 -0.2820717 0.12621972 0.267095 0.23367326 -0.09452915 -0.0636125 0.024230199
0.12319035 -0.0702425 -0.031731777 -0.1181322 -0.13729118 0.08303914 -0.058035173 0.22070634
-0.21755512 -0.14910445 -0.1919613 0.2330105 0.1800402 0.07003993 -0.04848092 -0.15476954
0.18940362 0.2649846 -0.263281 -0.25666898 -0.06764574 -0.0151922 -0.1481218 -0.0049889944
0.08065611 0.11506236 0.0800905 -0.051146593 -0.12752748 0.078710616 0.2533251 -0.14603081

sequential_3/dense_11/BiasAdd/ReadVariableOp f4 [18]
00000000: 99ac 00bd 3e83 14bc 2207 1bbd d655 da39
00000010: b28c a0bc dea2 903c ff97 f03c 9baa a7bc
00000020: 5b3c d33b 71d5 04bd 1148 dcbc 5e22 06bd
00000030: 253b 5e3b 93af afbc 6b7f 19bd 9859 46bc
00000040: 17d3 053d 6d9d d73c
-0.031414602 -0.009064494 -0.0378486 0.00041644153 -0.019598339 0.017655786 0.029369352 -0.020467093
0.006446404 -0.032430116 -0.026889833 -0.03274762 0.0033909765 -0.021446025 -0.03747503 -0.012106322
0.032672014 0.026320184

sequential_3/dense_10/BiasAdd/ReadVariableOp f4 [32]
00000000: 1b5c 1e3c bc5d 9e38 48f6 493c dc13 ed3c
00000010: db5f 0b3d 2a3d 6a3c dd13 db3c 5527 ab3c
00000020: 669a 0d3d 88cf bcbc 3cf0 14b8 efc9 bf3c
00000030: 4cfb 8fbc 315b ae3c 1a5a 98bc d247 083d
00000040: 6ce6 0dbc 9cc0 58bc 8045 5a3c f465 053d
00000050: c88d 11bc 1c6e b9bc 2dc3 32bb cf4f f43b
00000060: 29d6 783b 7246 b23c b0cb f73c 581b bcbc
00000070: 38a6 023d ca24 13bb b288 9b3c f2dd b13b
0.009665514 7.5514865e-05 0.012326784 0.028940134 0.03402696 0.014296809 0.02674287 0.020892778
0.034571074 -0.023048177 -3.5509685e-05 0.02341172 -0.017575882 0.021283718 -0.018597651 0.03327162
-0.008660894 -0.013229515 0.013322234 0.032567933 -0.008883901 -0.022635512 -0.0027276978 0.007455803
0.0037969446 0.021762107 0.030248493 -0.022962257 0.0318968 -0.0022452348 0.01898608 0.0054280693

unstack f4 [384]
00000000: ebc6 54bb 7af6 b43b 0d24 ecbb 214a d73b
00000010: 8523 c2bb 316e 373b dced ddba 0905 253c
00000020: 55f2 8dbc ddb3 cc3b 19a4 2b3c e4fd 8f3c
00000030: 1cab e039 a648 a13b c6f6 3d3b 1d45 34bc
00000040: 92e5 993c d716 6cbb 4b44 853a 7ae9 32bc
00000050: 7c98 96bb d6db a3bb a36e 7abc 226f e3bb
00000060: 8d44 81bc d397 433b 3495 47bc 6bc0 a2bb
00000070: 2125 8cbb 6d76 db3b d59c 45bc 985c 59bb
00000080: 6f0c 3fbb 994e ac3b c08a 74bc 0007 4eb6
00000090: 209c 99bc 2503 0f3c 72fb 113c 8498 5b3c
000000a0: 8c54 aa3c 2c29 8139 120b ce3b ea6d ecb9
000000b0: 01d7 a73b cd6d 41bb 13a8 86bc ffde 07bc
000000c0: 49ef 07bc ab44 9bbc 6dc2 15bc 5ac9 a8bb
000000d0: a3c3 78bb 2e03 b03c 7e68 053c 62fa 133c
000000e0: 973b 02bc ca93 093c 9fe7 8a3b 6b90 67bc
000000f0: 8221 42bc 2e2e e8b7 f091 bdbc 59d5 18bc
00000100: 7628 f5bb 17bd 673a c402 383c 1ab8 733c
00000110: 2abc d73b d3c3 8ebc d868 f33b 4ebb 593c
00000120: 391b 7b3c bb02 65bc d5ef b03b 3f85 39bc
00000130: 5c32 a43b 8f71 97bb 0b8a 8b3c 8460 1dbc
00000140: 1451 9e3a d811 a63b f074 3b3b cd20 a63b
00000150: 0515 983b 3c5d 53bc 3379 a0bb c95d 2e3c
00000160: 7bb6 dbbb 53d0 033c 0bee a4ba a458 9f3c
00000170: 33a7 3b3c 27ef a13b 7058 8b3a 90b6 95bb
00000180: 6b28 40bc 0f11 a73c 1c9b e23a ffcd 983b
00000190: 0026 fd3b 5cee c8bb cd74 a73b 6835 573c
000001a0: a7e8 da3c cec0 3b3c 47a0 99bc c0f6 50bc
000001b0: be27 2ebc 838c 923b de22 0d3c 17da 0f3c
000001c0: f392 03bc fa43 87bc c171 ae38 bb71 bb3b
000001d0: 9287 a0bc 1277 00bc 0120 043c 407f 293c
000001e0: 8c11 15bc bf2f 1b3c f663 963c cce0 0c3b
000001f0: f1fb 70bc bea0 56ba 4757 573b 1ecd a9bb
00000200: bcdd aa3c bbf8 6dbc 3240 daba 9420 53bc
00000210: 4759 b4bb f18a 813a 9996 8c3c de27 a23b
00000220: 9330 553b 13f6 153c 2b59 01bc cf7e dfba
00000230: e438 113b 458a 313c 7419 a63b e1ba 5d3c
00000240: c3dc 20bb 96d5 90bc 5454 cdbb dae6 33bc
00000250: 7175 963b a3f3 3c3c 12b8 91bb 65f9 73bb
00000260: 99c4 3cbc 9da7 dc39 7630 483a 3bfa 533c
00000270: fb19 503b 42a4 16bc 68f4 863c 71fe c2bb
00000280: a615 183c 2386 a83c accf 913c ea63 e13b
00000290: e022 833b fd9a 14bc 30c5 c13b 43b6 163c
000002a0: 1b13 6ebb 92fd 9a3b 47e1 763c e3d2 853b
000002b0: 758c 66bb 8e55 03ba 6d39 27bc 2638 babb
000002c0: aa7e ac3c 07c9 16bc c371 3ebc 0a54 47bc
000002d0: 0416 363c 07da 393c 8271 bc3c eb9b adbb
000002e0: 0be5 8d3c 4e81 e0bb fbf5 d03a 4446 823b
000002f0: c20f ad3c 84b4 183c 4cf0 903b 1696 8e3c
00000300: 3425 12bb 2875 8a3c 12cc e3b9 49e1 d8bb
00000310: dad3 8ebb e499 d5bb 69c2 47bc 2a09 c8bb
00000320: 057e 313c dfe6 3e3c 854b a9bc 0fdd 35bc
00000330: 00c5 313c 7ece e9bb 7c7d 6e3c d8b9 d03b
00000340: 14b7 ac3b b567 3fbc e454 b3bb d8c0 10bb
00000350: 07db 1c3b 4dd5 70bb 33b5 b0ba 74f2 6abc
00000360: 25fc 893b 51d5 0d3c 954d af3c e852 953b
00000370: b002 653b 8a45 60bb 607b 873b acaa 5dba
00000380: e2f3 363c f5e4 323c fadf 10bc 31fb 1b3c
00000390: 3875 c43b 70c4 113c 1f05 db3b 2a31 c13b
000003a0: 2ba6 0f3a 2d94 eebb 240b d0bc 72de 803a
000003b0: a41f c43b 42ac 553b a7f1 96bb d6fe 163c
000003c0: 9be7 9f3c 92c2 c0bb 9f24 a73b 2661 41bc
000003d0: 466d 33bc f38d 23bc 031f 0abc 167f c4bb
000003e0: 6715 0bbc 2fda 4d3b 457f 423c 1751 953c
000003f0: cec4 853c 7b3f 63bb 3a8c 9b3b 50d7 253b
-0.0032467197 0.0055225464 -0.007206446 0.006570116 -0.0059246444 0.0027989263 -0.001693185 0.010072001
-0.017327467 0.0062470273 0.010476136 0.01757712 0.00042852096 0.0049219904 0.00289862 -0.011002806
0.018786225 -0.0036024356 0.0010167448 -0.010919923 -0.0045958143 -0.0050005717 -0.015285167 -0.0069407383
-0.015779758 0.0029845133 -0.012181569 -0.0049667857 -0.004276887 0.006697467 -0.012061317 -0.0033166762
-0.0029151698 0.005258393 -0.014925659 -3.0700467e-06 -0.018751204 0.008728777 0.008910047 0.013403062
0.020792268 0.00024635473 0.006287941 -0.0004509532 0.005122066 -0.002951491 -0.016437566 -0.0082929125
-0.008296796 -0.018953642 -0.009140593 -0.005150956 -0.0037958405 0.021485891 0.008142589 0.009031864
-0.007948778 0.008397052 0.004239037 -0.014133553 -0.011848809 -2.767806e-05 -0.023140877 -0.00932821
-0.00748163 0.0008840127 0.011231128 0.014875436 0.00658371 -0.01742736 0.00742827 0.013289286
0.015326315 -0.013977702 0.005399684 -0.011323272 0.005010886 -0.0046216915 0.017033597 -0.009605531
0.0012078607 0.005068045 0.0028603636 0.005069828 0.0046411776 -0.012900647 -0.0048972606 0.010642477
-0.006705103 0.008045274 -0.0012583149 0.019451447 0.011453438 0.0049418393 0.0010631215 -0.0045688823
-0.011728386 0.020393876 0.0017288658 0.0046632285 0.007725477 -0.0061319303 0.0051103593 0.013135292
0.026722265 0.011459542 -0.018753184 -0.012754142 -0.010629592 0.0044723167 0.00861427 0.008780024
-0.008030641 -0.016511906 8.318155e-05 0.005720345 -0.019595895 -0.007840889 0.008064271 0.01034528
-0.009098422 0.009471833 0.018358212 0.0021496294 -0.014708505 -0.00081874046 0.0032858418 -0.0051819226
0.020857684 -0.014524634 -0.0016651212 -0.012886185 -0.0055038068 0.0009883327 0.017161654 0.0049486
0.0032530173 0.009152907 -0.007894794 -0.0017051342 0.0022159154 0.010836189 0.005068952 0.013533325
-0.0024545647 -0.01767997 -0.006266156 -0.010980332 0.004591637 0.011532697 -0.0044469917 -0.0037227508
-0.011521482 0.00042086552 0.0007636616 0.012938078 0.0031753767 -0.009194436 0.016473964 -0.005950742
0.009282505 0.020571774 0.017799221 0.0068783658 0.00400196 -0.009070155 0.005913399 0.009198728
-0.0036327306 0.004729935 0.015068359 0.0040839775 -0.0035178934 -0.0005010002 -0.0102065625 -0.005682963
0.021056492 -0.009203202 -0.011623803 -0.012166033 0.011113647 0.011343486 0.023003343 -0.005298128
0.01732113 -0.006851352 0.0015942449 0.0039756615 0.021125678 0.009320382 0.004423177 0.01740555
-0.0022300007 0.016901568 -0.00043448858 -0.006618653 -0.004358751 -0.0065185893 -0.012192347 -0.006104608
0.010833268 0.011651724 -0.020665893 -0.011100068 0.010850191 -0.0071352115 0.014556285 0.0063698106
0.005270848 -0.0116824405 -0.0054727662 -0.00220876 0.0023934261 -0.003674823 -0.0013481736 -0.014340032
0.004210966 0.008656816 0.021399299 0.0045570023 0.0034944229 -0.0034221136 0.0041345805 -0.0008455913
0.011166545 0.010918845 -0.008842463 0.009520338 0.005995419 0.008896932 0.00668396 0.0058957534
0.0005479778 -0.0072808475 -0.025395937 0.0009831919 0.005985217 0.0032603894 -0.004606444 0.009216031
0.019519618 -0.0058825696 0.005100801 -0.011802947 -0.010951346 -0.009982574 -0.008430245 -0.005996595
-0.008488989 0.0031410565 0.011871164 0.018227143 0.016329195 -0.0034675288 0.004746941 0.0025305338

unstack1 f4 [384]
00000000: ebc6 54bb 7af6 b43b 0d24 ecbb 214a d73b
00000010: 8523 c2bb 316e 373b dced ddba 0905 253c
00000020: 55f2 8dbc ddb3 cc3b 19a4 2b3c e4fd 8f3c
00000030: 1cab e039 a648 a13b c6f6 3d3b 1d45 34bc
00000040: 92e5 993c d716 6cbb 4b44 853a 7ae9 32bc
00000050: 7c98 96bb d6db a3bb a36e 7abc 226f e3bb
00000060: 8d44 81bc d397 433b 3495 47bc 6bc0 a2bb
00000070: 2125 8cbb 6d76 db3b d59c 45bc 985c 59bb
00000080: 6f0c 3fbb 994e ac3b c08a 74bc 0007 4eb6
00000090: 209c 99bc 2503 0f3c 72fb 113c 8498 5b3c
000000a0: 8c54 aa3c 2c29 8139 120b ce3b ea6d ecb9
000000b0: 01d7 a73b cd6d 41bb 13a8 86bc ffde 07bc
000000c0: 49ef 07bc ab44 9bbc 6dc2 15bc 5ac9 a8bb
000000d0: a3c3 78bb 2e03 b03c 7e68 053c 62fa 133c
000000e0: 973b 02bc ca93 093c 9fe7 8a3b 6b90 67bc
000000f0: 8221 42bc 2e2e e8b7 f091 bdbc 59d5 18bc
00000100: 7628 f5bb 17bd 673a c402 383c 1ab8 733c
00000110: 2abc d73b d3c3 8ebc d868 f33b 4ebb 593c
00000120: 391b 7b3c bb02 65bc d5ef b03b 3f85 39bc
00000130: 5c32 a43b 8f71 97bb 0b8a 8b3c 8460 1dbc
00000140: 1451 9e3a d811 a63b f074 3b3b cd20 a63b
00000150: 0515 983b 3c5d 53bc 3379 a0bb c95d 2e3c
00000160: 7bb6 dbbb 53d0 033c 0bee a4ba a458 9f3c
00000170: 33a7 3b3c 27ef a13b 7058 8b3a 90b6 95bb
00000180: 6b28 40bc 0f11 a73c 1c9b e23a ffcd 983b
00000190: 0026 fd3b 5cee c8bb cd74 a73b 6835 573c
000001a0: a7e8 da3c cec0 3b3c 47a0 99bc c0f6 50bc
000001b0: be27 2ebc 838c 923b de22 0d3c 17da 0f3c
000001c0: f392 03bc fa43 87bc c171 ae38 bb71 bb3b
000001d0: 9287 a0bc 1277 00bc 0120 043c 407f 293c
000001e0: 8c11 15bc bf2f 1b3c f663 963c cce0 0c3b
000001f0: f1fb 70bc bea0 56ba 4757 573b 1ecd a9bb
00000200: bcdd aa3c bbf8 6dbc 3240 daba 9420 53bc
00000210: 4759 b4bb f18a 813a 9996 8c3c de27 a23b
00000220: 9330 553b 13f6 153c 2b59 01bc cf7e dfba
00000230: e438 113b 458a 313c 7419 a63b e1ba 5d3c
00000240: c3dc 20bb 96d5 90bc 5454 cdbb dae6 33bc
00000250: 7175 963b a3f3 3c3c 12b8 91bb 65f9 73bb
00000260: 99c4 3cbc 9da7 dc39 7630 483a 3bfa 533c
00000270: fb19 503b 42a4 16bc 68f4 863c 71fe c2bb
00000280: a615 183c 2386 a83c accf 913c ea63 e13b
00000290: e022 833b fd9a 14bc 30c5 c13b 43b6 163c
000002a0: 1b13 6ebb 92fd 9a3b 47e1 763c e3d2 853b
000002b0: 758c 66bb 8e55 03ba 6d39 27bc 2638 babb
000002c0: aa7e ac3c 07c9 16bc c371 3ebc 0a54 47bc
000002d0: 0416 363c 07da 393c 8271 bc3c eb9b adbb
000002e0: 0be5 8d3c 4e81 e0bb fbf5 d03a 4446 823b
000002f0: c20f ad3c 84b4 183c 4cf0 903b 1696 8e3c
00000300: 3425 12bb 2875 8a3c 12cc e3b9 49e1 d8bb
00000310: dad3 8ebb e499 d5bb 69c2 47bc 2a09 c8bb
00000320: 057e 313c dfe6 3e3c 854b a9bc 0fdd 35bc
00000330: 00c5 313c 7ece e9bb 7c7d 6e3c d8b9 d03b
00000340: 14b7 ac3b b567 3fbc e454 b3bb d8c0 10bb
00000350: 07db 1c3b 4dd5 70bb 33b5 b0ba 74f2 6abc
00000360: 25fc 893b 51d5 0d3c 954d af3c e852 953b
00000370: b002 653b 8a45 60bb 607b 873b acaa 5dba
00000380: e2f3 363c f5e4 323c fadf 10bc 31fb 1b3c
00000390: 3875 c43b 70c4 113c 1f05 db3b 2a31 c13b
000003a0: 2ba6 0f3a 2d94 eebb 240b d0bc 72de 803a
000003b0: a41f c43b 42ac 553b a7f1 96bb d6fe 163c
000003c0: 9be7 9f3c 92c2 c0bb 9f24 a73b 2661 41bc
000003d0: 466d 33bc f38d 23bc 031f 0abc 167f c4bb
000003e0: 6715 0bbc 2fda 4d3b 457f 423c 1751 953c
000003f0: cec4 853c 7b3f 63bb 3a8c 9b3b 50d7 253b
-0.0032467197 0.0055225464 -0.007206446 0.006570116 -0.0059246444 0.0027989263 -0.001693185 0.010072001
-0.017327467 0.0062470273 0.010476136 0.01757712 0.00042852096 0.0049219904 0.00289862 -0.011002806
0.018786225 -0.0036024356 0.0010167448 -0.010919923 -0.0045958143 -0.0050005717 -0.015285167 -0.0069407383
-0.015779758 0.0029845133 -0.012181569 -0.0049667857 -0.004276887 0.006697467 -0.012061317 -0.0033166762
-0.0029151698 0.005258393 -0.014925659 -3.0700467e-06 -0.018751204 0.008728777 0.008910047 0.013403062
0.020792268 0.00024635473 0.006287941 -0.0004509532 0.005122066 -0.002951491 -0.016437566 -0.0082929125
-0.008296796 -0.018953642 -0.009140593 -0.005150956 -0.0037958405 0.021485891 0.008142589 0.009031864
-0.007948778 0.008397052 0.004239037 -0.014133553 -0.011848809 -2.767806e-05 -0.023140877 -0.00932821
-0.00748163 0.0008840127 0.011231128 0.014875436 0.00658371 -0.01742736 0.00742827 0.013289286
0.015326315 -0.013977702 0.005399684 -0.011323272 0.005010886 -0.0046216915 0.017033597 -0.009605531
0.0012078607 0.005068045 0.0028603636 0.005069828 0.0046411776 -0.012900647 -0.0048972606 0.010642477
-0.006705103 0.008045274 -0.0012583149 0.019451447 0.011453438 0.0049418393 0.0010631215 -0.0045688823
-0.011728386 0.020393876 0.0017288658 0.0046632285 0.007725477 -0.0061319303 0.0051103593 0.013135292
0.026722265 0.011459542 -0.018753184 -0.012754142 -0.010629592 0.0044723167 0.00861427 0.008780024
-0.008030641 -0.016511906 8.318155e-05 0.005720345 -0.019595895 -0.007840889 0.008064271 0.01034528
-0.009098422 0.009471833 0.018358212 0.0021496294 -0.014708505 -0.00081874046 0.0032858418 -0.0051819226
0.020857684 -0.014524634 -0.0016651212 -0.012886185 -0.0055038068 0.0009883327 0.017161654 0.0049486
0.0032530173 0.009152907 -0.007894794 -0.0017051342 0.0022159154 0.010836189 0.005068952 0.013533325
-0.0024545647 -0.01767997 -0.006266156 -0.010980332 0.004591637 0.011532697 -0.0044469917 -0.0037227508
-0.011521482 0.00042086552 0.0007636616 0.012938078 0.0031753767 -0.009194436 0.016473964 -0.005950742
0.009282505 0.020571774 0.017799221 0.0068783658 0.00400196 -0.009070155 0.005913399 0.009198728
-0.0036327306 0.004729935 0.015068359 0.0040839775 -0.0035178934 -0.0005010002 -0.0102065625 -0.005682963
0.021056492 -0.009203202 -0.011623803 -0.012166033 0.011113647 0.011343486 0.023003343 -0.005298128
0.01732113 -0.006851352 0.0015942449 0.0039756615 0.021125678 0.009320382 0.004423177 0.01740555
-0.0022300007 0.016901568 -0.00043448858 -0.006618653 -0.004358751 -0.0065185893 -0.012192347 -0.006104608
0.010833268 0.011651724 -0.020665893 -0.011100068 0.010850191 -0.0071352115 0.014556285 0.0063698106
0.005270848 -0.0116824405 -0.0054727662 -0.00220876 0.0023934261 -0.003674823 -0.0013481736 -0.014340032
0.004210966 0.008656816 0.021399299 0.0045570023 0.0034944229 -0.0034221136 0.0041345805 -0.0008455913
0.011166545 0.010918845 -0.008842463 0.009520338 0.005995419 0.008896932 0.00668396 0.0058957534
0.0005479778 -0.0072808475 -0.025395937 0.0009831919 0.005985217 0.0032603894 -0.004606444 0.009216031
0.019519618 -0.0058825696 0.005100801 -0.011802947 -0.010951346 -0.009982574 -0.008430245 -0.005996595
-0.008488989 0.0031410565 0.011871164 0.018227143 0.016329195 -0.0034675288 0.004746941 0.0025305338

unstack2 f4 [192]
00000000: e3e2 743b 3f4e 813c 96f3 9cba 2343 a1bb
00000010: c1e3 e639 8ff1 bb3c de5f 993a f48f 273c
00000020: c1f4 893b dc67 8239 8075 a43b 1779 80bb
00000030: 694b 92ba 9676 9e3c e834 7a3b ea84 56bc
00000040: dfdf 43bc 6978 f43b dcbd 9f3c bf5a f239
00000050: f861 883c 2955 1b3c 18b2 663b 8fe5 843c
00000060: 5ff3 bebb 56a7 1c3c 75cc c83b 6d00 f33b
00000070: 6a4e 87bc 30a7 8d3c 7cf4 85b9 0273 0e3c
00000080: 704b d93a d3e1 163b 9f64 133c 195e a43b
00000090: a3c8 173a 4494 afb9 4426 fa3a 8955 2ebb
000000a0: 30ef b1bb 8162 123c 049b 323c 287b 01bb
000000b0: 26fa 903b cf41 8a3c 76f6 82ba 65a7 39bc
000000c0: 9784 ce3b aff1 f53a e108 0d3c c2b0 fe3b
000000d0: 85ba 8f3b 49d6 4d3c 1d0a f33b 195e cb3c
000000e0: 3a74 cc3b f564 17bc 3f2c 9e3c a593 b23b
000000f0: 2bd0 b93a 07b1 3abc d8de b63c f9e1 bfba
00000100: 8ed9 f0bb f14c 1dbb eee7 1a3c 3537 b5bc
00000110: e7db 96bc 9a01 cf3b 0034 b2b9 a6be 09bc
00000120: 6c97 2b3c d4cc 4cbc e204 243c 9770 efbb
00000130: 5a27 0aba 899d aebb fc7f 6a3c e8ec 89bc
00000140: cdbe 73bc f1a9 ecbb 28db e83b e986 443c
00000150: 1622 ee3b 4e2a 08ba c17f f13b f290 77bc
00000160: 2fd1 a73a ad9e 913c ea39 393c 143a e0bb
00000170: 0c85 233c 3bf6 88bb e347 8c3c 7c07 993c
00000180: 9b2a b6ba 9467 dabc 77dc c0bb 2f8a 443c
00000190: 27ef 7abc fb9e 3e3c 9a61 fd3a 822b 65bb
000001a0: a94c cd3b 9e24 9b3c b686 a23b 1cc3 083c
000001b0: 4c6a 833b f131 4fbc 349c ff3b 10d4 45bb
000001c0: ce8e b9b9 016d cc3c 9e01 d93b 5c93 4c3a
000001d0: 27b7 0f3c 8816 ac3b d981 44bc 3441 a93c
000001e0: aef5 073c 71d6 8b3b 1600 8f3b 2d9b 773c
000001f0: 8e2c 403c 1b2b 30bc b79c 443a 901a aa3b
00000200: 4447 7a3c a1ca e73c ab14 25bc b464 91bc
00000210: 480b 3fbc d547 99bc 27a7 be3c 9db8 8a3b
00000220: d782 cc3b 9b08 57bc 04c0 ccbb a227 ddba
00000230: 5e3e 0fba f45c adba 0806 903c fe40 173c
00000240: 12f7 523c 2b22 2b3c 8c77 7b3c 202c 52bc
00000250: 73b8 b53b 02a4 09bc 7315 85bb 8f3c a9bc
00000260: ee97 84bc 07b2 773c c687 acbb 73d6 edbb
00000270: 5f8c b73c 312f 393b a2fd c1bb 64d2 10bb
00000280: 0fc3 db3b e510 fc3a 0dda 9f3b b401 65bb
00000290: 48e5 22bc 1e8c 88bb 7e30 79bc 49ff d33c
000002a0: 3fae 89bc 37ed 83bc 3537 d73b 7537 3f3c
000002b0: 241c 3cbc b369 c3bc 4755 dfbb edff 3abc
000002c0: e62b f53c 5537 5a3c 0d32 133d d6a3 93bc
000002d0: e709 773c 649d c6bb 7706 313b 6a57 03bd
000002e0: e66a 0dba 0933 c53c f07b f73b 799d e0bb
000002f0: a2f4 b7bc 9538 e3bb e5b5 8e3c e041 6539
0.003736668 0.015784381 -0.001197445 -0.0049213334 0.00044038708 0.022942333 0.0011701544 0.010227192
0.004210085 0.00024872913 0.00501889 -0.003920685 -0.001116139 0.019343656 0.0038178507 -0.013093213
-0.0119552305 0.007460643 0.019499712 0.00046225448 0.016648278 0.009480753 0.0035201367 0.016222743
-0.005827352 0.00956138 0.006127889 0.0074158222 -0.016516883 0.017291635 -0.00025549892 0.008694412
0.0016578268 0.0023022785 0.008996158 0.0050161 0.000579009 -0.00033489068 0.001908489 -0.0026601276
-0.0054301247 0.008934618 0.010901216 -0.0019757245 0.0044243513 0.016877083 -0.0009991664 -0.011331414
0.006302427 0.0018764044 0.008608074 0.007772536 0.0043862485 0.012563297 0.007416977 0.024825143
0.006239441 -0.009240379 0.019308208 0.0054497295 0.0014176419 -0.011394746 0.022323057 -0.0014639489
-0.0073501533 -0.002400216 0.00945471 -0.022121051 -0.018415404 0.0063173296 -0.0003398955 -0.008407271
0.0104731135 -0.012500007 0.01001093 -0.007307123 -0.0005270146 -0.0053288382 0.01431274 -0.016836599
-0.014877033 -0.007222407 0.0071062036 0.011995056 0.007267247 -0.0005194292 0.007369966 -0.015110241
0.001280343 0.017775858 0.011305312 -0.006842861 0.009980451 -0.0041797436 0.017124122 0.018680327
-0.0013898195 -0.026660718 -0.0058856565 0.011995836 -0.015315807 0.011634584 0.0019331456 -0.003496856
0.006265242 0.018938359 0.0049599065 0.008347299 0.0040104743 -0.012646184 0.0078006033 -0.0030186214
-0.00035392347 0.02495432 0.0066225072 0.00078039407 0.008771694 0.0052517094 -0.011993849 0.020660974
0.008298321 0.0042675068 0.004364024 0.01511268 0.011729373 -0.010752465 0.0007500159 0.005191155
0.01527578 0.028294863 -0.010075728 -0.017748214 -0.0116604045 -0.01871101 0.023273064 0.0042334334
0.0062411833 -0.01312461 -0.006248476 -0.0016872773 -0.00054643105 -0.0013226555 0.017581 0.009231804
0.012876289 0.010445158 0.015348326 -0.012827903 0.0055456697 -0.008400919 -0.004061395 -0.02065876
-0.016185727 0.015118129 -0.005265209 -0.0072582304 0.022405801 0.0028256888 -0.005920128 -0.0022098059
0.0067066024 0.0019231109 0.0048782886 -0.0034943642 -0.00994236 -0.004167094 -0.015209315 0.025878565
-0.01680672 -0.016104324 0.0065678605 0.011670937 -0.011481319 -0.023854112 -0.006815586 -0.0114135565
0.029928159 0.013318856 0.035936404 -0.018022459 0.0150780445 -0.006061243 0.002701191 -0.032065786
-0.0005394652 0.024072187 0.0075526163 -0.0068547097 -0.022455517 -0.0069342353 0.017420718 0.00021863682

unstack3 f4 [192]
00000000: e3e2 743b 3f4e 813c 96f3 9cba 2343 a1bb
00000010: c1e3 e639 8ff1 bb3c de5f 993a f48f 273c
00000020: c1f4 893b dc67 8239 8075 a43b 1779 80bb
00000030: 694b 92ba 9676 9e3c e834 7a3b ea84 56bc
00000040: dfdf 43bc 6978 f43b dcbd 9f3c bf5a f239
00000050: f861 883c 2955 1b3c 18b2 663b 8fe5 843c
00000060: 5ff3 bebb 56a7 1c3c 75cc c83b 6d00 f33b
00000070: 6a4e 87bc 30a7 8d3c 7cf4 85b9 0273 0e3c
00000080: 704b d93a d3e1 163b 9f64 133c 195e a43b
00000090: a3c8 173a 4494 afb9 4426 fa3a 8955 2ebb
000000a0: 30ef b1bb 8162 123c 049b 323c 287b 01bb
000000b0: 26fa 903b cf41 8a3c 76f6 82ba 65a7 39bc
000000c0: 9784 ce3b aff1 f53a e108 0d3c c2b0 fe3b
000000d0: 85ba 8f3b 49d6 4d3c 1d0a f33b 195e cb3c
000000e0: 3a74 cc3b f564 17bc 3f2c 9e3c a593 b23b
000000f0: 2bd0 b93a 07b1 3abc d8de b63c f9e1 bfba
00000100: 8ed9 f0bb f14c 1dbb eee7 1a3c 3537 b5bc
00000110: e7db 96bc 9a01 cf3b 0034 b2b9 a6be 09bc
00000120: 6c97 2b3c d4cc 4cbc e204 243c 9770 efbb
00000130: 5a27 0aba 899d aebb fc7f 6a3c e8ec 89bc
00000140: cdbe 73bc f1a9 ecbb 28db e83b e986 443c
00000150: 1622 ee3b 4e2a 08ba c17f f13b f290 77bc
00000160: 2fd1 a73a ad9e 913c ea39 393c 143a e0bb
00000170: 0c85 233c 3bf6 88bb e347 8c3c 7c07 993c
00000180: 9b2a b6ba 9467 dabc 77dc c0bb 2f8a 443c
00000190: 27ef 7abc fb9e 3e3c 9a61 fd3a 822b 65bb
000001a0: a94c cd3b 9e24 9b3c b686 a23b 1cc3 083c
000001b0: 4c6a 833b f131 4fbc 349c ff3b 10d4 45bb
000001c0: ce8e b9b9 016d cc3c 9e01 d93b 5c93 4c3a
000001d0: 27b7 0f3c 8816 ac3b d981 44bc 3441 a93c
000001e0: aef5 073c 71d6 8b3b 1600 8f3b 2d9b 773c
000001f0: 8e2c 403c 1b2b 30bc b79c 443a 901a aa3b
00000200: a4eb 1a3c 840c 573b 3118 92ba 6e88 51bc
00000210: 1971 f3ba 5bb5 9bbc 2ced 8a3c ff4d d03a
00000220: 3ff0 8b3c 883e a4bc b068 ddbb 7e8e 71bc
00000230: d44a 033c 115c 2abc ccc1 693c 4636 013d
00000240: 9932 b6bb e8bd 163c 521e eebb e382 8dbc
00000250: 8038 003c e4f7 2e3b 44a9 673b 367c 9ebc
00000260: 269a 90bc 86cf 4c3c d166 abb9 c66f edbb
00000270: 0c8e 873c e57e 593c f9cd c938 9ba2 c5ba
00000280: 7ea0 3f3c 4c15 3abc 8717 7b3c 8cd2 62bc
00000290: 9d94 15bc a73c c5bb 8f42 9abc 1ccc 9e3c
000002a0: 220f 8ebc 82ca 8cbc 1b0b 39bb 8282 3b3c
000002b0: 9dee 5ebc 96b8 12bc 8910 1c3c caca 003c
000002c0: 1a2a eb3c ffd1 4b3c 4462 7b3c 9a6f d0bb
000002d0: 3aeb 103c dbf1 8dbc d16d b0bb bfdd cdbc
000002e0: fed7 38bc 8b57 443c 23db 983c 1e1f 5dbc
000002f0: 1679 173b 42d6 36bc 756f 213c 0826 b2bb
0.003736668 0.015784381 -0.001197445 -0.0049213334 0.00044038708 0.022942333 0.0011701544 0.010227192
0.004210085 0.00024872913 0.00501889 -0.003920685 -0.001116139 0.019343656 0.0038178507 -0.013093213
-0.0119552305 0.007460643 0.019499712 0.00046225448 0.016648278 0.009480753 0.0035201367 0.016222743
-0.005827352 0.00956138 0.006127889 0.0074158222 -0.016516883 0.017291635 -0.00025549892 0.008694412
0.0016578268 0.0023022785 0.008996158 0.0050161 0.000579009 -0.00033489068 0.001908489 -0.0026601276
-0.0054301247 0.008934618 0.010901216 -0.0019757245 0.0044243513 0.016877083 -0.0009991664 -0.011331414
0.006302427 0.0018764044 0.008608074 0.007772536 0.0043862485 0.012563297 0.007416977 0.024825143
0.006239441 -0.009240379 0.019308208 0.0054497295 0.0014176419 -0.011394746 0.022323057 -0.0014639489
-0.0073501533 -0.002400216 0.00945471 -0.022121051 -0.018415404 0.0063173296 -0.0003398955 -0.008407271
0.0104731135 -0.012500007 0.01001093 -0.007307123 -0.0005270146 -0.0053288382 0.01431274 -0.016836599
-0.014877033 -0.007222407 0.0071062036 0.011995056 0.007267247 -0.0005194292 0.007369966 -0.015110241
0.001280343 0.017775858 0.011305312 -0.006842861 0.009980451 -0.0041797436 0.017124122 0.018680327
-0.0013898195 -0.026660718 -0.0058856565 0.011995836 -0.015315807 0.011634584 0.0019331456 -0.003496856
0.006265242 0.018938359 0.0049599065 0.008347299 0.0040104743 -0.012646184 0.0078006033 -0.0030186214
-0.00035392347 0.02495432 0.0066225072 0.00078039407 0.008771694 0.0052517094 -0.011993849 0.020660974
0.008298321 0.0042675068 0.004364024 0.01511268 0.011729373 -0.010752465 0.0007500159 0.005191155
0.009455595 0.0032813856 -0.0011146126 -0.012788875 -0.0018573134 -0.019007375 0.016958795 0.0015892385
0.017082332 -0.020049348 -0.0067568645 -0.014743445 0.008013446 -0.010397927 0.014267396 0.0315459
-0.005560231 0.009200551 -0.007266798 -0.017274326 0.007825971 0.0026698047 0.0035348693 -0.019346338
-0.017651629 0.012500649 -0.00032692266 -0.0072459904 0.016547225 0.013274883 9.622792e-05 -0.0015078367
0.011695979 -0.011357617 0.015325434 -0.013844144 -0.00912967 -0.006019193 -0.018830566 0.019384436
-0.0173412 -0.017186407 -0.002823538 0.01144469 -0.0136066945 -0.0089551415 0.009525427 0.007860849
0.028706599 0.012440204 0.015343253 -0.00636096 0.008845145 -0.01732724 -0.005384185 -0.02513015
-0.011281965 0.0119837625 0.01865918 -0.013496188 0.0023112944 -0.0111594815 0.009853234 -0.0054366626

sequential_3/dense_10/MatMul f4 [32, 64]
00000000: b72d 6abe 8c40 89bd 73c3 663e 65c5 5e3e
00000010: 362d 0bbd 90c1 28be f931 f7bd 3df9 2dbe
00000020: 2131 4b3e 191b 383e e12c 3d3e c205 ca3d
00000030: 1c16 423d 0d64 023c 0e80 e03d b146 2a3e
00000040: 2d1a ec3d f43b 0b3e 2287 dcbd 7928 d63d
00000050: 06c3 2a3e d09f 1ebe eeac 0c3e eb3e 3ebe
00000060: 995e 263e b5b7 25be 74bc 1c3e 5a2f 62bd
00000070: 7864 3dbd 20f2 60be b1b1 213e 0242 b83d
00000080: 0db2 10be 3441 b03d 0451 5cbe 1846 8f3d
00000090: 79f5 1c3e 1b7d 0fbe 700a 4b3e e2f4 733e
000000a0: 1293 4ebd afa8 91bd 0ee1 2cbe fbc9 76be
000000b0: 3984 113e 356c c4bd f694 fd3c dff5 493d
000000c0: fa64 06be e21f 0abe e8b3 29bc c1f8 163e
000000d0: 46ad 82bd 6f4f 3ebd 056f 2bbd 3f35 e2bd
000000e0: 1974 1dbe 44fe 233d dbcd b4bc af8a 5ebd
000000f0: c941 3a3e 507b 923d 44d7 523e d87b 8a3c
00000100: d493 29bb fd17 e3bc a0e8 27be 92eb 113c
00000110: 3681 6ebe 99ed cebd 9b62 8abd 09c2 363e
00000120: b110 933d 8bb4 783d 4d51 44be 2c43 bf3d
00000130: fb19 823e b016 7e3e dd2c c33d d0de abbc
00000140: 9f74 17be e590 52bd 4d41 383e 99bc 663e
00000150: 258a c4bd 9ce3 44be 7af1 583e a924 3fbe
00000160: 6ad2 2abe be1a 3abe 1da7 89be c3fc 3dbe
00000170: bccf 3abe 8d23 45be 7110 b9bd 9241 733d
00000180: bff6 f5bd f2d9 15be 36c5 1d3e 0669 ebbd
00000190: 7819 953d 8869 9cbd c6b1 533e 2a05 f53d
000001a0: 9735 983c 9292 603e cd62 73be 38e4 89bd
000001b0: 1cc1 833e 164e 1a3d 2a0b 30bc f71f b0bd
000001c0: 4f72 3a3e ee3b 613e 6e5f 6a3e f503 99bc
000001d0: 49aa 643e 2d0a 803d b2ba e63c dee7 86bd
000001e0: 46e6 f93d 808d 4abd 912c 52be abdc 60be
000001f0: 0691 c9bc 92c6 75bd 7eb0 19be 7abc 343e
00000200: 9e9c 2ebd 8f6b 5b3e a1de 473e 3158 893b
00000210: 815f 62be ede5 5cbe a3b3 4b3e 03ff 443e
00000220: 2f31 12bd d9d0 453e 4595 0bbe e0df 15be
00000230: 3fd8 bcbd 6eb9 4abd 7e2f ca3d 8e19 1a3d
00000240: dbed c4bd 8026 2d3d 3926 11bd e36e 5e3d
00000250: b562 e1bc 92da 2d3e e334 733e 506b 1dbe
00000260: b184 63be ad2c c1bd 98b7 753e 9591 22be
00000270: e484 863d 5068 0a3e 9e9c abbd eaa4 a73d
00000280: 20ec 61bd fc27 923d ebc1 b2bd 49b1 6b3e
00000290: 6212 07bd 9513 0a3c 66c7 b5bd 8958 393e
000002a0: 679e b93d eeba cdbd cbd3 703e cde5 5c3e
000002b0: bad2 48bd 887a 8d3e 1887 3fbe 86a6 9b3d
000002c0: 0d59 483d 2f05 613e 5df6 e53b 18c7 aabd
000002d0: b563 a33c 5986 83bd 4536 e3bd 48a7 80be
000002e0: b1c4 dbbd 7424 0c3e aa49 813c 5083 62be
000002f0: f5ea 8b3e 93a4 3abe cd20 6f3c f69f 3e3e
00000300: 4e4a 65be adf5 6a3e 83a6 943d 29b5 603e
00000310: 95f5 893e b31d 183d c8da 39be 4135 aabd
00000320: b5c4 0fbe 3b60 55be ef9e f4bc 7ba4 5a3e
00000330: 6cb0 65be 32c3 5fbd 1173 9b3d a296 823d
00000340: 8ea6 e43c 07d1 e6bb 52ff 323d b411 023e
00000350: f690 403e 91eb a7bd 1208 15be 0994 c33d
00000360: ee94 403e 775c 2ebe a590 263d b203 c7bc
00000370: 2d36 5e3e 6a37 073d 86b9 e63d fbfc 853d
00000380: f54c 283e 72d5 c43d 2769 9abd 1816 b43d
00000390: 8c6c 66bd 9b97 c53d 051b 833e 97bb f5bd
000003a0: 2d16 f0bd b217 133e 296d 68be 0e49 6c3e
000003b0: 0727 f23d 454b 4e3e b041 76bd 7a90 1abe
000003c0: f3e7 65be 0d32 9f3d dfe1 1dbe 0ba9 853e
000003d0: ac39 8ebc 6367 c83c f452 263e 91fe 49bc
000003e0: 5609 2ebe 5333 1f3e ab89 643e 106a 183d
000003f0: 4ca5 823e b657 c8bd 12d3 513e 98b8 333d
-0.22869001 -0.067017645 0.22535495 0.21754988 -0.033978663 -0.16480088 -0.120700784 -0.16989608
0.1984296 0.17979087 0.18474151 0.098643795 0.047384366 0.007958424 0.109619245 0.16628529
0.1152843 0.13597089 -0.10767962 0.10456938 0.16675958 -0.15490651 0.13737842 -0.18578689
0.16247024 -0.1618336 0.15306264 -0.05522094 -0.046238393 -0.21967363 0.1579044 0.08996965
-0.14130421 0.086061865 -0.2151528 0.06995791 0.15328015 -0.14012568 0.198282 0.23823884
-0.050433226 -0.07112252 -0.16882727 -0.24100487 0.14210595 -0.09590951 0.03095482 0.049306747
-0.13124457 -0.13488725 -0.010357834 0.1474333 -0.063807055 -0.046462473 -0.041853923 -0.11045312
-0.15376319 0.04003741 -0.022070816 -0.054331478 0.18189158 0.07152426 0.2058993 0.016904756
-0.0025875466 -0.0277214 -0.16397333 0.008906262 -0.23291478 -0.10103912 -0.06757089 0.17847456
0.07180918 0.060719054 -0.19171639 0.09338984 0.25410447 0.24813342 0.09530041 -0.020980269
-0.14790581 -0.051407713 0.1799366 0.22532882 -0.095966615 -0.19227451 0.21185866 -0.18666328
-0.16681829 -0.18174264 -0.2688531 -0.18553452 -0.18243307 -0.19251843 -0.09036339 0.059388705
-0.12009954 -0.14633921 0.15407261 -0.11494641 0.072802484 -0.07637316 0.20673284 0.119638756
0.018580241 0.21930912 -0.23768158 -0.067329824 0.25733268 0.037672125 -0.010744849 -0.08599847
0.18207668 0.21995518 0.22887966 -0.018678645 0.22330584 0.06251941 0.028165195 -0.06587194
0.12202124 -0.04945135 -0.20524813 -0.21959178 -0.024605285 -0.060003825 -0.15008733 0.17650023
-0.04262983 0.21427749 0.1951852 0.0041914214 -0.22106744 -0.21572085 0.19892745 0.19237904
-0.035691436 0.1931795 -0.1363116 -0.14636183 -0.09220933 -0.049493246 0.0987234 0.037622027
-0.0961568 0.042273045 -0.035436843 0.05430497 -0.027512887 0.16977909 0.23750643 -0.15372968
-0.22218587 -0.09432349 0.23995817 -0.15875848 0.065683156 0.13516355 -0.08379482 0.08185752
-0.055156827 0.07136533 -0.08728393 0.23016848 -0.032976516 0.00842752 -0.08875923 0.1810018
0.09063416 -0.1004542 0.23518293 0.21572037 -0.04902909 0.27632546 -0.18703878 0.07600121
0.04891305 0.21974634 0.007017894 -0.08338755 0.019945005 -0.06422109 -0.110943355 -0.25127625
-0.10730875 0.13685781 0.015782196 -0.22120404 0.27327695 -0.18226843 0.014595223 0.18615708
-0.22391626 0.2294528 0.07258322 0.21944107 0.26945177 0.0371377 -0.18149865 -0.083109386
-0.14039882 -0.2083749 -0.029860942 0.21351807 -0.22430581 -0.054629512 0.075903066 0.06376387
0.02791145 -0.007043961 0.043700524 0.12702066 0.18805298 -0.081992276 -0.1455386 0.0954972
0.18806812 -0.1702746 0.040665288 -0.024293754 0.21700354 0.03301183 0.112658545 0.06542393
0.16435607 0.09611024 -0.075395875 0.087932765 -0.056255862 0.09648057 0.25606552 -0.119986705
-0.1172298 0.14364508 -0.22697891 0.23074743 0.1182385 0.201459 -0.06012124 -0.15094176
-0.22451763 0.07773218 -0.15418194 0.26105532 -0.017361484 0.024463361 0.16242582 -0.01232876
-0.16995749 0.15546922 0.22318141 0.037210524 0.25516737 -0.097823545 0.20490673 0.043877214

sequential_3/dense_11/MatMul f4 [18, 32]
00000000: ce24 5fbd 3a84 4ebe 4bec 3f3e 8df3 1abe
00000010: e24c eabc 50bb a1be 6ad5 c1be 1f3b 5ebe
00000020: 58a5 60be 6b53 213e 1f01 ce3d 53a0 2e3e
00000030: d815 673e 4130 343e a74f d33d 0b03 82be
00000040: 4eb3 8b3e 5ace 813d 2aac 9e3d 901a 963e
00000050: c87e d83d e4ed 09be d9e2 aebc 76ca bb3d
00000060: 288b 01be c88d 2abe 9834 2abe 9a50 71be
00000070: 6784 8ebe 58bd 9c3e fc5c d13d 31a2 8cbe
00000080: 50cb 55be c443 673e 79d0 95be f44e 953e
00000090: 337f d43d 2abe 01bd 517e b73c b28d a4be
000000a0: 8b16 783d 30f9 b2bd 5c8e a7be 7de6 a03d
000000b0: 8a6a 8abb 35a9 07bd 548d 6a3c 7965 97be
000000c0: 5c61 7a3e bfe7 34be 7ad3 e1bc 5e66 ff3d
000000d0: 87cb abbe 601a 8ebd cff9 eb3d d7b8 a63d
000000e0: a440 903e 8b66 62bc 6054 fa3d 6798 993e
000000f0: bab3 87bd c0eb b5be 0176 a4be ad69 2ebe
00000100: d7a3 0cbe 3adc 943e 2289 c1be 7565 86bd
00000110: aabb 77be 3ceb 1e3e 3a59 49be 8888 8fbe
00000120: e177 9fbd 1480 823e 9a8f 87be fa2c 4a3d
00000130: f7bc 7abd 28c2 7bbe f332 b9be aaa5 a6be
00000140: dcfd 03be 9e59 373e 8915 46be 7d0e 1a3e
00000150: 739d c63d 0a94 513d 3868 043e f70f 55be
00000160: 38b4 a83d 6616 8bbe 6943 6f3e 2196 9f3e
00000170: f092 8f3e 00e5 83be 773b b1be ae5a 7cbe
00000180: 3ee3 51be 221c 873e 0957 03be 188b 86be
00000190: 75d7 a13e b24a a33e 542b 4dbe 7bac b6be
000001a0: d480 90be c301 58bd 0208 98be 5078 45be
000001b0: d5da 343e 721c 36be 38e3 f8bd 38ef 073e
000001c0: 004c a5be 9ef2 a13e 0257 513d e6d1 91be
000001d0: b1ea 8e3e cd9c 32be 606f 20be 372c 363e
000001e0: 59bd 07be e318 763e cfc0 9b3e 9ee6 69be
000001f0: f972 793d de02 4d3d 8e9e 19be 0d50 99be
00000200: 3a48 12be c6fb 1f3e 8eb1 303e c887 cfbc
00000210: 236c b5be 7c43 a0be ba30 86be fc52 493e
00000220: 42a0 2abd cb7a 3abd b2a0 a6be ea2c 24bd
00000230: 929c 383e 65da 42be 83ee 90be c4a8 c53d
00000240: d872 4d3d 0c31 d53d 2392 70bd 60b7 8bbc
00000250: f149 51be c042 c43c 61fb 5ebd 93be 77be
00000260: e842 15be 27a9 703e 0ba1 4ebd 1187 b2bd
00000270: 9254 6e3e bab0 7fbd 92ea 57be 2601 b2be
00000280: ca9c 453e 4480 323c ffb8 b73d 4088 91be
00000290: 8757 82be ef4a 79be f3d8 77bc 7fdf 12be
000002a0: e0fc c03e 66ee 56be f732 a83e c967 933e
000002b0: 4a7d e03c 4c06 9bbe 4df7 843e 3b50 45bd
000002c0: 22e1 89be 0be2 22be 11ef 6a3e 5ee2 863e
000002d0: ce63 3cbe ab63 a4bd bf7b 9ebd 2ffe 94be
000002e0: 5b83 4abc 8cf6 2a3e 0ab5 6cbe 92b3 53bd
000002f0: ecda 933e 9616 1dbc 9073 443e 9a22 93be
00000300: 76fe 9fbe a915 25be 12fc c03d cb64 8a3e
00000310: 84df 853e d434 b8bd 553c dfbd 78c2 a03a
00000320: b827 3e3e c323 4dbe c36c 813e d5a8 843e
00000330: e451 9a3d 2c57 193d 938e 62be c83f b33e
00000340: 8b8c 773d cca0 9abe 6f3f 5ebe 80b0 9dbe
00000350: 643a 38be 7efa 3abe 0206 95be bed6 933d
00000360: 02b1 02bd b62b 543e 6ad1 653e 3c58 983c
00000370: df8e b2be 4b6b 18be 6447 8f3e 9850 e0bd
00000380: 25fa 7f3e e616 8bbe cb27 25be 5588 c73d
00000390: 1276 89bc 4e86 3b3d 57fa b73d 997f 923e
000003a0: 66e9 b13d ebd4 513e dc11 e2bd 380d 9d3e
000003b0: fbbe 7a3e d11e 5bbd 55c4 6a3e 3c96 673e
000003c0: 85c7 153c 0704 c8bd f849 09bc 0140 dcbd
000003d0: 1bf1 24be 6e00 43be f4d6 993e d753 cd3a
000003e0: f46b 923e 7749 a4be 0d2e 36be 3906 113e
000003f0: 5b44 bdbe 4816 b4be 89bb 943e 096a 84be
-0.05447846 -0.20167628 0.18742482 -0.1513197 -0.028601114 -0.3158822 -0.37858135 -0.2170224
-0.21938074 0.15754478 0.100588076 0.17053346 0.22566926 0.17596532 0.10317927 -0.25392947
0.27285236 0.063381866 0.077476814 0.2931714 0.105710566 -0.13469654 -0.021348404 0.09169476
-0.1265074 -0.16655648 -0.16621625 -0.23565903 -0.2783539 0.30613208 0.102228135 -0.27467492
-0.20878339 0.22584444 -0.29260615 0.291618 0.10375824 -0.031675495 0.0223991 -0.32139355
0.060568374 -0.08738935 -0.327258 0.07856462 -0.004224126 -0.033120353 0.014315922 -0.29569605
0.24451202 -0.17666529 -0.02756666 0.12470697 -0.33553717 -0.069386244 0.115222566 0.08140724
0.28174317 -0.013818393 0.122231245 0.29999086 -0.06626077 -0.35531425 -0.3212128 -0.170325
-0.13734375 0.2907427 -0.37799937 -0.0656232 -0.24192682 0.15519422 -0.19662943 -0.28033853
-0.07786537 0.2548834 -0.26476747 0.0493593 -0.061215367 -0.24585783 -0.36171684 -0.32548267
-0.12889808 0.1790528 -0.19344153 0.1504459 0.09698 0.05116657 0.12930381 -0.20806871
0.08237499 -0.27165526 0.23365559 0.31169227 0.28041792 -0.2576065 -0.3461568 -0.24643967
-0.20496842 0.2638865 -0.1282617 -0.26277995 0.31609693 0.31892926 -0.2003606 -0.35678467
-0.28223288 -0.052736055 -0.2969361 -0.19284177 0.17661603 -0.17784289 -0.121527135 0.13274848
-0.32284546 0.31630415 0.051108368 -0.28480452 0.2791343 -0.17442627 -0.15667486 0.17790304
-0.13255824 0.24032931 0.3042054 -0.2284188 0.060900662 0.050051562 -0.1500189 -0.29943886
-0.14285365 0.15623388 0.17255232 -0.0253333 -0.35434064 -0.31301486 -0.2620905 0.19660562
-0.04165674 -0.04552726 -0.32544476 -0.040081896 0.18028477 -0.19028623 -0.2830697 0.0965133
0.05015835 0.104097456 -0.058733117 -0.017055213 -0.20438363 0.02395761 -0.054438952 -0.24193792
-0.14576304 0.23502026 -0.05044655 -0.08717168 0.23274449 -0.0624244 -0.21085575 -0.347665
0.19298092 0.010894839 0.08970832 -0.28424263 -0.25457403 -0.24344991 -0.015127408 -0.1434307
0.37692928 -0.2098938 0.32851383 0.2879012 0.027403492 -0.30278242 0.25969926 -0.048172217
-0.26929575 -0.15906541 0.22942759 0.2634458 -0.18397447 -0.08026823 -0.077384464 -0.29100177
-0.012360419 0.16695613 -0.23115936 -0.051684923 0.28877962 -0.009587904 0.19184709 -0.28737336
-0.31248826 -0.16121544 0.094230786 0.27030024 0.2614709 -0.08994451 -0.10900179 0.0012264987
0.18569839 -0.20033173 0.2527829 0.2591006 0.07535151 0.03743665 -0.221247 0.350096
0.060436767 -0.30200803 -0.21703885 -0.3079872 -0.17991024 -0.18259618 -0.29106146 0.07218693
-0.03190709 0.207198 0.22443166 0.01859676 -0.34874627 -0.14884679 0.27984154 -0.10952872
0.24997766 -0.27165908 -0.16128461 0.097428 -0.016779933 0.04578238 0.089832954 0.28612974
0.08687095 0.20491378 -0.11038563 0.30674148 0.24486916 -0.053496186 0.22926457 0.22615904
0.009141807 -0.09766393 -0.008379452 -0.10754395 -0.161076 -0.19043133 0.3004681 0.0015665245
0.28597987 -0.320873 -0.17791004 0.1416253 -0.36966214 -0.3517325 0.29049328 -0.25862148
