backend/exported_models/model_cnn.tflite (tflite, 185480 bytes, 8 tensors)

sequential_3/conv1d_6/BiasAdd/ReadVariableOp f4 [8]
000000 3d a4 05 3d d3 21 da bc 0c b1 04 3d 8c e5 a5 bc
       0.032627333 -0.026627457 0.032395408 -0.020251058
000010 3c 11 cd bc 1a 6c 09 3d d6 73 24 3d 4a 28 04 3d
       -0.025032632 0.03355036 0.040149532 0.032264985

sequential_3/conv1d_7/BiasAdd/ReadVariableOp f4 [16]
000000 66 2d 0a 3d 8e f1 67 3c d5 be 14 3d 3d eb b2 bc
       0.0337347 0.014156712 0.036314804 -0.021840686
000010 22 c8 e2 b9 12 66 0c 3d f3 49 d8 3c 32 76 01 3d
       -0.0004325519 0.03427703 0.02640245 0.03160686
000020 1c a3 02 3d dd 8f cd bc cf 8e b7 3c b7 bb bd bc
       0.031893834 -0.025093013 0.022406964 -0.023160798
000030 99 d2 fc 3c 1f ac 2e 3c 00 48 bd 3b 00 60 06 3d
       0.03086214 0.010661154 0.0057764053 0.032806396

sequential_3/conv1d_6/Conv1D f4 [8, 1, 3, 3]
000000 e2 30 df 3e 7e 5c 8a 3e 04 42 8c 3e 5b 57 3f 3e
       0.43591982 0.2702369 0.27394116 0.18685667
000010 f6 8e 32 be df 03 b0 be 2d d1 f9 3c 1d 4c 47 bd
       -0.17437348 -0.34377953 0.03049525 -0.04865657
000020 f9 cc 3d be de 29 52 be d8 55 8f be 0b 8a 72 bc
       -0.18535222 -0.20523784 -0.2799518 -0.01480342
000030 1f de 95 be c5 2b d7 3d 65 30 f4 bd 28 a2 ae bd
       -0.29271027 0.10506395 -0.11923293 -0.085270226
000040 9b 78 4c 3d 04 ae 98 bc 38 18 61 3e ba b1 56 be
       0.049919706 -0.018637665 0.21981895 -0.20966235
000050 b7 90 cd be cb 78 10 be e2 5e a1 be 79 2a e1 3e
       -0.4014947 -0.14108579 -0.31517702 0.43977717
000060 66 51 a2 be 31 df 89 be c6 d8 a0 3e 7e fe 91 be
       -0.31702727 -0.26928094 0.31415385 -0.28514475
000070 fa f3 3b 3e c0 74 5f bb 9e 30 6a 3e d2 3d 40 be
       0.18354788 -0.0034096688 0.22870108 -0.18773583
000080 91 f0 ab 3e d1 7d 2e be e6 dc 3b 3e 22 74 0a be
       0.33581975 -0.17040183 0.18345985 -0.13520864
000090 f8 0e 4b bb a8 3e 0c be 8f 6d 84 be 6a 7b 4d 3b
       -0.0030984264 -0.13695776 -0.25864837 0.0031354078
0000a0 fd 47 4f bd 33 ff 30 be 7e c6 8d 3e 8f 5e 28 bd
       -0.050605763 -0.17284851 0.276905 -0.041105803
0000b0 10 cd 97 be 8a dd b9 be 3b 01 a0 be 96 3f 5b be
       -0.29648638 -0.36301833 -0.3125094 -0.21410975
0000c0 38 59 d9 3c c1 38 d9 3e 32 0e b1 bd 76 a2 92 3d
       0.0265318 0.42426112 -0.08645286 0.07159893
0000d0 20 6e 15 bd 8c 14 6d bd df e6 11 be b2 c9 c8 3d
       -0.036481977 -0.057880923 -0.14248227 0.09804095
0000e0 db 26 a7 3c 26 9f c0 3e 8b 2b a5 be 6e 06 58 be
       0.02040427 0.3762142 -0.32259783 -0.21096203
0000f0 33 69 be 3e 53 dd ad be 25 70 da 3e 25 dc 3d 3c
       0.37189636 -0.3395792 0.42663684 0.011588131
000100 6b 84 57 bd ad 29 91 be c5 41 b4 be b2 b4 c2 3d
       -0.052616518 -0.2835211 -0.35206428 0.09507121
000110 4a 2b 8b 3e e1 7b 4d be ef 85 b1 be 8b b3 8f 3e
       0.27181464 -0.20066787 -0.34672496 0.28066668

sequential_3/conv1d_7/Conv1D f4 [16, 1, 3, 8]
000000 5d fb 74 3e 90 de 05 3e 05 c9 91 3e b2 0f 4b 3e
       0.23924012 0.13073182 0.28473678 0.19830206
000010 0a de 02 3e 2b 02 55 be d5 cf 91 bd ee 04 0b be
       0.12780014 -0.20801608 -0.07119719 -0.135761
000020 b1 49 42 be 5e 18 88 3e e8 e2 88 3e 8c c2 d1 bd
       -0.18973424 0.2658109 0.26735616 -0.10242185
000030 eb 65 d2 bd 5e e5 5c be f0 6b 30 bb a5 ce 2f be
       -0.102733456 -0.21571872 -0.0026919805 -0.17168672
000040 78 be 7f 3e 0c 56 f1 3d dc e6 0b 3e c9 38 6a be
       0.24975002 0.1178399 0.13662285 -0.22873224
000050 83 e4 67 3d 60 b8 0f 3a f6 c3 5e 3e 3b be 36 be
       0.05661441 0.0005482491 0.2175444 -0.17846005
000060 8d 9a e6 bd 9f af 3e 3e 28 73 82 be 08 ea 1c be
       -0.11259947 0.18621682 -0.25478482 -0.15323651
000070 6b df 39 3e 1e b9 77 3e 77 69 ca 3d 55 e4 b5 bd
       0.18151633 0.2419171 0.09883397 -0.088814415
000080 8c 4f 8d 3e 07 2f 54 be 54 31 8b 3d 62 4e b0 bd
       0.27599752 -0.20721065 0.06796518 -0.086087
000090 ed 03 9a 3b bb 05 86 3e 0d 1e 2a bc 7a 77 57 3e
       0.004700175 0.26176247 -0.010383141 0.2104167
0000a0 22 ce 07 be af 0f 23 3e 22 10 8f bd 46 cf d4 bd
       -0.13262227 0.15923952 -0.06985499 -0.10391097
0000b0 22 f5 d9 bd cd 8c 26 3d f1 b0 7d 3e 34 2b 88 3d
       -0.106424585 0.04066162 0.24774529 0.06648865
0000c0 3c 2b 59 be db 43 f2 3b 2b 58 d2 3c 2a 0a 7e be
       -0.21207899 0.007393343 0.025676807 -0.24808565
0000d0 37 9c 62 be 57 f5 8e bd 52 c3 7e 3e f4 b9 03 3e
       -0.22129904 -0.069803886 0.24879196 0.12863904
0000e0 16 73 a3 3e a2 90 5d be ed 30 49 3e e3 6c 8f 3e
       0.3192374 -0.21637204 0.1964757 0.2801276
0000f0 10 c0 01 3d cf 8d a9 3c d4 bd a0 3e 66 47 4c bd
       0.031677306 0.020697502 0.31394827 -0.04987278
000100 eb 16 38 be 86 cf eb 3d 89 f0 06 3e f8 7c 78 be
       -0.17977493 0.11514191 0.13177694 -0.24266422
000110 2a 9d bf 3d 63 21 92 3e a6 db 9c 3d b0 13 e1 bd
       0.093561485 0.28541097 0.07659082 -0.10990083
000120 47 79 e2 3d 4c 8e 1b be 80 bd c1 3a 27 4f 22 be
       0.11058288 -0.15191 0.0014781207 -0.15850507
000130 2a a5 68 3e 37 ab 8a 3d ad 80 35 bd 71 1d 5b be
       0.22719255 0.06770938 -0.044312168 -0.2139795
000140 53 1c 71 bd 1f 86 0e be e9 2b 38 3e ae e1 98 3d
       -0.058864903 -0.1391835 0.179855 0.0746492
000150 8d fa 4a bd 3b e3 06 3d 8b bc e6 bc 5e 24 61 3e
       -0.04955535 0.032931548 -0.028166076 0.21986529
000160 6c c7 a7 bd 5c 68 97 3e fb a8 67 be f0 28 cd 3d
       -0.081923336 0.29571807 -0.22623055 0.10017574
000170 d1 a3 1f 3d 8a 8f 4e 3e 39 64 f1 bd 1d d5 30 bc
       0.038974587 0.20171943 -0.11786694 -0.010792998
000180 96 f0 43 3e 5a 2c 93 bd f2 e5 19 bd 71 3f 75 3e
       0.19134745 -0.07186194 -0.03757281 0.23949982
000190 69 f5 90 3e af 16 56 3e d1 c4 af 3d d3 46 18 3c
       0.28312233 0.2090709 0.085824616 0.00929423
0001a0 df cc ef 3d ad 2b 81 3d f4 dd 37 bd 85 92 7a be
       0.11708998 0.063071586 -0.044889405 -0.24469955
0001b0 10 eb 76 be fa 1b 3d 3e 23 db 2a 3e 6a 28 55 be
       -0.24113107 0.18467703 0.16685157 -0.20816198
0001c0 b5 29 8d be c8 e8 22 bd 4f b2 79 3e 4d f2 96 bc
       -0.27570882 -0.03977278 0.24384426 -0.018426085
0001d0 cb 0f 69 be 0b 61 29 be 18 0a 18 3e a6 55 eb bc
       -0.22759931 -0.16540925 0.148476 -0.028727364
0001e0 23 ab 77 3e 27 a3 e8 3c 5e 29 e6 bd a4 cd b0 bd
       0.24186377 0.02839811 -0.11238359 -0.08632973
0001f0 c7 27 68 3c ff 46 75 3e 23 b2 7a 3d 21 d8 5c 3d
       0.01416964 0.23952864 0.06120504 0.053917054
000200 e4 c3 09 bc 0c 6f 33 be 3e c6 50 be f8 69 b5 3d
       -0.00840852 -0.1752283 -0.20388123 0.088581026
000210 df 85 67 be 86 e2 3d 3d bc cf 63 3e 26 91 59 3e
       -0.22609662 0.046358608 0.22247213 0.21246776
000220 c6 4a 1f be 79 1a 1b 3e ce fc 92 3e c8 29 05 be
       -0.15555868 0.15146817 0.287085 -0.1300422
000230 64 e1 3c bd a5 e5 1b 3e 0c 53 c0 3d c6 e7 7c 3e
       -0.046113387 0.15224321 0.0939084 0.2469779
000240 59 3c 8f be 64 0a 5c 3e 43 49 c3 bd 67 40 81 3e
       -0.2797573 0.21488339 -0.09535458 0.25244448
000250 d0 a1 84 be 28 0c 15 3e c0 d1 7c be f4 ad 49 3e
       -0.25904703 0.14555418 -0.24689388 0.19695264
000260 a8 c1 c7 bd c7 bb b6 3d a2 6a 65 bd 1b 58 d2 3d
       -0.09753734 0.089225344 -0.056009896 0.10270711
000270 94 54 82 bd 8a fe 5d be 3d 18 8c be 88 76 f9 bd
       -0.06363788 -0.2167913 -0.27362242 -0.12180811
000280 e6 e8 ec bc b0 90 09 be 51 1c ad 3c 2a c0 83 be
       -0.028919648 -0.134341 0.021131666 -0.25732547
000290 2d 12 6b bd 45 60 3e be ae ca 2e be 7b 74 ef bd
       -0.05739038 -0.18591411 -0.17069504 -0.11692139
0002a0 d6 02 18 3e 70 ef 93 3e 19 9d 10 3c ed 6c 4f 3b
       0.14844832 0.28893614 0.0088265175 0.0031650618
0002b0 e0 f5 0c 3e d5 93 4f be 6e 27 2c bd f2 c4 8c bd
       0.13765669 -0.20271237 -0.04202979 -0.06873502
0002c0 e7 19 14 bd f0 f1 82 3e 6a 72 83 3e fe b5 c2 3c
       -0.036157515 0.2557521 0.25673229 0.023768421
0002d0 ac cc 6a be f0 ed 9d 3e f9 34 97 3d cb be 95 3e
       -0.22929639 0.30845594 0.073831506 0.29247126
0002e0 1f d7 47 3e 22 c0 6b be 82 c8 4c be 97 6f 7f bd
       0.19515656 -0.23022512 -0.19998363 -0.06236228
0002f0 35 81 c4 bd b1 e3 86 bd 11 98 85 be a8 34 67 bd
       -0.09594957 -0.065863974 -0.2609258 -0.0564467
000300 cb eb 94 be e0 65 46 bd 50 7e 2c 3e aa da 1a bc
       -0.29086146 -0.048437 0.1684506 -0.009451548
000310 88 b7 14 3e 0f 48 1d be 11 d8 4c be 24 7b 57 bd
       0.14523137 -0.1535952 -0.20004298 -0.05260767
000320 52 50 92 bc 90 90 06 be ac 27 6c 3e 0a 8e 46 be
       -0.017860565 -0.13141084 0.23062009 -0.19390121
000330 f5 21 7d be 07 2d 50 be 5c 8c 80 3e cc db ed bd
       -0.24719985 -0.20329677 0.25107086 -0.116141886
000340 a2 ee 8d b9 4c b7 38 3e 28 04 6c bc 2e 6b 93 3e
       -0.0002707141 0.18038672 -0.014405288 0.2879271
000350 28 3e 73 be 14 31 04 be 09 3c d9 3d 08 13 4e 3e
       -0.2375418 -0.12909347 0.10607154 0.20124447
000360 ce c3 50 bd e5 25 79 be 7f 35 65 be 6e 6a f5 3d
       -0.050967984 -0.24330862 -0.22383688 0.119831905
000370 a8 78 88 3e c2 ca 80 bd 59 52 b7 bd 15 32 57 3e
       0.26654553 -0.06288673 -0.089512534 0.21015199
000380 0e f1 0e be b6 02 32 3d c5 a2 86 be 50 22 3a bd
       -0.13959143 0.043459617 -0.26296058 -0.04544288
000390 7b 50 5f 3e 54 3f ad 3d 1d e1 84 bd 61 51 5d 3e
       0.21808045 0.084593445 -0.064882495 0.21613075
0003a0 e9 47 9e 3c 45 e8 75 3e 28 db 01 3e b6 53 da 3d
       0.019321399 0.24014385 0.12681258 0.10660498
0003b0 5b 65 11 be f1 8c 87 be 5c 8d 42 bd 36 df 52 be
       -0.1419882 -0.26474717 -0.047498092 -0.2059296
0003c0 25 23 00 3c e0 31 84 bd 2e 16 4d be 99 e3 8d be
       0.007820879 -0.064548254 -0.20027992 -0.27712706
0003d0 53 e8 6c be 34 aa 82 3e 48 2e b2 bd 3e 30 07 3e
       -0.231355 0.2552048 -0.08700234 0.13201997
0003e0 84 0b 44 3e e9 87 15 be 32 33 c4 3d 40 b4 2d be
       0.19145018 -0.14602627 0.09580077 -0.16963291
0003f0 91 4d 61 3e cd c9 0c 3e db 8a 1a be 7d 6a 67 bd
       0.22002245 0.13748856 -0.15092032 -0.05649804

sequential_3/dense_7/BiasAdd/ReadVariableOp f4 [12]
000000 b8 8c ca bc 55 8e 36 bc 5b 78 19 bc 0d 7b 8f bb
       -0.024725303 -0.011142333 -0.009367074 -0.0043786825
000010 b6 bd c8 bc 8a 68 3a 3d 2a c3 9e bc 4d 7f 16 3d
       -0.024504524 0.045509852 -0.01938017 0.036742497
000020 d9 83 0b bd b6 9b 22 bd d5 b1 a4 3b e1 cc 1c 3d
       -0.034061287 -0.03969928 0.005026082 0.038281325

sequential_3/dense_6/BiasAdd/ReadVariableOp f4 [16]
000000 4f 51 bc 3c db b2 38 bc 4e 9a c0 3c a7 23 b4 bc
       0.02298799 -0.011273111 0.023511078 -0.021989657
000010 64 5f e8 bb 9f ea 07 3d 5f 30 da 3c bb 3c 35 3a
       -0.0070914496 0.033182736 0.026634393 0.00069136516
000020 77 06 6f 3c 60 c4 04 3d 19 3a 31 3c 0f 0d 65 3c
       0.014588944 0.03241384 0.010817074 0.013980164
000030 16 12 f7 3a 69 1a 22 bc 1e 3a 02 3d 1f 20 32 bc
       0.0018849995 -0.009893992 0.031793706 -0.010871916

sequential_3/dense_6/MatMul f4 [16, 2768]
000000 3f 9d 4d bc fa 9f 87 bb 49 6f 30 bd 50 aa 7e bd
       -0.012549697 -0.0041389437 -0.04307488 -0.06217414
000010 8a d8 39 bd 14 fd 40 bd 86 61 a0 3c 7d 97 36 bd
       -0.045372523 -0.047116354 0.019577753 -0.044578064
000020 b2 6f db bc 0a e3 8b bc 57 0e 04 bd eb d2 64 bc
       -0.026786659 -0.017076034 -0.032240238 -0.013966302
000030 56 00 86 bc 0e f7 af 3b 16 6e 94 bb 68 0d 44 bc
       -0.016357582 0.0053700274 -0.004529725 -0.011966087
000040 71 db c7 bc cb 88 6f bc 25 47 8c 3b e8 f5 ac bc
       -0.02439663 -0.014620016 0.004280942 -0.021113351
000050 27 92 94 3c c1 e6 54 bd 00 25 5a 3c 17 55 30 bc
       0.018136097 -0.051977877 0.013314486 -0.0107624745
000060 ce aa 93 3c b3 8a f6 bc 3e 64 55 3a 20 01 98 3b
       0.018025782 -0.030095434 0.00081402424 0.004638806
000070 3f 1e 36 bc 91 cc 0d bc 82 e7 a2 3c 82 8d 96 3c
       -0.01111561 -0.008654729 0.019885782 0.018378023
000080 69 32 c9 3c 6b b7 1f 3c 11 06 4e 3d 02 d6 8f 3c
       0.02456017 0.00974832 0.050298754 0.017558102
000090 02 78 5f bc 07 2b 00 bd 18 a8 50 3c 5d 33 f3 bc
       -0.013639452 -0.031291034 0.012735389 -0.029687578
0000a0 50 3f 44 3b cd 41 5e bd 43 b3 3c 3d bf d0 09 3c
       0.0029944964 -0.05426197 0.046069395 0.008411585
0000b0 c0 96 50 bc cb d3 d6 bc 0f 99 7d 3c 8d 88 05 3d
       -0.012731254 -0.026224038 0.015478387 0.032600928
0000c0 2e 1f 80 bc 6e 7c fe bb a0 b2 ec b6 19 77 d7 bc
       -0.015639868 -0.007766298 -7.0541428e-06 -0.026301907
0000d0 4b b6 49 3c 17 f4 23 bd 0d 5c 26 3d 91 1a 8f bc
       0.012311528 -0.040027704 0.04061513 -0.017468723
0000e0 49 a6 31 bd c8 21 9c 3c 4f 39 92 bb 45 ff 1e bd
       -0.043371473 0.019059077 -0.004462398 -0.038817663
0000f0 f1 1a 38 bd 9d ac b2 3c d7 65 ec 3c 78 dd c2 bb
       -0.04494757 0.021810824 0.028857155 -0.0059468113
000100 3d 38 36 bc c4 94 34 3d d2 c1 e6 bc 8a df 06 bc
       -0.011121807 0.044087186 -0.028168593 -0.008232007
000110 ba a4 6c 3c 58 a2 5a bc b2 e5 83 3c 9b 3d 35 3d
       0.014443571 -0.01334437 0.016100738 0.044248205
000120 af 01 25 3d 2a 7f 0f 3d ed af 8d 3c b3 43 bb 3c
       0.04028481 0.035033382 0.017295802 0.02285943
000130 57 17 01 3d 3c 11 9f 3c aa 9a 24 bd 9c 8b ce bc
       0.0315164 0.019417398 -0.04018656 -0.025213055
000140 2c 2c 2c bd 8b cf 64 3c be f2 ef bb b1 6b 90 3c
       -0.042034313 0.013965498 -0.0073226383 0.017629476
000150 66 6b 69 bd f9 cf 0c 3c da ef bf 3c b6 4d ae 39
       -0.05698719 0.008594506 0.0234298 0.00033245765
000160 d3 91 08 bd 33 cf 7d 3b e9 19 3c 3d b7 a5 d9 bc
       -0.033342194 0.0038728237 0.045923147 -0.026568277
000170 d8 2d e7 bc d7 fd 28 bd 24 18 8e 3c f8 51 f1 3b
       -0.028220102 -0.041257706 0.017345496 0.0073645078
000180 bb 0b 8a 3c 9e f0 17 3d 9c 2d 3c 3b 4a 40 1e 3d
       0.016851297 0.037094705 0.0028713709 0.03863553
000190 6d be bf bb 2b a6 bc 3c 4a 57 ca 3c 29 82 8d bc
       -0.005851558 0.023028454 0.024699826 -0.01727398
0001a0 d0 e9 01 bd 1c c6 fb 3c 43 e3 cc bc ee 03 80 bd
       -0.03171712 0.030734114 -0.02501071 -0.062507495
0001b0 33 0c f7 3c d3 0b ef bc 2d a6 0b 3d 23 2e c9 bc
       0.030157184 -0.029180443 0.034094024 -0.024558133
0001c0 ce 1f 84 bd 0b 67 09 3c 7f fe 16 bd e5 46 63 3c
       -0.06451379 0.008386384 -0.0368638 0.013871883
0001d0 01 1c da b9 49 98 8e bc 70 c7 3d bd 04 c3 2a 3d
       -0.00041601065 -0.0174066 -0.046332777 0.041689888
0001e0 f4 ef 0c bc c6 d8 98 bc fa 54 e9 bc 83 b8 11 3a
       -0.008602131 -0.018658053 -0.028482903 0.00055588054
0001f0 03 d8 17 bd 5b 07 c9 3c 2d 72 11 3c 9e 5c 88 3c
       -0.03707124 0.02453964 0.008877319 0.016645726
000200 3a e2 93 bc ab 28 19 bc a2 7b a8 3b 0f a4 c9 bc
       -0.01805221 -0.009348075 0.0051416913 -0.024614362
000210 04 71 34 bc df 9b 14 3d 9b 89 b1 bc a0 db bb bb
       -0.011013273 0.036281463 -0.02167206 -0.0057329684
000220 c0 b7 f5 3b 56 49 c6 bc dc c7 74 3c a1 77 50 bd
       0.0074987113 -0.024204891 0.014940228 -0.050895337
000230 54 56 bd 3c 22 72 4f bc ac 34 0b bd 95 1c 2c bd
       0.023112454 -0.012661489 -0.03398578 -0.042019445
000240 89 c2 b5 39 03 60 27 bd 04 46 8a bc 43 56 73 bc
       0.0003466795 -0.04086305 -0.01687909 -0.014852109
000250 29 79 71 3c 6c 7f d6 bc 18 3f 81 bb a0 66 e9 3b
       0.0147383595 -0.026183806 -0.003944289 0.0071228296
000260 7c c6 14 bd 39 18 62 bd 94 cc 75 3c 53 5c 8a 3c
       -0.036322102 -0.05519888 0.0150023885 0.016889727
000270 5d cc 37 3a 19 96 8e 3a 01 da 74 3c 66 6b a5 3c
       0.00070113485 0.0010878473 0.014944554 0.020192813
000280 5a bd 2c 3d 49 21 e1 bc 3d c5 cb bc cc a4 15 3c
       0.042172767 -0.027481692 -0.024874324 0.009133529
000290 d0 6f 21 bd f2 82 85 bc 2f 4e 12 3d 26 b7 83 3d
       -0.039413273 -0.016297791 0.035719093 0.06431417
0002a0 00 28 8e 37 6e 66 6e bd de 73 0e bc 73 8a e9 bb
       1.6946346e-05 -0.058203153 -0.008694617 -0.0071271
0002b0 3a 40 09 bc e2 6d 91 ba c7 fb bd 3c eb 35 db bc
       -0.008377129 -0.001109537 0.023191346 -0.026759109
0002c0 f7 ac d9 3b b4 ae c7 b9 a7 5e 3c 3d 34 ea 7d 3a
       0.0066429335 -0.00038086402 0.045988705 0.0009686083
0002d0 27 11 87 bd df 46 70 bd 8a f7 e8 bc d7 56 da 3c
       -0.065950684 -0.058661338 -0.028438348 0.026652737
0002e0 38 14 b2 3b 6a b8 b4 bc e8 d5 3e 3d bc 00 14 3b
       0.005434539 -0.022060592 0.046590716 0.0022583446
0002f0 c9 76 28 bd 95 f4 b9 3c 1f f2 d0 3b bb 2d 30 3d
       -0.041128907 0.022699634 0.0063765193 0.043012362
000300 b9 a2 b6 3b dd d5 b2 3b 76 42 23 bd c4 3d 80 bc
       0.0055735973 0.0054576234 -0.039858304 -0.015654452
000310 32 5f fd 3c c7 5c 0f bc 38 2d ba bb 7f 95 eb bc
       0.030929182 -0.008750147 -0.00568166 -0.028757809
000320 9b 0e 0d 3d f2 44 40 bd 9e ef d7 bc c4 23 2f 3d
       0.034437757 -0.04694075 -0.026359376 0.042758718
000330 1d f0 c2 3c 13 69 9f bc 31 c8 42 bc 24 24 94 bc
       0.023796136 -0.019459283 -0.01188855 -0.01808364
000340 fe 05 90 bd 77 50 0a 3d d1 ad 54 3d 7c f5 f2 3c
       -0.07032393 0.033768144 0.051923577 0.029658072
000350 06 36 4a bc 7f a5 26 bc de 79 08 bd 25 ce 6a bc
       -0.012341982 -0.010171293 -0.033319347 -0.014331375
000360 70 72 d4 3b 00 28 32 bd b5 60 c1 3c c7 4f 0b bd
       0.0064833686 -0.04349518 0.023605684 -0.03401163
000370 fc cd 0a bc 4f 69 53 bc 32 a4 f8 bc 07 59 2f 3d
       -0.008471962 -0.0129035255 -0.030351732 0.042809512
000380 40 1e dc bc 5f 53 95 3c 65 b8 8e bd c9 ac 5c bd
       -0.026869893 0.018228231 -0.06968764 -0.05387572
000390 ba 45 94 3c d2 9c 3c 3c e0 ba 12 bc f4 a1 1e 3d
       0.018099654 0.011511998 -0.008955687 0.03872867
0003a0 e5 a2 1d 3d b9 67 63 3b da 37 c0 b8 c5 08 53 bd
       0.038485426 0.0034699275 -9.1656766e-05 -0.051522035
0003b0 3b ba 48 bd 2b 61 11 3b c0 9c 08 bd a0 5f 90 ba
       -0.04900573 0.002218316 -0.033352613 -0.0011014827
0003c0 d6 74 0a 3c 93 e2 14 bd 2a 2b 84 3c e1 e1 1c bd
       0.008450707 -0.03634889 0.016133863 -0.038301352
0003d0 41 d2 75 bd f7 a1 14 bd f4 40 dd bc 3e 04 59 bd
       -0.060014967 -0.036287274 -0.027008511 -0.05298256
0003e0 07 b2 0d bd 16 04 f5 bb 1c b7 81 3d 09 49 92 bc
       -0.03459361 -0.0074772937 0.063337535 -0.017857092
0003f0 f0 6a dc bc b0 39 17 3d ac c8 32 bc 80 4f d1 3b
       -0.02690646 0.03692025 -0.010912102 0.006387651

sequential_3/dense_7/MatMul f4 [12, 16]
000000 e3 ac 86 be 34 d6 3b 3e 65 13 3c be 74 b1 90 3e
       -0.26303777 0.18343431 -0.18366773 0.28260386
000010 bf 03 14 3d cd c9 dc 3e fb 06 d2 3d 4d b1 b0 3e
       0.036136385 0.43122712 0.10255238 0.3451027
000020 eb 3c e4 be 6c 46 7a bc b6 d4 57 be 67 64 14 3d
       -0.44577727 -0.015275579 -0.21077237 0.036228564
000030 49 89 c1 3e 15 d8 1f 3e f0 83 74 3e 4c e1 65 3e
       0.37800053 0.15609773 0.23878455 0.22449225
000040 fa 0c 65 be 65 17 ab 3e a5 19 43 3d c9 10 98 be
       -0.22368231 0.33416286 0.04763188 -0.29700306
000050 9c 73 99 be fd 76 51 3d af dd 0d 3b c9 86 e5 bd
       -0.29971015 0.051138867 0.0021647026 -0.11207349
000060 f2 0a 94 be 8e 92 86 be bb 64 82 bd 98 3b ae 3e
       -0.289146 -0.26283687 -0.06366869 0.3402984
000070 23 e4 fa 3e 37 58 8a 3e 82 fa ee bd f0 27 d1 3e
       0.4900218 0.27020428 -0.11668874 0.40850782
000080 cf ae d3 3e f3 41 5d be 45 62 4d 3e 32 5d e9 3c
       0.41344306 -0.21607189 0.20057018 0.028486822
000090 b2 2e 81 3d 6d d2 b2 be 86 cc 0f bd a5 04 ad 3e
       0.063077345 -0.34926167 -0.035107158 0.33792606
0000a0 2f bb d5 3e 83 98 a9 be 88 8b b0 be 66 33 c3 3e
       0.41744372 -0.3312417 -0.34481454 0.3812515
0000b0 5d 9d e4 be 1e 4d 20 be 8c 4e 42 3e 2a 91 32 be
       -0.4465131 -0.15654418 0.18975276 -0.17438188
0000c0 7e 9c 26 be da ab 19 3e 12 5e a0 be 5b ec cd 3e
       -0.16270635 0.15006962 -0.3132177 0.40219387
0000d0 74 b1 81 3e c7 62 7a 3e 38 45 0a be e9 e0 8c be
       0.25330698 0.24451743 -0.13502967 -0.27515343
0000e0 e5 84 f7 bc 74 b6 28 3e 60 06 e6 3e 06 5d ec 3d
       -0.030214736 0.1647585 0.4492674 0.1154118
0000f0 78 d5 bd 3e 45 63 d5 3e aa c7 7e 3e a9 03 45 bd
       0.37076926 0.416773 0.24880853 -0.048099194
000100 2d ab c2 3e 8a 49 e0 be 43 a1 69 bc f2 19 cb 3e
       0.38021222 -0.43806106 -0.014259639 0.39668232
000110 e7 73 d6 3e d9 84 c2 3e 06 a2 d7 3d d3 e8 72 bc
       0.418853 0.3799198 0.105289504 -0.014826017
000120 bb 6a 00 3e a7 d5 13 be 8d 78 b6 3e cb f9 df bd
       0.12540714 -0.1443697 0.35638848 -0.10936316
000130 e0 7f 94 3e d8 fd 94 be ec e5 74 be 62 ca a8 be
       0.2900381 -0.29099917 -0.23915833 -0.32966906
000140 da 70 ba be b0 8d 64 3e 8b 7c fe 3e a8 8b f1 3e
       -0.36414224 0.22319674 0.49704394 0.47176862
000150 cf ee eb be 91 ea b7 3d 4c 37 82 be 31 22 26 be
       -0.46080634 0.08980287 -0.25432813 -0.1622398
000160 95 83 ac 3e f0 b9 9e be 38 99 e2 bd 6d ba bd 3e
       0.3369414 -0.31001234 -0.110643804 0.37056294
000170 d7 d3 8c bd c9 ac 78 be 76 46 26 3e 3e a3 a0 be
       -0.06876343 -0.24284662 0.16237816 -0.31374544
000180 55 12 0f be 74 56 37 3e 9a 74 29 be 93 0e ca 3e
       -0.13971837 0.17904073 -0.16548386 0.39464244
000190 51 5f 54 be 51 91 0e 3e 50 71 72 be 7d 62 d4 3e
       -0.20739485 0.13922621 -0.23676038 0.4148139
0001a0 02 e5 e6 bc f1 72 8f be 7e 84 8b 3e b3 06 d6 bd
       -0.028185371 -0.2801738 0.2724952 -0.104504965
0001b0 ef 1f 02 3d e4 1e 3d 3e 53 24 c9 3a 79 20 a7 3e
       0.031768735 0.18468815 0.0015345908 0.32641962
0001c0 0f db 5b bc 2a 23 c4 be d7 87 60 3e 53 1b bc bd
       -0.013418927 -0.38308078 0.21926819 -0.09184899
0001d0 95 53 87 3e c0 63 ea be 6f c6 ec be 62 db 84 be
       0.26430956 -0.45779228 -0.46245143 -0.25948626
0001e0 97 8b 56 be 19 64 9a 3e 51 f1 8a 3e 80 04 ab be
       -0.20951687 0.30154493 0.27137235 -0.3340187
0001f0 69 01 8b be 5b 0a d4 be 98 0f 35 be 26 8e f5 3b
       -0.27149513 -0.4141415 -0.1768173 0.007493752
000200 78 55 4b be 3f c2 14 bd 59 23 cb 3b 9b 14 d7 3e
       -0.19856822 -0.03631806 0.006199282 0.42007908
000210 f1 04 67 3d b4 cd 50 be 3c b4 c3 3e ad c8 cb be
       0.056401197 -0.2039097 0.38223445 -0.3980154
000220 ec 2f c2 be 27 c7 3d 3e 43 6e 49 3e 5d c3 d3 3b
       -0.37927186 0.18533002 0.19670968 0.006462498
000230 c9 53 26 be 7b 93 91 3e 43 6f b9 be 5c 98 c7 3e
       -0.16242899 0.2843283 -0.36217698 0.38983428
000240 8c 02 76 be 98 31 4f be 68 87 db 3e 44 38 4e 3e
       -0.24024409 -0.20233762 0.42876744 0.20138651
000250 9d c1 20 be 45 d3 58 3e 31 06 a5 3d c7 07 95 3d
       -0.15698858 0.21174343 0.080578215 0.07276874
000260 49 75 4e 3e 62 37 09 be 5b 7d 50 3e 32 c5 7d bd
       0.20161928 -0.13400033 0.2036032 -0.06195564
000270 cd bb 24 be 56 cb 18 be 1e e1 31 bd 3c 6d c8 3e
       -0.16087265 -0.14921317 -0.04342758 0.3914584
000280 de 01 ef 3e c1 2c a2 3e 5b 74 90 3e c7 51 ca be
       0.46681112 0.3167477 0.28213772 -0.39515516
000290 db c7 82 be ba 5f da 3e 9a a5 46 3e fc 6f 38 be
       -0.25543103 0.4265116 0.1939911 -0.18011469
0002a0 5e 0f 85 3e d0 e3 e7 3e db d2 e2 3d 38 9e f3 3d
       0.25988287 0.45290995 0.11075374 0.11895412
0002b0 23 4a 48 3e 41 ea 7f be ce c5 3e 3e 85 d5 43 be
       0.19559531 -0.24991705 0.18630144 -0.1912442
0002c0 72 e2 0e be b0 8c 3d 3d b5 91 52 be e8 a3 8f be
       -0.1395357 0.04627675 -0.20563395 -0.28054738
0002d0 53 7d f4 3d b3 e7 91 3e 28 e8 91 3e 23 9c e5 be
       0.11937966 0.28497085 0.28497434 -0.44845685
0002e0 66 bb a6 bd 5c a6 77 3e c9 3c b7 3e d6 ef bb 3d
       -0.08141212 0.24184555 0.35788563 0.091766044
0002f0 3d 06 8a 3d 9d bb 38 3e 37 f6 fc 3e 73 e1 98 be
       0.06739471 0.18040319 0.49406597 -0.29859504
