backend/exported_models/model_GRU.tflite (tflite, 402048 bytes, 18 tensors)

sequential_4/dense_9/BiasAdd/ReadVariableOp f4 [64]
0.03194583 -0.0037198225 0.030837452 0.015112833 0.023136066 -0.006117075 -0.01159932 0.004058427
-0.004761502 0.001052307 0.03567037 0.029800607 0.014922419 0.032455515 0.039239537 0.03897189
0.030337317 -0.01575693 0.036939982 0.022150356 0.046154894 0.039481226 0.031519324 0.0016161413
-0.004717717 -0.02028066 0.02596657 0.0048905257 0.0056198356 0.017140063 -0.024501342 -0.027267324
0.034149595 0.024932204 0.005257335 -0.025914755 0.041791182 0.038570825 0.0024136123 -0.0037194642
0.011568516 -0.009707862 0.021310722 -0.012133377 0.013951757 0.017921664 0.034043584 0.032303195
-0.014067735 0.028736113 -0.000720712 0.022592565 0.012743786 0.03540938 0.029434606 0.031874407
0.0059914296 -0.013837303 0.0034419473 -0.009702308 -0.00011089275 -0.016571423 0.030067932 0.016581345
00000000: a1d9 023d 44c8 73bb d39e fc3c d19b 773c
00000010: d987 bd3c bf71 c8bb 130b 3ebc 8efc 843b
00000020: 6006 9cbb 90ed 893a 181b 123d 6720 f43c
00000030: 297d 743c 13f0 043d a3b9 203d fda0 1f3d
00000040: f785 f83c ad14 81bc 614e 173d aa74 b53c
00000050: ea0c 3d3d 11b7 213d 681a 013d b4d4 d33a
00000060: 1497 9abb a023 a6bc d8b7 d43c b440 a03b
00000070: 9926 b83b 5169 8c3c 0ab7 c8bc b95f dfbc
00000080: 72e0 0b3d 9f3e cc3c b945 ac3b 2e4b d4bc
00000090: 3b2d 2b3d 71fc 1d3d b22d 1e3b 41c2 73bb
000000a0: df89 3d3c b90d 1fbc d393 ae3c 12cb 46bc
000000b0: e995 643c 74d0 923c 4971 0b3d 5b50 043d
000000c0: 5b7c 66bc ff67 eb3c 2aee 3cba 0b14 b93c
000000d0: 50cb 503c 6d09 113d d820 f13c bd8e 023d
000000e0: c153 c43b dbb5 62bc 4b92 613b 6ef6 1ebc
000000f0: 188f e8b8 cbc0 87bc 0651 f63c 9ad5 873c

sequential_4/dense_11/BiasAdd/ReadVariableOp f4 [12]
-0.023114033 -0.022100508 0.021955645 0.02621092 -0.0028775237 0.031001164 -0.031589597 -0.024993926
-0.023138745 0.017197946 0.021000238 0.022224752
00000000: a459 bdbc 200c b5bc 53dc b33c 49b8 d63c
00000010: d694 3cbb 27f6 fd3c 1864 01bd 10c0 ccbc
00000020: 778d bdbc b5e2 8c3c b108 ac3c af10 b63c

sequential_4/dense_10/BiasAdd/ReadVariableOp f4 [32]
0.022896295 -0.014013705 0.02838004 0.031927958 0.008675022 0.011272313 0.025271833 0.024803502
-0.0035488184 0.030246884 -0.014545899 0.009195633 0.025079478 -0.005825731 0.030499838 0.020698177
-0.026239421 0.02597846 0.019504704 -0.016336815 -0.0012838432 0.009741498 0.026564132 -0.014436606
-0.017903104 0.038334887 0.03295485 0.00094862044 -0.011923912 -0.0016444962 -0.023570994 0.018952917
00000000: 0391 bb3c bd99 65bc 427d e83c e4c6 023d
00000010: ae21 0e3c 82af 383c e006 cf3c b730 cb3c
00000020: 4b93 68bb 50c8 f73c ec51 6ebc 48a9 163c
00000030: 7a73 cd3c c6e5 bebb ccda f93c 398f a93c
00000040: 0ef4 d6bc c8d0 d43c 54c8 9f3c c9d4 85bc
00000050: a146 a8ba ce9a 1f3c 069d d93c 8487 6cbc
00000060: 88a9 92bc 0b05 1d3d aafb 063d d7ac 783a
00000070: 835c 43bc 238c d7ba f517 c1bc 2643 9b3c

unstack f4 [384]
-0.017805547 -0.028962169 -0.020807324 -0.04356974 0.008453678 -0.03615688 0.026124684 -0.011266733
-0.023652734 -0.022119852 0.01494474 -0.015120781 -0.04169896 0.042637277 -0.040929046 -0.036543578
-0.043467082 -0.04286293 -0.010066127 -0.043260217 -0.03711365 0.041912694 0.0012700298 -0.0035708752
-0.038186673 -0.0050299456 -0.03177743 0.01932415 0.03644447 0.0043919883 0.015755944 0.00983598
-0.023843534 0.0015648489 -0.043149143 0.0343996 0.007855014 -0.03588788 -0.034552746 0.02125884
0.020977974 0.039148625 -0.0003387488 0.01405567 0.030377975 -0.039058775 -0.010694256 -0.03296807
-0.014081043 -0.03672487 -0.024193032 -0.040609922 0.040825274 -0.036480024 0.01540899 0.024933739
-0.045311783 -0.00019631267 0.02272443 -0.0012195935 0.008667557 -0.040700924 -0.042341005 0.0070788064
0.016643256 -0.015926426 -0.013024403 -0.0060105324 0.008068543 -0.043908175 0.020748142 0.025791196
0.0405349 -0.039015587 -0.040577017 -0.051969524 -0.036909036 -0.042444427 -0.0292017 -0.035604008
0.0321518 0.050756067 -0.040114008 -0.025914209 0.008324292 -0.018596252 0.0053522163 -0.038121596
-0.03897868 -0.029486515 0.0041975784 0.0333483 0.023042355 -0.039927345 0.024715487 0.04296057
0.028377557 -0.034790937 -0.02921008 0.027744656 -0.02357328 -0.008898843 -0.011297887 0.018044654
-0.034587093 -0.033099618 -0.014977708 -0.0040991073 -0.035777695 -0.008984637 -0.019469986 0.024467502
-0.045294993 -0.035671663 -0.037026625 -0.031076537 -0.0382645 -0.019647881 0.00903633 -0.04214971
-0.03476909 -0.04013441 0.0056410274 -0.003756573 -0.02033615 0.014393802 0.02332655 -0.030308107
0.010158043 0.021175172 0.03601251 0.026138186 0.011024732 0.023002649 -0.009000568 0.00804395
0.012081874 0.023568384 0.023866711 0.030963168 0.009355085 0.016637072 0.03769018 0.026178988
0.027609942 -0.018522993 -0.0061933137 0.037415314 0.03723338 0.03467783 0.017525753 0.0022287697
0.023668772 0.03404211 0.040067337 0.018482368 -0.009331789 0.032912973 0.023869399 0.025080573
0.006008691 -0.0045708134 0.017654238 0.030365761 0.020054944 0.010346591 0.019869903 -0.0066620503
0.019547401 0.011529058 0.0056656334 0.03559583 0.021909926 0.004070242 0.00689275 0.03329921
-0.003086367 0.02759431 -0.013958277 0.03655551 0.0044747423 0.027536832 0.009394559 0.022051105
0.028164705 0.039416265 0.025250344 0.0024509146 0.01642521 0.02080049 -0.016241243 0.019968884
0.032007493 0.034857113 0.007860744 0.019607026 0.034716956 0.010241782 0.02823214 0.030182872
0.044557497 0.029345393 0.043993466 0.03364704 0.030239427 0.024283664 0.014370476 -0.0073336074
0.024631158 0.035844464 0.02505392 -0.0034838526 0.019285226 0.015460963 0.013759891 0.01976761
0.027223295 0.015566644 0.037027013 0.019698389 0.0032175898 -0.014041374 0.03020798 0.015604475
0.009513556 0.033692703 0.018830111 0.0049731117 -0.0037427065 0.01830232 0.006062361 0.03802077
0.036291465 0.03333297 0.016664855 0.04651779 -0.012571499 0.03052687 0.024886217 0.03294121
0.00487645 0.019788966 0.02833222 0.026911013 -0.006984291 0.034097582 0.01963656 0.042647943
0.0030046722 0.04105451 -0.009409245 0.020160198 0.019493645 0.012934425 0.037104044 0.023475615
00000000: f0dc 91bc 1242 edbc 1f74 aabc 2f76 32bd
00000010: 4c81 0a3c 3d19 14bd 6f03 d63c 1a98 38bc
00000020: 61c3 c1bc b134 b5bc c8da 743c 27bd 77bc
00000030: 87cc 2abd 6da4 2e3d 37a5 27bd b8ae 15bd
00000040: 8a0a 32bd 0a91 2fbd 66ec 24bc a031 31bd
00000050: 7c04 18bd a5ac 2b3d 2177 a63a 5805 6abb
00000060: a169 1cbd 3ed2 a4bb 0d29 02bd ae4d 9e3c
00000070: cc46 153d abea 8f3b 9c12 813c 1727 213c
00000080: 8453 c3bc 9e1b cd3a 28bd 30bd 98e6 0c3d
00000090: 51b2 003c 2bff 12bd 2e87 0dbd 0527 ae3c
000000a0: 00da ab3c 4f5a 203d 189a b1b9 c149 663c
000000b0: 3bdb f83c 18fc 1fbd f636 2fbc 8709 07bd
000000c0: 2db4 66bc d16c 16bd 7730 c6bc 9756 26bd
000000d0: 6738 273d 146c 15bd fd75 7c3c d741 cc3c
000000e0: d998 39bd 48d9 4db9 9528 ba3c c4da 9fba
000000f0: 5e02 0e3c 03b6 26bd c36d 2dbd 55f5 e73b
00000100: 7057 883c 2378 82bc 4e64 55bc 00f4 c4bb
00000110: ec31 043c 0fd9 33bd 02f8 a93c 0f48 d33c
00000120: ec07 263d cfce 1fbd 1634 26bd ffdd 54bd
00000130: ee2d 17bd 35da 2dbd 6738 efbc 82d5 11bd
00000140: 9bb1 033d 98e5 4f3d 964e 24bd 094a d4bc
00000150: 9c62 083c 2b57 98bc a561 af3b 6425 1cbd
00000160: 1ca8 1fbd b48d f1bc d78b 893b 3a98 083d
00000170: 52c3 bc3c db8a 23bd 2278 ca3c 6cf7 2f3d
00000180: 0d78 e83c f180 0ebd fa49 efbc c348 e33c
00000190: c01c c1bc 74cc 11bc c61a 39bc 62d2 933c
000001a0: 32ab 0dbd 7793 07bd 1065 75bc ce51 86bb
000001b0: a28b 12bd 4d34 13bc 857f 9fbc 1270 c83c
000001c0: 3e87 39bd 731c 12bd 3ba9 17bd 3994 febc
000001d0: 3dbb 1cbd 98f4 a0bc 1d0d 143c 2da5 2cbd
000001e0: 096a 0ebd fb63 24bd 5ed8 b83b d630 76bb
000001f0: ff97 a6bc fbd3 6b3c 5217 bf3c b548 f8bc
00000200: ec6d 263c 8e77 ad3c db81 133d c01f d63c
00000210: 14a1 343c 0d70 bc3c 1e77 13bc c6ca 033c
00000220: 0df3 453c 7c12 c13c 1f84 c33c 78a6 fd3c
00000230: 1246 193c 784a 883c 0561 1a3d 5175 d63c
00000240: 3f2e e23c 88bd 97bc 48f1 cabb cd40 193d
00000250: 0782 183d 570a 0e3d 2b92 8f3c 8d10 123b
00000260: 03e5 c13c bd6f 0b3d a61d 243d 5668 973c
00000270: 5ce4 18bc c1cf 063d c289 c33c c675 cd3c
00000280: 8ee4 c43b c3c6 95bb 9f9f 903c 9ec1 f83c
00000290: 444a a43c bf84 293c 35c6 a23c 544d dabb
000002a0: df21 a03c 60e4 3c3c c7a6 b93b efcc 113d
000002b0: 727c b33c aa5f 853b 94dc e13b c164 083d
000002c0: a544 4abb 760d e23c 42b1 64bc 3bbb 153d
000002d0: dca0 923b ec94 e13c a3eb 193c 85a4 b43c
000002e0: abb9 e63c f372 213d cfd9 ce3c 869f 203b
000002f0: 298e 863c ca65 aa3c 5b0c 85bc c995 a33c
00000300: 4a1a 033d 55c6 0e3d 5aca 003c ea9e a03c
00000310: 5e33 0e3d 26cd 273c 1747 e73c 1242 f73c
00000320: ec81 363d c065 f03c 7e32 343d 7bd1 093d
00000330: adb8 f73c 89ee c63c 2572 6b3c c24e f0bb
00000340: 48c7 c93c a5d1 123d e13d cd3c 5951 64bb
00000350: 0dfc 9d3c fb4f 7d3c 2a71 613c afef a13c
00000360: 6303 df3c 3d0b 7f3c a3a9 173d 845e a13c
00000370: 33de 523b cb0d 66bc ba76 f73c e9a9 7f3c
00000380: bfde 1b3c 5c01 0a3d 9b41 9a3c 7cf5 a23b
00000390: 3248 75bb bfee 953c c5a6 c63b abbb 1b3d
000003a0: 5ca6 143d 2788 083d bc84 883c 7089 3e3d
000003b0: b0f8 4dbc 7d13 fa3c 2ede cb3c 5ded 063d
000003c0: a1ca 9f3b 781c a23c f918 e83c 7c74 dc3c
000003d0: 7bdc e4bb e8a9 0b3d dadc a03c 9caf 2e3d
000003e0: 09ea 443b c628 283d 3c29 1abc 0027 a53c
000003f0: 23b1 9f3c e9ea 533c 69fa 173d ef4f c03c

unstack1 f4 [384]
-0.017805547 -0.028962169 -0.020807324 -0.04356974 0.008453678 -0.03615688 0.026124684 -0.011266733
-0.023652734 -0.022119852 0.01494474 -0.015120781 -0.04169896 0.042637277 -0.040929046 -0.036543578
-0.043467082 -0.04286293 -0.010066127 -0.043260217 -0.03711365 0.041912694 0.0012700298 -0.0035708752
-0.038186673 -0.0050299456 -0.03177743 0.01932415 0.03644447 0.0043919883 0.015755944 0.00983598
-0.023843534 0.0015648489 -0.043149143 0.0343996 0.007855014 -0.03588788 -0.034552746 0.02125884
0.020977974 0.039148625 -0.0003387488 0.01405567 0.030377975 -0.039058775 -0.010694256 -0.03296807
-0.014081043 -0.03672487 -0.024193032 -0.040609922 0.040825274 -0.036480024 0.01540899 0.024933739
-0.045311783 -0.00019631267 0.02272443 -0.0012195935 0.008667557 -0.040700924 -0.042341005 0.0070788064
0.016643256 -0.015926426 -0.013024403 -0.0060105324 0.008068543 -0.043908175 0.020748142 0.025791196
0.0405349 -0.039015587 -0.040577017 -0.051969524 -0.036909036 -0.042444427 -0.0292017 -0.035604008
0.0321518 0.050756067 -0.040114008 -0.025914209 0.008324292 -0.018596252 0.0053522163 -0.038121596
-0.03897868 -0.029486515 0.0041975784 0.0333483 0.023042355 -0.039927345 0.024715487 0.04296057
0.028377557 -0.034790937 -0.02921008 0.027744656 -0.02357328 -0.008898843 -0.011297887 0.018044654
-0.034587093 -0.033099618 -0.014977708 -0.0040991073 -0.035777695 -0.008984637 -0.019469986 0.024467502
-0.045294993 -0.035671663 -0.037026625 -0.031076537 -0.0382645 -0.019647881 0.00903633 -0.04214971
-0.03476909 -0.04013441 0.0056410274 -0.003756573 -0.02033615 0.014393802 0.02332655 -0.030308107
0.010158043 0.021175172 0.03601251 0.026138186 0.011024732 0.023002649 -0.009000568 0.00804395
0.012081874 0.023568384 0.023866711 0.030963168 0.009355085 0.016637072 0.03769018 0.026178988
0.027609942 -0.018522993 -0.0061933137 0.037415314 0.03723338 0.03467783 0.017525753 0.0022287697
0.023668772 0.03404211 0.040067337 0.018482368 -0.009331789 0.032912973 0.023869399 0.025080573
0.006008691 -0.0045708134 0.017654238 0.030365761 0.020054944 0.010346591 0.019869903 -0.0066620503
0.019547401 0.011529058 0.0056656334 0.03559583 0.021909926 0.004070242 0.00689275 0.03329921
-0.003086367 0.02759431 -0.013958277 0.03655551 0.0044747423 0.027536832 0.009394559 0.022051105
0.028164705 0.039416265 0.025250344 0.0024509146 0.01642521 0.02080049 -0.016241243 0.019968884
0.032007493 0.034857113 0.007860744 0.019607026 0.034716956 0.010241782 0.02823214 0.030182872
0.044557497 0.029345393 0.043993466 0.03364704 0.030239427 0.024283664 0.014370476 -0.0073336074
0.024631158 0.035844464 0.02505392 -0.0034838526 0.019285226 0.015460963 0.013759891 0.01976761
0.027223295 0.015566644 0.037027013 0.019698389 0.0032175898 -0.014041374 0.03020798 0.015604475
0.009513556 0.033692703 0.018830111 0.0049731117 -0.0037427065 0.01830232 0.006062361 0.03802077
0.036291465 0.03333297 0.016664855 0.04651779 -0.012571499 0.03052687 0.024886217 0.03294121
0.00487645 0.019788966 0.02833222 0.026911013 -0.006984291 0.034097582 0.01963656 0.042647943
0.0030046722 0.04105451 -0.009409245 0.020160198 0.019493645 0.012934425 0.037104044 0.023475615
00000000: f0dc 91bc 1242 edbc 1f74 aabc 2f76 32bd
00000010: 4c81 0a3c 3d19 14bd 6f03 d63c 1a98 38bc
00000020: 61c3 c1bc b134 b5bc c8da 743c 27bd 77bc
00000030: 87cc 2abd 6da4 2e3d 37a5 27bd b8ae 15bd
00000040: 8a0a 32bd 0a91 2fbd 66ec 24bc a031 31bd
00000050: 7c04 18bd a5ac 2b3d 2177 a63a 5805 6abb
00000060: a169 1cbd 3ed2 a4bb 0d29 02bd ae4d 9e3c
00000070: cc46 153d abea 8f3b 9c12 813c 1727 213c
00000080: 8453 c3bc 9e1b cd3a 28bd 30bd 98e6 0c3d
00000090: 51b2 003c 2bff 12bd 2e87 0dbd 0527 ae3c
000000a0: 00da ab3c 4f5a 203d 189a b1b9 c149 663c
000000b0: 3bdb f83c 18fc 1fbd f636 2fbc 8709 07bd
000000c0: 2db4 66bc d16c 16bd 7730 c6bc 9756 26bd
000000d0: 6738 273d 146c 15bd fd75 7c3c d741 cc3c
000000e0: d998 39bd 48d9 4db9 9528 ba3c c4da 9fba
000000f0: 5e02 0e3c 03b6 26bd c36d 2dbd 55f5 e73b
00000100: 7057 883c 2378 82bc 4e64 55bc 00f4 c4bb
00000110: ec31 043c 0fd9 33bd 02f8 a93c 0f48 d33c
00000120: ec07 263d cfce 1fbd 1634 26bd ffdd 54bd
00000130: ee2d 17bd 35da 2dbd 6738 efbc 82d5 11bd
00000140: 9bb1 033d 98e5 4f3d 964e 24bd 094a d4bc
00000150: 9c62 083c 2b57 98bc a561 af3b 6425 1cbd
00000160: 1ca8 1fbd b48d f1bc d78b 893b 3a98 083d
00000170: 52c3 bc3c db8a 23bd 2278 ca3c 6cf7 2f3d
00000180: 0d78 e83c f180 0ebd fa49 efbc c348 e33c
00000190: c01c c1bc 74cc 11bc c61a 39bc 62d2 933c
000001a0: 32ab 0dbd 7793 07bd 1065 75bc ce51 86bb
000001b0: a28b 12bd 4d34 13bc 857f 9fbc 1270 c83c
000001c0: 3e87 39bd 731c 12bd 3ba9 17bd 3994 febc
000001d0: 3dbb 1cbd 98f4 a0bc 1d0d 143c 2da5 2cbd
000001e0: 096a 0ebd fb63 24bd 5ed8 b83b d630 76bb
000001f0: ff97 a6bc fbd3 6b3c 5217 bf3c b548 f8bc
00000200: ec6d 263c 8e77 ad3c db81 133d c01f d63c
00000210: 14a1 343c 0d70 bc3c 1e77 13bc c6ca 033c
00000220: 0df3 453c 7c12 c13c 1f84 c33c 78a6 fd3c
00000230: 1246 193c 784a 883c 0561 1a3d 5175 d63c
00000240: 3f2e e23c 88bd 97bc 48f1 cabb cd40 193d
00000250: 0782 183d 570a 0e3d 2b92 8f3c 8d10 123b
00000260: 03e5 c13c bd6f 0b3d a61d 243d 5668 973c
00000270: 5ce4 18bc c1cf 063d c289 c33c c675 cd3c
00000280: 8ee4 c43b c3c6 95bb 9f9f 903c 9ec1 f83c
00000290: 444a a43c bf84 293c 35c6 a23c 544d dabb
000002a0: df21 a03c 60e4 3c3c c7a6 b93b efcc 113d
000002b0: 727c b33c aa5f 853b 94dc e13b c164 083d
000002c0: a544 4abb 760d e23c 42b1 64bc 3bbb 153d
000002d0: dca0 923b ec94 e13c a3eb 193c 85a4 b43c
000002e0: abb9 e63c f372 213d cfd9 ce3c 869f 203b
000002f0: 298e 863c ca65 aa3c 5b0c 85bc c995 a33c
00000300: 4a1a 033d 55c6 0e3d 5aca 003c ea9e a03c
00000310: 5e33 0e3d 26cd 273c 1747 e73c 1242 f73c
00000320: ec81 363d c065 f03c 7e32 343d 7bd1 093d
00000330: adb8 f73c 89ee c63c 2572 6b3c c24e f0bb
00000340: 48c7 c93c a5d1 123d e13d cd3c 5951 64bb
00000350: 0dfc 9d3c fb4f 7d3c 2a71 613c afef a13c
00000360: 6303 df3c 3d0b 7f3c a3a9 173d 845e a13c
00000370: 33de 523b cb0d 66bc ba76 f73c e9a9 7f3c
00000380: bfde 1b3c 5c01 0a3d 9b41 9a3c 7cf5 a23b
00000390: 3248 75bb bfee 953c c5a6 c63b abbb 1b3d
000003a0: 5ca6 143d 2788 083d bc84 883c 7089 3e3d
000003b0: b0f8 4dbc 7d13 fa3c 2ede cb3c 5ded 063d
000003c0: a1ca 9f3b 781c a23c f918 e83c 7c74 dc3c
000003d0: 7bdc e4bb e8a9 0b3d dadc a03c 9caf 2e3d
000003e0: 09ea 443b c628 283d 3c29 1abc 0027 a53c
000003f0: 23b1 9f3c e9ea 533c 69fa 173d ef4f c03c

unstack2 f4 [192]
-0.01837341 0.02419782 -0.035401653 -0.032594614 -0.045970835 -0.0040759933 -0.006828004 0.047608152
-0.034294207 -0.015355506 -0.019063948 -0.034481466 0.031483024 -0.0442125 -0.019426726 -0.0017165891
0.009847379 -0.021514064 0.03405114 0.02826859 0.044881307 -0.002789824 -0.012145569 -0.028343616
-0.027424626 -0.034630015 0.04135156 -0.010033579 0.03486185 -0.031234913 0.025176266 -0.030094767
-0.011287831 0.019627027 -0.024169538 0.015379276 -0.013917892 0.023099765 0.037411444 0.040961772
-0.03323394 0.0127327945 -0.030153833 0.022230076 -0.020765118 -0.009592394 0.025947798 -0.040583197
-0.044095177 -0.023784256 -0.021875836 0.0049905786 0.023861835 -0.026315803 -0.014671505 -0.04324587
-0.040366415 0.026897598 0.015944848 0.028729923 -0.034539074 -0.027558362 -0.017389255 -0.04273012
0.017399961 0.007110392 0.03456679 0.03799953 -0.002374635 0.020268602 0.040768433 -0.021044722
0.029394718 0.030793073 0.04259681 -0.0146177765 0.009782801 0.026027055 0.0033043073 0.025746677
0.028169025 0.02007151 0.025546726 0.033058345 -0.0024777872 0.0015343641 -0.0006327667 -0.00093509
0.017275032 -0.024331111 0.038815595 0.023924155 -0.017619532 0.03048075 0.020408934 0.0005137945
0.03540319 0.03314485 0.014730217 0.029728042 0.021584077 0.029774135 0.012703666 0.03338904
-0.026203047 0.035107717 -0.0012094222 0.015811572 0.02525524 0.03865226 0.02050591 -0.0008596564
0.026270496 0.024084665 0.01658473 0.028811583 -0.018576054 0.037183005 0.032493383 -0.012135218
0.019827679 -0.025413299 0.03817987 0.010542506 -0.00354464 0.014909192 -0.006351158 -4.1450287e-05
0.01512518 0.026577843 0.021057563 0.007596754 0.01039274 -0.010618886 0.0035785292 -0.008837078
0.018552653 0.0006819152 0.020666847 0.0042673373 0.034942325 -0.023844004 -0.0012705056 -0.008766397
-0.027122807 -0.025049953 0.03036224 -0.016137099 -0.037240293 0.027966222 -0.007775043 0.013805223
-0.0035491765 0.015190324 0.007295865 -0.0119409505 -0.015277408 -0.030172452 0.03599099 -0.015135552
0.028339364 -0.024546873 0.026871309 0.019835254 0.004770004 0.032830052 -0.010789314 -0.027948448
-0.0040765572 -0.011424911 0.005589955 0.0075078714 0.022153728 0.01711846 -0.019979978 0.019613216
0.027252924 -0.026394447 -0.009928686 -0.007340748 0.029298669 0.0027965761 -0.0055000805 -0.012023677
-0.017271586 0.026762532 -0.01747341 0.02786694 0.03232567 0.019241937 0.015460255 -0.0116837025
00000000: d583 96bc 823a c63c 5301 11bd ee81 05bd
00000010: ea4b 3cbd e98f 85bb 73bd dfbb c400 433d
00000020: 1578 0cbd a995 7bbc ff2b 9cbc 703c 0dbd
00000030: 58f4 003d 2b18 35bd cc24 9fbc 2cff e0ba
00000040: e756 213c 433e b0bc 3579 0b3d 8893 e73c
00000050: 76d5 373d 7bd5 36bb 35fe 46bc df30 e8bc
00000060: 9ca9 e0bc 34d8 0dbd 4160 293d e163 24bc
00000070: 4dcb 0e3d 5ce0 ffbc 753e ce3c 4d89 f6bc
00000080: 98f0 38bc dcc8 a03c 32ff c5bc 5cf9 7b3c
00000090: df07 64bc b83b bd3c be3c 193d 88c7 273d
000000a0: 5020 08bd 369d 503c 2c05 f7bc d91b b63c
000000b0: 9c1b aabc 6b29 1dbc 7a90 d43c 913a 26bd
000000c0: 259d 34bd 33d7 c2bc f434 b3bc 0288 a33b
000000d0: e579 c33c 3d94 d7bc c160 70bc 9522 31bd
000000e0: 4157 25bd 5a58 dc3c c59e 823c 045b eb3c
000000f0: d878 0dbd 13c2 e1bc e973 8ebc c705 2fbd
00000100: 5d8a 8e3c 4bfe e83b e895 0d3d 65a5 1b3d
00000110: c49f 1bbb 570a a63c cdfc 263d fb65 acbc
00000120: 31cd f03c c141 fc3c fe79 2e3d 667f 6fbc
00000130: 0b48 203c b136 d53c 148d 583b b2ea d23c
00000140: bac2 e63c 026d a43c 5e47 d13c 3068 073d
00000150: 5f62 22bb b71c c93a 41e0 25ba d420 75ba
00000160: 5e84 8d3c 0a52 c7bc 1afd 1e3d 97fc c33c
00000170: d656 90bc c4b2 f93c a330 a73c 2ab0 063a
00000180: ef02 113d e5c2 073d 0257 713c 3988 f33c
00000190: 17d1 b03c e3e8 f33c 0a23 503c f2c2 083d
000001a0: c6a7 d6bc 1ccd 0f3d 7a85 9eba 4587 813c
000001b0: 14e4 ce3c d551 1e3d 03fc a73c 905a 61ba
000001c0: 3935 d73c 344d c53c b3dc 873c 4506 ec3c
000001d0: cf2c 98bc 354d 183d c817 053d cbd2 46bc
000001e0: a86d a23c 8d2f d0bc 7f62 1c3d 7aba 2c3c
000001f0: 314d 68bb af45 743c 601d d0bb e8da 2db8
00000200: 9acf 773c c7b9 d93c e980 ac3c 31ee f83b
00000210: 5046 2a3c d6fa 2dbc c285 6a3b 64c9 10bc
00000220: bcfb 973c 8ec2 323a 854d a93c 05d5 8b3b
00000230: af1f 0f3d 8054 c3bc 1887 a6ba efa0 0fbc
00000240: a630 debc 8f35 cdbc 3bba f83c f331 84bc
00000250: 4789 18bd 6b19 e53c cac5 febb 4d2f 623c
00000260: 4d99 68bb d6e0 783c 2712 ef3b faa3 43bc
00000270: 184e 7abc 382c f7bc 4a6b 133d 1bfb 77bc
00000280: f427 e83c 8616 c9bc 3821 dc3c 8b7d a23c
00000290: b24d 9c3b ce78 063d aac5 30bc 25f4 e4bc
000002a0: a494 85bb 8d2f 3bbc f12b b73b 9704 f63b
000002b0: bc7b b53c 033c 8c3c 0dad a3bc e5ab a03c
000002c0: 8641 df3c 2b39 d8bc edab 22bc a88a f0bb
000002d0: c303 f03c c346 373b 053a b4bb f5fe 44bc
000002e0: 247d 8dbc 193d db3c 6624 8fbc 3549 e43c
000002f0: ec67 043d 44a1 9d3c 024d 7d3c 006d 3fbc

unstack3 f4 [192]
-0.01837341 0.02419782 -0.035401653 -0.032594614 -0.045970835 -0.0040759933 -0.006828004 0.047608152
-0.034294207 -0.015355506 -0.019063948 -0.034481466 0.031483024 -0.0442125 -0.019426726 -0.0017165891
0.009847379 -0.021514064 0.03405114 0.02826859 0.044881307 -0.002789824 -0.012145569 -0.028343616
-0.027424626 -0.034630015 0.04135156 -0.010033579 0.03486185 -0.031234913 0.025176266 -0.030094767
-0.011287831 0.019627027 -0.024169538 0.015379276 -0.013917892 0.023099765 0.037411444 0.040961772
-0.03323394 0.0127327945 -0.030153833 0.022230076 -0.020765118 -0.009592394 0.025947798 -0.040583197
-0.044095177 -0.023784256 -0.021875836 0.0049905786 0.023861835 -0.026315803 -0.014671505 -0.04324587
-0.040366415 0.026897598 0.015944848 0.028729923 -0.034539074 -0.027558362 -0.017389255 -0.04273012
0.017399961 0.007110392 0.03456679 0.03799953 -0.002374635 0.020268602 0.040768433 -0.021044722
0.029394718 0.030793073 0.04259681 -0.0146177765 0.009782801 0.026027055 0.0033043073 0.025746677
0.028169025 0.02007151 0.025546726 0.033058345 -0.0024777872 0.0015343641 -0.0006327667 -0.00093509
0.017275032 -0.024331111 0.038815595 0.023924155 -0.017619532 0.03048075 0.020408934 0.0005137945
0.03540319 0.03314485 0.014730217 0.029728042 0.021584077 0.029774135 0.012703666 0.03338904
-0.026203047 0.035107717 -0.0012094222 0.015811572 0.02525524 0.03865226 0.02050591 -0.0008596564
0.026270496 0.024084665 0.01658473 0.028811583 -0.018576054 0.037183005 0.032493383 -0.012135218
0.019827679 -0.025413299 0.03817987 0.010542506 -0.00354464 0.014909192 -0.006351158 -4.1450287e-05
0.01579165 0.025358839 0.016947128 0.005971929 0.015347182 -0.0018781436 0.0046491493 -0.009317658
0.018406667 0.002884742 0.01455687 0.0043229638 0.038649473 -0.028534375 0.0027979799 -0.00045027153
-0.023351716 -0.025626976 0.028612336 -0.018635944 -0.036100365 0.027250456 -0.0051797815 0.01702524
-0.0017707812 0.017379092 0.014027766 -0.012018042 -0.017861255 -0.028920267 0.03365273 -0.014959744
0.026177913 -0.015421207 0.026017668 0.016848711 0.004501532 0.02719144 -0.0070843794 -0.027822195
-0.001784021 -0.011372279 -0.007809888 0.0012788738 0.026408447 0.009626429 -0.024675336 0.013457453
0.02723699 -0.025771495 -0.023022847 -0.018718762 0.03405818 -0.009009305 -0.000451093 -0.012703587
-0.025494693 0.029946562 -0.018858796 0.029725581 0.031420536 0.01656337 0.014222478 -0.013585258
00000000: d583 96bc 823a c63c 5301 11bd ee81 05bd
00000010: ea4b 3cbd e98f 85bb 73bd dfbb c400 433d
00000020: 1578 0cbd a995 7bbc ff2b 9cbc 703c 0dbd
00000030: 58f4 003d 2b18 35bd cc24 9fbc 2cff e0ba
00000040: e756 213c 433e b0bc 3579 0b3d 8893 e73c
00000050: 76d5 373d 7bd5 36bb 35fe 46bc df30 e8bc
00000060: 9ca9 e0bc 34d8 0dbd 4160 293d e163 24bc
00000070: 4dcb 0e3d 5ce0 ffbc 753e ce3c 4d89 f6bc
00000080: 98f0 38bc dcc8 a03c 32ff c5bc 5cf9 7b3c
00000090: df07 64bc b83b bd3c be3c 193d 88c7 273d
000000a0: 5020 08bd 369d 503c 2c05 f7bc d91b b63c
000000b0: 9c1b aabc 6b29 1dbc 7a90 d43c 913a 26bd
000000c0: 259d 34bd 33d7 c2bc f434 b3bc 0288 a33b
000000d0: e579 c33c 3d94 d7bc c160 70bc 9522 31bd
000000e0: 4157 25bd 5a58 dc3c c59e 823c 045b eb3c
000000f0: d878 0dbd 13c2 e1bc e973 8ebc c705 2fbd
00000100: 5d8a 8e3c 4bfe e83b e895 0d3d 65a5 1b3d
00000110: c49f 1bbb 570a a63c cdfc 263d fb65 acbc
00000120: 31cd f03c c141 fc3c fe79 2e3d 667f 6fbc
00000130: 0b48 203c b136 d53c 148d 583b b2ea d23c
00000140: bac2 e63c 026d a43c 5e47 d13c 3068 073d
00000150: 5f62 22bb b71c c93a 41e0 25ba d420 75ba
00000160: 5e84 8d3c 0a52 c7bc 1afd 1e3d 97fc c33c
00000170: d656 90bc c4b2 f93c a330 a73c 2ab0 063a
00000180: ef02 113d e5c2 073d 0257 713c 3988 f33c
00000190: 17d1 b03c e3e8 f33c 0a23 503c f2c2 083d
000001a0: c6a7 d6bc 1ccd 0f3d 7a85 9eba 4587 813c
000001b0: 14e4 ce3c d551 1e3d 03fc a73c 905a 61ba
000001c0: 3935 d73c 344d c53c b3dc 873c 4506 ec3c
000001d0: cf2c 98bc 354d 183d c817 053d cbd2 46bc
000001e0: a86d a23c 8d2f d0bc 7f62 1c3d 7aba 2c3c
000001f0: 314d 68bb af45 743c 601d d0bb e8da 2db8
00000200: 7e5d 813c 57bd cf3c b4d4 8a3c 2cb0 c33b
00000210: bf72 7b3c 0b2c f6ba e457 983b 17a9 18bc
00000220: 94c9 963c f10d 3d3b f07f 6e3c a6a7 8d3b
00000230: e94e 1e3d ecc0 e9bc 505e 373b 6c12 ecb9
00000240: 194c bfbc aaef d1bc 6b64 ea3c 68aa 98bc
00000250: fadd 13bd 593c df3c 28bb a9bb 8478 8b3c
00000260: 8f19 e8ba 995e 8e3c b7d4 653c 52e7 44bc
00000270: c451 92bc 32ea ecbc 72d7 093d b719 75bc
00000280: 1073 d63c 3ba9 7cbc 0123 d53c 4f06 8a3c
00000290: 9681 933b 95c0 de3c 1524 e8bb 5feb e3bc
000002a0: d0d5 e9ba cc52 3abc 17ea ffbb e29f a73a
000002b0: 8756 d83c 2bb8 1d3c ee23 cabc a67c 5c3c
000002c0: 1c20 df3c be1e d3bc 699a bcbc 1758 99bc
000002d0: 9780 0b3d c49b 13bc ad80 ecb9 b522 50bc
000002e0: 3fda d0bc 7e52 f53c c37d 9abc 1083 f33c
000002f0: d2b2 003d e8af 873c 6505 693c b494 5ebc

sequential_4/dense_9/MatMul f4 [64, 64]
0.14487854 -0.013345925 0.14571147 -0.028859895 0.17581794 -0.03285812 0.15689908 -0.15984613
-0.0035206901 0.068401136 0.07591266 -0.04364536 0.21308511 -0.0786958 -0.20792156 -0.0551224
-0.21748377 0.0074562663 -0.13493246 -0.13931575 0.074827544 0.21344021 -0.111060336 -0.18984076
-0.19052789 -0.07123626 0.12689507 0.027614389 -0.06277446 0.114078395 0.12763998 0.028892988
0.09150564 -0.19575262 0.028773488 0.06724682 0.20991075 -0.12924862 0.07684839 -0.104656294
-0.12911922 0.13972737 -0.12123385 -0.021491334 0.11919255 0.23307878 0.006795054 0.1302793
0.01514744 -0.20102763 -0.1723629 -0.08325751 0.047916457 0.02917775 0.1591851 -0.13217138
-0.007478512 -0.015265442 0.013649883 -0.0067057153 -0.040474907 -0.22918707 0.22779183 0.03234119
0.17229968 0.22780159 0.09700906 -0.16549215 -0.006731177 0.11685336 -0.10633114 0.19669716
0.1603631 -0.09765583 0.15031753 -0.12229135 -0.16977961 -0.12348865 0.20186687 -0.19999532
0.10966015 -0.11250521 -0.09600381 0.17786357 0.034776676 -0.008117539 -0.10639829 0.11238846
0.026339203 -0.14765398 0.16901882 0.1379929 -0.08029846 0.12429122 0.08895284 0.17617452
0.21820498 0.1746287 0.24488872 -0.16832347 0.08247629 -0.022155114 -0.14544907 0.08748621
0.1023477 -0.057601005 -0.0914659 0.22613345 -0.10379931 0.14803553 -0.22224213 0.20578934
0.061790723 0.10192684 -0.02994184 -0.06330199 -0.19889459 -0.2113656 -0.038286075 -0.16843036
0.19178869 0.048732813 0.10873002 0.15170039 -0.032581065 -0.10306234 -0.07996694 0.21330637
0.18294093 0.19824693 -0.1524443 -0.21744645 -0.006900247 -0.13180123 0.19464725 0.006854664
0.1656298 0.0068151 -0.05189204 -0.16068944 0.0455724 0.061611995 0.03762352 0.14836685
0.07956716 -0.1315317 -0.14720859 -0.14544478 -0.123287834 0.041964196 -0.15763965 -0.2116315
-0.2094682 0.19432755 -0.067013755 0.102542564 0.23186971 -0.19479345 0.16859406 -0.083877355
-0.014850267 -0.1784238 -0.115416266 0.04480873 0.21585655 0.058948208 0.17888176 0.0270558
0.12881982 -0.1478247 -0.051584885 -0.16708213 0.09293692 -0.18015277 -0.13230136 -0.0029679833
-0.121865705 0.108691975 0.12828538 -0.14599961 -0.17415184 0.10882003 0.1600159 0.20455714
-0.07175681 -0.010819707 -0.07469531 0.21659888 0.036355186 -0.017183682 0.22605178 0.104321465
-0.15187898 0.072608985 0.071648225 0.25085783 0.24895361 -0.17581989 -0.034938607 0.05382723
0.1967961 -0.08887013 -0.16253893 0.07959349 -0.2256536 -0.051653646 -0.0426866 0.009476049
0.20990613 0.17664333 -0.09790688 0.08392294 0.034641933 0.20280778 -0.04173465 0.20453241
0.08501008 0.06977731 0.17419887 -0.14881533 0.16020797 0.11860407 0.1127763 -0.10580273
0.08153777 -0.19417638 -0.1038242 0.004403129 0.20133078 -0.0537482 0.12705414 0.042134825
0.19403672 0.037233803 -0.009511702 0.09574691 0.18795313 0.07820761 -0.16351429 -0.083046705
-0.17108242 0.069473624 0.085569575 -0.15386696 0.18007633 0.18294118 -0.17201905 -0.23891619
-0.061872017 0.100214474 0.16339718 0.12754755 -0.059849326 -0.16903187 0.22704513 0.1509728
00000000: 0a5b 143e dea8 5abc 6335 153e 966b ecbc
00000010: 9e09 343e 3c96 06bd 27aa 203e b4ae 23be
00000020: 61bb 66bb e515 8c3d 1978 9b3d 7ac5 32bd
00000030: fc32 5a3e 432b a1bd 64e9 54be 07c8 61bd
00000040: 11b4 5ebe b253 f43b bc2b 0abe caa8 0ebe
00000050: 2f3f 993d 1290 5a3e 9a73 e3bd 9e65 42be
00000060: be19 43be 51e4 91bd c8f0 013e 9237 e23c
00000070: e58f 80bd efa1 e93d 0eb4 023e fdb0 ec3c
00000080: 4f67 bb3d 6073 48be 61b6 eb3c b3b8 893d
00000090: d8f2 563e c059 04be b062 9d3d 0a56 d6bd
000000a0: d437 04be b114 0f3e 7449 f8bd 980e b0bc
000000b0: 391b f43d 34ac 6e3e 0ba9 de3b f067 053e
000000c0: f82c 783c 30da 4dbe e67f 30be ea82 aabd
000000d0: 0c44 443d 2d06 ef3c 6b01 233e ef57 07be
000000e0: 4e0e f5bb e81b 7abc c2a3 5f3c 9ebb dbbb
000000f0: 04c9 25bd 04b0 6abe 4342 693e 3278 043d
00000100: 546f 303e d244 693e b0ac c63d c676 29be
00000110: 3591 dcbb d050 ef3d 24c4 d9bd fb6a 493e
00000120: 3936 243e c8ff c7bd d7ec 193e e373 fabd
00000130: b5da 2dbe 9ee7 fcbd 30b6 4e3e 93cb 4cbe
00000140: 8095 e03d 2269 e6bd a59d c4bd de21 363e
00000150: fd71 0e3d 6dff 04bc 59e7 d9bd ec2b e63d
00000160: 50c5 d73c 9b32 17be 4513 2d3e 034e 0d3e
00000170: 8573 a4bd 658c fe3d e82c b63d 1867 343e
00000180: 2071 5f3e ded1 323e 1cc4 7a3e fd5c 2cbe
00000190: 54e9 a83d a47e b5bc 9af0 14be f82b b33d
000001a0: ac9b d13d 08ef 6bbd 7952 bbbd 878f 673e
000001b0: bc94 d4bd a096 173e 7193 63be 71ba 523e
000001c0: 4518 7d3d 05bf d03d 9748 f5bc 79a4 81bd
000001d0: 06ab 4bbe 3970 58be dcd1 1cbd 0279 2cbe
000001e0: 4164 443e 0f9c 473d d8ad de3d 5957 1b3e
000001f0: b973 05bd 5912 d3bd b5c5 a3bd fc6c 5a3e
00000200: de54 3b3e 3e01 4b3e 5c1a 1cbe 48aa 5ebe
00000210: 781b e2bb e7f6 06be 9c51 473e 179d e03b
00000220: dc9a 293e 3451 df3b bf8c 54bd c68b 24be
00000230: 20aa 3a3d dc5c 7c3d 1f1b 1a3d 7bed 173e
00000240: 1bf4 a23d 3fb0 06be d9bd 16be 7aef 14be
00000250: 557e fcbd a6e2 2b3d 4a6c 21be eeb5 58be
00000260: d57e 56be cdfd 463e 823e 89bd d601 d23d
00000270: 416f 6d3e ef77 47be eca3 2c3e e4c7 abbd
00000280: 894e 73bc bbb4 36be 5d5f ecbd 5c89 373d
00000290: 8009 5d3e ad73 713d c82c 373e 20a4 dd3c
000002a0: 58e9 033e 5c5f 17be ac4a 53bd 9417 2bbe
000002b0: b655 be3d f879 38be 027a 07be 7f82 42bb
000002c0: ba94 f9bd e699 de3d 3e5d 033e ec80 15be
000002d0: dc54 32be 09dd de3d 35db 233e 6d77 513e
000002e0: 3cf5 92bd 2445 31bc dbf9 98bd 19cc 5d3e
000002f0: 2de9 143d cbc4 8cbc 1e7a 673e 7ea6 d53d
00000300: 2a86 1bbe 05b4 943d 4ebc 923d 7070 803e
00000310: b2ed 7e3e 210a 34be c91b 0fbd f179 5c3d
00000320: eb84 493e 8b01 b6bd 9b70 26be e901 a33d
00000330: bd11 67be c692 53bd 25d8 2ebd 6e41 1b3c
00000340: a2f1 563e fde1 343e 6783 c8bd cadf ab3d
00000350: b3e4 0d3d d8ac 4f3e f4f1 2abd f270 513e
00000360: c419 ae3d 68e7 8e3d 3061 323e 0c63 18be
00000370: 8f0d 243e b1e6 f23d 43f7 e63d 1aaf d8bd
00000380: 46fd a63d 2cd6 46be c8a1 d4bd 2048 903b
00000390: a829 4e3e 1327 5cbd 7b1a 023e 9195 2c3d
000003a0: 90b1 463e 7982 183d f8d6 1bbc f516 c43d
000003b0: c976 403e 502b a03d 4a70 27be 6414 aabd
000003c0: 3b30 2fbe 3048 8e3d 1a3f af3d 4d8f 1dbe
000003d0: ee65 383e ef54 3b3e c325 30be 72a6 74be
000003e0: 836d 7dbd 3f3d cd3d 9751 273e d39b 023e
000003f0: 9124 75bd b116 2dbe 857e 683e 9d98 1a3e

sequential_4/dense_10/MatMul f4 [32, 64]
0.08583477 0.20087266 0.07332378 -0.18950088 -0.27084616 -0.24163224 0.16775776 0.11959558
-0.10135037 -0.09113999 0.03623585 0.21557191 -0.060510017 -0.20228374 -0.13173492 -0.14336836
-0.11412151 -0.065632634 0.2679802 0.17368628 -0.13215433 0.038798466 -0.16448297 -0.20131846
0.06646182 0.15702115 0.11948404 0.13494647 -0.123301506 -0.07974416 0.13677807 -0.15107892
-0.14055337 0.07926201 -0.15217295 -0.01979578 0.18284191 0.21360868 0.020724926 -0.20363627
0.09488108 -0.21672778 -0.20184834 -0.121709846 0.004038295 -0.008774362 -0.08761973 -0.15934122
0.2015733 0.08826124 -0.07883229 0.20546235 -0.25334275 -0.15834403 0.09497591 0.1352285
-0.04482657 -0.057657015 0.17317215 0.06925989 0.18700789 0.18380308 0.15842715 0.07882563
-0.20569682 -0.15586995 0.1794502 -0.15604444 -0.030284375 -0.17766611 0.22255993 -0.10898661
0.064305305 0.006294667 -0.05574709 0.14876696 -0.23140639 -0.2400328 0.12688525 -0.041679554
0.026447916 0.09549713 0.19154176 -0.11617978 -0.099656425 0.1046281 0.12003347 -0.077400565
-0.22852981 -0.15687667 0.07718632 0.17543894 -0.25104076 -0.21887964 0.120087 -0.11731614
-0.0578629 -0.20027374 -0.03379805 -0.19554263 0.03425187 -0.24386519 0.075115725 -0.049071122
0.23000817 0.22639051 0.21914142 -0.053803533 0.21750611 -0.16970019 -0.111601025 -0.082904935
-0.25479683 -0.1483709 -0.07662672 0.16255145 -0.0065160394 -0.15132146 -0.114635564 0.0030242815
0.2145629 -0.11919148 0.016476274 0.0653519 -0.027630977 0.069200635 -0.18517965 -0.21109463
0.13897419 -0.1284948 -0.16526575 -0.14270201 0.112561375 -0.21996978 0.19785754 0.26970902
0.08787516 -0.2291303 -0.10345534 0.10711762 -0.14781341 0.21855271 0.23604304 -0.07575659
-0.046194725 0.0077583105 -0.12950143 0.08420016 -0.21841775 -2.920709e-05 0.27293155 -0.20222306
0.19280088 -0.088241234 0.20399621 0.16944094 -0.19772948 0.20575093 -0.21138537 -0.1591411
0.18131524 0.085905686 -0.03696347 -0.06670044 -0.10908641 -0.064198874 -0.1877753 0.00714586
-0.034044143 0.2631922 -0.23076265 0.11024277 0.030148447 -0.119277954 -0.1654463 -0.14644584
0.091213435 0.13331756 -0.082702614 0.07591318 -0.14809977 0.18790583 0.09458964 0.005971299
-0.25333124 0.15234452 0.20708261 -0.15339996 -0.08720465 0.1181658 0.038392697 0.06989315
0.072513334 0.008397932 0.1033058 0.24129614 -0.14933598 -0.10764886 -0.07469727 0.05874426
0.13945031 0.08018601 0.014658321 0.15159605 0.1253816 -0.15446943 -0.18729481 -0.15043503
0.24509919 -0.21877086 -0.076991975 0.066244975 0.22345428 0.032738063 0.059582707 -0.19187944
0.15259653 0.12189554 -0.076705195 0.031080544 -0.13977692 0.05441374 0.0035139523 -0.11828
0.2752322 -0.0756518 -0.09218238 -0.2084235 -0.05502791 -0.19549248 0.06527956 0.051218297
-0.10152942 -0.08602553 -0.19001916 -0.21041402 0.10058458 -0.1963215 -0.035697345 0.26378813
-0.16055378 0.1518454 -0.19324484 0.0025687641 0.033488054 -0.15140593 0.28906554 -0.2149449
0.20423067 0.055427503 -0.08679396 -0.007177701 0.09620134 -0.058354195 0.017951835 -0.035047486
00000000: 24ca af3d 90b1 4d3e c72a 963d 850c 42be
00000010: 59ac 8abe 716e 77be b1c8 2b3e 87ee f43d
00000020: c890 cfbd 9aa7 babd 0b6c 143d e2be 5c3e
00000030: 5ad9 77bd 7823 4fbe 85e5 06be 28cf 12be
00000040: 8ab8 e9bd 676a 86bd b334 893e d1da 313e
00000050: 7753 07be 24eb 1e3d 396e 28be 6d26 4ebe
00000060: 221d 883d 27ca 203e 0cb4 f43d 682f 0a3e
00000070: 8085 fcbd e850 a3bd 8d0f 0c3e 6fb4 1abe
00000080: 39ed 0fbe 1f54 a23d 3ad3 1bbe c22a a2bc
00000090: e93a 3b3e 3cbc 5a3e 52c7 a93c 0786 50be
000000a0: 0351 c23d e3ed 5dbe 55b1 4ebe 0343 f9bd
000000b0: ac53 843b 57c2 0fbc f971 b3bd 582a 23be
000000c0: 3b69 4e3e 4fc2 b43d d372 a1bd b964 523e
000000d0: 24b6 81be f024 22be bb82 c23d 5779 0a3e
000000e0: 119c 37bd c329 6cbd 0a54 313e 21d8 8d3d
000000f0: ff7e 3f3e e036 3c3e ba3a 223e 556f a13d
00000100: 30a2 52be 5f9c 1fbe cbc1 373e 1dca 1fbe
00000110: f016 f8bc 1bee 35be c0e6 633e 5f34 dfbd
00000120: 80b2 833d 7e43 ce3b 1057 64bd 5e56 183e
00000130: ccf5 6cbe 29cb 75be 35ee 013e 2eb8 2abd
00000140: 4da9 d83c 0094 c33d 8623 443e aaef edbd
00000150: ab18 ccbd 4247 d63d 1cd4 f53d 3084 9ebd
00000160: b803 6abe 47a4 20be dd13 9e3d 44a6 333e
00000170: 6a88 80be fc21 60be 2cf0 f53d 7243 f0bd
00000180: a601 6dbd 8f14 4dbe d36f 0abd 543c 48be
00000190: b04b 0c3d ccb7 79be 46d6 993d cdfe 48bd
000001a0: 4387 6b3e ead2 673e 9c66 603e 1861 5cbd
000001b0: ecb9 5e3e e3c5 2dbe 148f e4bd 10ca a9bd
000001c0: bb74 82be 8bee 17be 78ee 9cbd e373 263e
000001d0: 8084 d5bb 03f4 1abe 0dc6 eabd 0633 463b
000001e0: 60b6 5b3e aa1a f4bd 40f9 863c 38d7 853d
000001f0: 5c5a e2bc 10b9 8d3d bc9f 3dbe 3129 58be
00000200: 404f 0e3e 2494 03be 6d3b 29be 7a20 12be
00000210: 9486 e63d c23f 61be 2b9b 4a3e 4d17 8a3e
00000220: e4f7 b33d 22a1 6abe 65e0 d3bd 7c60 db3d
00000230: 665c 17be 48cc 5f3e 44b5 713e 4526 9bbd
00000240: ae36 3dbd 6d39 fe3b 069c 04be 2271 ac3d
00000250: e7a8 5fbe c001 f5b7 afbd 8b3e 9013 4fbe
00000260: 986d 453e d2b7 b4bd 62e4 503e ed81 2d3e
00000270: 9979 4abe 5fb0 523e 6875 58be e2f5 22be
00000280: b4aa 393e 52ef af3d 0267 17bd 3e9a 88bd
00000290: b268 dfbd b37a 83bd 2b48 40be d227 ea3b
000002a0: df71 0bbd 21c1 863e 0b4d 6cbe f6c6 e13d
000002b0: e0f9 f63c 0048 f4bd c16a 29be e6f5 15be
000002c0: 1cce ba3d 6684 083e fd5f a9bd 5f78 9b3d
000002d0: 77a7 17be 636a 403e 37b8 c13d e3aa c33b
000002e0: a2b4 81be 3400 1c3e 770d 543e e114 1dbe
000002f0: 5a98 b2bd e900 f23d a941 1d3d 2424 8f3d
00000300: df81 943d 7b97 093c fe91 d33d 5616 773e
00000310: 88eb 18be 0177 dcbd e2fa 98bd d29d 703d
00000320: 10cc 0e3e 9038 a43d 7429 703c ff3b 1b3e
00000330: 0964 003e 3c2d 1ebe 36ca 3fbe a40b 1abe
00000340: 48fb 7a3e 7805 60be f8ad 9dbd 72ab 873d
00000350: 33d1 643e 5918 063d ff0c 743d 0b7c 44be
00000360: 4442 1c3e 5ea4 f93d 9d17 9dbd a09c fe3c
00000370: ae21 0fbe f1e0 5e3d 564a 663b c93c f2bd
00000380: 3ceb 8c3e 55ef 9abd 1eca bcbd f86c 55be
00000390: f264 61bd 2e2f 48be 4ab1 853d 47ca 513d
000003a0: a8ee cfbd 272e b0bd 6294 42be c676 57be
000003b0: 4aff cd3d 8108 49be 6137 12bd 3d0f 873e
000003c0: 3668 24be 5c7d 1b3e fae1 45be b658 283b
000003d0: c52a 093d 280a 1bbe 6600 943e 841a 5cbe
000003e0: d821 513e f307 633d 08c1 b1bd ec32 ebbb
000003f0: 3505 c53d cf04 6fbd ba0f 933c f48d 0fbd

sequential_4/dense_11/MatMul f4 [12, 32]
-0.13096923 0.14081451 -0.083197154 -0.25293162 0.29864207 -0.1903674 -0.33354247 -0.29318517
-0.26590616 0.19431789 0.032489467 -0.10622361 -0.28805143 -0.08188973 0.21861807 0.3222041
0.17635763 -0.07848405 -0.31148517 0.083359234 -0.20883858 -0.14597715 -0.030722782 0.0795162
0.089854576 0.25524193 -0.17158374 0.0586462 -0.22529405 -0.2009257 -0.34241676 0.04025815
-0.16580763 -0.25374863 -0.09566027 0.24519081 -0.052566234 0.13442467 0.32413387 -0.3615472
0.04074002 -0.030813301 0.04988815 0.063273765 -0.15153158 0.0037838253 -0.1013171 0.16523853
0.029481541 -0.30327916 0.23263873 -0.30281556 0.35062602 -0.07536459 -0.25947928 -0.06505359
-0.2961021 0.06344469 -0.08218672 -0.061247226 0.21361798 0.12529075 0.27176675 -0.04986322
-0.18893649 -0.36483395 0.14828812 0.2692531 -0.25448236 -0.1445783 -0.012429105 0.3129644
-0.22076976 -0.082763776 -0.17859308 -0.025494233 0.35176253 -0.100422405 0.005874349 -0.15441999
0.16795415 0.3138915 0.025366355 0.13082065 -0.16527301 0.07133018 0.31216872 -0.213359
-0.08018254 0.17943326 -0.12486371 -0.3965115 -0.09679549 0.1329783 0.026879193 -0.29089025
0.17979704 0.36337507 0.2507361 0.14602418 0.2743938 0.3981143 -0.11681397 0.31429192
-0.077731125 0.14092878 -0.25524664 0.17453712 -0.20180553 0.0114981495 0.35549888 0.074353956
0.29902604 0.148025 -0.09566847 -0.028063703 -0.057033204 0.08630747 -0.39251858 -0.31728777
0.32405597 -0.019647913 0.0054472964 -0.14370485 -0.052181166 0.25437096 0.17019954 0.10665223
-0.26025426 -0.32492915 -0.17431492 -0.3208013 0.29662263 -0.41839713 -0.35027358 0.16614726
0.20778313 -0.095622286 0.37200034 0.12372778 0.11668253 -0.3279201 -0.21811599 0.17251575
-0.007184885 -0.14621697 -0.23488231 0.1612868 0.0005025002 0.30331108 -0.3701216 0.1746582
-0.21435033 -0.10658156 -0.0551264 0.18812211 0.3140213 -0.31020704 -0.15705085 0.26219204
0.33859664 -0.1376759 0.37122732 -0.18606609 -0.16711178 -0.2498856 0.23559804 0.17879705
-0.30254766 -0.3715411 0.068140976 -0.23042221 -0.28022534 -0.021163458 0.030995654 0.3682792
-0.035246685 0.3626586 -0.0014866532 -0.17431578 -0.07013864 0.21382521 0.0054238634 -0.25700426
-0.21552497 0.23037514 0.026629925 -0.17629729 0.1295237 0.057055615 -0.1692157 0.18792933
0.19254918 0.32033718 -0.19457057 -0.03051738 0.021338971 -0.078376085 -0.31589434 -0.06522666
0.33608615 -0.29422802 0.1959202 -0.15850364 -0.12619412 -0.10690395 -0.19901122 -0.13169771
-0.06252763 0.25471812 -0.2265236 0.11949486 -0.15751442 -0.09084058 -0.20806544 0.2948044
0.05199719 -0.34370682 0.33123696 -0.15626991 0.044260476 -0.13471007 0.32996783 0.15920027
-0.116813846 0.2872142 0.0667837 -0.12829728 0.3388615 -0.2852249 -0.28405648 -0.13840549
0.040345218 0.17392652 0.10175678 -0.07428023 -0.21289925 0.17828466 0.36200595 0.27464283
-0.083708815 -0.33517906 -0.39011493 0.21012796 -0.10627928 0.31960765 0.27816135 0.14469786
-0.17430381 0.25172004 -0.15503785 -0.09823345 0.3384731 -0.34639728 0.27606642 0.027715448
00000000: cc1c 06be ae31 103e 4563 aabd 4180 81be
00000010: 9de7 983e acef 42be 14c6 aabe 5e1c 96be
00000020: da24 88be 45fb 463e ad13 053d c48b d9bd
00000030: 7a7b 93be ceb5 a7bd 6add 5f3e f0f7 a43e
00000040: 1897 343e 3fbc a0bd fc7a 9fbe 3fb8 aa3d
00000050: c8d9 55be 097b 15be 58ae fbbc 64d9 a23d
00000060: ad05 b83d 12af 823e a6b3 2fbe ff36 703d
00000070: 7cb3 66be 77bf 4dbe 4051 afbe bbe5 243d
00000080: 7ac9 29be 57eb 81be 88e9 c3bd 4d13 7b3e
00000090: b14f 57bd 9fa6 093e e0f4 a53e b71c b9be
000000a0: 02df 263d 2d6c fcbc 8457 4c3d ad95 813d
000000b0: 182b 1bbe 0efa 773b 577f cfbd 4a34 293e
000000c0: 4683 f13c 6847 9bbe d938 6e3e a40a 9bbe
000000d0: 4185 b33e c058 9abd 78da 84be d13a 85bd
000000e0: b29a 97be 4aef 813d 8351 a8bd 5fde 7abd
000000f0: acbe 5a3e 384c 003e 0325 8b3e 603d 4cbd
00000100: 9178 41be 84cb babe d7d8 173e 8bdb 893e
00000110: 834b 82be 550c 14be 72a3 4bbc df3c a03e
00000120: 7811 62be 0e80 a9bd 1be1 36be 48d9 d0bc
00000130: 381a b43e 43aa cdbd 9c7d c03b 4620 1ebe
00000140: 2cfc 2b3e 63b6 a03e 1acd cf3c d9f5 053e
00000150: 543d 29be 8f15 923d 94d4 9f3e c87a 5abe
00000160: be36 a4bd 5abd 373e 8bb8 ffbd 8e03 cbbe
00000170: b73c c6bd 772b 083e c131 dc3c 91ef 94be
00000180: b71c 383e 4c0c ba3e 7b60 803e 5d87 153e
00000190: 587d 8c3e a3d5 cb3e 2a3c efbd dfea a03e
000001a0: 7f31 9fbd a24f 103e b0af 82be dcb9 323e
000001b0: 1ca6 4ebe bc62 3c3c f303 b63e e346 983d
000001c0: f119 993e de93 173e d5ed c3bd dae5 e5bc
000001d0: a69b 69bd f9c1 b03d 32f8 c8be 8b73 a2be
000001e0: aaea a53e a9f4 a0bc 3c7f b23b 5d27 13be
000001f0: ebbb 55bd e93c 823e ca48 2e3e 7c6c da3d
00000200: 0c40 85be 1d5d a6be 9c7f 32be 1140 a4be
00000210: ecde 973e 2638 d6be 0f57 b3be 8222 2a3e
00000220: 1ac5 543e 9ed5 c3bd d476 be3e fe64 fd3d
00000230: 40f7 ee3d 25e5 a7be cc59 5fbe f8a7 303e
00000240: 2f6f ebbb e7b9 15be fd84 70be 5e28 253e
00000250: 38ba 033a 974b 9b3e 9480 bdbe 99d9 323e
00000260: a77e 5bbe 6f47 dabd 38cc 61bd 15a3 403e
00000270: 66c7 a03e 75d3 9ebe f0d1 20be 093e 863e
00000280: 8a5c ad3e e9fa 0cbe 8211 be3e 1c88 3ebe
00000290: 5a1f 2bbe 03e2 7fbe 9d40 713e 9316 373e
000002a0: 87e7 9abe a33a bebe 7f8d 8b3d cdf3 6bbe
000002b0: b279 8fbe fd5e adbc 99ea fd3c 178f bc3e
000002c0: d45e 10bd 63ae b93e cedb c2ba d67f 32be
000002d0: d9a4 8fbd fff4 5a3e aaba b13b 1096 83be
000002e0: 94b2 5cbe 76e7 6b3e 0027 da3c 4787 34be
000002f0: dca1 043e 26b3 693d e146 2dbe 8c70 403e
00000300: 9d2b 453e 3c03 a43e 823d 47be 96ff f9bc
00000310: 11cf ae3c a483 a0bd e7bc a1be 8e95 85bd
00000320: 7c13 ac3e 0ea5 96be 4e9f 483e c74e 22be
00000330: 0839 01be 75f0 dabd 99c9 4bbe c4db 06be
00000340: 7c0e 80bd 6a6a 823e cdf5 67be b9b9 f43d
00000350: 764b 21be a00a babd 1b0f 55be 9af0 963e
00000360: 01fb 543d 57fa afbe e497 a93e 3805 20be
00000370: 794a 353d 70f1 09be 8bf1 a83e 6505 233e
00000380: 193c efbd bd0d 933e e4c5 883d 5d60 03be
00000390: 417f ad3e 0009 92be da6f 91be 2bba 0dbe
000003a0: 0741 253d cb19 323e dc65 d03d 3c20 98bd
000003b0: 4302 5abe 4190 363e d858 b93e fc9d 8c3e
000003c0: 876f abbd 979c abbe 25bd c7be c92b 573e
000003d0: f3a8 d9bd 9da3 a33e 2a6b 8e3e ad2b 143e
000003e0: b37c 32be 73e1 803e 3ec2 1ebe 9e2e c9bd
000003f0: 594c ad3e fc5a b1be 9458 8d3e 820b e33c

unstack4 f4 [384]
-0.017805547 -0.028962169 -0.020807324 -0.04356974 0.008453678 -0.03615688 0.026124684 -0.011266733
-0.023652734 -0.022119852 0.01494474 -0.015120781 -0.04169896 0.042637277 -0.040929046 -0.036543578
-0.043467082 -0.04286293 -0.010066127 -0.043260217 -0.03711365 0.041912694 0.0012700298 -0.0035708752
-0.038186673 -0.0050299456 -0.03177743 0.01932415 0.03644447 0.0043919883 0.015755944 0.00983598
-0.023843534 0.0015648489 -0.043149143 0.0343996 0.007855014 -0.03588788 -0.034552746 0.02125884
0.020977974 0.039148625 -0.0003387488 0.01405567 0.030377975 -0.039058775 -0.010694256 -0.03296807
-0.014081043 -0.03672487 -0.024193032 -0.040609922 0.040825274 -0.036480024 0.01540899 0.024933739
-0.045311783 -0.00019631267 0.02272443 -0.0012195935 0.008667557 -0.040700924 -0.042341005 0.0070788064
0.016643256 -0.015926426 -0.013024403 -0.0060105324 0.008068543 -0.043908175 0.020748142 0.025791196
0.0405349 -0.039015587 -0.040577017 -0.051969524 -0.036909036 -0.042444427 -0.0292017 -0.035604008
0.0321518 0.050756067 -0.040114008 -0.025914209 0.008324292 -0.018596252 0.0053522163 -0.038121596
-0.03897868 -0.029486515 0.0041975784 0.0333483 0.023042355 -0.039927345 0.024715487 0.04296057
0.028377557 -0.034790937 -0.02921008 0.027744656 -0.02357328 -0.008898843 -0.011297887 0.018044654
-0.034587093 -0.033099618 -0.014977708 -0.0040991073 -0.035777695 -0.008984637 -0.019469986 0.024467502
-0.045294993 -0.035671663 -0.037026625 -0.031076537 -0.0382645 -0.019647881 0.00903633 -0.04214971
-0.03476909 -0.04013441 0.0056410274 -0.003756573 -0.02033615 0.014393802 0.02332655 -0.030308107
0.010158043 0.021175172 0.03601251 0.026138186 0.011024732 0.023002649 -0.009000568 0.00804395
0.012081874 0.023568384 0.023866711 0.030963168 0.009355085 0.016637072 0.03769018 0.026178988
0.027609942 -0.018522993 -0.0061933137 0.037415314 0.03723338 0.03467783 0.017525753 0.0022287697
0.023668772 0.03404211 0.040067337 0.018482368 -0.009331789 0.032912973 0.023869399 0.025080573
0.006008691 -0.0045708134 0.017654238 0.030365761 0.020054944 0.010346591 0.019869903 -0.0066620503
0.019547401 0.011529058 0.0056656334 0.03559583 0.021909926 0.004070242 0.00689275 0.03329921
-0.003086367 0.02759431 -0.013958277 0.03655551 0.0044747423 0.027536832 0.009394559 0.022051105
0.028164705 0.039416265 0.025250344 0.0024509146 0.01642521 0.02080049 -0.016241243 0.019968884
0.032007493 0.034857113 0.007860744 0.019607026 0.034716956 0.010241782 0.02823214 0.030182872
0.044557497 0.029345393 0.043993466 0.03364704 0.030239427 0.024283664 0.014370476 -0.0073336074
0.024631158 0.035844464 0.02505392 -0.0034838526 0.019285226 0.015460963 0.013759891 0.01976761
0.027223295 0.015566644 0.037027013 0.019698389 0.0032175898 -0.014041374 0.03020798 0.015604475
0.009513556 0.033692703 0.018830111 0.0049731117 -0.0037427065 0.01830232 0.006062361 0.03802077
0.036291465 0.03333297 0.016664855 0.04651779 -0.012571499 0.03052687 0.024886217 0.03294121
0.00487645 0.019788966 0.02833222 0.026911013 -0.006984291 0.034097582 0.01963656 0.042647943
0.0030046722 0.04105451 -0.009409245 0.020160198 0.019493645 0.012934425 0.037104044 0.023475615
00000000: f0dc 91bc 1242 edbc 1f74 aabc 2f76 32bd
00000010: 4c81 0a3c 3d19 14bd 6f03 d63c 1a98 38bc
00000020: 61c3 c1bc b134 b5bc c8da 743c 27bd 77bc
00000030: 87cc 2abd 6da4 2e3d 37a5 27bd b8ae 15bd
00000040: 8a0a 32bd 0a91 2fbd 66ec 24bc a031 31bd
00000050: 7c04 18bd a5ac 2b3d 2177 a63a 5805 6abb
00000060: a169 1cbd 3ed2 a4bb 0d29 02bd ae4d 9e3c
00000070: cc46 153d abea 8f3b 9c12 813c 1727 213c
00000080: 8453 c3bc 9e1b cd3a 28bd 30bd 98e6 0c3d
00000090: 51b2 003c 2bff 12bd 2e87 0dbd 0527 ae3c
000000a0: 00da ab3c 4f5a 203d 189a b1b9 c149 663c
000000b0: 3bdb f83c 18fc 1fbd f636 2fbc 8709 07bd
000000c0: 2db4 66bc d16c 16bd 7730 c6bc 9756 26bd
000000d0: 6738 273d 146c 15bd fd75 7c3c d741 cc3c
000000e0: d998 39bd 48d9 4db9 9528 ba3c c4da 9fba
000000f0: 5e02 0e3c 03b6 26bd c36d 2dbd 55f5 e73b
00000100: 7057 883c 2378 82bc 4e64 55bc 00f4 c4bb
00000110: ec31 043c 0fd9 33bd 02f8 a93c 0f48 d33c
00000120: ec07 263d cfce 1fbd 1634 26bd ffdd 54bd
00000130: ee2d 17bd 35da 2dbd 6738 efbc 82d5 11bd
00000140: 9bb1 033d 98e5 4f3d 964e 24bd 094a d4bc
00000150: 9c62 083c 2b57 98bc a561 af3b 6425 1cbd
00000160: 1ca8 1fbd b48d f1bc d78b 893b 3a98 083d
00000170: 52c3 bc3c db8a 23bd 2278 ca3c 6cf7 2f3d
00000180: 0d78 e83c f180 0ebd fa49 efbc c348 e33c
00000190: c01c c1bc 74cc 11bc c61a 39bc 62d2 933c
000001a0: 32ab 0dbd 7793 07bd 1065 75bc ce51 86bb
000001b0: a28b 12bd 4d34 13bc 857f 9fbc 1270 c83c
000001c0: 3e87 39bd 731c 12bd 3ba9 17bd 3994 febc
000001d0: 3dbb 1cbd 98f4 a0bc 1d0d 143c 2da5 2cbd
000001e0: 096a 0ebd fb63 24bd 5ed8 b83b d630 76bb
000001f0: ff97 a6bc fbd3 6b3c 5217 bf3c b548 f8bc
00000200: ec6d 263c 8e77 ad3c db81 133d c01f d63c
00000210: 14a1 343c 0d70 bc3c 1e77 13bc c6ca 033c
00000220: 0df3 453c 7c12 c13c 1f84 c33c 78a6 fd3c
00000230: 1246 193c 784a 883c 0561 1a3d 5175 d63c
00000240: 3f2e e23c 88bd 97bc 48f1 cabb cd40 193d
00000250: 0782 183d 570a 0e3d 2b92 8f3c 8d10 123b
00000260: 03e5 c13c bd6f 0b3d a61d 243d 5668 973c
00000270: 5ce4 18bc c1cf 063d c289 c33c c675 cd3c
00000280: 8ee4 c43b c3c6 95bb 9f9f 903c 9ec1 f83c
00000290: 444a a43c bf84 293c 35c6 a23c 544d dabb
000002a0: df21 a03c 60e4 3c3c c7a6 b93b efcc 113d
000002b0: 727c b33c aa5f 853b 94dc e13b c164 083d
000002c0: a544 4abb 760d e23c 42b1 64bc 3bbb 153d
000002d0: dca0 923b ec94 e13c a3eb 193c 85a4 b43c
000002e0: abb9 e63c f372 213d cfd9 ce3c 869f 203b
000002f0: 298e 863c ca65 aa3c 5b0c 85bc c995 a33c
00000300: 4a1a 033d 55c6 0e3d 5aca 003c ea9e a03c
00000310: 5e33 0e3d 26cd 273c 1747 e73c 1242 f73c
00000320: ec81 363d c065 f03c 7e32 343d 7bd1 093d
00000330: adb8 f73c 89ee c63c 2572 6b3c c24e f0bb
00000340: 48c7 c93c a5d1 123d e13d cd3c 5951 64bb
00000350: 0dfc 9d3c fb4f 7d3c 2a71 613c afef a13c
00000360: 6303 df3c 3d0b 7f3c a3a9 173d 845e a13c
00000370: 33de 523b cb0d 66bc ba76 f73c e9a9 7f3c
00000380: bfde 1b3c 5c01 0a3d 9b41 9a3c 7cf5 a23b
00000390: 3248 75bb bfee 953c c5a6 c63b abbb 1b3d
000003a0: 5ca6 143d 2788 083d bc84 883c 7089 3e3d
000003b0: b0f8 4dbc 7d13 fa3c 2ede cb3c 5ded 063d
000003c0: a1ca 9f3b 781c a23c f918 e83c 7c74 dc3c
000003d0: 7bdc e4bb e8a9 0b3d dadc a03c 9caf 2e3d
000003e0: 09ea 443b c628 283d 3c29 1abc 0027 a53c
000003f0: 23b1 9f3c e9ea 533c 69fa 173d ef4f c03c
