backend/exported_models/model_test.tflite (tflite, 55704 bytes, 6 tensors)

sequential/lstm/Read_2/ReadVariableOp f4 [200]
00000000: bcf9 c9bb 0ad1 443c 3240 863b 7654 ebb9
00000010: 5e87 003c 9cab 0f3b 4239 8b3c a30f a23b
00000020: afd7 c0bc 42b0 ac3a 3cff 07bc c6ae 81bc
00000030: baff 11bc db47 533c 2d60 d5bc fe0d 153c
00000040: 3f34 3dbc aa52 013c fb92 1a3b 502e 2fbc
00000050: 1248 293c 1e86 e93b a6d2 98bc 3250 a1bc
00000060: d429 bb3b d2af 813c 17ab dbbc 4a6c 1d3c
00000070: 8612 acbc 4660 443b cfc0 293c f064 9dbb
00000080: 6326 ea3b e54f 63bc 0ea3 063a e3f0 353a
00000090: 8da1 86bc 3c8d c6bc 00b4 be36 648e 393c
000000a0: b1e9 0e3b d78f 2e3c db5a 9fbb 4173 2d3c
000000b0: cead 393c 2671 cebc 8898 9fbb 06cf dc38
000000c0: 825b 26bc 6d03 e73a a3f1 7f3f 339e 813f
000000d0: 1c49 803f f360 803f 7cff 803f a067 7f3f
000000e0: 4a2a 823f 9a3b 803f f1de 7c3f d2b9 803f
000000f0: 21c3 7d3f c8c1 7b3f 9649 7e3f a420 823f
00000100: d038 7a3f 561c 813f 6a40 7d3f 7905 813f
00000110: 950c 803f 25bc 7d3f d7e5 803f c1b3 803f
00000120: 7c8a 7b3f d235 7c3f 7172 803f 4a22 823f
00000130: 0241 7a3f 6be0 803f 24b0 7b3f d34f 803f
00000140: a63d 813f 881b 7f3f 39fd 803f a2ad 7d3f
00000150: a824 803f 6d56 803f db0d 7c3f 4050 7b3f
00000160: b78c 7e3f 5fc4 813f 7fd7 803f 1c6b 813f
00000170: d653 7f3f bf5a 813f f750 813f 888e 793f
00000180: b40e 7d3f 731d 7d3f 9d30 7d3f 532b 813f
00000190: 3a22 53bc 786e 073c 622d 3cbc 1eff 60ba
000001a0: 5e06 1d3c 9ae9 4639 220c 8ebc 9c2f eab9
000001b0: 6877 593c d5f2 f7bb 652a 12bb b5cb 91bc
000001c0: 40c6 61bb 0336 8b3c d58c a0bc 66ae 81ba
000001d0: c117 5ebc ad3a 34bc e045 e839 d891 053c
000001e0: 9333 73bc 6fd9 f63b e5fc 7bbc 1be3 66bc
000001f0: 4c0d 663b c2b9 a2bc fa04 423c ba64 0bbc
00000200: f4b7 b23b 57f8 e33b 9532 bebb 80a1 04ba
00000210: bcd8 b039 c32e 7dbb e7e3 d3bb 800d 9eba
00000220: c51c 943c 04b8 96bc 9016 523b 1a66 86bc
00000230: a30c 693c f8f4 6e3c 6d16 b9bb 49cd 083c
00000240: 1e6d 8e3c fb5b 3b3c 06d6 79ba f0bb 363b
00000250: e37e 123c b233 d03b 5c3b 5a3b 0ea2 4c3c
00000260: a4c9 15bc b79f d13a 10b8 5e3b e849 e0ba
00000270: e7ae b13c ffbe b33b 3b71 a339 29ab 393b
00000280: 0b04 29bc 8024 6bbc fc62 03bc eccb 783c
00000290: 986b b2bc 699e f23b a11c 21bc 07a6 453c
000002a0: cde0 673b 291e f8bb b175 543c 29ae fd3b
000002b0: eef8 cebc 399f 00bd fc9d 0a3c ec35 a63c
000002c0: 1c5a b9bc a82f 8c3c e62d 8ebc 9803 8839
000002d0: 6dec 333c a28f a63b ee06 fc3b ce69 01bc
000002e0: d3b4 1bbb 42d2 8038 bc54 51bc 5644 98bc
000002f0: 9958 c4bb f513 863c 0f17 c23a 96f1 2d3c
00000300: 68bd 013c 1d07 6e3c acd1 313c 8eec 01bd
00000310: d3ab ebbb 0080 7dbc 78f3 49bc d5bf b8bb
-0.006163804 0.012012729 0.004097008 -0.0004488562 0.007844774 0.0021922356 0.016995076 0.0049457117
-0.023540346 0.0013175088 -0.008300599 -0.015830409 -0.008911068 0.01289555 -0.026046837 0.009097574
-0.011548101 0.007893244 0.0023586142 -0.010692194 0.010332124 0.0071265837 -0.018655133 -0.01969156
0.0057117734 0.015830908 -0.02681498 0.009608338 -0.021004926 0.002996461 0.010360911 -0.0048032925
0.0071456893 -0.013874029 0.00051359914 0.0006940497 -0.016434455 -0.024237268 5.683396e-06 0.0113254525
0.0021806771 0.010654411 -0.0048631257 0.010586561 0.011332942 -0.025200438 -0.004870478 0.000105289786
-0.010153653 0.0017624922 0.99978083 1.0126404 1.0022311 1.0029587 1.0077968 0.99767494
1.0169156 1.0018189 0.9877768 1.0056708 0.9912587 0.9834256 0.99331033 1.0166211
0.9774294 1.0086772 0.98926413 1.0079795 1.000384 0.9911521 1.0070142 1.0054857
0.98258185 0.98519623 1.0034925 1.0166714 0.97755444 1.0068487 0.98315644 1.002436
1.0096939 0.99651384 1.0077277 0.9909307 1.0011187 1.0026375 0.9845864 0.98169327
0.99433464 1.0138053 1.0065764 1.0110812 0.997373 1.0105819 1.0102834 0.9748311
0.9885056 0.9887306 0.98902303 1.0091347 -0.012886578 0.008266084 -0.0114854295 -0.00085829373
0.009584038 0.00018969775 -0.01733977 -0.0004466743 0.013273098 -0.0075667896 -0.00223031 -0.01779733
-0.0034450442 0.016993528 -0.019598404 -0.0009893894 -0.013555468 -0.0110003175 0.0004430255 0.008152448
-0.014843839 0.0075332443 -0.015380119 -0.014092232 0.003510314 -0.019863967 0.011842007 -0.008507902
0.005454058 0.0069570947 -0.0058043697 -0.0005059466 0.00033730816 -0.0038632608 -0.006466377 -0.0012058467
0.018080125 -0.018398292 0.0032056905 -0.016406108 0.014224204 0.014584772 -0.0056484253 0.008349725
0.017386016 0.011435504 -0.0009530488 0.0027883016 0.008941385 0.006353819 0.003329954 0.012489809
-0.009142313 0.0015993033 0.0033984222 -0.001711187 0.021689845 0.005485415 0.00031174146 0.002833078
-0.010315905 -0.014351964 -0.008019205 0.0151853375 -0.02177982 0.007404138 -0.009833486 0.01206351
0.0035381794 -0.0075719547 0.012967513 0.007741709 -0.025265183 -0.031401847 0.008460518 0.020289384
-0.022625975 0.017112568 -0.01735587 0.0002594262 0.010981661 0.0050830403 0.007691256 -0.007898761
-0.0023758903 6.142679e-05 -0.01277655 -0.018587273 -0.005992007 0.016366938 0.0014807897 0.010616681
0.007918693 0.014528063 0.010853212 -0.031719737 -0.007192114 -0.015472412 -0.012326114 -0.0056381025

sequential/dense/BiasAdd/ReadVariableOp f4 [12]
00000000: d073 a0bc 6af2 99bc 8027 74bc 377d 41bd
00000010: c036 82bc f007 95bc 2787 8ebc 2823 6fbc
00000020: c0d9 96bc 25f7 a2bc f099 1ebd 23d0 25bd
-0.019586474 -0.01879235 -0.014901996 -0.047238555 -0.015895247 -0.018192261 -0.01739843 -0.014595784
-0.018414378 -0.019893238 -0.038721025 -0.040481698

sequential/dense/MatMul f4 [12, 50]
00000000: 8cd2 823c 6ac3 a8be 1e33 803c 959c e03d
00000010: e042 503e e8e0 423e 7273 f93d be98 1bbe
00000020: 2bc8 793d f474 77bd 44b1 1f3e 2dcb 8a3e
00000030: a50b 003e d298 cbbd 7371 8cbd 10cd 723d
00000040: 6ee9 913e d0dd 193e a4f8 613c 64d4 353e
00000050: 1d4e 893e 2692 67bd 05b2 733e 7769 f93b
00000060: be8f a6ba e36b 8d3e db10 2ebe dafd 1e3e
00000070: bb7c 9b3e e51d 4cbe e01c 9ebe c0f1 393e
00000080: 0b05 bf3c 46b7 1f3e 3798 42bd 3dfd 3abe
00000090: 1a61 96bd aaa5 813e f39d 993e b35a 0b3e
000000a0: b4df 7d3e cddd d23b e1a7 9dbe eae0 6ebe
000000b0: 210b d93d 643c 963d a5bf 693d df38 b1bd
000000c0: ef03 813d bbfb c73b f5bb 95bd a4ed 39be
000000d0: 41d5 2ebe ca28 97bd 434f 623b 7f8c 37be
000000e0: 5f16 b63d 5c60 333e ce0f febd 0ff5 1bbe
000000f0: a209 9fbc 1b61 4c3e a565 51be 3f96 36bd
00000100: e050 6b3e 9dd5 833c 1748 34be a94c 35be
00000110: 1803 763e ffe0 773e 32e2 09bd 89d4 9b3e
00000120: 35e5 d4bc 7e9c 9a3d 37c5 2cbe 973f 233e
00000130: 8748 2cbe 9dc9 a6bc 8014 57be edae 5c3e
00000140: 2647 1ebe 352e 493e 6227 d1bd 8f7f 91be
00000150: 0dab 1bbe f13a 943e 7ad7 89be c0d2 203e
00000160: 5060 cabc 37d2 f63d 19a3 6fbd fa22 9cbd
00000170: dfbb 3ebb bbc5 9bbd ff58 8abe 41d8 143e
00000180: 28df 6dbc 6e41 2ebe 3aeb 0abe 188b a6bd
00000190: dafa 483d 295e 733e 1c72 463e 33ea 9bbd
000001a0: c9e1 643d 3af0 653d bdfb 83be dd79 ca3d
000001b0: aa2e 9bbd de85 983e a8e1 913e 9b6c 973d
000001c0: 2106 0bbd 5cb8 4cbe 1e58 853d dbbd 56be
000001d0: 7efe 633e 9b71 343e 6c87 9ebe 449b ca3d
000001e0: eeeb 0d3d 64c9 15be be0f 963e be7a c8ba
000001f0: 8c9a 093e 13e3 cf3d 8d4d a4be 97dd 2d3e
00000200: 2bff b63d 9ca9 46be 0bda 983e 8601 90be
00000210: e370 bfbd 236d 803e 42da 94bd ccb5 2bbd
00000220: 5f17 60be 8506 ffbd a218 673e 9073 51be
00000230: 8f11 9e3d 256f 503e ec5f 933e 9ea9 d9bd
00000240: ffbc 14be 3118 8ebd cf9e e1bd d814 453e
00000250: a05d 11be dcbd cdbd e683 843e 5a38 44be
00000260: 528d 773e 2ead 733e 99be 4abe 0a43 a43d
00000270: cb47 b53d 9bb8 6c3e 844d 8ebe 2438 7f3e
00000280: 8e75 cd3c 20e8 413e 0a23 5bbe 23ec 69be
00000290: ee52 f7bd 6f93 643d e9e1 cebd a082 783e
000002a0: 0775 8bbe 5e7b e0bd 46c8 653c f7ef 1abe
000002b0: 71ae 52bd 30d0 1a3e f915 383e 4c88 5bbd
000002c0: 264f 0dbe b9ed 3c3e f466 50be 8c2b a23e
000002d0: aa89 2cbe b5b0 23be 73f5 273d 62f4 a5bd
000002e0: 4bf3 44be 6984 893e 3195 39bd 67cb 2a3d
000002f0: 15bd 8bbe 353a ad3e 2574 fb3d 7699 12be
00000300: 5167 2cbe e6af 91bc 98f0 83be d003 e7bd
00000310: 3890 9abe 3ac1 a33d 96f3 873d a858 7abc
00000320: d35a 293e cd39 e73c 3d4b 723d 4294 0cbe
00000330: de4e 60be 405d 59bc 0735 dc3d c446 423e
00000340: 8bb0 2cbe 7f64 f93d 6dd8 cabd 1d23 4c3e
00000350: bba7 0d3e e508 26be 09db 883e 904a aebd
00000360: eda5 563e 04ef a63e bf6c 8c3e 0143 55be
00000370: 9e93 e7bc ca0e 9ebe 725e 58bd da1d 223e
00000380: 5598 97be ca7b efbd b8c1 7c3e 21bc 813e
00000390: de12 313d 28e9 0a3e 11e8 5abe c271 193e
000003a0: b787 9e3e 3d50 963e 9ed1 0abd 84b9 de3d
000003b0: 42df 88be 46b4 83bc 7987 40be 8eeb 993e
000003c0: 649e c8bd 8981 68be f962 81bd e833 16be
000003d0: 3934 05be c437 7abe de03 90be 3e73 69be
000003e0: b35f 87be dc21 57bd 0ee0 8fbe bf46 193e
000003f0: 4e9e 033e fad4 8abe 644e 80be 97ab 013e
0.015969537 -0.3296159 0.015649375 0.10967366 0.20338011 0.19031107 0.121802226 -0.15194985
0.06098191 -0.06041427 0.15594965 0.27108136 0.12504442 -0.099412575 -0.06857576 0.059277594
0.28498405 0.15026021 0.013792191 0.17756802 0.26817408 -0.056535862 0.23798378 0.0076114493
-0.0012707633 0.27621374 -0.16998617 0.15526524 0.303686 -0.19933279 -0.30881405 0.18158627
0.023317834 0.15597257 -0.047508445 -0.18260665 -0.073427394 0.25321704 0.30003318 0.13608818
0.24792367 0.006435132 -0.30792144 -0.23327985 0.10597826 0.07335737 0.057067532 -0.086534254
0.062995784 0.0061030067 -0.073112406 -0.18157059 -0.17073537 -0.07380827 0.0034532107 -0.17924689
0.08890986 0.17517227 -0.12405358 -0.15230201 -0.019413773 0.19958918 -0.2044893 -0.04457688
0.2298007 0.01609307 -0.17605625 -0.17705025 0.24024618 0.24206923 -0.033662982 0.3043559
-0.0259882 0.0754938 -0.16872106 0.15942226 -0.16824542 -0.020359809 -0.21003914 0.21551104
-0.15456828 0.19646533 -0.1021259 -0.28417632 -0.1520197 0.2895122 -0.26922208 0.15705395
-0.024704129 0.12051814 -0.05850515 -0.07623859 -0.002910368 -0.076060735 -0.27021024 0.1453562
-0.014518537 -0.17017147 -0.13566294 -0.08131999 0.049067356 0.23766388 0.19379467 -0.07613029
0.055879388 0.0561373 -0.25778 0.09886525 -0.0757726 0.29789633 0.28492475 0.07393762
-0.03394139 -0.19992203 0.06510948 -0.20970862 0.2226505 0.17621462 -0.30962694 0.09892896
0.03464883 -0.14627606 0.29308885 -0.0015295369 0.13437861 0.10150733 -0.32090417 0.16979061
0.08935388 -0.19400638 0.29853854 -0.28126162 -0.09347703 0.25083265 -0.07268192 -0.041921422
-0.21883915 -0.124524154 0.2256799 -0.2045424 0.07718193 0.20354898 0.2878412 -0.10628055
-0.14525221 -0.06938208 -0.110166185 0.19246233 -0.14195871 -0.100459784 0.2588188 -0.19162121
0.24175003 0.23796532 -0.1979927 0.08020599 0.08851584 0.23117296 -0.27793515 0.2492376
0.025080469 0.18936205 -0.21400085 -0.22843985 -0.120763645 0.055804666 -0.10101683 0.2426858
-0.27237722 -0.109610304 0.0140248 -0.15130602 -0.05143589 0.1511848 0.17977132 -0.05359678
-0.13799724 0.18450059 -0.20351774 0.3167385 -0.1684939 -0.15985377 0.041005563 -0.08103253
-0.19233434 0.26858833 -0.045308296 0.041697886 -0.27292696 0.3383347 0.12278012 -0.14316353
-0.16836287 -0.01778407 -0.25769496 -0.11280024 -0.30188155 0.079958394 0.06638257 -0.015279926
0.16538553 0.028225804 0.059153784 -0.13728431 -0.21905085 -0.013266861 0.10752302 0.18972307
-0.16864221 0.12177371 -0.09904561 0.1993527 0.13833515 -0.1621433 0.2672961 -0.085103154
0.20961733 0.3260423 0.27426717 -0.20826341 -0.028268632 -0.30870658 -0.052824445 0.158317
-0.29608408 -0.11693533 0.24683273 0.25338843 0.043230884 0.13565505 -0.21377589 0.14984801
0.30962917 0.29358092 -0.033891313 0.10875228 -0.26732832 -0.016077172 -0.18801679 0.30062526
-0.097958356 -0.22705664 -0.06317706 -0.14668238 -0.13008203 -0.24435335 -0.2812795 -0.22797868
-0.264402 -0.052522525 -0.28100628 0.14968394 0.12853357 -0.27115613 -0.25059807 0.12663113

sequential/lstm/Read_2/ReadVariableOp1 f4 [200]
00000000: bcf9 c9bb 0ad1 443c 3240 863b 7654 ebb9
00000010: 5e87 003c 9cab 0f3b 4239 8b3c a30f a23b
00000020: afd7 c0bc 42b0 ac3a 3cff 07bc c6ae 81bc
00000030: baff 11bc db47 533c 2d60 d5bc fe0d 153c
00000040: 3f34 3dbc aa52 013c fb92 1a3b 502e 2fbc
00000050: 1248 293c 1e86 e93b a6d2 98bc 3250 a1bc
00000060: d429 bb3b d2af 813c 17ab dbbc 4a6c 1d3c
00000070: 8612 acbc 4660 443b cfc0 293c f064 9dbb
00000080: 6326 ea3b e54f 63bc 0ea3 063a e3f0 353a
00000090: 8da1 86bc 3c8d c6bc 00b4 be36 648e 393c
000000a0: b1e9 0e3b d78f 2e3c db5a 9fbb 4173 2d3c
000000b0: cead 393c 2671 cebc 8898 9fbb 06cf dc38
000000c0: 825b 26bc 6d03 e73a a3f1 7f3f 339e 813f
000000d0: 1c49 803f f360 803f 7cff 803f a067 7f3f
000000e0: 4a2a 823f 9a3b 803f f1de 7c3f d2b9 803f
000000f0: 21c3 7d3f c8c1 7b3f 9649 7e3f a420 823f
00000100: d038 7a3f 561c 813f 6a40 7d3f 7905 813f
00000110: 950c 803f 25bc 7d3f d7e5 803f c1b3 803f
00000120: 7c8a 7b3f d235 7c3f 7172 803f 4a22 823f
00000130: 0241 7a3f 6be0 803f 24b0 7b3f d34f 803f
00000140: a63d 813f 881b 7f3f 39fd 803f a2ad 7d3f
00000150: a824 803f 6d56 803f db0d 7c3f 4050 7b3f
00000160: b78c 7e3f 5fc4 813f 7fd7 803f 1c6b 813f
00000170: d653 7f3f bf5a 813f f750 813f 888e 793f
00000180: b40e 7d3f 731d 7d3f 9d30 7d3f 532b 813f
00000190: 3a22 53bc 786e 073c 622d 3cbc 1eff 60ba
000001a0: 5e06 1d3c 9ae9 4639 220c 8ebc 9c2f eab9
000001b0: 6877 593c d5f2 f7bb 652a 12bb b5cb 91bc
000001c0: 40c6 61bb 0336 8b3c d58c a0bc 66ae 81ba
000001d0: c117 5ebc ad3a 34bc e045 e839 d891 053c
000001e0: 9333 73bc 6fd9 f63b e5fc 7bbc 1be3 66bc
000001f0: 4c0d 663b c2b9 a2bc fa04 423c ba64 0bbc
00000200: f4b7 b23b 57f8 e33b 9532 bebb 80a1 04ba
00000210: bcd8 b039 c32e 7dbb e7e3 d3bb 800d 9eba
00000220: c51c 943c 04b8 96bc 9016 523b 1a66 86bc
00000230: a30c 693c f8f4 6e3c 6d16 b9bb 49cd 083c
00000240: 1e6d 8e3c fb5b 3b3c 06d6 79ba f0bb 363b
00000250: e37e 123c b233 d03b 5c3b 5a3b 0ea2 4c3c
00000260: a4c9 15bc b79f d13a 10b8 5e3b e849 e0ba
00000270: e7ae b13c ffbe b33b 3b71 a339 29ab 393b
00000280: 0b04 29bc 8024 6bbc fc62 03bc eccb 783c
00000290: 986b b2bc 699e f23b a11c 21bc 07a6 453c
000002a0: cde0 673b 291e f8bb b175 543c 29ae fd3b
000002b0: eef8 cebc 399f 00bd fc9d 0a3c ec35 a63c
000002c0: 1c5a b9bc a82f 8c3c e62d 8ebc 9803 8839
000002d0: 6dec 333c a28f a63b ee06 fc3b ce69 01bc
000002e0: d3b4 1bbb 42d2 8038 bc54 51bc 5644 98bc
000002f0: 9958 c4bb f513 863c 0f17 c23a 96f1 2d3c
00000300: 68bd 013c 1d07 6e3c acd1 313c 8eec 01bd
00000310: d3ab ebbb 0080 7dbc 78f3 49bc d5bf b8bb
-0.006163804 0.012012729 0.004097008 -0.0004488562 0.007844774 0.0021922356 0.016995076 0.0049457117
-0.023540346 0.0013175088 -0.008300599 -0.015830409 -0.008911068 0.01289555 -0.026046837 0.009097574
-0.011548101 0.007893244 0.0023586142 -0.010692194 0.010332124 0.0071265837 -0.018655133 -0.01969156
0.0057117734 0.015830908 -0.02681498 0.009608338 -0.021004926 0.002996461 0.010360911 -0.0048032925
0.0071456893 -0.013874029 0.00051359914 0.0006940497 -0.016434455 -0.024237268 5.683396e-06 0.0113254525
0.0021806771 0.010654411 -0.0048631257 0.010586561 0.011332942 -0.025200438 -0.004870478 0.000105289786
-0.010153653 0.0017624922 0.99978083 1.0126404 1.0022311 1.0029587 1.0077968 0.99767494
1.0169156 1.0018189 0.9877768 1.0056708 0.9912587 0.9834256 0.99331033 1.0166211
0.9774294 1.0086772 0.98926413 1.0079795 1.000384 0.9911521 1.0070142 1.0054857
0.98258185 0.98519623 1.0034925 1.0166714 0.97755444 1.0068487 0.98315644 1.002436
1.0096939 0.99651384 1.0077277 0.9909307 1.0011187 1.0026375 0.9845864 0.98169327
0.99433464 1.0138053 1.0065764 1.0110812 0.997373 1.0105819 1.0102834 0.9748311
0.9885056 0.9887306 0.98902303 1.0091347 -0.012886578 0.008266084 -0.0114854295 -0.00085829373
0.009584038 0.00018969775 -0.01733977 -0.0004466743 0.013273098 -0.0075667896 -0.00223031 -0.01779733
-0.0034450442 0.016993528 -0.019598404 -0.0009893894 -0.013555468 -0.0110003175 0.0004430255 0.008152448
-0.014843839 0.0075332443 -0.015380119 -0.014092232 0.003510314 -0.019863967 0.011842007 -0.008507902
0.005454058 0.0069570947 -0.0058043697 -0.0005059466 0.00033730816 -0.0038632608 -0.006466377 -0.0012058467
0.018080125 -0.018398292 0.0032056905 -0.016406108 0.014224204 0.014584772 -0.0056484253 0.008349725
0.017386016 0.011435504 -0.0009530488 0.0027883016 0.008941385 0.006353819 0.003329954 0.012489809
-0.009142313 0.0015993033 0.0033984222 -0.001711187 0.021689845 0.005485415 0.00031174146 0.002833078
-0.010315905 -0.014351964 -0.008019205 0.0151853375 -0.02177982 0.007404138 -0.009833486 0.01206351
0.0035381794 -0.0075719547 0.012967513 0.007741709 -0.025265183 -0.031401847 0.008460518 0.020289384
-0.022625975 0.017112568 -0.01735587 0.0002594262 0.010981661 0.0050830403 0.007691256 -0.007898761
-0.0023758903 6.142679e-05 -0.01277655 -0.018587273 -0.005992007 0.016366938 0.0014807897 0.010616681
0.007918693 0.014528063 0.010853212 -0.031719737 -0.007192114 -0.015472412 -0.012326114 -0.0056381025

while/MatMul_11 f4 [200, 50]
00000000: 5c30 0fbe b0df 553c b066 95bd 6a83 b83c
00000010: 0472 303c 6865 d23d c138 9a3d f7dd ab3d
00000020: cc61 8abd 9e99 b2bd 9b9c f8bd 7c53 283e
00000030: bc8e 0c3d fee7 91bc 1e56 0d3d f106 9dbd
00000040: ce71 a73c e96f 0bbd 882d ca3d a965 37bd
00000050: 3797 d5bc a41d 1b3d 3fe4 5dbd e7c4 f23c
00000060: 112d f13d d82d 20bd 9861 17bd 451c 6dbc
00000070: f291 bd3d 5f3a 8ebb f4be ff3d 4484 78bd
00000080: 652b 0f3d 3263 7b3c 406e 89bc 867f 8a3a
00000090: 0479 213d 0edf 3abe e935 54bc 9496 82bd
000000a0: e82c d4bd a0ab b73c 95c8 95bd 24cd dbbc
000000b0: 66c4 18bb 3f49 183e 36f9 d2bd 0004 ccbd
000000c0: bf17 ebbc d532 bb3d 3d6a c53d 56d4 a93c
000000d0: 1829 a0bc 7e8f 933b af56 063d a74b 953d
000000e0: 6aae 2cbb 4417 823c 7b5e 6dbd 4461 ef3c
000000f0: 7451 84bd e58d 07bb 8922 dc3c 0705 bbba
00000100: 59e0 9d3d 5c52 cc3c b372 c43d 7b09 cd3d
00000110: bbd2 acbc e02e 4d3c 5ab8 81bd 4bae 04bd
00000120: a23d 63bb 8003 393d 6740 45bc 4f44 98bd
00000130: d3f2 463d 9423 063e 103d 3dbd cd6a e13c
00000140: 3150 95bd 6d44 59bd fffd c9bc daae 1a3c
00000150: 0128 a2bc 90ba c93d 8a76 88bd 70ad ef3d
00000160: c08f 14be f058 923d 34bf 173c 9b0f c93c
00000170: 019e aa3d 5eb9 393d a121 51bd 8500 1fbe
00000180: dc94 79bc b33b 45bd 607a 653d 297f b0bd
00000190: 4f63 d13c 93b8 f93c d20e 7fbd 1e19 513d
000001a0: 9442 043c 14a3 24bd bf87 a3bd d4ba 103e
000001b0: 7024 ad3c 47db 3ebd 9ea7 edbc 6992 23bb
000001c0: 05b6 cabc 60ea 8cbd a775 9f3c 5cb2 c53d
000001d0: ae16 003d cfcb 76bd 2fed 79bd 429b 98bb
000001e0: c3cf ab3d 460e da3d e34a fc3b 7d4f 4f3d
000001f0: ffd2 edbc 732f c1bd 36b2 443e 4b2b 153d
00000200: 6b94 8ebc 2e70 ccbd 7019 a63c fc66 9d3c
00000210: 98b5 433d 1eb6 6c3b 7b2f 353c 2ceb a53d
00000220: 2e2c 64bc 0184 bb3d b0da f73c e36e 48bb
00000230: e2f8 b7bd 730b b03d b879 573b 2aeb ae3d
00000240: 74c7 7abb cf94 3d3e 7022 c9bd f7bc b2bc
00000250: f009 9ebd 0418 f93d b226 083d 8f20 883d
00000260: a077 dd3c eb35 963d 0e88 e73c 845e 9e3d
00000270: 7d89 553c 107d d13d 7d40 df3d d957 1ebd
00000280: 37fb 173d c272 9b3d 97b5 aebd 2516 92bc
00000290: 1bc4 153d 2d3a 81bd 2f79 c7bd 317e 9c3d
000002a0: b79c 963d ce6c 0b3d a71d 213c 6a03 f53d
000002b0: 87e6 143d c21b 4d3c 4bb0 bb3d a68e 3e3d
000002c0: afcb 22bd 40cf 2dba c0d7 2b3d 5173 72bc
000002d0: 63d0 34bb 819d a2bd e613 b53b 9065 98bd
000002e0: e276 a43c 0f10 5e3c 8301 97bd 4bf2 cf3d
000002f0: 984c 013e cfe6 a3bd 64b0 7bbd 5277 c63c
00000300: b686 d53d 1d81 113d dbc8 093e 0202 b5bd
00000310: 206f ed3d 22f1 d03d 6616 afbd 80c9 cc3c
00000320: 0bbe c03d 7636 673d a072 a5bd 9f06 82ba
00000330: 4de3 f53c 5815 78bb e53c 0e3b ccf0 e8bc
00000340: be1a 4b3c 2b77 313d ee2c 843c 7281 853b
00000350: 5c49 353b f1aa b23c dc16 0e3e 7c09 163d
00000360: 2400 30bc 8799 b1bd d333 a13d 85b6 04bc
00000370: e8ad 1dbe 090d 333d 2c1e 213d de06 2d3e
00000380: a205 263c 2c0f 5c3d 8ed5 193e 29fd 673d
00000390: 02e1 0e3e 2f12 40bc 5d2a ebbd 894c 25be
000003a0: 67ed 3f3d d010 cabd 1ae2 77bd d3cf 64bc
000003b0: 0c83 14bc 73cc 24be 6bf5 dcbc 79ac d5bd
000003c0: 75fa 7c3d 2e80 283e bf4d 92bd a0e3 683e
000003d0: 1a72 07be 7e7d 3fbc afaa 9cbd 5105 bd3c
000003e0: 9697 9f39 f476 2f3d 61b3 25bc faec 873c
000003f0: 97e3 2bbd 3131 85bd ef69 c63d c309 93bd
-0.13983291 0.01305382 -0.07294977 0.0225236 0.010769371 0.10273248 0.07530356 0.08391946
-0.067569345 -0.087207064 -0.12139245 0.16438097 0.03431581 -0.017810818 0.034505956 -0.076673396
0.020440008 -0.034042273 0.09871966 -0.044774685 -0.026073081 0.037870064 -0.05417275 0.029634906
0.11776174 -0.03910622 -0.036958307 -0.014472072 0.092563525 -0.0043404545 0.12487593 -0.060673013
0.034953494 0.015343474 -0.016776204 0.0010566569 0.03942205 -0.18249151 -0.012952306 -0.06376377
-0.10360128 0.022420704 -0.073136486 -0.026831217 -0.0023310422 0.14871691 -0.103014395 -0.099617004
-0.028697846 0.09140555 0.09639404 0.020731132 -0.019550845 0.0045031896 0.03279751 0.0728982
-0.0026349076 0.015880235 -0.05795143 0.029221185 -0.064608485 -0.002068394 0.026871936 -0.0014268466
0.077088065 0.024941616 0.0959219 0.10011574 -0.021096578 0.012523383 -0.063339904 -0.03239278
-0.0034674187 0.045169353 -0.0120392805 -0.07434904 0.04857142 0.1309951 -0.046200812 0.027516747
-0.07290686 -0.05304377 -0.024657248 0.009441102 -0.019794466 0.09850037 -0.066632345 0.117030025
-0.14507961 0.0714587 0.009261895 0.024543574 0.08330918 0.045342796 -0.05105746 -0.15527542
-0.015233245 -0.048152637 0.05602491 -0.08618004 0.02556005 0.03048352 -0.062269993 0.051049344
0.008072514 -0.040194586 -0.07984876 0.1413377 0.021135539 -0.046595838 -0.02901059 -0.0024959093
-0.024744997 -0.06880641 0.01946528 0.0965316 0.03127163 -0.06025296 -0.06101721 -0.00465718
0.08389237 0.10647254 0.007699357 0.050612915 -0.029031275 -0.09432878 0.19208607 0.03641824
-0.017404756 -0.09982334 0.020275801 0.019214146 0.047780603 0.0036119292 0.0110586835 0.08101496
-0.013926549 0.09156037 0.030255646 -0.0030583672 -0.089830175 0.08595934 0.0032878947 0.08540948
-0.0038265856 0.18513797 -0.098210216 -0.021818621 -0.07716739 0.12162784 0.033240028 0.06646835
0.02703458 0.07334503 0.028263118 0.07732871 0.013033268 0.10228932 0.10900972 -0.038657997
0.03710481 0.07590248 -0.08530729 -0.017832825 0.036563974 -0.06309924 -0.09739911 0.076412566
0.0735411 0.03403931 0.00983373 0.11963542 0.03635266 0.012518825 0.091644846 0.04652276
-0.03974503 -0.0006630309 0.041953802 -0.014798001 -0.0027590028 -0.07940198 0.0055260537 -0.074412465
0.020076219 0.013553633 -0.07373335 0.101536356 0.12626874 -0.080030076 -0.061447516 0.024226818
0.10426085 0.035523523 0.13455527 -0.088382736 0.11593461 0.102022424 -0.08549194 0.024998426
0.09411248 0.056448422 -0.080785036 -0.0009920186 0.030015612 -0.0037854519 0.0021703776 -0.028435133
0.012396513 0.043326538 0.016134705 0.004074269 0.0027662134 0.021810027 0.13875908 0.03663014
-0.010742221 -0.08671861 0.07871213 -0.008100157 -0.15398371 0.043713603 0.039335415 0.16897151
0.010133179 0.053725407 0.15022871 0.056637917 0.13953021 -0.011723085 -0.114826895 -0.16142477
0.046857264 -0.09866488 -0.06051836 -0.013965565 -0.009064447 -0.16093616 -0.026972493 -0.10433287
0.061762292 0.16455147 -0.07143735 0.22743082 -0.1322712 -0.0116876345 -0.07649743 0.023073824
0.00030439784 0.042838052 -0.010113568 0.016592491 -0.041965093 -0.06503523 0.09688174 -0.07179596

while/MatMul f4 [200, 3]
00000000: 0bf5 77bd 9fbe 32be c1c5 b03d b05b 983d
00000010: 29f9 3f3e d964 e1bd cd74 0abe 885b 0f3d
00000020: f8e7 f83d 6a6a 693d ec9c 13be 7fcf 223d
00000030: e8a4 923d 8986 37bd b407 183e d812 52bd
00000040: e2f0 babd bc45 97bd 4af1 a9bd 0506 39bd
00000050: 4bbf dbbd 060d 51bd 4e39 4cbb 45ec dd3d
00000060: c721 773d 75e0 23be f87f a2bc 6b0e 2f3e
00000070: 0f6a f9bd 399f 313e d26d 123e 170c c73d
00000080: cc58 8c3d d8fd e73d 47c6 0cbe 7474 58bd
00000090: 3974 22be 30d7 0e3e 3375 153e 06f7 bc3d
000000a0: 9156 f73d 7482 393e 6126 063e 1735 33be
000000b0: 16fc 36bd 23ad 6f3d 0a82 cb3d 7f00 ecbb
000000c0: 3511 20be 5c67 26bd 249d 32be a3a2 acbd
000000d0: 8b8d b43d 48f0 afbd 2254 ef3d 8055 c73a
000000e0: e160 fe3d d332 69bc a48e 26be 3ab3 18bd
000000f0: 6009 853d 255b 083e 75f4 023e 4de0 fcbc
00000100: 4792 c1bd cc42 bdbd f87a b1bd 36f7 043e
00000110: 83fa 0bbe fc7a 223e cbc3 b23d f70d 13be
00000120: d968 2bbe 2f11 86bd 4533 0abe 02b8 afbd
00000130: 0c9e 163e 6cd8 79bd 2017 45bc c175 84bd
00000140: 5ccb f63d 9e04 bebd 0a36 a2bc 1cfa 163d
00000150: 696e 08bd 0128 b0bd ac5e a63d 2f42 053e
00000160: 292e c5bd 50c2 1f3e 9187 1fbe b861 d53d
00000170: 0337 a63d 64ae 31bd 4d33 2f3e 8fe9 7c3c
00000180: 0c64 bc3d 5692 68bd 04d2 d53d 3016 d6bd
00000190: 160b 9cbd e542 2a3d b730 9c3d f111 0fbe
000001a0: 50a1 0f3e 6036 21bd bc01 f9bb 5686 8c3d
000001b0: 98a2 c1bd d820 acbd 04d4 703d e4fc 14be
000001c0: 5d6c bebd 7b9f 0a3d 6d1b aabd 1985 b23d
000001d0: a393 a93d 81bd 08bd dc74 213e a2d0 2c3e
000001e0: 4709 143e 6ffe 253e d05f d33d bcca fe3d
000001f0: 3414 ea3d b5c4 dc3c 8dd9 d1bc f9e1 f9bd
00000200: 32f4 bcbd c229 33be 5931 be3d db2d 60bc
00000210: 873c e1ba 3603 213d ba71 d2bc 5244 05be
00000220: b15d 17bd 2dd7 eabd 44d1 093e 07a8 bbbd
00000230: 7b15 fd3d 7194 113e a6fb d13d fab1 123e
00000240: b56b 223e d800 18be 4f2d 11be 1e3c ce3d
00000250: eb2a 04be 99ef f6bd 5a6a 82bd 8e7d bc3d
00000260: 9e35 393d 4bff f1bb 4e49 0e3e 0103 00be
00000270: a45f 5cbd 5858 9bbd fd61 193e bc57 ae3d
00000280: 7873 743c 6246 083e 5138 e53d 11fa 98bd
00000290: 13d9 043e 5a3b 29be da04 c13d 038e cb3d
000002a0: d1e1 f8bd aab4 de3d d713 46bd 73bb 833d
000002b0: 84f2 92bd ef2a 0fbc f1a7 f8bd d097 043e
000002c0: f78a a9bd 1652 113e 2fda eabd aa5b d83d
000002d0: d950 b3bd 2f1b eabd f82d ebbd d41d 383e
000002e0: 3b5b 113e 9294 173e 5cdd 6bbd 762f 9bbc
000002f0: 96b8 eb3c 1b62 9cbd 18fd b9bd b287 223e
00000300: a0fb b6bd 0520 0fbe c121 a7bd 22ba 893d
00000310: f0ce ae3d ba6f e03d b7ba 1a3e 6b85 0bbe
00000320: 73e8 ea3d 85b4 0f3e 7718 173e dd37 b93d
00000330: 63f6 e4ba af0c e2bd 7ac3 4d3d d956 253b
00000340: 12d7 8fbd 7616 133e dd96 fb3d c0fa ccbd
00000350: dc80 13be 2668 23be 7cf0 eb3a 58ac ecbd
00000360: 7fda 323c 0cac 263c be63 d03c 10b8 a3bd
00000370: 069a af3d 84a0 0fbe 0654 abbd 122f 4a3d
00000380: a7d3 7a3d 8a51 e3bd e13d 0f3e d6c7 943c
00000390: 865e 173e 2e0a 13be 4a42 97bb 5b7f 07be
000003a0: bf6c 153e 5542 39bd ac58 b03d 088d 17be
000003b0: e31f b53c da7a 6dbd 1a7a df3c e8fd a43d
000003c0: 1617 23be ac73 cbbd 5edf cc3c 5920 123e
000003d0: 24e8 febd 5138 003e 2826 65bd d2b8 77bd
000003e0: 620d 2cbe cf38 fc3d 2852 34be 9df8 093d
000003f0: 1112 9bbc b800 37be 2e13 b43d 3924 903d
-0.060536426 -0.17455529 0.086314686 0.07439363 0.18747391 -0.11005563 -0.13521118 0.0349994
0.121536195 0.05698625 -0.1441533 0.039748665 0.071603596 -0.044806037 0.14846689 -0.051287502
-0.09127976 -0.07386348 -0.08297975 -0.045171756 -0.107298456 -0.05103781 -0.0031162086 0.108360805
0.060334947 -0.16003592 -0.01983641 0.17095344 -0.12178432 0.17345895 0.14299706 0.09719103
0.06852874 0.11327714 -0.13747512 -0.052845433 -0.15864648 0.13949275 0.14595489 0.092268035
0.12077058 0.1811617 0.13100578 -0.17500721 -0.044674 0.058514725 0.09936912 -0.0072022076
-0.15631564 -0.040625915 -0.17442757 -0.08429458 0.0881606 -0.08590752 0.11685969 0.0015207976
0.12420822 -0.014233309 -0.1626535 -0.0372803 0.06495929 0.13316019 0.12788565 -0.030868674
-0.09451728 -0.09241256 -0.086660326 0.12984928 -0.13669781 0.15867227 0.08728751 -0.14360796
-0.16739215 -0.06546246 -0.1349612 -0.085800186 0.14708728 -0.06099741 -0.012029439 -0.06467772
0.120505065 -0.092782244 -0.019801158 0.036859617 -0.03330842 -0.0860138 0.08123526 0.13013528
-0.09627945 0.15601468 -0.15579058 0.10419029 0.081159614 -0.043379202 0.17109413 0.015436544
0.0919877 -0.05678018 0.10440448 -0.10453451 -0.07619302 0.0415677 0.07626479 -0.13971688
0.1402638 -0.039358497 -0.0075990837 0.0686156 -0.094548404 -0.08404702 0.058795944 -0.14549595
-0.092980124 0.0338435 -0.08306012 0.087167926 0.082801126 -0.03338385 0.15767235 0.16876462
0.14456664 0.1621034 0.10321009 0.12441012 0.11429635 0.026949266 -0.025616432 -0.12201304
-0.09226264 -0.17496398 0.09286756 -0.013682808 -0.0017184176 0.039309703 -0.025688995 -0.13014343
-0.036954585 -0.11466823 0.13458735 -0.09162908 0.12357613 0.14216782 0.10253076 0.14325705
0.158614 -0.14844072 -0.1417744 0.1007006 -0.12906997 -0.120574184 -0.06367941 0.09203635
0.04521715 -0.0073851696 0.13895151 -0.12501146 -0.053802148 -0.075852096 0.14978786 0.08512828
0.014920108 0.13308099 0.11192382 -0.074695714 0.12973432 -0.16526547 0.094247535 0.09939196
-0.12152446 0.10874303 -0.048358764 0.064322375 -0.071751624 -0.0087382635 -0.12141407 0.12948537
-0.082784586 0.1419147 -0.114673965 0.105643585 -0.08755655 -0.11430966 -0.11483377 0.17980129
0.14194958 0.14802769 -0.05758415 -0.01894353 0.02877454 -0.076359 -0.09081477 0.15872076
-0.089347124 -0.13977058 -0.08160735 0.06724955 0.08535564 0.1095881 0.15110289 -0.13625114
0.114701174 0.14033706 0.14755426 0.09043858 -0.0017468448 -0.110375755 0.05023525 0.0025228767
-0.07023443 0.14364037 0.12284634 -0.10008764 -0.14404625 -0.15957698 0.0018000747 -0.115563095
0.010916351 0.010172855 0.025438186 -0.079940915 0.085742995 -0.14026076 -0.083656356 0.049361296
0.061237004 -0.11099537 0.13988449 0.018161695 0.14782152 -0.14359352 -0.0046160566 -0.13232176
0.14592265 -0.045229275 0.08610663 -0.14799893 0.022109931 -0.05797849 0.027279902 0.08056241
-0.15926775 -0.09934172 0.025008854 0.14270152 -0.12446621 0.12521483 -0.05594459 -0.060478993
-0.1680198 0.12315523 -0.17609465 0.03368436 -0.018929513 -0.17871368 0.08792721 0.07038159
