backend/exported_models/model_cnn.tflite (tflite, 185472 bytes, 8 tensors)

sequential_2/conv1d_2/BiasAdd/ReadVariableOp f4 [8]
000000 16 26 bc 3c 28 31 29 bc 78 6b 20 3d 59 50 c5 bc
       0.02296738 -0.010326661 0.03916499 -0.024086164
000010 6e 4b 37 bc e2 a3 41 bb 11 f6 29 3c b3 e9 e6 3c
       -0.011187417 -0.0029547145 0.010373608 0.028187608

sequential_2/conv1d_3/BiasAdd/ReadVariableOp f4 [16]
000000 6d 50 ed 3b 38 e8 82 3b e0 13 00 bb 1d cf b3 bc
       0.0072422535 0.003994968 -0.0019543096 -0.021949345
000010 85 9d fd bb fa de 69 bc e2 2c f7 bb 93 9f 7f 3c
       -0.007739725 -0.014274353 -0.0075431922 0.01560201
000020 ab 4e 26 bc 00 00 00 00 d1 87 7a bc 07 11 b2 3c
       -0.010150592 0.0 -0.01529117 0.021736635
000030 7c 1b 90 3c bd dd c0 bb fb ac 0c 3c 12 fa 89 3b
       0.01759123 -0.0058858083 0.008586164 0.004210719

sequential_2/conv1d_2/Conv1D f4 [8, 1, 3, 3]
000000 0a 8d 5a 3e e3 88 7f 3d 94 83 03 3e c4 8c 9f 3e
       0.21342865 0.062386405 0.12843162 0.31162083
000010 4d 1e dc 3e 5c 64 7a 39 41 6c c1 be aa c1 13 3e
       0.42991868 0.00023879245 -0.37777904 0.14429346
000020 cf 36 a2 be 5a 58 53 be 3e c6 7d be 31 ae cf bc
       -0.3168244 -0.20639172 -0.24782655 -0.025351616
000030 40 e4 9f bd 10 09 84 3e b2 77 15 be 0c f1 b8 3d
       -0.07807207 0.25788164 -0.14596441 0.09030351
000040 f3 31 b0 3e 40 90 be 3e 48 52 45 be 8f 72 bb be
       0.34413108 0.3721943 -0.19269669 -0.3661084
000050 a9 ca 5a 3d fa 7a e2 bc 9e 1b 4f 3e b6 2a 54 be
       0.053415928 -0.02764653 0.20225379 -0.20719418
000060 70 4a 7f 3e 26 74 ae be 50 7b dd 3d d8 37 ad 3e
       0.2493074 -0.3407299 0.108145356 0.33831668
000070 45 91 64 be a1 e8 73 be bf 55 af 3e 00 96 b6 3c
       -0.22321041 -0.2381921 0.34245107 0.022288322
000080 25 2f 96 3e a2 87 00 3e 4e b1 c7 3e b9 0a ae 3e
       0.29332843 0.1255174 0.3900246 0.33992556
000090 33 fe 82 3d cb 4f a7 bb 5b 67 63 3e 6b 48 9a 3e
       0.06396141 -0.0051059476 0.22207396 0.30133376
0000a0 fb 59 65 3e e4 1c e7 3b 7d fb be be 2e 33 2d be
       0.22397606 0.0070530046 -0.37301245 -0.16914055
0000b0 b6 21 cf 3e 4d 36 d4 3c 50 ca 95 be 23 4a a6 3e
       0.40455407 0.025904799 -0.29255915 0.32478437
0000c0 36 d3 8c 3b e8 ad ad be 70 b0 ba 3e c4 e5 f5 3c
       0.0042976392 -0.33921742 0.36462736 0.030016787
0000d0 94 85 5c 3e 60 ee be 3e 2b 09 9b 3e ad ae cb 3d
       0.21535331 0.3729124 0.30280432 0.09945426
0000e0 2b 67 6e be 63 87 ba be bf 2c 1c be 84 34 af be
       -0.23281543 -0.36431417 -0.15251444 -0.34219754
0000f0 d2 8c ca be f3 ed 61 be eb 22 a1 be 4d 45 a0 be
       -0.39560562 -0.22063427 -0.31471953 -0.31302872
000100 1d 3f bf be 8d ad 86 be 2b c5 9f 3e 25 71 5c be
       -0.3735284 -0.26304284 0.31205115 -0.21527536
000110 54 70 1e be f7 48 d6 3e 29 f4 0b bd 4a 41 64 be
       -0.15472537 0.41852543 -0.034168396 -0.22290531

sequential_2/conv1d_3/Conv1D f4 [16, 1, 3, 8]
000000 f6 ee b2 3d 63 cf d2 3d 34 1c 90 bd 98 d4 2e 3e
       0.087369844 0.10293462 -0.07036629 0.17073286
000010 46 b1 30 3e fc c0 49 be c5 5a 28 3e 47 11 7a 3e
       0.17255124 -0.19702524 0.16440876 0.24420653
000020 70 ae 88 bd 6f 60 90 be 65 47 9c bd 87 06 c9 3d
       -0.06673896 -0.28198573 -0.07630805 0.09815698
000030 d2 4b 45 3d 52 dd 0f be 54 b4 5d bd d6 87 0d 3e
       0.04816801 -0.14049271 -0.054127052 0.13821349
000040 dd e9 b9 3d ca 6f 8f bd 22 05 08 be 9f cd 44 3e
       0.09077809 -0.07003744 -0.13283208 0.19219063
000050 36 fc 0c 3e 64 a0 2a be fa 23 5b bd 80 fb 5f 3e
       0.13768086 -0.16662747 -0.053501107 0.21873283
000060 6e 76 af bd d5 22 40 3e af c1 90 3e e0 56 8f 3e
       -0.085675105 0.18763287 0.2827277 0.27995968
000070 31 f5 9d bd eb 6d 24 bd 8c 2a 8a be 64 2c a1 3e
       -0.07712782 -0.04014389 -0.26985586 0.3147918
000080 4f b4 46 3c 1d 92 ab bd bf 8c 0d be 2f d1 88 be
       0.01212795 -0.08377478 -0.13823222 -0.26722094
000090 15 cf 4b 3e fa 00 a5 bd 9c a4 93 bd ba 4e a0 3c
       0.19903214 -0.08056827 -0.07209131 0.01956879
0000a0 fd c8 82 3e 2b 33 57 3e c0 bb 32 3e b3 79 3f be
       0.25543967 0.21015613 0.17454433 -0.18698768
0000b0 4f 0a 88 3e 1d 18 4a be e3 59 3c be 52 8d 86 3e
       0.26570365 -0.19735761 -0.18393664 0.26279694
0000c0 2e ba 04 3e 14 c5 74 be 22 09 8e be 44 3e 0b bd
       0.12961647 -0.23903304 -0.27741343 -0.033994928
0000d0 8b 3e d4 bd 8c 5e 76 3e 13 80 15 be ff 50 05 3e
       -0.103634916 0.24059504 -0.14599638 0.13019179
0000e0 a9 0b 54 3e 21 ab 95 3e 60 43 57 3e 93 f0 17 be
       0.20707573 0.29232123 0.21021795 -0.14837866
0000f0 c9 ab 20 bd e7 28 16 be 35 55 56 be 87 e4 6b 3d
       -0.039226327 -0.1466404 -0.20930941 0.057590988
000100 43 f7 5d 3e e2 a4 46 3e ec 44 02 3d ed 8e d5 bd
       0.21676354 0.19398835 0.03180401 -0.104276516
000110 be 91 85 3d 7a b7 8c 3c 9d cb 7d 3e d3 7e 4f 3e
       0.06521939 0.017177332 0.24784704 0.20263223
000120 ae 7e 70 3d d1 e1 2d be 38 70 9d be 8a 3b f9 bd
       0.05871456 -0.16980673 -0.3074968 -0.12169559
000130 8f 91 a4 3d 9f 97 dd bb 0c b4 16 be c8 66 7c 3e
       0.080355756 -0.0067624594 -0.1471712 0.24648583
000140 ac bf 69 3e 5d 3e ea bd 3b 99 e8 bd 44 e4 e6 bd
       0.22827023 -0.11437676 -0.113573514 -0.11274007
000150 6d 8d 51 be a3 23 87 be 2b bd 98 be 74 87 f7 3c
       -0.20464106 -0.26394376 -0.29831824 0.030215956
000160 17 59 43 3d da d9 21 3e 55 53 87 3e 01 26 53 be
       0.047692385 0.1580576 0.26430765 -0.20619966
000170 d2 2c 95 3d 9a f6 a0 bc ef f8 77 bd 6c 6c a7 bd
       0.072839394 -0.019648839 -0.060540136 -0.08174977
000180 ee 68 96 bd 0e 0a 28 3c 1d aa 18 3e 53 32 4f be
       -0.073442325 0.0102563035 0.14908643 -0.20234041
000190 07 a8 4b 3e a6 f7 23 3e 9f 5b 0a 3d 73 c8 ea 3c
       0.19888316 0.16012439 0.033778783 0.028660035
0001a0 00 e4 22 bd 7c 15 7d 3e 37 b7 84 3e 4e f4 8f 3e
       -0.03976822 0.24715227 0.25921032 0.28116077
0001b0 50 1b 81 3e a4 ad 5a 3e 9f ce 30 be 79 93 1f 3e
       0.2521615 0.21355301 -0.1726632 0.155836
0001c0 c4 fc 22 be 8c e3 d1 bd ea 0c e7 bd 65 99 d6 3d
       -0.15916735 -0.10248479 -0.1128176 0.104784764
0001d0 d5 b6 86 3e e0 ed a5 bd f4 de 99 3e c2 5d 74 bd
       0.26311365 -0.08102012 0.30052912 -0.059659727
0001e0 ee 4e 5b be 45 3e 8a 3e 79 36 42 3e 92 20 85 bd
       -0.21416828 0.27000633 0.18966092 -0.06500353
0001f0 fe 21 8a be 84 42 21 3d 4f cc 56 3e 56 56 f4 3d
       -0.2697906 0.039370075 0.20976375 0.1193053
000200 84 16 87 be 43 c4 e1 bd 2e a1 94 3e a6 bc 74 3e
       -0.26384366 -0.11023762 0.2902922 0.23900089
000210 8b 06 47 3d 01 6d 16 3e bf 43 eb bd b3 10 47 3e
       0.048590224 0.14690019 -0.11487531 0.19439964
000220 a7 85 be 3a d3 33 88 3e ce 52 81 be 6b da 6c be
       0.0014535681 0.2660204 -0.25258487 -0.23130195
000230 47 b7 92 bd 8b 65 aa 3d e3 d1 36 3e b0 ba d8 3d
       -0.07163864 0.08320149 0.17853503 0.10582483
000240 e1 23 25 be 0a 3f 18 3d ad d6 0c be 31 6e 08 3e
       -0.16126968 0.037169494 -0.13753767 0.13323285
000250 10 9d b7 3d 1b 54 2f 3e dd 85 ca bd 54 91 fb 3d
       0.08965504 0.17121927 -0.09888814 0.122835785
000260 48 6b 92 3e 3a f9 80 3b 33 2c 72 3e 7d 00 7c 3e
       0.28597474 0.00393596 0.23649673 0.24609561
000270 2a dc c9 3c 71 c1 34 be 81 11 54 3e ef 60 56 bd
       0.024641115 -0.17651917 0.20709802 -0.052338537
000280 9b 58 dd 3d 33 99 3b 3e 9e e2 8e 3e bf 92 fb 3d
       0.10807916 0.1832016 0.2790727 0.12283849
000290 43 7a 5f 3e f6 90 03 3e 16 ba 45 3d 17 a9 78 be
       0.21823983 0.12848267 0.04827317 -0.24283253
0002a0 6a 9e be bd 29 54 3d bd 72 c7 29 3e 1a 10 83 bd
       -0.09307559 -0.04622284 0.16579989 -0.063995555
0002b0 11 3d 8c bd 00 13 68 3e df e9 4a be cb 45 70 3e
       -0.06847585 0.22663498 -0.19815777 0.23464124
0002c0 fc 48 8b be 4a 06 01 be 09 fa 0d 3e 41 93 40 be
       -0.2720412 -0.12600055 0.13864912 -0.18806173
0002d0 94 74 17 be 04 01 cd bd 50 0b 63 be ce bb 20 3e
       -0.14790565 -0.10009959 -0.22172284 0.15696642
0002e0 91 85 a3 3d 41 4a 36 3e bf 3a 46 bc 57 25 9d be
       0.0798446 0.17801763 -0.012098967 -0.3069255
0002f0 72 ce 31 3e 03 13 26 3d 44 82 15 3e d9 00 7d 3e
       0.17363909 0.040545475 0.14600474 0.24707355
000300 32 46 a7 bd 72 07 27 3e ce 67 8e 3d 5d 3d 81 3e
       -0.081676856 0.16311434 0.06953393 0.2524213
000310 4a 01 16 bd 71 07 8e be 15 ad e4 3d e0 05 0e 3d
       -0.036622323 -0.27740052 0.11165825 0.03467357
000320 a4 c5 ec bd 1f 2d 2e 3e fb 8b 6f 3e 07 75 46 3e
       -0.115611345 0.170094 0.23393242 0.1938058
000330 cf 2d 6f bd c9 fc 35 3e 5c 77 44 3e 3d 09 48 3e
       -0.058393296 0.17772211 0.19186157 0.19534774
000340 dc d7 b6 bd 7d 62 28 bd 4f e9 81 3c 3f c3 b2 3c
       -0.08927891 -0.04110955 0.01585832 0.021821616
000350 50 ad 89 3e 30 27 94 be ff 21 a1 be f0 94 8b 3e
       0.2689004 -0.28936148 -0.3147125 0.27262068
000360 c0 68 4a be f8 85 88 be 28 76 5e be 6d 0f 30 be
       -0.19766521 -0.2666471 -0.2172476 -0.17193384
000370 28 60 f4 3d 00 09 42 be 45 07 16 be 2b 40 8d be
       0.11932403 -0.18948746 -0.1465121 -0.2758802
000380 c0 93 00 3e c7 39 23 be 5e d3 4f be 0a e2 50 3e
       0.12556362 -0.15940009 -0.20295474 0.20398727
000390 7c 0b f5 3d 6d 3f 23 be 1a ac 47 be 92 d7 04 be
       0.11965081 -0.15942164 -0.19499245 -0.12972859
0003a0 00 15 8d 3a d0 b3 82 be 30 a9 b9 3c 2a 99 01 3e
       0.0010763705 -0.2552781 0.022663683 0.12656084
0003b0 d7 99 5b be 6c 6a e7 3d 6d 1e 8a be 9f b6 7a be
       -0.21445404 0.11299595 -0.26976338 -0.24483727
0003c0 99 ec 5c be 91 34 b5 bd 7c e4 2d be a6 da 7d 3e
       -0.2157463 -0.08847917 -0.16981691 0.24790439
0003d0 61 5d 35 3e 49 09 0d be ea 8c 78 be ac 53 5d 3e
       0.17711402 -0.13773073 -0.24272504 0.2161395
0003e0 a8 0f ba 3c 34 c5 8d 3e 9a c5 b3 bd 4c 97 12 3e
       0.022712544 0.27689517 -0.08777924 0.14315528
0003f0 e1 60 61 3e 57 79 ed bb b6 9f 47 3e d7 d5 13 3e
       0.22009613 -0.007247131 0.19494519 0.14437042

sequential_2/dense_6/BiasAdd/ReadVariableOp f4 [12]
000000 55 04 a8 bc 6e 97 2a bd 4e 16 17 bd 39 29 44 3d
       -0.020509878 -0.04164832 -0.036886506 0.047890875
000010 bc 2c 25 3d b4 4f c6 bc 87 a9 1f bd 5c 90 90 3c
       0.040325865 -0.024207927 -0.038980033 0.01764696
000020 43 31 84 bc 4b a6 52 3d 4d 72 3e 3d 9c a8 94 3c
       -0.016136771 0.05142812 0.046495724 0.018146805

sequential_2/dense_5/BiasAdd/ReadVariableOp f4 [16]
000000 49 74 c3 bb 00 00 00 00 eb ca a4 3b f2 c6 3d 3c
       -0.00596479 0.0 0.0050290725 0.011583077
000010 00 00 00 00 2b 74 c3 bb ef 74 c3 bb 89 54 a2 bb
       0.0 -0.005964776 -0.0059648673 -0.004953925
000020 ee a0 5c bc 9a 74 c3 bb 3c 73 c3 bb 4a 75 c3 bb
       -0.013466103 -0.0059648277 -0.0059646647 -0.0059649097
000030 57 af 56 bb 00 00 00 00 da 6b c3 bb 50 33 b1 bb
       -0.003275832 0.0 -0.0059637846 -0.0054077283

sequential_2/dense_5/MatMul f4 [16, 2768]
000000 8e 24 7e 3c 40 dd 26 3c 3e 6c 0c 3d 50 bb d6 3c
       0.015511645 0.010184586 0.034282915 0.026212364
000010 64 39 60 bc fb ad 46 bd 2c dd fe 3c 9c a2 05 3d
       -0.013685558 -0.048505764 0.031111322 0.03262578
000020 41 a6 b6 3c 77 c6 28 bd f0 d4 83 bc 64 cf d9 3b
       0.022296073 -0.041204896 -0.016092747 0.0066470373
000030 6c 1b 19 bc f4 ec c5 39 3c 16 56 bd 0f 3b ff 3c
       -0.009344917 0.00037751312 -0.052267298 0.031156091
000040 58 08 d9 bc b1 c7 a7 3b d1 e8 0a bd 5f 99 a2 bc
       -0.026493236 0.0051202406 -0.033913437 -0.019848524
000050 5d ea cc 3c 24 d6 9a 3c e7 b6 24 3d 3d d2 9c bc
       0.025014097 0.018900938 0.04021349 -0.019143218
000060 8e 8b 12 bc 1a fc 88 bc 50 30 a9 bc b9 6d ff bc
       -0.008944405 -0.016721774 -0.02065292 -0.03118025
000070 58 93 05 bd ff cd b3 bb 2b b9 e6 3c e8 22 1c 3d
       -0.03261122 -0.005487203 0.028164467 0.038119227
000080 d0 2d b6 3c 39 1f ef bc 23 65 13 bd 58 94 29 3c
       0.022238642 -0.029189693 -0.035985123 0.010350309
000090 b5 35 c0 3c 89 31 ef bc 34 73 42 bd 12 8d b1 bc
       0.02346311 -0.029198425 -0.047473148 -0.021673713
0000a0 98 a3 f8 bc 69 d9 21 bd 35 e0 87 bc 3e 0f 01 3d
       -0.030351445 -0.03951398 -0.016586402 0.031508677
0000b0 6b d7 7e bc c0 d6 28 3b 98 2c b2 3c 1c 76 64 3a
       -0.015554289 0.0025762767 0.02174978 0.00087151094
0000c0 fb ba 5e bc 71 e7 d6 bc 57 27 10 bb 85 75 ea bc
       -0.013594384 -0.026233407 -0.0021996105 -0.02862049
0000d0 21 7a 70 bc 2a 89 2e bd c2 32 18 3d 63 64 ba bc
       -0.014677555 -0.04261128 0.03715778 -0.022752946
0000e0 49 33 bc 3c af 31 27 bd d5 82 ef 3c 16 a6 d4 3c
       0.022973673 -0.040818866 0.02923719 0.025958102
0000f0 0b c7 c8 bc 1d 4f eb bc 46 38 48 3c a3 c2 12 3d
       -0.024508974 -0.028724248 0.012220448 0.03583015
000100 5e 0c d6 3b 7e 3f 4f 3c e1 35 20 bd d5 07 e4 bc
       0.006532236 0.012649415 -0.039113883 -0.027835766
000110 e6 f8 19 bd 69 ad f0 3c 82 19 f4 3c 01 bb 64 bb
       -0.037590884 0.029379563 0.02979732 -0.0034901502
000120 a2 73 1e bc f8 0a b4 3b a7 e9 b5 3b 33 d7 1e 3d
       -0.009671124 0.0054944716 0.005551535 0.03877945
000130 99 a1 a6 bc 68 34 df 3c 91 1a 92 3c a6 da 27 3d
       -0.020340728 0.027246669 0.017834933 0.040980004
000140 cf 04 a6 39 57 42 d8 3c 39 0d c6 3c ab ab 72 bc
       0.0003166557 0.02639882 0.024176227 -0.014811437
000150 a0 c1 e8 3c 64 1f 8f bc d1 20 4e bd e4 4f 24 bd
       0.02841264 -0.017471023 -0.050324265 -0.040115252
000160 77 a6 9d bc 88 64 56 3c 55 04 f0 bc a7 26 c9 bc
       -0.019244416 0.013085492 -0.02929894 -0.024554564
000170 f1 0c bf bc ad 5e d1 3c 3c 5a 85 3c ab 6a 34 3d
       -0.0233216 0.02555784 0.016278379 0.04404704
000180 1e 9e 46 bd f7 3c 70 3b 2d ce c3 3c ba e2 c3 3c
       -0.048490636 0.0036657432 0.023902023 0.023911823
000190 aa c4 fa 3c 6d 0b 16 bd 41 b8 96 bb ef c1 49 bd
       0.030611355 -0.03663199 -0.0045996015 -0.049257215
0001a0 b6 d0 46 bd 85 e7 e7 bc 7f 83 19 ba b8 22 12 3d
       -0.048538886 -0.02830864 -0.0005856081 0.03567764
0001b0 e6 99 cf 3c 25 12 9c 3c 79 2e fd bc 1a cd e4 bc
       0.02534194 0.01905162 -0.030905949 -0.027929831
0001c0 d6 6d 53 bc 2a 45 85 3c 38 93 52 bd bc a0 ce 3b
       -0.012904605 0.016268332 -0.05140993 0.006305782
0001d0 7c fe 05 3c a1 a4 c5 b9 30 f5 39 bd 9e 6c b2 3c
       0.00817835 -0.00037697426 -0.045399845 0.021780308
0001e0 fd ae 5d bc c7 bf 1c 3d 1b bc 13 bd 73 8a bd ba
       -0.01353049 0.03826883 -0.036068063 -0.0014460817
0001f0 ab 6c 94 3c b9 71 b8 3c a5 cd 54 3c 19 88 b1 bc
       0.018118223 0.022515165 0.012988483 -0.021671342
000200 13 53 81 bb 3d 26 e9 bc 72 6e 52 bd c3 a0 59 bc
       -0.003946671 -0.028460616 -0.05137486 -0.0132829575
000210 88 e6 be 3c 07 53 86 3c 71 cf 8a 3c d1 94 33 bd
       0.023303285 0.016397012 0.016944619 -0.043843094
000220 62 ca ac bc fd dc 2c 3d 59 bb 33 bd 1e 1d d1 bc
       -0.021092597 0.04220294 -0.04387984 -0.02552658
000230 eb f5 a1 3c 52 37 f0 bc a0 3c 16 3d d5 ef c4 3c
       0.019770583 -0.029323254 0.03667891 0.024040142
000240 fc 9e 0d bd 3b bf 4e bd 13 29 22 3d 30 50 06 3d
       -0.034575447 -0.05047534 0.039589953 0.032791317
000250 c0 9c cd bc c8 b7 c5 bc 7d 87 12 bd 8f ff b2 bc
       -0.025099158 -0.024135485 -0.035773743 -0.021850375
000260 cb 9c 32 3c 76 aa c3 3c 07 80 b1 3c 5f 1b 3c bc
       0.01090164 0.023884993 0.021667494 -0.011481135
000270 de 05 d1 bc 06 2a f1 bc bc ec 8d bc eb 98 0a bd
       -0.025515493 -0.029438984 -0.017324798 -0.03383724
000280 aa b7 e0 3c e5 52 ac 3a 04 fe eb 3c 27 59 9f 3c
       0.027431328 0.0013147263 0.028807648 0.01945169
000290 0d 94 b3 bc db 40 b7 3c d7 f7 19 bd 45 54 bf 3c
       -0.021921182 0.022369793 -0.037589874 0.023355613
0002a0 36 17 8c bc 90 53 68 3c 0c 8a 3f bd fa 9f d2 bc
       -0.017100912 0.014180079 -0.04676251 -0.025711048
0002b0 56 54 1f bd ec 32 79 bc b1 85 ca 3b ad 70 c5 bc
       -0.03889879 -0.015209895 0.006180488 -0.02410158
0002c0 64 13 ab 3c 2e 66 c2 3c b6 78 23 3d fd 9e 22 bd
       0.02088327 0.023730364 0.03991004 -0.039702404
0002d0 8c e8 d7 3c d5 0c 75 3c 76 d6 37 bd 27 da 41 bd
       0.026356004 0.014956673 -0.04488226 -0.047327187
0002e0 b4 91 e2 bc e8 a7 f5 bc 67 5c d0 bc d4 0a f6 3c
       -0.027657367 -0.02998729 -0.025434686 0.03003446
0002f0 b1 62 e1 3c 05 6d 5a bb 83 c2 3a bd c9 47 1c bd
       0.02751288 -0.003332914 -0.045595657 -0.038154397
000300 c7 06 05 3d 9a 4b 01 3d 01 4d ff bc a6 27 a6 bc
       0.032477167 0.03156624 -0.031164648 -0.020282578
000310 e1 f8 1e bc 98 a3 d8 bc 72 be 0f 3d 4b 14 28 bd
       -0.009702892 -0.026445195 0.035093732 -0.041034978
000320 57 88 3c bd 7e 8e bf bc ae 94 ae bc 3c f3 ce bb
       -0.04602846 -0.023383375 -0.02131113 -0.006315617
000330 d1 a1 d8 3c 07 3b 0e 3d 74 90 25 3d fc 81 e0 3c
       0.026444348 0.03472426 0.040420964 0.027405731
000340 4a f0 39 bd 63 d2 c8 bc b2 69 cd bc ae 2f a0 bc
       -0.045395173 -0.024514383 -0.025074814 -0.019553985
000350 45 5d 0b 3d be 08 60 3c 1a 39 13 bd b7 0f 14 3d
       0.034024496 0.013673959 -0.03594313 0.0361478
000360 92 70 36 bd 76 b5 1a bd 03 85 43 3c be b1 0c bd
       -0.04454095 -0.03777071 0.011933568 -0.034349196
000370 83 f9 be bc 13 f3 68 3c f2 a2 bb 3c 55 29 42 3c
       -0.023312336 0.01421811 0.022904847 0.011850675
000380 83 e4 da 3c 37 a8 41 bd ca 74 e3 bb 84 e4 d2 3c
       0.026720291 -0.047279563 -0.0069414126 0.02574373
000390 3c 80 81 39 47 00 1f 3d da 68 01 bd 42 a3 e7 3c
       0.0002470034 0.038818624 -0.031594135 0.02827609
0003a0 80 07 3a 3c 88 2f 44 3c 56 5d 3d bd 00 59 2e 3d
       0.011354327 0.011974223 -0.04623159 0.042565346
0003b0 53 a8 de bc 09 6b 41 bd e3 09 2c 3c 5b 44 34 3c
       -0.027179873 -0.047221217 0.010500404 0.011002625
0003c0 f1 b0 33 bd f2 cf 1b bb fc 2a 09 3c 39 d9 96 3c
       -0.043869916 -0.0023775068 0.008372065 0.018414127
0003d0 49 50 ac 3c dc a4 93 3c 83 2b 28 3c b4 04 2c bb
       0.021034377 0.018022947 0.01026428 -0.002624792
0003e0 7a 42 43 bd 0c fd ce bc 6b 0d 98 3b 97 0a 07 bd
       -0.04767082 -0.025267147 0.0046402714 -0.032969084
0003f0 19 85 41 bd 28 77 b6 3b 5f 7a 1c 3c 44 b9 fc bb
       -0.047246072 0.0055684038 0.00955066 -0.007712515

sequential_2/dense_6/MatMul f4 [12, 16]
000000 79 69 13 3d f4 2a 40 3e d4 7a a1 be 6d f3 23 be
       0.03598926 0.18766385 -0.31539023 -0.16010828
000010 44 e4 78 3e b3 6d e3 3d c8 d1 b3 3e 22 0f 1b bd
       0.24305826 0.11104908 0.35120988 -0.03785623
000020 db 6e 64 3e 88 9d 4f bd f5 77 d9 3e d3 72 9e 3e
       0.22307913 -0.050687343 0.42474332 0.3094698
000030 96 2a d6 be 34 8d 31 3e 07 a0 f4 bd 3f 06 21 3e
       -0.41829365 0.17339021 -0.11944585 0.15725039
000040 b5 96 db be e4 58 03 3e 34 4e 05 3e b1 8c f0 be
       -0.42888418 0.12826878 0.13018113 -0.4698234
000050 12 81 c4 be d9 1b 84 3e 5b 60 6f be ca 90 a8 3d
       -0.38379723 0.25802496 -0.233766 0.08230741
000060 3b 33 a7 3e b1 db 4a be f4 98 9c bd 41 73 ae bd
       0.32656273 -0.19810368 -0.07646361 -0.08518077
000070 fc d6 dc 3e c6 53 33 be 43 ea aa 3b 49 08 a5 bd
       0.4313277 -0.17512426 0.0052159145 -0.08058221
000080 ba 12 b1 be 6e b3 8e 3e e5 ac 59 3e 19 c7 e3 be
       -0.345846 0.2787127 0.2125736 -0.44487837
000090 20 41 3e bc 4d 0d 9c be 3a 18 cc be 9b 99 d3 3e
       -0.011612207 -0.30478898 -0.39862233 0.4132813
0000a0 0b e0 df 3e f2 82 94 be 7e 91 b2 3e 34 21 b4 be
       0.4372562 -0.29006153 0.34876627 -0.35181582
0000b0 66 79 93 3e 7c 77 8d bd a0 75 e2 be d4 18 e2 3e
       0.28803557 -0.069075555 -0.44230366 0.44159567
0000c0 e9 31 a7 be b0 4b 0c bd 7b ac b9 3e 64 fc 8d be
       -0.32655266 -0.03425187 0.36264405 -0.2773162
0000d0 18 37 b4 be f7 52 d5 3e d6 8c f0 3d 0e 45 2b bd
       -0.35198283 0.4166486 0.11745612 -0.041813903
0000e0 f2 0c bc be 6b 98 80 3e b7 cf 2c 3e d3 01 d3 3a
       -0.36728626 0.25116286 0.16876112 0.0016098566
0000f0 19 28 f0 bd 2c 9d 4c 3e 1c ce 37 3e 61 42 ed be
       -0.11726398 0.19981831 0.17949718 -0.46339706
000100 5a 2c a9 3e 30 fd 4c be c4 58 7c 3e fe 04 10 3d
       0.3304165 -0.20018458 0.24643236 0.03516101
000110 7c 8f d5 3e 35 c2 50 bd ea 9f a0 3e 00 84 ef 3d
       0.41711032 -0.05096646 0.31372005 0.11695099
000120 c7 9b bc be 5a b6 d5 bc b5 bb 23 3d 75 50 cc 3e
       -0.368376 -0.026087929 0.039973933 0.39905134
000130 e2 b6 07 3e 5c 1b d8 bd 89 6a 3f be 79 a3 63 be
       0.13253358 -0.105520934 -0.18692984 -0.22230329
000140 ce d8 55 bc 6e e8 96 3e e4 2d 19 3c 87 be 80 3e
       -0.013052179 0.29474205 0.00934932 0.2514536
000150 14 80 b2 be 63 20 be be 7b 57 9f 3d 23 d3 c6 3c
       -0.3486334 -0.37134084 0.077803575 0.0242706
000160 58 88 9a 3e 9e 8f ad 3e 95 c9 84 bd d2 2f d1 be
       0.30182147 0.33898634 -0.06483761 -0.40856797
000170 f3 0c 90 bd 36 52 c6 be 70 7e d9 3e 90 cd 04 be
       -0.0703372 -0.38734597 0.42479277 -0.12969041
000180 1d ac c0 be de e4 00 be 65 fe bc be 2f 5e 5f be
       -0.37631312 -0.12587306 -0.36912838 -0.21813272
000190 18 ef 3d 3e 7a 26 eb 3c f1 9e 20 3e f5 03 e3 3c
       0.18548238 0.02870487 0.15685631 0.027711848
0001a0 35 d5 e7 be 92 1c 1d be 81 85 d2 3e d3 d6 bc bd
       -0.45279852 -0.1534293 0.4111748 -0.09220662
0001b0 b5 e3 b7 3e 88 68 4c 3e 44 53 ab 3d f9 c0 2b 3e
       0.35915914 0.1996175 0.08365491 0.16772832
0001c0 f4 07 81 3e c0 28 b6 bb d9 1f 14 3e 72 db b3 3b
       0.2520138 -0.005559057 0.14465274 0.0054888064
0001d0 08 44 77 3e e0 63 e3 be 85 e8 b3 3e 96 f1 76 3e
       0.24147046 -0.44412136 0.35138336 0.24115595
0001e0 a9 41 ab bd 34 26 99 be 53 01 32 bd b3 2b 5e 3d
       -0.08362133 -0.2991196 -0.043458294 0.054240894
0001f0 8d 22 2e bd 56 d2 85 3e ff 28 9b be 88 4e d6 3d
       -0.04251342 0.26137036 -0.30304715 0.104641974
000200 26 85 b1 3e 00 c7 30 bd 8b 1a ca bc ad c5 9a be
       0.34671897 -0.04315853 -0.02467086 -0.3022894
000210 f6 0e 9c be 7d 2f 06 bc b6 6d e1 3e 43 6b b9 be
       -0.30480164 -0.008190033 0.44029015 -0.36214647
000220 ce d2 bd 3e 88 9b b2 3e 2d e4 ba 3e 2a 83 e3 3e
       0.37074894 0.34884286 0.3650221 0.44436008
000230 b5 f8 8a 3d 10 af 04 3d aa 79 7e 3e 50 4d 96 3e
       0.06785718 0.032393515 0.24851099 0.2935586
000240 72 dd c2 3e 87 3e d3 be ca 6a 95 3d a3 77 d9 be
       0.38059574 -0.41258642 0.07295759 -0.42474088
000250 4e f7 50 be 2c 4e e4 3c 72 54 e8 be c9 e3 ed 3d
       -0.20406839 0.027869307 -0.45376927 0.11615712
000260 9a 97 70 be a9 95 87 3e c5 e6 f7 bd 21 df 83 bd
       -0.23495331 0.2648137 -0.12104563 -0.06439043
000270 a0 68 89 3e f9 a1 aa be 05 8f 95 3e bd 2e 10 3e
       0.26837635 -0.333267 0.29210678 0.14080329
000280 62 04 b5 3e b4 cb d5 bd 5d 55 66 be fa 50 36 3e
       0.35354906 -0.10439244 -0.22493501 0.17804328
000290 b1 31 88 be 92 69 93 3c be 0b c2 3e f6 9b f8 bd
       -0.26600412 0.017994676 0.37899584 -0.12139122
0002a0 84 e2 df 3e 23 3a c3 3d e5 fb b4 be 15 5f e8 be
       0.43727505 0.09532573 -0.3534843 -0.45385042
0002b0 15 76 03 3e 30 91 a1 bd 2a 60 2f 3e 81 1d 46 be
       0.12838013 -0.078890204 0.17126527 -0.19347192
0002c0 03 63 02 3c c0 56 00 3e 6e 86 c7 3e 6b fc 98 be
       0.007958177 0.12533092 0.3896975 -0.2988008
0002d0 88 9d ec be 14 c9 94 be ff 59 92 be 0d bd 2e 3e
       -0.46213937 -0.2905966 -0.28584287 0.17064305
0002e0 67 40 20 3d 78 77 85 be 70 5e de 3e 3d e0 d6 be
       0.03912392 -0.2606771 0.43431425 -0.41967955
0002f0 10 3f d5 be 16 e8 ad 3e 7d b9 a9 be d1 ee 8b 3e
       -0.41649675 0.3396613 -0.3314933 0.2733064
