backend/exported_models/model_combined.tflite (tflite, 38700 bytes, 14 tensors)

sequential_5/conv1d_6/BiasAdd/ReadVariableOp f4 [8]
00000000: 09e1 0a3c 6570 18bc 3027 12bc 4c1d 20bc
00000010: e5e8 e3ba dd8b 243c 18a8 84bb 7a9c 243c
0.008476504 -0.009304141 -0.008920476 -0.00977261 -0.0017388134 0.010043112 -0.0040483586 0.010047073

sequential_5/conv1d_7/BiasAdd/ReadVariableOp f4 [16]
00000000: db50 1dbc 6916 183c e896 0dbc afc4 02bc
00000010: 6eea 803a 2c0a 153c 01e9 afbb c485 68bb
00000020: 7c0b 1ebc 79f6 00bc 8460 8ebb b64c 1ebc
00000030: 0918 253c f114 1bbc a592 1c3c ea69 883a
-0.009601797 0.009282687 -0.008641936 -0.007981463 0.000983549 0.009096663 -0.0053683524 -0.003548012
-0.009646293 -0.007871264 -0.0043450017 -0.009661844 0.010076531 -0.009465442 0.009556447 0.0010407541

sequential_5/conv1d_6/Conv1D f4 [8, 1, 3, 3]
00000000: af77 9c3e 1f98 d4bd 7cb8 38be 1b65 563e
00000010: f34a f8bd d71d aa3e 1d63 e8bd 8584 c33d
00000020: 87e8 d83e fbaa 253e 04ba b13e f1f0 41be
00000030: 01cc c33e 2c7e c7be f0d7 c93e 91b4 bfbe
00000040: dace a7ba 22cf ff3c 130b 36be 660e b1be
00000050: de90 ddbe b49b a23d 739f 233d 3a12 d13e
00000060: 73bf d0bb 0766 69bd 283e 783d dd63 acbe
00000070: 6f79 ab3c a8c7 9cbe 5f6a 563c dc4e 2c3e
00000080: d13e 533e 153f 833e b43f 883e 32ba c7be
00000090: 748f 3bbe 42fd 1f3e c60f 7abd 56fd a63e
000000a0: 909d 80be 2b5f bdbe ab2b d8bd 52cd c2be
000000b0: 75e6 bbbe f103 943e 41c4 bbbe 68ed 88be
000000c0: 3e43 c8be ef53 263e 9c45 76be 4d8d 53be
000000d0: 012c 4d3e f32d 003d 3281 e9bd 3b9a 80be
000000e0: 3201 0cbd 72bd a43e 07a9 7b3d 14ec acbe
000000f0: 0e73 efba a222 57be 8efa 81be 53eb 0b3e
00000100: c264 6b3e 75c7 ad3e 3bbb 06be 761d 383e
00000110: b7f5 a2be e580 c13e e277 e53d 801c 12be
0.3056006 -0.10380577 -0.18039125 0.20937006 -0.121236704 0.3322589 -0.11347029 0.095467605
0.42364904 0.16178505 0.3471223 -0.18939568 0.3824158 -0.3896345 0.3942256 -0.3744245
-0.0012802735 0.031226698 -0.17777662 -0.34581298 -0.43274587 0.07939854 0.039946984 0.40834218
-0.006370479 -0.056982066 0.06060615 -0.3366994 0.020931927 -0.30621076 0.013086884 0.16826957
0.20629431 0.25634065 0.26611102 -0.39009243 -0.18316442 0.15623954 -0.0610502 0.32615155
-0.2512021 -0.3698667 -0.10555204 -0.38047272 -0.36699262 0.28909257 -0.36673167 -0.26743627
-0.39113802 0.16242956 -0.24049991 -0.2065937 0.20036317 0.03129382 -0.11401595 -0.25117669
-0.034180827 0.32175785 0.061440494 -0.33773863 -0.0018268542 -0.21009305 -0.2538647 0.13663988
0.22987655 0.33941236 -0.1315736 0.17979988 -0.3182809 0.3779365 0.112045065 -0.14268684

sequential_5/conv1d_7/Conv1D f4 [16, 1, 3, 8]
00000000: 20e0 633c f862 b63d ee39 5b3e 24a9 893e
00000010: 4b85 8bbe d575 713e 0d21 c23d 14db 8dbe
00000020: 4eb2 1dbd 867b 4bbe b807 7b3e 22e4 773e
00000030: 8794 5b3e dde4 793e 9db8 8dbe bffb 88be
00000040: 9d61 69be 8b34 283e 8b94 e93d bc38 773e
00000050: 4d85 2abe e668 49be d6c1 3d3b 1f4f eb3c
00000060: 0d98 323e 21ae 88be 0572 793e 5bd6 6fbe
00000070: a6d7 b63d 80f1 3bbe cdcc 2ebe e6ad 543d
00000080: 6cb4 323e 5866 86be cc5d 74be b859 4b3e
00000090: f6f7 a2bd bbe1 773c c7db 8b3e 373c 893d
000000a0: 162b 893e 6591 3e3e c5fe 83be a745 52bd
000000b0: 39aa 5abe 38c0 8fbe 4c8a d83d 3ae0 113e
000000c0: 5f43 15be 3865 50be 4d7a 3ebe 403f 8cbc
000000d0: e574 123e abe3 a7bc 8820 163e 60f1 80be
000000e0: be54 843d d81e 92bd 2b8d 63be d543 13be
000000f0: 635e c03d 8b6c 6fbe 1112 b5bd b1f6 aa3d
00000100: f717 693e e8e5 85be 51b7 16be 458c e43d
00000110: 4d3f 1c3d 2432 68bb 34c1 b43c 7293 543e
00000120: 5243 253d b9f1 e93d b24c 7dbe 663f ac3d
00000130: 658c 8a3e ec80 8d3d bb6d 553e 443f 6ab9
00000140: 1dd6 49be f182 1fbe 811e fb3a df57 9cbd
00000150: ccb3 0cbe 076b 613e e64d febc 38e0 13be
00000160: 5a5f 16be b7b7 043e 56ec 5bbc c489 c43d
00000170: 2b67 20be 05c1 79be f82e 5cbe ba6c 3bbe
00000180: 467a a03b 4351 623e 5145 93be 9356 8c3e
00000190: 99b9 843d c19b 06be 6b63 723e 63e8 a8bd
000001a0: e381 423e 883d 8dbe 04c2 023e a130 7abe
000001b0: 9b89 843e 4b32 153e be79 8b3e f941 79be
000001c0: 7ef5 88be 2cf4 0d3e 9079 75be 0307 5ebe
000001d0: 8d23 b43d d12d 7bbe 7cf2 46be c18e 63bd
000001e0: e33b aa3d da3c 0bbe 900a 6ebe 6157 a1bd
000001f0: 736d b7bd 2984 21be ee02 7a3e e582 14be
00000200: 0950 f93d 809c 1fbd 467c f1ba 3d0b 343e
00000210: de43 cdbd b254 95be 883b 1cbe 47e4 50be
00000220: 88f2 743e 100a 4bbe 7937 3fbe b4c3 61be
00000230: bab2 363e 8c62 1dbe 2515 8d3e 3938 0b3d
00000240: 7030 2c3d 0546 3e3e a433 3c3e 8cb2 123e
00000250: 20fb 4b3e 1b2d 58be 4470 8fbb 79dd 12be
00000260: e11a 1d3e 95de 0f3e c21a 9e3c 6d9a 043c
00000270: 04f0 d03b c5f2 fb3d 0add 153e 1f50 8bbe
00000280: 1394 823e 315c fa3d 4614 8a3c ed49 303e
00000290: d8e8 1b3e c0c5 663e af9a 77be 522c 74bc
000002a0: 472a 593e 3220 2f3e 26a7 203e 55e9 00be
000002b0: b72f 5bbe 5c07 a0bd 732e 28bd 1d79 223e
000002c0: 3cad 2c3e a32c 003c 3244 ac3d 7fba 1a3e
000002d0: 4e90 7e3e d62d 73bd f6d3 873c b185 fe3d
000002e0: fd08 18be dc23 8d3e cd26 4d3e 9f15 5ebd
000002f0: 350e 2bbe 6b75 6d3e 8fe5 3a3e 8000 863e
00000300: e1ff f03d d336 a4bd 4345 903d 3317 083e
00000310: 876e 3abd d860 bd3d f809 823e 606f 363e
00000320: f036 7bbe fa32 f6bd 3f81 7d3e cc3b 153e
00000330: 3b69 783e 4b0e 483d 9882 883e 892c 52be
00000340: 7bdf c73d bd62 383e f15a 7fbe 9de3 f4bd
00000350: 951c 43be 6b9e 79be 8237 c8bc f1c6 77bd
00000360: d2b2 d9bd 9871 8abe ee19 1dbe 79bb 903e
00000370: 0650 88be b266 753e 32f2 823e a6b7 86be
00000380: bdcb 593e de03 02be 606e e63d e991 85be
00000390: 4c0c 4dbe f6a4 0fbe 64a8 c0bd 7642 63be
000003a0: 7524 0fbd dfe4 b4bd e779 8abe 8c0c fe3d
000003b0: b85e dabd 53b8 833e 1636 74be 2031 2c3e
000003c0: de94 8abe ca65 27bd 8294 61be a72a 8ebe
000003d0: 7094 c53c db1e 03bd d580 2d3e b5e5 6e3e
000003e0: bfdc 4b3e fdec 88be 803f 253e 5f19 2ebe
000003f0: cad0 c1bc 9c66 973e 1b73 40be bf62 05be
0.013908416 0.089055955 0.21408817 0.26886857 -0.27250132 0.23580106 0.0947896 -0.27706206
-0.038500123 -0.19871339 0.24514663 0.2420812 0.21443377 0.2440371 -0.2767991 -0.26754567
-0.22791143 0.16426294 0.114052854 0.24142736 -0.16652413 -0.19668922 0.0028954647 0.028724251
0.17440815 -0.2669535 0.24359901 -0.23421614 0.089278504 -0.18353844 -0.17070313 0.051923655
0.17451638 -0.26249957 -0.23863906 0.19858444 -0.07957451 0.015129502 0.27316114 0.06700938
0.26790684 0.18610151 -0.2578031 -0.051335957 -0.21353997 -0.2807634 0.10573253 0.14245692
-0.14576481 -0.20351112 -0.18601342 -0.017120004 0.14302404 -0.020494303 0.14660847 -0.25184155
0.06461476 -0.07134789 -0.2222182 -0.14381345 0.09393003 -0.2338125 -0.088413365 0.08347834
0.22763048 -0.26151967 -0.14718367 0.11159567 0.038146306 -0.0035430277 0.022064783 0.20759371
0.040347405 0.11423058 -0.24736288 0.0841053 0.27060238 0.069093555 0.2084264 -0.00022339547
-0.19710584 -0.15577294 0.0019158871 -0.076339476 -0.13740462 0.22013484 -0.031043004 -0.14441001
-0.14684811 0.12960707 -0.013423046 0.09596589 -0.15664355 -0.24390037 -0.21502292 -0.18303195
0.0048973886 0.22101311 -0.28763822 0.274098 0.064807124 -0.13145353 0.23670737 -0.08247449
0.1899486 -0.27586007 0.12769324 -0.24432613 0.25886235 0.14569966 0.2724132 -0.24341573
-0.26749796 0.13862675 -0.23972154 -0.21682362 0.08795843 -0.24529196 -0.19428438 -0.055556063
0.08312204 -0.13597432 -0.23246217 -0.07877994 -0.08956423 -0.15773071 0.2441518 -0.14503057
0.121734686 -0.03896761 -0.0018423877 0.17582412 -0.1002271 -0.2916618 -0.15257084 -0.20399581
0.23920643 -0.19828057 -0.18673505 -0.22047311 0.17841616 -0.15369624 0.27555194 0.033989165
0.04203838 0.18581398 0.18379074 0.14325923 0.19920015 -0.21110956 -0.004377397 -0.14342298
0.15342285 0.14049752 0.019299868 0.008093459 0.0063762683 0.12302164 0.14635101 -0.27209565
0.25503597 0.12224615 0.01685537 0.172157 0.15225542 0.22536373 -0.24180101 -0.014903145
0.21207534 0.17102125 0.15688762 -0.12589009 -0.2140492 -0.07813904 -0.041059922 0.15866514
0.16862959 0.007823142 0.08411445 0.15110205 0.24859735 -0.059369884 0.016580563 0.12427843
-0.14847179 0.2756642 0.20034333 -0.05421984 -0.16704638 0.23189323 0.18251632 0.26172256
0.11767555 -0.080182694 0.070444606 0.132901 -0.045515563 0.09246987 0.2539823 0.17815924
-0.24532676 -0.12021442 0.24756335 0.14573592 0.24258892 0.048841756 0.26662135 -0.20524801
0.097594224 0.18006416 -0.24937035 -0.11957476 -0.19053872 -0.24376838 -0.02444053 -0.06049246
-0.106298104 -0.2703979 -0.15341923 0.2826803 -0.26623553 0.23964956 0.25575405 -0.26311988
0.21269126 -0.12696788 0.11251521 -0.26087883 -0.20024222 -0.14027771 -0.09407118 -0.22193322
-0.034946878 -0.08832716 -0.2704613 0.12404737 -0.106625974 0.25726566 -0.23848757 0.16815615
-0.27066702 -0.040868558 -0.22029307 -0.27766916 0.024118632 -0.032011848 0.16943677 0.23329814
0.19908427 -0.26743308 0.16137505 -0.17001866 -0.023659129 0.29570472 -0.18793909 -0.1302595

sequential_5/dense_13/BiasAdd/ReadVariableOp f4 [12]
00000000: 350b 20bc 6353 24bc 55fb 223c aad6 1c3c
00000010: d92f 223c 4acf 223c 0abb 23bc 07b0 24bc
00000020: d6dd 22bc 89d3 1ebc 2ca3 233c 403c 223c
-0.009768297 -0.010029647 0.009947618 0.009572664 0.009899103 0.009937117 -0.009993324 -0.010051734
-0.009940585 -0.009693989 0.009987634 0.00990206

sequential_5/dense_12/BiasAdd/ReadVariableOp f4 [16]
00000000: 0000 0000 5030 edbb b56a 1fbc a831 f638
00000010: 3a86 473b 6b7d 0fbc a840 0ebc 7bdc 243c
00000020: 8c19 1ebc f097 23bc 0000 0000 3bfe 21bc
00000030: f864 ef3b cfcd 23bc b08f bcb8 0aeb 0ebc
0.0 -0.0072384253 -0.009730031 0.00011739443 0.0030444996 -0.008757929 -0.008682407 0.010062332
-0.009649646 -0.009984955 0.0 -0.009887273 0.0073057376 -0.009997799 -8.9913025e-05 -0.00872303

unstack f4 [96]
00000000: 9b61 9b3b b648 22bc 7272 e43b 828b 213c
00000010: 1b37 0abc 5e24 1dbc b802 aa3a e013 e43b
00000020: 427a 1a3c 0db4 153c 001d 07bb 18ee dcbb
00000030: 2404 123c a106 233c 64bc 1f3c 1260 033c
00000040: 52da 753b 885d d5bb a3e8 23bc d7f1 9a3b
00000050: f498 1bbc 1424 10bc 3880 233c 455d 1b3c
00000060: 5a63 0c3c ca4b 1e3c 50c9 1fbc 7153 253c
00000070: b25f 66bb b91c 003c 1572 1f3c c815 23bc
00000080: c79e 0fbc efce 1c3c bd5c 8cbb ad5a cebb
00000090: 8eb8 20bc 05bc 0ebc a913 1e3c 693e 17bc
000000a0: 15e2 363b 5efc fbbb 2d7a d53b 22b9 253c
000000b0: f245 133c 73e7 1dbc 01df 08bc 8d08 0d3c
000000c0: 6c24 05bc 32e0 cd3b 3be7 24bc c0a0 1d3c
000000d0: 3069 26bb ac0e abba a2b2 ca3b 627d 1dbc
000000e0: dc2a 15bb 9c4e 203c fbb0 e83b 697f 1abc
000000f0: b96e 1d3c 1c50 023c 29d7 1b3c 7311 213c
00000100: c3b9 bf3b 169d 213c 30a3 0e3c 9247 0ebc
00000110: 29cc fa3b 46ad 22bc 21c2 f73b 8e90 143c
00000120: bc81 1bbc 20e9 16bc d49c eabb 7e51 213c
00000130: 89d2 23bc 669b 033c d6d9 b3bb c341 0d3c
00000140: 80f1 06bc 1668 1abc e1ed 96bb f442 1b3c
00000150: c63d 953b b181 74bb 66fa 203c 42a6 1e3c
00000160: f8a2 0d3c b767 21bc 2ba0 09bc 0bde 233c
00000170: 6e86 133c 4220 c1bb a3e9 16bc 0ac3 1e3c
0.00474186 -0.009905031 0.0069716508 0.009859921 -0.00843599 -0.00959119 0.0012970781 0.006960377
0.009428563 0.009137166 -0.002061665 -0.00674225 0.00891212 0.009950311 0.009749506 0.00801851
0.0037514162 -0.006511394 -0.010004195 0.0047285366 -0.009496916 -0.008797664 0.0099793 0.009482686
0.008568609 0.009661624 -0.0097525865 0.010090695 -0.0035152254 0.007819348 0.009731789 -0.0099539235
-0.008765883 0.009570821 -0.004283516 -0.0062974305 -0.009809626 -0.00871182 0.009648242 -0.009231188
0.0027905751 -0.0076899966 0.0065148086 0.01011494 0.008988844 -0.009637701 -0.0083539495 0.008607996
-0.008126359 0.0062828297 -0.010064895 0.009620845 -0.0025392286 -0.0013050637 0.0061858455 -0.009612413
-0.0022761142 0.009784367 0.007101176 -0.009429791 0.009608918 0.00795367 0.009511747 0.00983082
0.005851002 0.009864112 0.008705899 -0.008684056 0.0076537323 -0.009929007 0.0075609838 0.009067668
-0.00949138 -0.009210855 -0.0071598087 0.009846089 -0.009998926 0.008032655 -0.0054886146 0.008621636
-0.008236289 -0.00942423 -0.004605994 0.009476412 0.004554483 -0.0037308747 0.009825325 0.009683194
0.008644812 -0.009851388 -0.008400003 0.01000167 0.0090042185 -0.005893738 -0.009210977 0.009690056

unstack1 f4 [96]
00000000: 9b61 9b3b b648 22bc 7272 e43b 828b 213c
00000010: 1b37 0abc 5e24 1dbc b802 aa3a e013 e43b
00000020: 427a 1a3c 0db4 153c 001d 07bb 18ee dcbb
00000030: 2404 123c a106 233c 64bc 1f3c 1260 033c
00000040: 52da 753b 885d d5bb a3e8 23bc d7f1 9a3b
00000050: f498 1bbc 1424 10bc 3880 233c 455d 1b3c
00000060: 5a63 0c3c ca4b 1e3c 50c9 1fbc 7153 253c
00000070: b25f 66bb b91c 003c 1572 1f3c c815 23bc
00000080: c79e 0fbc efce 1c3c bd5c 8cbb ad5a cebb
00000090: 8eb8 20bc 05bc 0ebc a913 1e3c 693e 17bc
000000a0: 15e2 363b 5efc fbbb 2d7a d53b 22b9 253c
000000b0: f245 133c 73e7 1dbc 01df 08bc 8d08 0d3c
000000c0: 6c24 05bc 32e0 cd3b 3be7 24bc c0a0 1d3c
000000d0: 3069 26bb ac0e abba a2b2 ca3b 627d 1dbc
000000e0: dc2a 15bb 9c4e 203c fbb0 e83b 697f 1abc
000000f0: b96e 1d3c 1c50 023c 29d7 1b3c 7311 213c
00000100: 5051 c73b 06e4 213c 6828 163c e638 11bc
00000110: 4ce1 103c 9364 24bc c14e e23b f2f8 1a3c
00000120: 4b8c 1bbc acfc 17bc b616 debb f3af 1e3c
00000130: 14e5 23bc d834 fd3b 23c2 f5ba 819b 083c
00000140: cc58 fbbb f067 1abc 553c 13bc efb8 193c
00000150: ecff 033b 8722 a8bb 55eb 1f3c ece0 253c
00000160: 486f f43b e053 22bc 2c33 09bc b891 243c
00000170: 1b27 113c f3ab d3bb efe5 15bc 5c02 1e3c
0.00474186 -0.009905031 0.0069716508 0.009859921 -0.00843599 -0.00959119 0.0012970781 0.006960377
0.009428563 0.009137166 -0.002061665 -0.00674225 0.00891212 0.009950311 0.009749506 0.00801851
0.0037514162 -0.006511394 -0.010004195 0.0047285366 -0.009496916 -0.008797664 0.0099793 0.009482686
0.008568609 0.009661624 -0.0097525865 0.010090695 -0.0035152254 0.007819348 0.009731789 -0.0099539235
-0.008765883 0.009570821 -0.004283516 -0.0062974305 -0.009809626 -0.00871182 0.009648242 -0.009231188
0.0027905751 -0.0076899966 0.0065148086 0.01011494 0.008988844 -0.009637701 -0.0083539495 0.008607996
-0.008126359 0.0062828297 -0.010064895 0.009620845 -0.0025392286 -0.0013050637 0.0061858455 -0.009612413
-0.0022761142 0.009784367 0.007101176 -0.009429791 0.009608918 0.00795367 0.009511747 0.00983082
0.0060826913 0.009881025 0.009164907 -0.008863663 0.008842777 -0.010033744 0.006906361 0.009458767
-0.009493898 -0.00927655 -0.0067776097 0.009685504 -0.010003347 0.0077272467 -0.0018749874 0.008337856
-0.0076704975 -0.009424195 -0.008986552 0.0093824705 0.0020141555 -0.005131069 0.009760697 0.010124426
0.007459555 -0.009907693 -0.008374017 0.010044508 0.008859421 -0.006459707 -0.009149059 0.009644117

sequential_5/dense_12/MatMul f4 [16, 32]
00000000: a7a6 4bbe cd31 ac3e 75e7 a4be 7c79 f93d
00000010: b99b 843e 8005 a13d 52e8 693e a833 85bd
00000020: 62d3 13be ca6e 533e 6090 47be 8606 233e
00000030: 6828 cdbd a043 7fbd 80ff ad3b f84c acbd
00000040: e733 8c3e 2bc1 853e 6abb 01be 2afb 093e
00000050: 2d42 973e 7858 1b3d 58e9 3cbd 80a1 aabe
00000060: c6d4 dbbd 8eee 203e 75fa 8e3e 3d51 9cbe
00000070: ee92 4a3e 6ba9 ab3e a2e1 633e 82a7 76be
00000080: 0adb 6b3c 0e3b 923e c4ad 94be 2f57 febd
00000090: cb75 743e c185 adbe 0b0a 9a3e e3ec 5ebe
000000a0: e015 1dbd c0dd 1c3e 2085 803e 9cfa debb
000000b0: de09 503d 8130 1abe 7c7b 4dbe d73d 65bd
000000c0: ee0c 5ebe 99da 443e 5dea a8be ab24 4bbe
000000d0: 1af3 8fbe 8b89 943e a41e 2abc c319 3a3e
000000e0: f392 8c3e 7b70 8ebe bfc3 3abe d3cb a3bc
000000f0: 7148 a43e 6dd1 9dbc c60a 8bbe 8f6b c2bd
00000100: 5490 9e3c e846 ee3d 4706 72be 2798 15be
00000110: f875 aabe 1036 063e 7d1a 8b3c a545 983e
00000120: 7428 043e 6654 863e 13e5 973e 1570 6ebe
00000130: b7b3 ab3e 82d2 37be 75d0 f8bd 7ac6 393e
00000140: 1a8c ad3e 5970 703e 83ad 83bd 99e8 bbbd
00000150: 5538 9cbe c72c 873e 596d 3cbd a452 473e
00000160: 7fdd 0abe 3e06 6abe a3d0 b5bd 84db 3fbe
00000170: 9a67 fbbd 092b 043e 6362 233e 37e3 96be
00000180: 3dae 3f3d 7555 dd3d 4aeb b7be 91b4 b1bd
00000190: 003a 9b3e 75b8 30be a797 71be ec81 b13e
000001a0: e175 9a3e c98c 26be 7f41 d8bd 8393 7dbe
000001b0: 1eb7 3ebc 755a b93e 04d8 793d 0e2b 59be
000001c0: 5cfa 11bd 4784 78be 1317 67bd a969 9fbe
000001d0: 7eb7 b03e 7177 6e3e 58c4 8b3e 206f 7b3e
000001e0: 90a5 17bd c9bf cf3d f1f0 abbe 5070 043e
000001f0: 4a5f 703d 2054 1ebe 491a 5a3d 8069 383e
00000200: df87 a63e 2809 b33e 7cd2 343e 317a 893e
00000210: eb66 acbe adc0 f53d 45c9 13be 6428 a33e
00000220: cd66 64be ae90 a2be 38a5 ac3e 3e14 b7bd
00000230: 9026 703d 1c79 ce3d 3f1c 023e 4c8a 333d
00000240: 30ca 953e 8ea0 c23c d6a5 30bb 807a 9abe
00000250: 3dad b5bd a6bf e0bd b999 f9bd e228 4b3e
00000260: 0125 eb3c aaa5 18be 7d8a 643e 8280 94bd
00000270: dfbf 8cbe 2871 bd3d 0a6e 8a3e ae46 9abe
00000280: 16d5 d03d f02e 863e e460 8dbe 7a04 813e
00000290: 3e97 94be 6c8f afbe 1fc1 303c d6dd a43e
000002a0: 8a64 283d 449f f13d cf5f aebd b6b8 cdbd
000002b0: 6a57 323e 54cc 51be 921d 5e3d 5654 963d
000002c0: be45 2ebe e6ec 64bd 8de4 843e 9c0a 353e
000002d0: a20a 8ebd 1d40 853e 4bbd 963d 999c 42bd
000002e0: 36df 283e 9ec2 2c3d 7391 85be 1a7a 4e3d
000002f0: 0ee2 85bd a24a b2bd 901e 633e d5a3 163e
00000300: 8734 e7bd 7c1f 6abc 788d 8d3e 0105 acbc
00000310: 3ce4 9fbe a695 893d 20e5 bfbd eb1f 63be
00000320: f97f af3d 3172 363d 22c8 dd3d c638 0e3e
00000330: 4946 67be c976 b5be e92d 9d3d b10b 82be
00000340: bbc3 ec3d 76a9 4cba 4f80 1c3e 65fb 91be
00000350: 4ea5 cfbd f074 8abe cf7d 24bd 255f f63d
00000360: 6547 d13c 343f 893c 3414 373e 4649 9dbc
00000370: e1a8 8ebe 976c 643e b4de b63e 2f01 b2be
00000380: 1ad2 2e3e b8c2 873d 6720 abbe af49 473c
00000390: 18ef 753e 5aad 703e 7446 8ebd 7188 17bb
000003a0: 12f4 8c3e ef4b 03be bbde 883e 7498 2cbe
000003b0: ea2e 37be 1d11 993b 8204 a23e 58d8 baba
000003c0: 318a 13be f6ce a9be 07e4 5e3e 7aba 1dbe
000003d0: f14a 1a3e f8a6 4fbe c3b8 7dbc c92d b2bd
000003e0: 22ad 9dbe 8c39 263d d611 093e 7c89 893e
000003f0: 6412 9e3e 6073 8a3d ec16 403d b085 a23e
-0.19887792 0.33631745 -0.32207838 0.121813744 0.25900057 0.07862377 0.2284253 -0.06503993
-0.14436105 0.20647731 -0.19488668 0.15920457 -0.100174725 -0.06232035 0.005309999 -0.08413118
0.27383348 0.26123938 -0.12669149 0.13474718 0.29542676 0.037926167 -0.04612097 -0.3332634
-0.10733943 0.15716001 0.2792546 -0.3053073 0.19782612 0.33527693 0.22254041 -0.24087337
0.014395485 0.2856068 -0.29038823 -0.12418973 0.2387306 -0.3389111 0.30085787 -0.21770053
-0.03835094 0.15318966 0.25101566 -0.0068047773 0.05079066 -0.15057565 -0.20066637 -0.05596718
-0.2168462 0.19224013 -0.32991305 -0.19838206 -0.2811516 0.29011187 -0.010383282 0.1817389
0.27455863 -0.2782019 -0.18238734 -0.019994652 0.32086518 -0.019264901 -0.27156657 -0.094931714
0.01935593 0.11634618 -0.23635207 -0.14608823 -0.33293128 0.1310656 0.016980404 0.29740635
0.12906057 0.26236266 0.29666957 -0.23284943 0.3353555 -0.17951396 -0.12149135 0.18142119
0.33895952 0.23480357 -0.06429579 -0.09175224 -0.30511728 0.2640135 -0.04600272 0.19465119
-0.13561057 -0.22853944 -0.08877685 -0.18736082 -0.1227562 0.12907042 0.159555 -0.29470226
0.046797026 0.10807315 -0.359217 -0.086770184 0.30317688 -0.17257865 -0.23593007 0.34669435
0.3016806 -0.16264643 -0.105593674 -0.24763303 -0.011640338 0.36201826 0.060997024 -0.2120783
-0.035639152 -0.2426921 -0.05641849 -0.311353 0.34514993 0.23287751 0.27298236 0.2455411
-0.037023127 0.10144002 -0.3358226 0.12933469 0.058684625 -0.15461779 0.053247724 0.18008995
0.32525536 0.34967923 0.17658418 0.26851037 -0.3367227 0.119996406 -0.14432247 0.31866753
-0.2230484 -0.31751007 0.33719802 -0.08939408 0.058630526 0.100816935 0.12706088 0.043833062
0.2925582 0.023758199 -0.0026954315 -0.30171585 -0.08870933 -0.10974054 -0.121875234 0.19839814
0.028704168 -0.14906946 0.22318454 -0.072510734 -0.27490136 0.092500985 0.27037078 -0.3013205
0.10196893 0.26207685 -0.27612984 0.25198728 -0.2902164 -0.3428911 0.010788231 0.32200497
0.041111507 0.11797956 -0.08514368 -0.100449964 0.17416158 -0.20488101 0.05422742 0.073403046
-0.17018792 -0.055889986 0.2595562 0.17679828 -0.06935622 0.26025477 0.073603235 -0.047512624
0.16491398 0.04217779 -0.2608753 0.050409414 -0.06537257 -0.08705641 0.22179627 0.14710934
-0.11289316 -0.014289733 0.27646995 -0.02099848 -0.31228817 0.06717996 -0.09369874 -0.22180144
0.08569331 0.044542495 0.10829188 0.13888845 -0.22585405 -0.35442188 0.07674772 -0.25399545
0.1156077 -0.0007807234 0.15283321 -0.2851211 -0.10138951 -0.2704234 -0.040159043 0.12029866
0.025546739 0.01675377 0.178788 -0.019199979 -0.2786322 0.22307049 0.35716784 -0.34766528
0.17072335 0.066289365 -0.3342316 0.012163564 0.24016988 0.23503628 -0.069470316 -0.0023122097
0.2752996 -0.12821935 0.2673243 -0.16855031 -0.1788899 0.0046712295 0.31644064 -0.0014255149
-0.14408185 -0.3316571 0.21766673 -0.15403166 0.1506765 -0.20278537 -0.015485945 -0.08700139
-0.30796152 0.040582225 0.1338571 0.26862705 0.30873406 0.06760287 0.04689686 0.3174262

sequential_5/dense_13/MatMul f4 [12, 16]
00000000: 1093 a03e 5030 8f3e 9beb 10bd b209 3f3c
00000010: dd1f fe3d 143d bb3e 4aaf c23e 64ee 663d
00000020: 211e c43e 0dbc 40be 3cd3 e2be 7cad d13e
00000030: ea91 f1be 5909 8e3c d26f 983a 3505 b33e
00000040: 06d8 debe 254e c9be 687c 7b3c e72b ee3d
00000050: b04f e63e b512 26be 0687 913e b270 c23e
00000060: 984d 60be e78a 613d bc6d 50be 26d4 80be
00000070: 6c7e afbe f557 803e 5647 c6be 7bf6 a8be
00000080: e4d6 d4bd 7d25 e13d ac65 593d 5cfa 08be
00000090: 3722 d4be f0a3 d63e bc6c df3d 2c5f 8fbe
000000a0: 609e a63c 687b c5be a80d a63e 0308 a43e
000000b0: c4b9 423e 85d1 e6be 6d17 45be e574 cfbe
000000c0: f6c2 05be 09d6 673e 81ae 953e ad8d 713e
000000d0: 0646 273e 94d7 9e3e 296b 1c3d d208 9d3c
000000e0: 7a7f cbbe 7940 553c 3cd5 06be 1e48 bf3e
000000f0: f0f1 483d e088 913e 785e df3e 23b9 c0be
00000100: 4b75 b7be b481 a8be 7418 9f3d 1dd0 6d3e
00000110: 8995 4dbd 59f8 e4be 1944 823e 61d5 043d
00000120: 3c74 a1be b120 28bd a435 9fbe a05c 9ebe
00000130: fca1 8dbe 4c98 93be 966d 55bc 0dd3 5ebd
00000140: 1883 9f3d 9b8f 723e 2d3c 783e 0b86 653d
00000150: e020 dabe b741 b23e 36cf 89bd f292 7cbe
00000160: 2701 6c3e d482 033e 2a6a d53e cc24 613e
00000170: 5481 883e c5e7 01be 7f33 5d3e 21b7 4a3e
00000180: 0c17 e6bd 57a8 f9bd b896 2f3e 57a9 d4be
00000190: 102b ba3d a4a5 493e e458 3cbe e004 e1be
000001a0: 7509 3d3e 46c1 b73d 8887 fcbd f57a 523e
000001b0: 5e19 f9bc cb36 cfbe 562a 313c 84f0 853c
000001c0: 0061 babb 3887 e43e 74cb cf3e 4da0 86be
000001d0: c582 11bd 99ca 62bd 5766 5cbe 2524 d43e
000001e0: 8663 373e 1529 57bc df48 dfbe 168a c33e
000001f0: 1ac7 fa3b e670 983d 222b 583e 482d 74be
00000200: 0f75 afbe f91d e33e 61e1 d6bc 660d 9ebe
00000210: 414f 683e 63fe d7be 8cbe d13e 1a66 e13e
00000220: 3526 d13e 26dc 3fbe 462c 41be bc9f 85be
00000230: e285 e13e 559b c4bd 8ed3 5fbd 01b3 833e
00000240: d23c dbbe dccb b1be ae85 d73d f4b5 683e
00000250: c7d4 02be c8b6 a73e 9436 d83e eeb4 8a3e
00000260: 8517 1f3e 8990 c2bc 6c03 dcbe 92c7 8a3e
00000270: 95d4 80be 7816 523e 310a d3be fcb0 dc3d
00000280: e020 2bbc 4b88 533e 9ca9 dabe 10e4 e8be
00000290: 6c85 c93e 665b e3be dca1 7ebe 920f cebe
000002a0: e01f cb3d 31d8 93bc c0ca 17bd 4851 0a3e
000002b0: 27c5 b2bd 2ec9 d43e a98e dcbe 0969 623e
000002c0: 3f1e babe 4d41 8cbe 0f90 013e beab b03d
000002d0: cb2a 57bd 55f7 b83e 45aa 113e cc0f a23d
000002e0: a88f 96be 403b 28be 1c73 a0bd fd7b ac3d
000002f0: a8db 2f3e 3add 9c3e 7f12 67be 5db4 e4be
0.313622 0.27966547 -0.03538094 0.011660026 0.12408421 0.36570036 0.3802436 0.05637969
0.38304237 -0.18821736 -0.44301784 0.4095267 -0.47181636 0.017338442 0.0011630005 0.3496491
-0.43524188 -0.39317432 0.015349485 0.116294675 0.44982672 -0.16218074 0.28423327 0.37976605
-0.219046 0.05506411 -0.2035436 -0.25161856 -0.3427614 0.25067106 -0.387263 -0.3300055
-0.1039255 0.109934784 0.053075477 -0.13376755 -0.41432354 0.4192195 0.10909411 -0.28002298
0.020339191 -0.38570714 0.32432294 0.32037362 0.19016176 -0.45081726 -0.19247217 -0.4051887
-0.13062653 0.22640242 0.29234698 0.23589201 0.16335306 0.31023848 0.038188133 0.019169245
-0.39745694 0.01301586 -0.1316728 0.3735971 0.049058855 0.2842474 0.4362676 -0.37641248
-0.35831675 -0.32911456 0.07768336 0.2322392 -0.050191436 -0.44720724 0.2544258 0.032430056
-0.31533992 -0.041046802 -0.31095612 -0.30930042 -0.27662647 -0.2882713 -0.013026616 -0.054400492
0.07788676 0.23687594 0.24241705 0.056036036 -0.42603207 0.3481576 -0.067289755 -0.2466543
0.23047315 0.12842876 0.4168256 0.21986693 0.2666117 -0.1268607 0.21601675 0.1979642
-0.112348646 -0.121903114 0.17147338 -0.41535446 0.09090245 0.19692093 -0.18393284 -0.43949032
0.18460639 0.08972411 -0.12330538 0.20554717 -0.030407604 -0.4047149 0.010813316 0.016350038
-0.005687833 0.44634414 0.4058491 -0.26294175 -0.035525102 -0.055368993 -0.21523415 0.41433826
0.17909059 -0.013132353 -0.43610284 0.3819129 0.0076531293 0.07443409 0.21110204 -0.23845398
-0.34268996 0.44358805 -0.026230516 -0.30869597 0.22686483 -0.4218627 0.40965688 0.4402321
0.40849462 -0.18736324 -0.18864545 -0.2609843 0.44047457 -0.0959994 -0.054645114 0.25722507
-0.4281984 -0.34725845 0.10523544 0.2272566 -0.1277648 0.3275664 0.4222914 0.27091163
0.15536316 -0.02375056 -0.4297136 0.27105385 -0.25162187 0.20516384 -0.41218713 0.107759446
-0.01044485 0.2065746 -0.42707527 -0.45486498 0.39359605 -0.4440567 -0.24866432 -0.40246254
0.09918189 -0.018047424 -0.03705859 0.13507569 -0.0872901 0.41559738 -0.4307759 0.2211038
-0.363512 -0.2739357 0.1265261 0.08626507 -0.052531045 0.361262 0.14225109 0.07913169
-0.29406476 -0.16428852 -0.07834455 0.084220864 0.17173636 0.30637532 -0.2256565 -0.44668856

unstack2 f4 [96]
00000000: 9b61 9b3b b648 22bc 7272 e43b 828b 213c
00000010: 1b37 0abc 5e24 1dbc b802 aa3a e013 e43b
00000020: 427a 1a3c 0db4 153c 001d 07bb 18ee dcbb
00000030: 2404 123c a106 233c 64bc 1f3c 1260 033c
00000040: 52da 753b 885d d5bb a3e8 23bc d7f1 9a3b
00000050: f498 1bbc 1424 10bc 3880 233c 455d 1b3c
00000060: 5a63 0c3c ca4b 1e3c 50c9 1fbc 7153 253c
00000070: b25f 66bb b91c 003c 1572 1f3c c815 23bc
00000080: c79e 0fbc efce 1c3c bd5c 8cbb ad5a cebb
00000090: 8eb8 20bc 05bc 0ebc a913 1e3c 693e 17bc
000000a0: 15e2 363b 5efc fbbb 2d7a d53b 22b9 253c
000000b0: f245 133c 73e7 1dbc 01df 08bc 8d08 0d3c
000000c0: 6c24 05bc 32e0 cd3b 3be7 24bc c0a0 1d3c
000000d0: 3069 26bb ac0e abba a2b2 ca3b 627d 1dbc
000000e0: dc2a 15bb 9c4e 203c fbb0 e83b 697f 1abc
000000f0: b96e 1d3c 1c50 023c 29d7 1b3c 7311 213c
00000100: 5051 c73b 06e4 213c 6828 163c e638 11bc
00000110: 4ce1 103c 9364 24bc c14e e23b f2f8 1a3c
00000120: 4b8c 1bbc acfc 17bc b616 debb f3af 1e3c
00000130: 14e5 23bc d834 fd3b 23c2 f5ba 819b 083c
00000140: cc58 fbbb f067 1abc 553c 13bc efb8 193c
00000150: ecff 033b 8722 a8bb 55eb 1f3c ece0 253c
00000160: 486f f43b e053 22bc 2c33 09bc b891 243c
00000170: 1b27 113c f3ab d3bb efe5 15bc 5c02 1e3c
0.00474186 -0.009905031 0.0069716508 0.009859921 -0.00843599 -0.00959119 0.0012970781 0.006960377
0.009428563 0.009137166 -0.002061665 -0.00674225 0.00891212 0.009950311 0.009749506 0.00801851
0.0037514162 -0.006511394 -0.010004195 0.0047285366 -0.009496916 -0.008797664 0.0099793 0.009482686
0.008568609 0.009661624 -0.0097525865 0.010090695 -0.0035152254 0.007819348 0.009731789 -0.0099539235
-0.008765883 0.009570821 -0.004283516 -0.0062974305 -0.009809626 -0.00871182 0.009648242 -0.009231188
0.0027905751 -0.0076899966 0.0065148086 0.01011494 0.008988844 -0.009637701 -0.0083539495 0.008607996
-0.008126359 0.0062828297 -0.010064895 0.009620845 -0.0025392286 -0.0013050637 0.0061858455 -0.009612413
-0.0022761142 0.009784367 0.007101176 -0.009429791 0.009608918 0.00795367 0.009511747 0.00983082
0.0060826913 0.009881025 0.009164907 -0.008863663 0.008842777 -0.010033744 0.006906361 0.009458767
-0.009493898 -0.00927655 -0.0067776097 0.009685504 -0.010003347 0.0077272467 -0.0018749874 0.008337856
-0.0076704975 -0.009424195 -0.008986552 0.0093824705 0.0020141555 -0.005131069 0.009760697 0.010124426
0.007459555 -0.009907693 -0.008374017 0.010044508 0.008859421 -0.006459707 -0.009149059 0.009644117

unstack3 f4 [96]
00000000: 9b61 9b3b b648 22bc 7272 e43b 828b 213c
00000010: 1b37 0abc 5e24 1dbc b802 aa3a e013 e43b
00000020: 427a 1a3c 0db4 153c 001d 07bb 18ee dcbb
00000030: 2404 123c a106 233c 64bc 1f3c 1260 033c
00000040: 52da 753b 885d d5bb a3e8 23bc d7f1 9a3b
00000050: f498 1bbc 1424 10bc 3880 233c 455d 1b3c
00000060: 5a63 0c3c ca4b 1e3c 50c9 1fbc 7153 253c
00000070: b25f 66bb b91c 003c 1572 1f3c c815 23bc
00000080: c79e 0fbc efce 1c3c bd5c 8cbb ad5a cebb
00000090: 8eb8 20bc 05bc 0ebc a913 1e3c 693e 17bc
000000a0: 15e2 363b 5efc fbbb 2d7a d53b 22b9 253c
000000b0: f245 133c 73e7 1dbc 01df 08bc 8d08 0d3c
000000c0: 6c24 05bc 32e0 cd3b 3be7 24bc c0a0 1d3c
000000d0: 3069 26bb ac0e abba a2b2 ca3b 627d 1dbc
000000e0: dc2a 15bb 9c4e 203c fbb0 e83b 697f 1abc
000000f0: b96e 1d3c 1c50 023c 29d7 1b3c 7311 213c
00000100: c3b9 bf3b 169d 213c 30a3 0e3c 9247 0ebc
00000110: 29cc fa3b 46ad 22bc 21c2 f73b 8e90 143c
00000120: bc81 1bbc 20e9 16bc d49c eabb 7e51 213c
00000130: 89d2 23bc 669b 033c d6d9 b3bb c341 0d3c
00000140: 80f1 06bc 1668 1abc e1ed 96bb f442 1b3c
00000150: c63d 953b b181 74bb 66fa 203c 42a6 1e3c
00000160: f8a2 0d3c b767 21bc 2ba0 09bc 0bde 233c
00000170: 6e86 133c 4220 c1bb a3e9 16bc 0ac3 1e3c
0.00474186 -0.009905031 0.0069716508 0.009859921 -0.00843599 -0.00959119 0.0012970781 0.006960377
0.009428563 0.009137166 -0.002061665 -0.00674225 0.00891212 0.009950311 0.009749506 0.00801851
0.0037514162 -0.006511394 -0.010004195 0.0047285366 -0.009496916 -0.008797664 0.0099793 0.009482686
0.008568609 0.009661624 -0.0097525865 0.010090695 -0.0035152254 0.007819348 0.009731789 -0.0099539235
-0.008765883 0.009570821 -0.004283516 -0.0062974305 -0.009809626 -0.00871182 0.009648242 -0.009231188
0.0027905751 -0.0076899966 0.0065148086 0.01011494 0.008988844 -0.009637701 -0.0083539495 0.008607996
-0.008126359 0.0062828297 -0.010064895 0.009620845 -0.0025392286 -0.0013050637 0.0061858455 -0.009612413
-0.0022761142 0.009784367 0.007101176 -0.009429791 0.009608918 0.00795367 0.009511747 0.00983082
0.005851002 0.009864112 0.008705899 -0.008684056 0.0076537323 -0.009929007 0.0075609838 0.009067668
-0.00949138 -0.009210855 -0.0071598087 0.009846089 -0.009998926 0.008032655 -0.0054886146 0.008621636
-0.008236289 -0.00942423 -0.004605994 0.009476412 0.004554483 -0.0037308747 0.009825325 0.009683194
0.008644812 -0.009851388 -0.008400003 0.01000167 0.0090042185 -0.005893738 -0.009210977 0.009690056

while/MatMul_1 f4 [96, 32]
00000000: 88aa 63bb d258 f33d f284 d5bd ae14 933c
00000010: 8a9d 53bd 06e5 1cbd f5a5 a63c fc27 89bd
00000020: a546 07be 1eba afbd d034 7e3d e7d1 01bb
00000030: 455a 00be f030 f63c 394f 58bc 5ef1 5ebc
00000040: ce49 4c3d e739 f03d 70b7 8cbc f681 093e
00000050: 3cad 7abd fa0c 603d cc2a 7cbd b6a9 8cbe
00000060: d612 863d 5fb3 92bd 443b 853c fb7d b4bb
00000070: 3cfa a8bd 2307 7cbd 901e f9bc 1b62 84be
00000080: b1e7 04be d677 403e f123 cfbd aba4 c1bd
00000090: d672 52bd aa24 2d3c 8fa6 d5bc c3c6 763d
000000a0: b5e4 bebd a85b 213e 726b 18be eb9a 9cbd
000000b0: 604b 783d ed4e 953d a217 4f3d 941c f1bd
000000c0: 4825 8c3d f677 fe3c 0f3c fc3d 3db3 e1bd
000000d0: 43a0 eebd fadf 13be e9e0 b83c 9c07 4c3d
000000e0: d67c 343e 427f 703e 8dfd 62bd 4c3b 23be
000000f0: 3594 963d 2ea9 553c 9a18 e53b 56d0 11be
00000100: 657f bebd 2740 323d 1a48 efbd 0ce2 0dbd
00000110: 9954 253e 8b8e efbc f237 173d 03f5 4fbd
00000120: b180 db3d 20bb d7bd fa43 c53d b450 1fbc
00000130: 64a0 2b3b 0279 bcbd aa14 0c3d f28e 043d
00000140: 3ba3 373d ef1f ea3d b2ba ffbc d90d 2abd
00000150: 1e85 a73d aaa3 43bd 68b2 803e 2987 233e
00000160: 6459 0c3d c72b 55bd 893e 56bd c4c1 68bd
00000170: 9acd f93d 1edf fc3d 46a3 c4bd 3f67 e23d
00000180: 611a dd3d cbde 3a3e 0ae5 7aba c1de 273d
00000190: f2ed e13b 4884 213d a8a3 ecbd 6d3d 8b3c
000001a0: 875b 083e 7a8f 5f3d c315 353d 578e 583d
000001b0: 6b83 c93d a92f 82bc d2db 3c3c 894e 8c3d
000001c0: 460c 1b3e c348 02be 47d6 f2bd 4d67 37be
000001d0: 2f6b 62bd 9f49 2cbd 025f 27bd 7421 89be
000001e0: 3570 513d ce5d 003e 69d0 43bd 8e14 133e
000001f0: 6d3f 1ebd be9d 84be 0ea9 843d 451b 453e
00000200: 6cd6 7ebc 4ca6 333d 210c f1bd 8d85 b93d
00000210: b511 cebd f0f4 98bd 4139 5ebd fbcd 12bd
00000220: 98ba c83d b2d0 08be 437b babd ffa2 4dbe
00000230: c073 a3bd 13ac 5ebe 7f28 3cbe 089b f8bc
00000240: 0d54 56bc 67ef 7e3d 7787 24be ac74 933c
00000250: 40fb 26bd 2f6c b53d f5cd 883d dece bcbc
00000260: 64c5 24be c63d 8dbd 8a0e fe3c 364b 933c
00000270: 2549 103e 87de 4fbd 9bae 18be 2ddc 30bd
00000280: 5113 303e fb7d 26be b46c 6ebb 29ba 303e
00000290: 4ee0 03be a456 c83d 51e2 983c 7c01 04be
000002a0: af0e 5f3d 0868 03bd 7511 bbbd 2839 44bb
000002b0: 5af8 a83c 53c3 bb3d c0ef 4c3d 431d 8e3d
000002c0: afbc abbd fa8f 84be f229 21be 7ca0 3a3c
000002d0: 0124 06be cacb 25be 14c6 e539 182e ac3e
000002e0: 52f1 ed3c f407 64bd 5045 0bbd ce51 783e
000002f0: 4dc7 e43d a762 e5bc 7f75 883c 559a 033e
00000300: cf27 af3c 83d3 8a3d 3dfe 223d 270b f0bd
00000310: a479 493d c99a 183e b13d cbbd 235d f7bc
00000320: 7a12 45bd 7311 82be a17d debc f8b7 d5bc
00000330: 11c8 513d e7e7 243e 1be1 b1bd 0736 493d
00000340: e41c a13c 87d8 90bd 405a 00bc 35f6 81bc
00000350: adb3 edbd 81e9 2ebd 6b90 253e cced 3cbc
00000360: 390a 833d 8d89 ecbd 7ea0 8a3d 9360 233e
00000370: 88b7 6c3d 7e2c 0b3e 4b09 1a3e ee02 3fbe
00000380: 7fdc 303c 87a7 043d 3b13 f2bd d4b9 44bb
00000390: 9687 b3bc fb71 8abc 1ab3 c43c 0b5f da3d
000003a0: 87f6 f73c d443 d93d 5942 2c3e d820 cc3d
000003b0: a541 b0bc 1162 a0bd 7174 a9bc 6298 6dbc
000003c0: 995c fd3c 3c2e 9bbd 6a2c f9bb ed47 d23d
000003d0: 0d82 503c 6764 3e3d 92fd 24bd 3140 23bd
000003e0: f53c c03d 894e b73c 5fec d4bc f67e cfbd
000003f0: bbc2 763e 7abf 18bd 459a f6bc c3f1 8d3d
-0.0034739096 0.118821755 -0.10425748 0.017954197 -0.051663913 -0.03830435 0.020342806 -0.066970795
-0.13210543 -0.08580421 0.062062085 -0.001980895 -0.12534435 0.030052632 -0.013202482 -0.013607351
0.049875073 0.11729794 -0.017177314 0.13428482 -0.061200365 0.054699875 -0.06156425 -0.2747323
0.065465614 -0.071631186 0.016263612 -0.005508182 -0.082508534 -0.061530244 -0.030410081 -0.258561
-0.12979008 0.18795714 -0.10114277 -0.09455236 -0.051379047 0.010567823 -0.026080398 0.060248148
-0.09320966 0.1575762 -0.14884737 -0.07646736 0.06061876 0.072904445 0.050559647 -0.11773029
0.06843048 0.031063061 0.12316143 -0.11020515 -0.11651661 -0.14440909 0.022568183 0.049811944
0.17625746 0.23486045 -0.055417586 -0.15940589 0.07352487 0.013040824 0.006991458 -0.1423963
-0.09301642 0.04351821 -0.11683674 -0.034639403 0.16145553 -0.029242774 0.036918588 -0.05077077
0.10717905 -0.10533738 0.09632106 -0.009723831 0.002618813 -0.09202768 0.034199394 0.032362886
0.044833403 0.11431872 -0.031216953 -0.041517112 0.08179687 -0.047763504 0.25136113 0.15969528
0.034264937 -0.052043702 -0.052305732 -0.056825414 0.121974185 0.12347244 -0.096014544 0.11054849
0.10796047 0.18249051 -0.00095708726 0.04098392 0.0068948204 0.039432794 -0.115546525 0.016997064
0.13316165 0.05458019 0.044210207 0.05287012 0.09839519 -0.015891867 0.011527019 0.06850917
0.151414 -0.12723069 -0.118572764 -0.179105 -0.055278 -0.042062398 -0.04086209 -0.26783335
0.0511324 0.12535784 -0.047806177 0.1436331 -0.038634706 -0.25901598 0.06477557 0.19248684
-0.015554052 0.043859765 -0.117698915 0.09058676 -0.10061971 -0.07468593 -0.05425382 -0.03584097
0.09801215 -0.13360861 -0.091055416 -0.2008171 -0.07981062 -0.21745329 -0.18374823 -0.030347362
-0.013081563 0.06224003 -0.160673 0.01799997 -0.040766954 0.08858525 0.06679908 -0.02304786
-0.16090924 -0.06896548 0.031012792 0.0179802 0.14090402 -0.050749328 -0.14910357 -0.043178726
0.17194869 -0.16258995 -0.003638071 0.17258514 -0.12878534 0.097821504 0.018662604 -0.12891191
0.054457363 -0.032081634 -0.09134189 -0.0029941294 0.020626236 0.091681145 0.05003333 0.06939175
-0.08385598 -0.25891095 -0.15738657 0.0113908015 -0.13099672 -0.1619102 0.00043825863 0.33628917
0.029045735 -0.055671647 -0.03400165 0.24249956 0.11170826 -0.028001143 0.016657589 0.12851842
0.021381287 0.06778624 0.03979324 -0.11720877 0.04918827 0.14902796 -0.09923876 -0.030195778
-0.048113324 -0.25403938 -0.027159514 -0.0260887 0.05121619 0.16104089 -0.086855136 0.04912379
0.019667096 -0.07072549 -0.007834017 -0.015864471 -0.11606536 -0.042703155 0.16168372 -0.011531305
0.06398434 -0.11549673 0.06768893 0.15954809 0.057792217 0.13591191 0.15042607 -0.18653461
0.010794758 0.03238633 -0.11820074 -0.0030017989 -0.021915238 -0.016900053 0.024011184 0.10662659
0.03026892 0.1060864 0.16822185 0.09967202 -0.021515677 -0.07831205 -0.020685406 -0.014501663
0.030927943 -0.07577178 -0.0076041715 0.10267625 0.012726319 0.04648247 -0.040280886 -0.03985614
0.09386627 0.022376316 -0.025991617 -0.10131638 0.24097721 -0.03729198 -0.030102858 0.06930878

while/MatMul f4 [96, 16]
00000000: 4d51 883d 50e7 35be c728 fd3d 04a2 8abd
00000010: d91b 47be e03c 4b3d 5c8b 3dbe 391c df3d
00000020: a326 093d d478 063e 5233 33be aeec 3cbe
00000030: b20b afbd dc08 8bbd f542 293e fa69 49bd
00000040: 0985 d03d e833 41bd a726 a6bd 5f6c aa3d
00000050: 237b 263d dd11 f6bd 42d0 22be aea2 2cbe
00000060: fc6a 2c3e 72d4 093e 632d 193e 38e4 53bc
00000070: e831 bebd 3734 463e dc34 7f3c fbe5 df3d
00000080: 7be8 35be f128 f6bd 4b5c 2d3e e22b 5ebe
00000090: da2f 303d 4d82 5dbe c1fc 08be ebe7 1ebe
000000a0: 8424 203d 981a 063e e33c 3bbe 5b00 dfbc
000000b0: ef4e 163e 4f92 263e da86 27be 70f7 253e
000000c0: b6c1 a23b c4c3 2f3e 0318 0e3e 4826 063e
000000d0: 244c 93bd d932 bd3d 779c 403d 4c21 e1bd
000000e0: ca28 753e 079e 513e b691 b73c d8b7 693e
000000f0: 7729 0c3e 7bf2 5e3c 1a15 433e 92ad 5dbe
00000100: 6a1d 2a3c 1c90 b63d 5ec6 a93d b574 703d
00000110: e152 41be 85fb a8bc aabe d03d 56a6 0fbe
00000120: c65e cfbc cdec 45bd e483 6d3e 4fd5 123a
00000130: 4223 28be 987c 2b3c 1bf9 8cbb 0aec 8cbd
00000140: a588 18be 8db0 3bbd 331e fa3d f368 f5bd
00000150: 84e5 da3d 91ee f23d 41b9 3c3d a1dd 57be
00000160: 80a5 3c3d a3e9 a83d 140a 083e a650 e8bc
00000170: d486 4bbe 2edd 8aba db99 9a3d f46e 9bbc
00000180: ca7d d5bd 913e 6bbe 78b6 4ebe d2ce cb3d
00000190: db59 f0bd 268a 653e 35e6 b0bd 5d5f acbd
000001a0: 2d91 213e d69e 6c3c f1cc 723d 4689 263d
000001b0: 9020 65bd b1ef 563e feb3 9dbd 9d54 cfbd
000001c0: 2b38 ebbd 035b 823d c3cc 2bbd afa4 bfbc
000001d0: 29e1 99bd 0fc9 c33d dfc2 183e 410c 1e3c
000001e0: 0452 dcbd 1b32 773d 1571 123e e264 ebbd
000001f0: 6d4f dbbd b834 e6bd e257 8cbd 23dc 3abe
00000200: d109 513e 9fcc 7d3d 67f4 1bbe c261 5cbe
00000210: 5a6f 75bd e047 513b e71d 0a3e cfb6 cd3c
00000220: 0b5b b2bd bb19 1a3e 1876 313d 128d eebd
00000230: 5b83 55be 48f0 b2bd 9fef 93bd be19 a5bb
00000240: cb2e 39be 49ff 45be aa20 19be 1cbf 36bd
00000250: c199 cc3d f6cb d13d 39cf 18be c2d2 b9bd
00000260: 92f8 afb9 c8a4 61bc 138a 4cbd 4d72 a1bd
00000270: 3a49 2c3b 652d 283d b307 6c3a 4737 13be
00000280: b33f 7d3b 06df a9bd 5d80 3dbe d1e6 4cbe
00000290: dc89 893d b9f2 b6bb f562 b33d 32af 103e
000002a0: 90cc 35be e347 04be 96fa 6cbe ae94 24bc
000002b0: 29ca 85ba 4084 c5bd 4975 e0bd fadf 693e
000002c0: d43b 64be 9ca3 3b3e 3eb2 2d3e db2a 603e
000002d0: 95b5 0f3e 616b 08be 3bed 08be 2428 21be
000002e0: e0a7 193e 63c0 4dbe 721b 3fbe d90e 083e
000002f0: 286e 663e 2d8f 2c3e 0b0b 1c3d d789 763e
00000300: ac73 adbd 9fe2 d93d 36bb 59be ed51 2cbb
00000310: 8929 64be 0e98 493e 308f ad3d ea20 3d3e
00000320: e2ff c73d 1140 34be 5fcd 31bd 3b69 17be
00000330: 33e4 05be 9ef5 ba3d a4e0 6ebd d528 1a3e
00000340: dcfe 683d d039 f9bd 7b7e 56be 0448 20be
00000350: 7e72 fd3d 0d19 4c3e 8ba9 223e 75f1 9cbd
00000360: b832 1ebe 1640 cb3c 4dea 053e 9a7b 273e
00000370: 9e06 58bc db3f 43be 4e33 9c3d 919e 153d
00000380: 7189 6b3d 01cb 673e be71 1bbe 387a 27bd
00000390: cb3c 093e 73c3 49be 3118 cc3d a96d 323d
000003a0: b12c b7bd 49dc 96bd 7c24 613e 6e27 e23d
000003b0: 894c 5cbe 14aa 9abc e443 43bc 45c0 a0bd
000003c0: 82f8 12be 9dfe a2bd d008 e53d 45ae 0fbd
000003d0: 57dd 6cbe cc87 303e a002 abbd 5e24 a53d
000003e0: 963e 353e 3039 683d 817e 48be bbd4 ee3d
000003f0: 7ee0 ac3c 5b36 57be 397f 5f3c d64b 063e
0.06656132 -0.1776402 0.12361293 -0.06769183 -0.19444217 0.0496186 -0.18510193 0.10894055
0.033484112 0.1313203 -0.17500046 -0.18449661 -0.085471526 -0.06788799 0.16529448 -0.049173333
0.101816244 -0.047168642 -0.08112841 0.083214514 0.040644776 -0.12015126 -0.15899757 -0.16858932
0.16837686 0.13459948 0.1495872 -0.01293283 -0.092868626 0.19355856 0.0155765675 0.10932537
-0.17764466 -0.12019528 0.16929738 -0.21696427 0.043014385 -0.21631737 -0.13377668 -0.15518157
0.039097324 0.13096082 -0.18284945 -0.02722185 0.14678548 0.1626675 -0.16360036 0.16207671
0.00496694 0.17164522 0.13876347 0.1310054 -0.07192257 0.09238214 0.047024217 -0.10992679
0.23941341 0.20470439 0.022408348 0.22824037 0.13687693 0.013607617 0.19051018 -0.21648243
0.010382989 0.089142054 0.08289789 0.05870505 -0.18879272 -0.020627746 0.10192616 -0.14028296
-0.025313746 -0.048321534 0.23194844 0.00056012435 -0.164197 0.010466717 -0.0043021566 -0.068809584
-0.14895876 -0.04582267 0.12212791 -0.11982908 0.10688308 0.11861909 0.04607511 -0.21080638
0.04605627 0.08247688 0.13285094 -0.028358769 -0.19875652 -0.0010594481 0.07548877 -0.018973805
-0.10424383 -0.22973086 -0.20186794 0.09951557 -0.117358886 0.2241598 -0.086376585 -0.084166266
0.15778036 0.014442166 0.05927748 0.040658258 -0.055939257 0.20989873 -0.077003464 -0.101235606
-0.114853226 0.06365015 -0.041943323 -0.023393957 -0.07513649 0.09559833 0.14918087 0.009646476
-0.10757831 0.06035052 0.1430095 -0.11493851 -0.10708509 -0.11240524 -0.068527 -0.18248038
0.20413901 0.06196272 -0.15229951 -0.21521667 -0.059920646 0.003193371 0.1348797 0.025111584
-0.08708771 0.15048878 0.043325514 -0.11648001 -0.2085089 -0.08737236 -0.072234385 -0.005038469
-0.18084256 -0.19335665 -0.14953867 -0.04461585 0.09990264 0.102439806 -0.14922799 -0.09073402
-0.000335638 -0.013772197 -0.049936365 -0.07883129 0.0026288764 0.041058917 0.0009003833 -0.14376555
0.0038642704 -0.082944915 -0.18505998 -0.20009924 0.06715748 -0.005583134 0.08759109 0.14129332
-0.17753816 -0.12918048 -0.23142466 -0.010045214 -0.0010207343 -0.09644365 -0.1095987 0.22839347
-0.22288448 0.18324131 0.16962525 0.21891348 0.14034112 -0.13322212 -0.13371746 -0.15737969
0.15005445 -0.20092921 -0.18662813 0.13286914 0.22502959 0.16851492 0.03809647 0.24076019
-0.08469328 0.10638928 -0.21262822 -0.0026293949 -0.2228147 0.1968691 0.084745765 0.18469587
0.09765603 -0.17602564 -0.043408748 -0.14786236 -0.13075332 0.09128879 -0.058319703 0.15054639
0.056883678 -0.1216923 -0.20946686 -0.15652472 0.12375353 0.19931431 0.15884988 -0.07663242
-0.15449035 0.024810832 0.1307766 0.16355744 -0.013185171 -0.19067328 0.07626973 0.036528174
0.05750412 0.22636034 -0.15180108 -0.04088804 0.13402097 -0.19703464 0.09965552 0.04356161
-0.08944071 -0.07366235 0.21986574 0.11042677 -0.21513571 -0.018879928 -0.011918042 -0.078491725
-0.1435261 -0.0795872 0.111833215 -0.035078306 -0.2313131 0.17239302 -0.0835011 0.08063577
0.17699656 0.056695163 -0.19579507 0.11661669 0.02110314 -0.21016829 0.013641172 0.13114867
