backend/exported_models/model_test.tflite (tflite, 55692 bytes, 6 tensors)

sequential_1/lstm/Read_2/ReadVariableOp f4 [200]
-0.0069134706 3.7299687e-05 0.00951766 -0.0032724193 0.012533953 -0.008052356 0.0135217905 0.016447986
-0.009716239 -0.004941473 -0.0064343675 -0.006915578 0.0011249746 0.004355845 0.0059264298 -0.008515853
0.0010363993 -0.0060814973 -0.00080837996 0.0153754745 0.0051846444 0.0017794423 -0.019585123 0.0031284236
-0.025246024 0.015852075 0.0051050363 -0.0034311 -0.0071465853 -0.0041728187 -0.0050092423 -0.016890705
-0.029271046 0.015222895 -0.011270063 0.003285551 0.0019366384 -0.016825998 -0.0019569513 0.021322453
-0.00698066 -0.023378275 -0.011258371 -0.004336937 -0.018765535 -0.0077978875 0.00089073565 0.009453909
-0.0039044586 -0.018670253 0.99049205 1.0012861 1.0105479 0.9988012 1.011636 0.99175274
1.0071499 1.0167812 0.9936584 0.99691 0.99534065 0.994561 1.001524 1.0033838
1.0057114 0.9914061 1.003262 0.9952655 0.9953996 1.0130891 1.0073528 1.0026896
0.98212385 1.0020565 0.9740262 1.0064687 1.0023177 0.99733704 0.99299115 0.9971303
0.99615633 0.9876407 0.97637516 1.0087897 0.96837306 0.99725354 1.0043309 0.98452264
1.0033852 1.0257921 0.9931513 0.9808368 1.0122869 1.0086265 0.9838329 0.9945884
1.0017092 1.0077212 0.99546826 0.99402094 -0.0004355945 0.0020413366 0.01750755 0.00015573316
-0.005152849 -0.0058635073 0.009828703 -0.017372463 0.0039355094 0.029187499 -0.003263795 -0.011177532
-0.0048433584 0.005587804 -0.008502554 0.02007415 -0.003927535 0.004493357 -0.008555588 0.0051547247
0.00036841424 -0.0037806286 0.005359223 -0.00013816863 0.019552324 0.011467998 0.0034251562 -0.0055724694
0.0056686155 0.010298247 -0.01718236 -0.003733202 -0.022694705 -0.00036505284 -0.021340057 -0.00939414
-0.0064246194 -0.0040367097 0.0033296691 0.027632385 0.007674271 -0.0025486494 -0.0023143624 0.007661795
-0.004667679 0.0059377975 0.017211037 0.017217066 0.002382563 0.010489536 -0.003137913 -0.005961618
0.0083387755 0.0012021146 0.012545975 0.002513329 0.010143558 0.016981296 -0.013539569 -0.004117518
-0.0083367815 -0.007044176 -0.008497105 0.002024632 0.007983976 0.0050484235 -0.00091256376 -0.005924208
-0.003396009 0.012774601 0.0042175516 0.0020958548 -0.018699866 0.004748506 -0.014450181 0.013004529
0.0034986183 0.0034390776 -0.008371257 -0.003684689 -0.0050802366 -0.011587536 -0.026177535 0.01353093
-0.023337964 -0.0070809117 0.000277374 -0.028397352 -0.015262129 0.025327403 -0.0070821596 -0.02466335
-0.020826578 -0.033570003 -0.024466679 -0.00025461253 0.0018535266 -0.012873764 -0.0026687486 -0.009585069
00000000: 658a e2bb 3c72 1c38 f6ef 1b3c 1676 56bb
00000010: 365b 4d3c 07ee 03bc 808a 5d3c edbd 863c
00000020: dc30 1fbc 14ec a1bb 63d7 d2bb 139c e2bb
00000030: e273 933a 7abb 8e3b 7f32 c23b 1486 0bbc
00000040: cad7 873a 4c47 c7bb 76e9 53ba 6ae9 7b3c
00000050: f3e3 a93b 2d3c e93a fb70 a0bc 3d06 4d3b
00000060: c0d0 cebc 36dc 813c 2648 a73b 4edc 60bb
00000070: e72d eabb 24bc 88bb 9224 a4bb 605e 8abc
00000080: d5c9 efbc 7369 793c 12a6 38bc 6652 573b
00000090: cdd6 fd3a add6 89bc 3240 00bb 6dac ae3c
000000a0: 05be e4bb cc83 bfbc 0875 38bc dd1c 8ebb
000000b0: 2eba 99bc 6c85 ffbb 4280 693a 91e4 1a3c
000000c0: f2e1 7fbb 5cf2 98bc e390 7d3f 252a 803f
000000d0: a259 813f 6fb1 7f3f 4a7d 813f 82e3 7d3f
000000e0: 4aea 803f e325 823f 6660 7e3f 7e35 7f3f
000000f0: a5ce 7e3f 8d9b 7e3f f031 803f e16e 803f
00000100: 27bb 803f cacc 7d3f e46a 803f b8c9 7e3f
00000110: 82d2 7e3f e7ac 813f f0f0 803f 2258 803f
00000120: 786c 7b3f 6343 803f c859 793f f7d3 803f
00000130: f24b 803f 7b51 7f3f ab34 7e3f ee43 7f3f
00000140: 1a04 7f3f 05d6 7c3f b9f3 793f 0520 813f
00000150: 4ce7 773f 024c 7f3f ea8d 803f ad09 7c3f
00000160: ed6e 803f 284d 833f 2a3f 7e3f 1f18 7b3f
00000170: 9e92 813f ac1a 813f 79dc 7b3f 589d 7e3f
00000180: 0238 803f 02fd 803f 02d7 7e3f 2878 7e3f
00000190: 8160 e4b9 f2c7 053b fe6b 8f3c 4d4c 2339
000001a0: 3bd9 a8bb aa22 c0bb 9108 213c b250 8ebc
000001b0: 72f5 803b 9f1a ef3c 65e5 55bb f821 37bc
000001c0: 09b5 9ebb e619 b73b 4c4e 0bbc 8b72 a43c
000001d0: 8db2 80bb 033d 933b bd2c 0cbc f7e8 a83b
000001e0: b927 c139 6cc4 77bb 6c9c af3b 5ce1 10b9
000001f0: 322c a03c 45e4 3b3c 9678 603b 4399 b6bb
00000200: cbbf b93b fbb9 283c 05c2 8cbc bca8 74bb
00000210: 3fea b9bc 9064 bfb9 58d1 aebc e1e9 19bc
00000220: 9d85 d2bb 6046 84bb 9436 5a3b 505d e23c
00000230: 7378 fb3b 3e07 27bb 8fac 17bb cb0f fb3b
00000240: 54f3 98bb db91 c23b 29fe 8c3c ce0a 8d3c
00000250: c624 1c3b 4edc 2b3c 72a5 4dbb ad59 c3bb
00000260: 5c9f 083c 4690 9d3a a28d 4d3c aab6 243b
00000270: 2a31 263c 5c1c 8b3c 12d5 5dbc 3fec 86bb
00000280: ff96 08bc d5d2 e6bb 7137 0bbc b0af 043b
00000290: 39cf 023c 3f6d a53b 1e39 6fba dc1f c2bb
000002a0: 948f 5ebb 8f4c 513c 6333 8a3b 9c5a 093b
000002b0: 7630 99bc 5b99 9b3b 74c0 6cbc f310 553c
000002c0: 1349 653b 2662 613b 9927 09bc d37a 71bb
000002d0: 1d78 a6bb a6d9 3dbc 4572 d6bc d5b0 5d3c
000002e0: 422f bfbc fe06 e8bb 826c 9139 90a1 e8bc
000002f0: 020e 7abc 6a7b cf3c 7611 e8bb cb0a cabc
00000300: 809c aabc b380 09bd 586e c8bc 847d 85b9
00000310: 08f2 f23a 7bec 52bc 2ce6 2ebb b10a 1dbc

sequential_1/dense_3/BiasAdd/ReadVariableOp f4 [12]
-0.04295727 -0.02824946 -0.04221019 -0.041172877 -0.049591042 -0.010357722 -0.033031803 -0.03770093
-0.029221842 0.005412285 -0.009231548 -0.0026129498
00000000: f6f3 2fbd 696b e7bc 98e4 2cbd e4a4 28bd
00000010: fa1f 4bbd 6fb3 29bc 5b4c 07bd 4a6c 1abd
00000020: a562 efbc 8a59 b13b eb3f 17bc 063e 2bbb

sequential_1/dense_3/MatMul f4 [12, 50]
0.22050104 -0.03195818 0.13745016 -0.13109538 0.11284093 0.25392485 -0.053674135 -0.0027251618
0.20573278 -0.049953327 -0.13586757 0.29122874 0.0076972274 -0.057923175 0.15179314 -0.29468232
0.13952722 -0.19901411 0.24965693 -0.26391706 -0.18502617 0.066781215 -0.22627424 0.26881418
0.05005231 -0.14285101 0.008699966 0.33205375 0.119612046 -0.1677289 -0.1965786 -0.17326148
0.22438268 -0.040015485 0.0149017405 0.2861598 0.061858796 0.23429051 -0.017859742 -0.045031257
0.03063806 0.2033186 -0.23855613 -0.104498506 -0.054817464 0.10557195 -0.052051555 -0.15243085
0.004460621 -0.083006874 0.12872784 -0.26995304 0.07716125 0.20234287 -0.2684711 -0.22062531
-0.30204976 0.27711296 0.050218944 -0.020952653 -0.27263403 0.061509952 -0.3206876 -0.2801284
-0.23437291 -0.2715905 0.29391053 -0.31447008 0.119886 -0.21199004 0.1137081 -0.15651253
0.0071383016 -0.12720287 0.14264716 -0.29824844 0.26801246 0.06438676 -0.27086964 0.054989725
0.19691367 0.19501664 0.25680816 0.03990483 0.03332102 0.08537892 -0.17065333 0.24262515
0.06888299 -0.28063983 0.2178901 -0.24335387 0.22924633 -0.028189862 -0.116055384 -0.13757837
0.30145773 -0.08274246 0.1490716 0.2891189 0.24565162 -0.22740966 -0.010788322 -0.06622077
-0.111623034 -0.23857321 0.10411073 -0.052257936 -0.2380079 -0.22100951 -0.18919441 0.04485315
-0.15188617 -0.07831987 0.14687258 -0.023797 -0.05373842 0.21516666 -0.32204798 -0.0011884827
-0.27589744 -0.031239375 -0.23739488 -0.19893615 -0.12258559 0.17807448 -0.20472327 -0.23740134
0.14752762 0.021380996 0.30085516 0.030444663 -0.2733575 0.12887938 -0.14644496 0.03336515
0.053370442 0.20659544 0.2751258 -0.2340711 -0.26885197 0.11909305 0.24629885 -0.10143595
0.27749965 -0.32619616 0.1061288 -0.2919299 0.18213362 -0.078739315 0.19604246 -0.073404804
0.09374484 -0.23281114 -0.077231176 -0.0931881 -0.2902687 0.24307987 0.1374949 -0.11472684
0.3324407 -0.07707585 0.051607057 0.20745133 0.24397628 0.2543079 0.019024197 0.18736362
-0.04594554 -0.2039058 -0.19848074 -0.048858546 -0.21911365 0.014403764 0.27831987 0.13689266
-0.16430089 0.021651924 0.058730423 -0.02716823 0.24467781 0.023227366 -0.17998925 0.07288623
-0.09009328 -0.10709922 0.16362293 0.10222164 0.17471364 -0.0039397655 0.27344066 0.060675558
-0.19836791 -0.09548724 -0.07251384 0.046269067 0.2896379 -0.12376747 0.015360706 -0.22789685
-0.09521626 -0.007760903 -0.16493088 -0.117191054 0.12203381 -0.14932057 -0.0011634245 0.088827044
-0.019393982 0.22386204 0.06628737 0.028647885 0.17066555 -0.33539227 0.065876454 -0.3376713
0.2535011 -0.12322595 0.028755698 0.24009871 0.21444634 0.29600313 -0.111059494 -0.034467597
-0.14254807 0.060236704 -0.10076661 0.32381028 0.047218733 -0.13194351 0.012617546 0.1787255
0.23715378 -0.25329083 -0.14933327 0.0337602 0.10420322 -0.2812514 0.26021838 -0.15153924
-0.18994659 -0.083019294 -0.054714162 -0.08925079 0.17850088 0.279225 -0.15284131 -0.2859594
-0.2167641 -0.24707267 0.03708309 0.10620096 0.18365467 0.013247289 0.19772598 0.18541802
00000000: 06cb 613e 95e6 02bd bcbf 0c3e de3d 06be
00000010: 2519 e73d 7002 823e 69d9 5bbd a198 32bb
00000020: 9dab 523e dc9b 4cbd de20 0bbe ef1b 953e
00000030: 0639 fc3b da40 6dbd a96f 1b3e 9ae0 96be
00000040: 39e0 0e3e 5bca 4bbe 11a6 7f3e 2320 87be
00000050: 8077 3dbe 97c4 883d 6fb4 67be 03a2 893e
00000060: a703 4d3d 8947 12be 4d8a 0e3c f302 aa3e
00000070: 29f7 f43d 20c1 2bbe e74b 49be 756b 31be
00000080: 93c4 653e 47e7 23bd 6e26 743c 8a83 923e
00000090: a65f 7d3d dae9 6f3e 984e 92bc b272 38bd
000000a0: abfc fa3c c032 503e 0f48 74be 5003 d6bd
000000b0: 4788 60bd 1b36 d83d 0334 55bd d516 1cbe
000000c0: 672a 923b 82ff a9bd 3bd1 033e 4937 8abe
000000d0: b806 9e3d f832 4f3e 0b75 89be 9aeb 61be
000000e0: 44a6 9abe c0e1 8d3e 61b2 4d3d e6a4 abbc
000000f0: b096 8bbe dcf1 7b3d 2a31 a4be fd6c 8fbe
00000100: 74ff 6fbe e90d 8bbe 717b 963e 3902 a1be
00000110: cb86 f53d eb13 59be cbdf e83d d244 20be
00000120: 6ae8 e93b 7841 02be 1912 123e 05b4 98be
00000130: ee38 893e 35dd 833d 6daf 8abe e83c 613d
00000140: bda3 493e 71b2 473e 5c7c 833e 3f73 233d
00000150: 9f7b 083d 25db ae3d bfbf 2ebe ba72 783e
00000160: 8612 8d3d 06b0 8fbe 951e 5f3e c231 79be
00000170: 8dbf 6a3e 6dee e6bc 72ae edbd 58e1 0cbe
00000180: ab58 9a3e e174 a9bd 3aa6 183e 6407 943e
00000190: 198c 7b3e 14de 68be 81c1 30bc c19e 87bd
000001a0: 9e9a e4bd 894c 74be 0238 d53d 6b0c 56bd
000001b0: 58b8 73be 5150 62be 2ebc 41be f0b7 373d
000001c0: 0c88 1bbe 2b66 a0bd c465 163e edf1 c2bc
000001d0: d11c 5cbd a654 5c3e 79e3 a4be ddc6 9bba
000001e0: 6e42 8dbe b8e9 ffbc a517 73be ebb5 4bbe
000001f0: 270e fbbd 2859 363e faa2 51be 5619 73be
00000200: 7b11 173e 3327 af3c b009 9a3e 1667 f93c
00000210: 84f5 8bbe f5f8 033e abf5 15be e5a9 083d
00000220: f79a 5a3d c18d 533e 4add 8c3e 56b0 6fbe
00000230: f7a6 89be 0fe7 f33d c435 7c3e a7bd cfbd
00000240: 6f14 8e3e 2f03 a7be 0e5a d93d d677 95be
00000250: 3c81 3a3e 1442 a1bd 5bbf 483e 4255 96bd
00000260: 4bfd bf3d 0b66 6ebe 612b 9ebd 67d9 bebd
00000270: 199e 94be eee9 783e 77cb 0c3e e8f5 eabd
00000280: ab35 aa3e f1d9 9dbd ec61 533d 1f6e 543e
00000290: ebd4 793e a534 823e a2d8 9b3c 40dc 3f3e
000002a0: 6431 3cbd afcc 50be 893e 4bbe e61f 48bd
000002b0: 545f 60be c4fd 6b3c f17f 8e3e 972d 0c3e
000002c0: 7e3e 28be 605f b13c 508f 703d e88f debc
000002d0: d28c 7a3e 5147 be3c 1a4f 38be 6045 953d
000002e0: d382 b8bd d656 dbbd c58c 273e 9459 d13d
000002f0: 22e8 323e 2619 81bb 6a00 8c3e ef86 783d
00000300: f520 4bbe d08e c3bd 2382 94bd a284 3d3d
00000310: 6b4b 943e cd79 fdbd 78ab 7b3c cb5d 69be
00000320: be00 c3bd 2c4f febb a4e3 28be dd01 f0bd
00000330: ddec f93d 7ee7 18be 0c7e 98ba f4ea b53d
00000340: 21e0 9ebc 173c 653e acc1 873d f8ae ea3c
00000350: f3c2 2e3e 89b8 abbe 3cea 863d 41e3 acbe
00000360: e5ca 813e e35d fcbd 1291 eb3c 70dc 753e
00000370: d297 5b3e b98d 973e 2973 e3bd e52d 0dbd
00000380: 1ff8 11be c3ba 763d b95e cebd 76ca a53e
00000390: 6e68 413d 331c 07be d3b9 4e3c d103 373e
000003a0: 71d8 723e 56af 81be d2ea 18be 2348 0a3d
000003b0: 7f68 d53d 2f00 90be 583b 853e 1a2d 1bbe
000003c0: 5c81 42be 0506 aabd f51b 60bd 1ec9 b6bd
000003d0: efc8 363e 94f6 8e3e 6f82 1cbe 4569 92be
000003e0: 69f7 5dbe 9e00 7dbe 70e4 173d e47f d93d
000003f0: f80f 3c3e 280b 593c ae78 4a3e 39de 3d3e

sequential_1/lstm/Read_2/ReadVariableOp1 f4 [200]
-0.0069134706 3.7299687e-05 0.00951766 -0.0032724193 0.012533953 -0.008052356 0.0135217905 0.016447986
-0.009716239 -0.004941473 -0.0064343675 -0.006915578 0.0011249746 0.004355845 0.0059264298 -0.008515853
0.0010363993 -0.0060814973 -0.00080837996 0.0153754745 0.0051846444 0.0017794423 -0.019585123 0.0031284236
-0.025246024 0.015852075 0.0051050363 -0.0034311 -0.0071465853 -0.0041728187 -0.0050092423 -0.016890705
-0.029271046 0.015222895 -0.011270063 0.003285551 0.0019366384 -0.016825998 -0.0019569513 0.021322453
-0.00698066 -0.023378275 -0.011258371 -0.004336937 -0.018765535 -0.0077978875 0.00089073565 0.009453909
-0.0039044586 -0.018670253 0.99049205 1.0012861 1.0105479 0.9988012 1.011636 0.99175274
1.0071499 1.0167812 0.9936584 0.99691 0.99534065 0.994561 1.001524 1.0033838
1.0057114 0.9914061 1.003262 0.9952655 0.9953996 1.0130891 1.0073528 1.0026896
0.98212385 1.0020565 0.9740262 1.0064687 1.0023177 0.99733704 0.99299115 0.9971303
0.99615633 0.9876407 0.97637516 1.0087897 0.96837306 0.99725354 1.0043309 0.98452264
1.0033852 1.0257921 0.9931513 0.9808368 1.0122869 1.0086265 0.9838329 0.9945884
1.0017092 1.0077212 0.99546826 0.99402094 -0.0004355945 0.0020413366 0.01750755 0.00015573316
-0.005152849 -0.0058635073 0.009828703 -0.017372463 0.0039355094 0.029187499 -0.003263795 -0.011177532
-0.0048433584 0.005587804 -0.008502554 0.02007415 -0.003927535 0.004493357 -0.008555588 0.0051547247
0.00036841424 -0.0037806286 0.005359223 -0.00013816863 0.019552324 0.011467998 0.0034251562 -0.0055724694
0.0056686155 0.010298247 -0.01718236 -0.003733202 -0.022694705 -0.00036505284 -0.021340057 -0.00939414
-0.0064246194 -0.0040367097 0.0033296691 0.027632385 0.007674271 -0.0025486494 -0.0023143624 0.007661795
-0.004667679 0.0059377975 0.017211037 0.017217066 0.002382563 0.010489536 -0.003137913 -0.005961618
0.0083387755 0.0012021146 0.012545975 0.002513329 0.010143558 0.016981296 -0.013539569 -0.004117518
-0.0083367815 -0.007044176 -0.008497105 0.002024632 0.007983976 0.0050484235 -0.00091256376 -0.005924208
-0.003396009 0.012774601 0.0042175516 0.0020958548 -0.018699866 0.004748506 -0.014450181 0.013004529
0.0034986183 0.0034390776 -0.008371257 -0.003684689 -0.0050802366 -0.011587536 -0.026177535 0.01353093
-0.023337964 -0.0070809117 0.000277374 -0.028397352 -0.015262129 0.025327403 -0.0070821596 -0.02466335
-0.020826578 -0.033570003 -0.024466679 -0.00025461253 0.0018535266 -0.012873764 -0.0026687486 -0.009585069
00000000: 658a e2bb 3c72 1c38 f6ef 1b3c 1676 56bb
00000010: 365b 4d3c 07ee 03bc 808a 5d3c edbd 863c
00000020: dc30 1fbc 14ec a1bb 63d7 d2bb 139c e2bb
00000030: e273 933a 7abb 8e3b 7f32 c23b 1486 0bbc
00000040: cad7 873a 4c47 c7bb 76e9 53ba 6ae9 7b3c
00000050: f3e3 a93b 2d3c e93a fb70 a0bc 3d06 4d3b
00000060: c0d0 cebc 36dc 813c 2648 a73b 4edc 60bb
00000070: e72d eabb 24bc 88bb 9224 a4bb 605e 8abc
00000080: d5c9 efbc 7369 793c 12a6 38bc 6652 573b
00000090: cdd6 fd3a add6 89bc 3240 00bb 6dac ae3c
000000a0: 05be e4bb cc83 bfbc 0875 38bc dd1c 8ebb
000000b0: 2eba 99bc 6c85 ffbb 4280 693a 91e4 1a3c
000000c0: f2e1 7fbb 5cf2 98bc e390 7d3f 252a 803f
000000d0: a259 813f 6fb1 7f3f 4a7d 813f 82e3 7d3f
000000e0: 4aea 803f e325 823f 6660 7e3f 7e35 7f3f
000000f0: a5ce 7e3f 8d9b 7e3f f031 803f e16e 803f
00000100: 27bb 803f cacc 7d3f e46a 803f b8c9 7e3f
00000110: 82d2 7e3f e7ac 813f f0f0 803f 2258 803f
00000120: 786c 7b3f 6343 803f c859 793f f7d3 803f
00000130: f24b 803f 7b51 7f3f ab34 7e3f ee43 7f3f
00000140: 1a04 7f3f 05d6 7c3f b9f3 793f 0520 813f
00000150: 4ce7 773f 024c 7f3f ea8d 803f ad09 7c3f
00000160: ed6e 803f 284d 833f 2a3f 7e3f 1f18 7b3f
00000170: 9e92 813f ac1a 813f 79dc 7b3f 589d 7e3f
00000180: 0238 803f 02fd 803f 02d7 7e3f 2878 7e3f
00000190: 8160 e4b9 f2c7 053b fe6b 8f3c 4d4c 2339
000001a0: 3bd9 a8bb aa22 c0bb 9108 213c b250 8ebc
000001b0: 72f5 803b 9f1a ef3c 65e5 55bb f821 37bc
000001c0: 09b5 9ebb e619 b73b 4c4e 0bbc 8b72 a43c
000001d0: 8db2 80bb 033d 933b bd2c 0cbc f7e8 a83b
000001e0: b927 c139 6cc4 77bb 6c9c af3b 5ce1 10b9
000001f0: 322c a03c 45e4 3b3c 9678 603b 4399 b6bb
00000200: cbbf b93b fbb9 283c 05c2 8cbc bca8 74bb
00000210: 3fea b9bc 9064 bfb9 58d1 aebc e1e9 19bc
00000220: 9d85 d2bb 6046 84bb 9436 5a3b 505d e23c
00000230: 7378 fb3b 3e07 27bb 8fac 17bb cb0f fb3b
00000240: 54f3 98bb db91 c23b 29fe 8c3c ce0a 8d3c
00000250: c624 1c3b 4edc 2b3c 72a5 4dbb ad59 c3bb
00000260: 5c9f 083c 4690 9d3a a28d 4d3c aab6 243b
00000270: 2a31 263c 5c1c 8b3c 12d5 5dbc 3fec 86bb
00000280: ff96 08bc d5d2 e6bb 7137 0bbc b0af 043b
00000290: 39cf 023c 3f6d a53b 1e39 6fba dc1f c2bb
000002a0: 948f 5ebb 8f4c 513c 6333 8a3b 9c5a 093b
000002b0: 7630 99bc 5b99 9b3b 74c0 6cbc f310 553c
000002c0: 1349 653b 2662 613b 9927 09bc d37a 71bb
000002d0: 1d78 a6bb a6d9 3dbc 4572 d6bc d5b0 5d3c
000002e0: 422f bfbc fe06 e8bb 826c 9139 90a1 e8bc
000002f0: 020e 7abc 6a7b cf3c 7611 e8bb cb0a cabc
00000300: 809c aabc b380 09bd 586e c8bc 847d 85b9
00000310: 08f2 f23a 7bec 52bc 2ce6 2ebb b10a 1dbc

while/MatMul_11 f4 [200, 50]
0.13546179 0.027219089 -0.028752245 0.02193916 0.036795314 -0.08326551 0.010706722 -0.0020705664
0.07475499 -0.086848296 0.18141456 -0.0059746103 0.025164276 -0.03350541 0.09720458 0.11945217
-0.023650168 -0.02311027 0.08612516 -0.0042595877 0.051129233 -0.030387701 0.08677056 -0.035309907
0.16974397 0.06674375 -0.121475704 -0.050523255 -0.030223528 -0.0696986 0.01723234 0.033424832
-0.07849532 0.059760075 -0.10215762 -0.0052799773 0.0006452085 -0.06001703 0.016860344 -0.01665517
0.00060056295 -0.008066257 0.13548526 0.03903823 -0.024657032 -0.026596842 0.05148982 0.06286967
-0.058956414 -0.115636654 0.039777614 -0.009438669 -0.06605003 -0.10703195 -0.12443493 0.074353136
0.027104657 -0.06256469 -0.010725624 0.04483017 -0.08977437 -0.04738887 0.06124328 -0.017887512
-0.11499047 0.027074318 0.051796187 0.014554503 -0.12504235 0.14665033 -0.051991437 -0.09937178
-0.017186869 0.0682117 -0.0710086 0.06430172 -0.006942113 0.055759307 -0.000623578 -0.010843225
0.06428752 0.06596339 -0.034237374 0.023354853 0.16919325 0.054104026 0.03623879 0.071039595
-0.11414681 0.055598166 0.009125185 0.16962624 0.10118661 0.014065459 -0.105683774 0.04233349
0.053092994 0.0072361026 -0.056107987 0.014339269 -0.013746781 -0.027124003 0.055582736 0.0019915376
0.034210782 0.03613196 0.10618823 0.022713147 -0.0077913976 -0.0386006 -0.05958344 0.123891704
-0.12799785 0.02080792 0.033027507 -0.012874172 0.061050333 0.019976312 0.1380722 0.11727582
0.10738647 -0.11613212 0.11080782 -0.12078334 -0.12160227 -0.0016980099 -0.04086692 -0.04352807
0.037496157 0.10369872 0.026324196 0.056207467 0.023091864 -0.049215145 -0.021550933 -0.08065892
-0.024424028 0.12881951 0.117436245 -0.042974517 -0.038981196 0.11797028 -0.05361306 0.044155996
0.072699875 -0.07644137 0.014674718 0.027534164 -0.12666143 -0.0126494365 -0.02928639 -0.0670855
0.029346354 0.007009331 -0.029991766 0.048921436 0.044294234 0.03933567 0.020915743 -0.011286502
0.026918016 0.027243456 0.02798107 0.024367133 -0.015847715 -0.023408458 0.113459155 0.11340637
-0.06787857 0.107931964 0.1434856 -0.04846433 -0.17570241 -0.045949113 -0.046327814 -0.0061385343
0.0053792894 0.040481415 0.09219936 0.01238186 -0.01360762 -0.06296376 -0.031666987 -0.031926855
0.010660068 -0.07289806 -0.0113046765 0.014365135 0.08518088 0.059999254 0.021080896 -0.066007495
0.167389 -0.003339901 -0.085913435 -0.032580193 0.090084925 -0.17343813 0.07796857 0.055135872
0.0069524343 -0.050762918 -0.010810936 -0.053019296 0.047587194 -0.08375694 0.031488977 0.012486134
0.050956387 0.14177817 0.06902549 0.047461323 -0.040054034 0.03221002 -0.014195645 -0.098501705
0.008257961 0.07451665 0.033632472 0.0050759288 0.051865563 -0.04093525 -0.03840579 -0.024459017
-0.01841148 0.08211012 0.13345216 0.012289082 -0.03929728 0.030245388 -0.026190568 -0.031109985
0.031636603 0.07589939 -0.10917675 0.021696307 -0.041888963 -0.0727794 -0.11341623 0.030680936
-0.13078052 0.06046989 0.08724347 0.016683834 0.1357518 0.024530912 -0.07392963 0.02955987
-0.059656344 0.06271775 -0.012273528 0.10026106 0.023846503 -0.12581883 0.02308954 0.060592555
00000000: 7fb6 0a3e 91fa de3c d489 ebbc c1b9 b33c
00000010: afb6 163d 1c87 aabd 3f6b 2f3c 57b2 07bb
00000020: 2519 993d 85dd b1bd bdc4 393e aac6 c3bb
00000030: 5025 ce3c f83c 09bd 3213 c73d 57a3 f43d
00000040: ffbd c1bc c051 bdbc 6362 b03d 0394 8bbb
00000050: e36c 513d a1ef f8bc c3b4 b13d 1fa1 10bd
00000060: 5dd1 2d3e f2b0 883d 41c8 f8bd 79f1 4ebd
00000070: 5597 f7bc 24be 8ebd d62a 8d3c 7ae8 083d
00000080: 28c2 a0bd fbc6 743d 0438 d1bd a903 adbb
00000090: 3623 293a 6bd4 75bd b41e 8a3c 6c70 88bc
000000a0: 196f 1d3a 5628 04bc a6bc 0a3e 8de6 1f3d
000000b0: 8bfd c9bc 9fe1 d9bc fde6 523d d0c1 803d
000000c0: 487c 71bd e9d2 ecbd daed 223d a6a4 1abc
000000d0: 3d45 87bd 9133 dbbd bed7 febd 7546 983d
000000e0: 960a de3c eb21 80bd 87ba 2fbc d79f 373d
000000f0: a0db b7bd d51a 42bd 3cda 7a3d d588 92bc
00000100: 2080 ebbd f6ca dd3c 3d28 543d 0376 6e3c
00000110: 1a0b 00be 812b 163e f9f4 54bd 6f83 cbbd
00000120: 7acb 8cbc 93b2 8b3d f56c 91bd 9fb0 833d
00000130: aa7a e3bb df63 643d 9c77 23ba c8a7 31bc
00000140: 2da9 833d d017 873d 7d3c 0cbd ad52 bf3c
00000150: ff40 2d3e 2f9c 5d3d 206f 143d 357d 913d
00000160: cdc5 e9bd e7ba 633d cd81 153c 80b2 2d3e
00000170: ed3a cf3d d072 663c bc70 d8bd e265 2d3d
00000180: 0a78 593d d41c ed3b 7dd1 65bd 41ef 6a3c
00000190: 2e3a 61bc 2833 debc b9aa 633d 7584 023b
000001a0: 9b20 0c3d 1bff 133d 3779 d93d ec10 ba3c
000001b0: fb4e ffbb aa1b 1ebd c40d 74bd efba fd3d
000001c0: de11 03be 5f75 aa3c da47 073d 31ee 52bc
000001d0: ea0f 7a3d 5da5 a33c cc62 0d3e 4e2e f03d
000001e0: 70ed db3d add6 edbd 36ef e23d 415d f7bd
000001f0: 9c0a f9bd c28f deba 1264 27bd 7d4a 32bd
00000200: 9295 193d ff5f d43d d7a5 d73c cd39 663d
00000210: 262b bd3c d295 49bd 958b b0bc 8130 a5bd
00000220: e614 c8bc 43e9 033e 6a82 f03d 0c06 30bd
00000230: bfaa 1fbd 679a f13d 5e99 5bbd ebdc 343d
00000240: ace3 943d 4b8d 9cbd 3a6e 703c 548f e13c
00000250: 89b3 01be 953f 4fbc 03ea efbc 1f64 89bd
00000260: c467 f03c 88ae e53b 4bb1 f5bc d861 483d
00000270: df6d 353d 711e 213d 7e57 ab3c 05eb 38bc
00000280: 2c83 dc3c ab2d df3c 8f38 e53c 959d c73c
00000290: 11d3 81bc 18c3 bfbc 465d e83d 9941 e83d
000002a0: eb03 8bbd 6f0b dd3d e4ed 123e 8982 46bd
000002b0: 55eb 33be 2335 3cbd 3cc2 3dbd c225 c9bb
000002c0: c044 b03b d7cf 253d 05d3 bc3d 49dd 4a3c
000002d0: 7ff2 5ebc 25f3 80bd 3eb5 01bd bcc5 02bd
000002e0: 91a7 2e3c 944b 95bd 4037 39bc be5b 6b3c
000002f0: 5073 ae3d c7c1 753d d8b1 ac3c f02e 87bd
00000300: 0668 2b3e 3ee2 5abb 62f3 afbd cf72 05bd
00000310: 727e b83d c499 31be fcad 9f3d 27d6 613d
00000320: 3fd1 e33b c7ec 4fbd 5a20 31bc c32a 59bd
00000330: caea 423d c288 abbd 96fa 003d a492 4c3c
00000340: a5b7 503d 4c2e 113e 3c5d 8d3d ce66 423d
00000350: b30f 24bd a7ee 033d da94 68bc 43bb c9bd
00000360: 664c 073c 2f9c 983d 34c2 093d fa53 a63b
00000370: fc70 543d b9ab 27bd 644f 1dbd 475e c8bc
00000380: acd3 96bc 5a29 a83d afa7 083e 2558 493c
00000390: 2ff6 20bd 2dc5 f73c 9a8d d6bc 5eda febc
000003a0: 6295 013d 2471 9b3d 0f98 dfbd 74bc b13c
000003b0: c393 2bbd 5e0d 95bd c546 e8bd 9656 fb3c
000003c0: 54eb 05be 46af 773d b4ac b23d 89ac 883c
000003d0: 8502 0b3e 0df5 c83c 6b68 97bd 8a27 f23c
000003e0: 365a 74bd 2a72 803d e816 49bc ac55 cd3d
000003f0: be59 c33c a7d6 00be 4626 bd3c e62f 783d

while/MatMul f4 [200, 3]
-0.12078947 -0.052202307 0.06830621 -0.059087057 -0.07799432 0.13389064 0.00917389 -0.012910012
0.023372734 -0.019582964 0.14451289 0.007625779 0.073958084 0.04786681 -0.040720474 0.13847297
-0.07174826 -0.15161248 -0.13378002 0.15625373 0.10125109 0.11583616 0.090932235 -0.010041055
-0.109589234 0.015241491 0.039970785 0.02611717 0.011800688 -0.17799193 -0.077119425 0.00018148523
-0.003835637 -0.102646686 -0.008860662 -0.08543045 0.12035083 -0.047825098 -0.021626156 -0.1384604
0.12870497 0.10910657 0.15844642 0.04935962 -0.14188306 0.17046978 -0.09635609 -0.07063446
-0.06689794 -0.15000354 -0.09267046 0.011316776 0.0095219165 0.09077025 0.11433426 -0.02882786
-0.08433078 -0.04174175 0.060273007 0.07420212 0.14435603 0.017148847 -0.1667742 0.10191225
0.07715752 0.14856951 -0.16615792 -0.021333162 0.061321706 -0.07284285 0.035278477 -0.03795835
0.18728891 0.16279772 -0.114430636 0.07963387 0.04212944 0.016606186 -0.106569014 -0.03177366
-0.10077793 -0.092621304 0.015815454 -0.12113144 0.10015881 0.040905908 0.13588865 -0.1463481
-0.071780205 -0.012574064 0.14263962 0.0384471 -0.0038935228 0.049181595 0.12133329 0.0077950885
-0.015183607 -0.04963339 -0.15682329 -0.13034336 -0.006294374 0.14322329 0.15485555 0.11866914
0.094786085 -0.09264257 -0.065261245 0.02327572 -0.058654398 -0.08402085 -0.087344445 -0.07639633
-0.0017162921 0.13007765 0.0049929367 -0.0715906 -0.08033777 0.11936286 -0.15349865 -0.05458575
0.16222462 0.011097255 0.13220999 0.12019999 0.027673569 0.028565718 0.01018675 0.08962954
-0.025218993 -0.1582421 0.13130553 -0.0045109205 -0.02851069 0.10914508 0.07296142 -0.15429999
0.010816089 -0.015974086 0.09342837 -0.08971811 0.11164107 -0.14941067 -0.050251614 0.066088006
-0.0015655055 -0.08002708 -0.027179755 0.15880027 -0.07841453 0.057684913 -0.00083093415 -0.0124701
0.12048389 -0.16647655 0.101543814 -0.13305946 0.02742745 -0.08480111 0.03671313 0.028386695
0.042417854 -0.09431743 0.04472882 0.15813734 -0.09957987 0.16879715 0.06305336 -0.008366848
-0.10921814 0.15481222 -0.10835493 0.11188067 -0.0036758543 0.15733618 0.1191411 -0.12855071
-0.08977173 -0.10647591 0.09993575 0.08955079 -0.042536862 -0.0884806 0.023403535 -0.09757731
0.15337658 -0.038003795 0.03341409 -0.012073498 0.16912675 -0.021453619 0.053227544 -0.10800027
-0.030304184 -0.11800639 0.095296726 0.04003609 0.15669557 0.20723356 0.14949615 0.03855502
-0.13564658 0.014293287 0.15273665 -0.16411155 -0.16853368 -0.14313668 0.16328853 -0.098062456
0.02609172 -0.013945264 0.017344471 0.16815549 -0.04950296 -0.113282934 -0.1727887 0.16547741
-0.0038131112 -0.008549203 -0.03998561 -0.017998358 -0.061031263 -0.08283829 0.02994622 0.092167236
0.015972136 -0.04575745 0.040549546 -0.012645164 0.05619177 0.12079364 -0.019844424 0.0077015026
0.15655363 0.11366887 0.004938699 0.04480539 0.050880447 0.113073304 0.11922506 0.07930299
-0.08501444 0.027302597 -0.14276163 0.06475522 -0.104538776 -0.06872732 -0.01480004 -0.036200143
-0.095512 -0.1428588 -0.06847917 -0.11707619 -0.1808982 -0.052435327 -0.13740347 0.025878755
00000000: 7860 f7bd 16d2 55bd 20e4 8b3d 4505 72bd
00000010: 7cbb 9fbd a11a 093e 154e 163c 8484 53bc
00000020: 2d78 bf3c 746c a0bc 30fb 133e ace1 f93b
00000030: 5677 973d fd0f 443d 83ca 26bd dccb 0d3e
00000040: c0f0 92bd 4d40 1bbe a1fd 08be fa00 203e
00000050: bb5c cf3d 823b ed3d ae3a ba3d 3d83 24bc
00000060: 5270 e0bd 72b7 793c 68b8 233d adf3 d53c
00000070: ac57 413c 8443 36be caf0 9dbd 124d 3e39
00000080: 4f5f 7bbb 6d38 d2bd 4f2c 11bc 29f6 aebd
00000090: 7f7a f63d 40e4 43bd 5629 b1bc 90c8 0dbe
000000a0: 3ccb 033e 4473 df3d c73f 223e 502d 4a3d
000000b0: cb49 11be a18f 2e3e 5756 c5bd cda8 90bd
000000c0: ca01 89bd 879a 19be 03ca bdbd 006a 393c
000000d0: d001 1c3c c1e5 b93d 1528 ea3d 6728 ecbc
000000e0: 9eb5 acbd 66f9 2abd d4e0 763d 48f7 973d
000000f0: 11d2 133e bd7b 8c3c dbc6 2abe 5fb7 d03d
00000100: c304 9e3d 9b22 183e 4d25 2abe e2c2 aebc
00000110: 782c 7b3d a22e 95bd 2a80 103d 377a 1bbd
00000120: aac8 3f3e 72b4 263e 9c5a eabd 1517 a33d
00000130: eb8f 2c3d b209 883c db40 dabd 1925 02bd
00000140: a964 cebd 3db0 bdbd 698f 813c c313 f8bd
00000150: 1020 cd3d f48c 273d 6526 0b3e 47dc 15be
00000160: 8001 93bd 7203 4ebc 1f10 123e b57a 1d3d
00000170: 792a 7fbb a472 493d 977d f83d f16d ff3b
00000180: aac4 78bc 624c 4bbd 4996 20be bb78 05be
00000190: 0941 cebb 20a9 123e 7492 1e3e ce08 f33d
000001a0: 351f c23d 63bb bdbd b0a7 85bd b9ac be3c
000001b0: 983f 70bd 2013 acbd a5e1 b2bd ae75 9cbd
000001c0: 35f5 e0ba 1333 053e ca9b a33b 189e 92bd
000001d0: 2188 a4bd 8474 f43d c02e 1dbe 4f95 5fbd
000001e0: 361e 263e 43d1 353c 0e62 073e 6a2b f63d
000001f0: aeb3 e23c a702 ea3c 54e6 263c b18f b73d
00000200: 1098 cebc 380a 22be f574 063e 58d0 93bb
00000210: 408f e9bc 7587 df3d cc6c 953d d100 1ebe
00000220: f735 313c 16dc 82bc 6057 bf3d 21be b7bd
00000230: 13a4 e43d 1cff 18be a3d4 4dbd 2659 873d
00000240: a631 cdba 3de5 a3bd 14a8 debc 8a9c 223e
00000250: cc97 a0bd 0447 6c3d 0cd3 59ba 644f 4cbc
00000260: 42c0 f63d d478 2abe 34f6 cf3d bd40 08be
00000270: 88af e03c 34ac adbd 8260 163d 378b e83c
00000280: 58be 2d3d 7f29 c1bd 9135 373d c1ee 213e
00000290: 88f0 cbbd 29d9 2c3e 1f22 813d 1b15 09bc
000002a0: c3ad dfbd 1887 1e3e 31e9 ddbd b121 e53d
000002b0: 9ae6 70bb bc1c 213e 4000 f43d cca2 03be
000002c0: 3eda b7bd 0b10 dabd 1dab cc3d 6866 b73d
000002d0: 223b 2ebd 5135 b5bd c5b8 bf3c 9dd6 c7bd
000002e0: c00e 1d3e dea9 1bbd 36dd 083d eccf 45bc
000002f0: 902f 2d3e 80bf afbc 2005 5a3d 3f2f ddbd
00000300: 7b40 f8bc 56ad f1bd ee2a c33d e2fc 233d
00000310: ce74 203e 0935 543e 8515 193e deeb 1d3d
00000320: f0e6 0abe 642e 6a3c ff66 1c3e dc0c 28be
00000330: 1894 2cbe 6c92 12be 1c35 273e f8d4 c8bd
00000340: 4ebe d53c ad7a 64bc fe15 8e3c f430 2c3e
00000350: 9ec3 4abd e200 e8bd 85ef 30be e972 293e
00000360: 64e5 79bb f511 0cbc f3c7 23bd 4b71 93bc
00000370: ebfb 79bd 1fa7 a9bd c651 f53c 2dc2 bc3d
00000380: ffd7 823c 2a6c 3bbd 4817 263d a92d 4fbc
00000390: 5729 663d a862 f73d c690 a2bc e35c fc3b
000003a0: 984f 203e 39cb e83d cfd4 a13b db85 373d
000003b0: 0468 503d fa92 e73d 452c f43d 9b69 a23d
000003c0: 0d1c aebd b2a9 df3c 1b30 12be 639e 843d
000003d0: 6d18 d6bd e9c0 8cbd de7b 72bc 9a46 14bd
000003e0: cc9b c3bd 9449 12be cf3e 8cbd a4c5 efbd
000003f0: 613d 39be 6dc6 56bd 7fb3 0cbe afff d33c
