backend/exported_models/model_combined.tflite (tflite, 554452 bytes, 24 tensors)

sequential_17/conv1d_12/BiasAdd/ReadVariableOp f4 [64]
0.0057533 0.044393644 0.01930656 0.023658693 0.01688524 -0.008596162 -0.026880927 0.009732865
0.026811494 0.0010229286 0.027549641 0.0021900008 -0.031108148 -0.035326958 -0.031298697 0.00047061272
0.027971543 0.0018694534 -0.0064764693 -0.04654426 0.0039205393 -0.037302487 0.0020408446 -0.026859507
0.009440401 -0.024057245 -0.021817889 -0.007070651 0.03123497 -0.0186216 -0.044588324 -0.02022808
-0.051937185 -0.031260367 -0.02238398 0.0026312247 -0.04370634 0.009507971 0.022471868 8.7266206e-05
0.013322638 0.04209477 0.007898367 0.009945437 -0.033280704 0.02759557 0.006384335 0.0010348823
0.0076443614 0.024837783 0.032053474 -0.016409433 0.02987691 0.03487825 -0.0068805343 -0.021307923
-0.013401006 -0.026790358 0.008023787 -0.02269602 -0.001052977 0.0008152517 -0.00674481 -0.0066162013
00000000: 2e86 bc3b 1cd6 353d ca28 9e3c e0cf c13c
00000010: ea52 8a3c ebd6 0cbc 6435 dcbc 9876 1f3c
00000020: c7a3 db3c ca13 863a c9af e13c 1e86 0f3b
00000030: 84d6 febc 00b3 10bd 1033 00bd 92bc f639
00000040: 9424 e53c 7208 f53a 9038 d4bb 32a5 3ebd
00000050: de77 803b 7eca 18bd b1bf 053b 7808 dcbc
00000060: e9ab 1a3c b313 c5bc 6ebb b2bc ebb0 e7bb
00000070: 7be0 ff3c 538c 98bc 3fa2 36bd 5cb5 a5bc
00000080: 16bc 54bd df0a 00bd 9c5e b7bc a070 2c3b
00000090: 6b05 33bd 52c7 1b3c ec16 b83c b002 b738
000000a0: 3247 5a3c 916b 2c3d 2768 013c 30f2 223c
000000b0: 5951 08bd 1b10 e23c af33 d13b e3a4 873a
000000c0: 8d7d fa3b 9b78 cb3c 814a 033d 136d 86bc
000000d0: 6cc0 f43c 7fdc 0e3d 1b76 e1bb f48d aebc
000000e0: e58f 5bbc 7477 dbbc 3476 033c 01ed b9bc
000000f0: 0c04 8aba 9eb6 553a 9103 ddbb b8cc d8bb

sequential_17/conv1d_13/BiasAdd/ReadVariableOp f4 [64]
0.0023336434 -0.007826913 0.012163619 -0.018690133 0.008720996 0.018779337 -0.003213583 -0.03629106
-0.01924432 -0.016118178 -0.0025950866 -0.027772117 -0.0044899206 0.0004992391 -0.012929353 -0.024688134
0.001959759 -0.014841105 -0.014232082 -0.0026425119 -0.044762816 -0.060859714 0.022314575 -0.028488658
-0.022801768 0.013432682 -0.027631616 -0.020401247 -0.020799939 0.008962497 -0.033251368 -0.027221806
-0.012543183 -0.04729364 -0.008877145 -0.013976215 -0.033911493 -0.034842048 -0.0061751725 0.018170267
0.022141026 -0.057834174 -0.043042548 -0.006374846 -0.012524692 -0.018261561 -0.049808636 -0.006627626
-0.03861952 -0.022560762 -0.041045282 0.032946166 -0.008205937 -0.03018784 -0.009762935 -0.008254958
-0.023173688 0.017781377 0.019288193 0.0085190125 -0.028024597 -0.010738389 -0.037313048 0.031627107
00000000: 0af0 183b 743c 00bc ea49 473c 0d1c 99bc
00000010: 82e2 0e3c 20d7 993c fa9a 52bb efa5 14bd
00000020: 44a6 9dbc 450a 84bc 5412 2abb 5a82 e3bc
00000030: 2f20 93bb 5edf 023a a3d5 53bc c53e cabc
00000040: 4d6f 003b 1b28 73bc ae2d 69bc fe2d 2dbb
00000050: 3759 37bd 0948 79bd 0ecd b63c 0c61 e9bc
00000060: c6ca babc c014 5c3c b35b e2bc 8420 a7bc
00000070: a264 aabc 70d7 123c 9632 08bd 4400 dfbc
00000080: ec81 4dbc fab6 41bd 7271 11bc 7ffc 64bc
00000090: c7e6 0abd 89b6 0ebd 1a59 cabb d0d9 943c
000000a0: 1961 b53c 87e3 6cbd 624d 30bd 16e4 d0bb
000000b0: 5e34 4dbc 4599 95bc 2404 4cbd 8e2c d9bb
000000c0: 802f 1ebd 59d1 b8bc 191f 28bd 8ff2 063d
000000d0: 3272 06bc 7d4c f7bc b8f4 1fbc ce3f 07bc
000000e0: bfd6 bdbc 40aa 913c 4602 9e3c 5493 0b3c
000000f0: d793 e5bc 11f0 2fbc 91d5 18bd 6d8b 013d

sequential_17/dense_39/MatMul;sequential_17/dense_39/Relu;sequential_17/dense_39/BiasAdd f4 [64]
0.34643236 0.13286458 -0.025938489 -0.017669816 0.530418 0.084792584 -0.20751385 0.19014376
-0.091320716 0.19004276 0.18288013 -0.2575244 0.47129285 0.527687 0.114458635 0.35354343
-0.1734734 -0.117951974 0.042141467 0.4511403 -0.5613976 -0.12934215 0.056702442 -0.19688576
0.3994345 -0.33603457 0.27712938 0.48863307 -0.3854447 0.31927916 0.23960187 -0.36711395
0.2668167 0.027925007 -0.5416046 -0.23171003 0.6233869 0.1609649 -0.20149504 -0.12640399
-0.15899524 0.39466625 -0.18620646 0.29966047 -0.034773253 -0.29620183 -0.24325792 0.15439263
0.54921514 0.004769675 -0.12039211 0.019970307 -0.12656033 -0.19045405 -0.26819068 0.52115595
0.5977566 0.45026183 -0.0974201 -0.22808883 0.20144501 -0.043803692 -0.17477477 0.103937484
00000000: 955f b13e a70d 083e f47c d4bc 4ac0 90bc
00000010: 79c9 073f bca7 ad3d 837e 54be 0cb5 423e
00000020: 5b06 bbbd 929a 423e ee44 3b3e 3dda 83be
00000030: 4c4d f13e 7f16 073f 4a69 ea3d a503 b53e
00000040: 03a3 31be ce90 f1bd 889c 2c3d ddfb e63e
00000050: c1b7 0fbf 4572 04be d240 683d 6c9c 49be
00000060: ae82 cc3e b90c acbe e7e3 8d3e 1d2e fa3e
00000070: 0259 c5be 8f78 a33e 315a 753e 5cf6 bbbe
00000080: 339c 883e fcc2 e43c 99a6 0abf 6545 6dbe
00000090: 4996 1f3f fcd3 243e b754 4ebe 0c70 01be
000000a0: a6cf 22be b211 ca3e e8ac 3ebe 196d 993e
000000b0: 666e 0ebd c4a7 97be 9b18 79be 1a19 1e3e
000000c0: 5d99 0c3f ef4a 9c3b 2390 f6bd c598 a33c
000000d0: 0899 01be 6306 43be 4a50 89be 7a6a 053f
000000e0: 9406 193f b888 e63e 3084 c7bd 1e90 69be
000000f0: 9a47 4e3e 806b 33bd 28f8 32be 2ddd d43d

sequential_17/batch_normalization_13/batchnorm/mul_1;sequential_17/batch_normalization_13/batchnorm/add_1;sequential_17/dense_39/MatMul;sequential_17/dense_39/Relu;sequential_17/dense_39/BiasAdd f4 [64, 64]
0.3303042 0.26961237 0.6725356 -0.1833745 0.52478015 -0.2956353 -0.40497777 -0.41455555
-0.41404635 -0.30877656 -0.4154682 0.16229689 -0.48573726 -0.43348616 -0.28491 -0.5287224
0.17191464 0.24837662 -0.67791724 -0.5183256 -0.3116638 -0.095180675 0.368514 0.45942947
0.72901154 0.02718524 -0.15349485 -0.0363083 -0.17436887 0.4664343 -0.13023874 -0.03616063
-0.1853555 0.30465066 -0.2561562 0.09308481 -0.056512214 0.34284738 0.47953677 0.49189273
0.10342527 -0.47172016 -0.25088093 0.16012385 -0.27610996 0.2160786 0.6771264 0.47026256
0.11049998 0.3839231 0.3541865 0.0787067 -0.06292941 0.28664583 -0.20702554 -0.37200707
-0.16047588 -0.24032505 -0.16235146 0.07053717 -0.6092426 0.11475878 0.47938493 0.06258419
0.1868516 -0.033819158 -0.15711142 -0.31743136 -0.44286147 -0.52448034 0.15318757 0.28537974
0.44909304 0.32661948 0.2989739 0.047505558 0.09209238 -0.31709698 -0.15546605 -0.44826916
0.422213 -0.16801478 -0.46649614 -0.44222417 0.012894821 0.46388182 -0.44877726 0.498338
-0.6557732 -0.19812159 0.54126275 -0.38404033 -0.11093851 0.2555107 -0.40270048 0.26133138
0.013860259 -0.46393657 0.05260354 -0.036488947 0.039194733 0.41845697 0.38300577 -0.40409207
0.3125388 -0.24482614 0.35508823 -0.28652924 -0.08534577 -0.18973072 -0.020681879 0.10496529
-0.27800593 -0.1657631 0.29695103 0.1858717 -0.037622955 0.36692455 -0.5118587 0.28161752
-0.5393293 0.16316505 -0.20253229 0.24164487 0.0045978785 -0.028865313 0.40692016 0.01603205
-0.032909714 0.49877828 0.51362044 -0.05910959 -0.24607742 -0.26740655 -0.52311563 -0.29438528
-0.12584081 -0.3113362 -0.33293766 -0.089777626 0.26519597 -0.5354495 0.31587017 -0.2290726
0.017310528 -0.4182502 -0.47682768 0.28438455 0.3454917 -0.42198336 -0.49856633 0.4413036
0.6366659 0.2946915 0.108507246 0.08943112 0.4082103 0.15565184 0.3384927 -0.04669723
-0.73123115 -0.0025765623 -0.028502494 -0.41585845 0.27098772 -0.5403388 -0.5288862 0.39221856
-0.15774632 -0.46864432 0.2790418 -0.019294387 -0.21353285 0.37541395 0.076469496 0.07722632
0.6006135 0.1308748 -0.17044581 -0.31568766 -0.06935412 0.31227273 -0.4279071 0.049633782
-0.23194836 -0.08180534 0.0597028 0.17429379 -0.1891084 -0.28989097 0.3666414 -0.067174345
0.4916342 0.18222174 -0.26135862 -0.20504598 -0.10739522 0.31992567 -0.15845874 -0.4035945
0.13063289 -0.0490453 -0.07406249 0.26314044 0.13742708 0.32623023 0.3748466 -0.3254018
-0.25027558 -0.2083971 -0.062376007 0.49967837 0.31160372 -0.3522193 0.54807884 -0.4390483
0.2852586 -0.14003363 -0.18967177 -0.3106406 0.37317586 0.16510189 -0.19834138 0.095683284
0.32926074 0.5348616 -0.0010123448 0.26305187 -0.30528915 0.55182284 -0.12070721 -0.17292185
-0.14693405 0.34466574 -0.28074947 -0.004362927 -0.40806937 0.045001242 -0.42152354 0.4131416
0.556605 -0.21748766 0.4068414 -0.40485635 0.39930233 -0.14896461 0.14900017 0.04880325
0.039969906 -0.22900917 -0.47577134 0.19305757 0.13017307 0.24836951 0.30385014 0.16341364
00000000: a21d a93e a20a 8a3e 4b2b 2c3f 86c6 3bbe
00000010: fe57 063f 835d 97be 3f59 cfbe a040 d4be
00000020: e2fd d3be f617 9ebe 3fb8 d4be 2831 263e
00000030: 8eb2 f8be e6f1 ddbe b9df 91be 5a5a 07bf
00000040: 640a 303e 7156 7e3e fc8b 2dbf fdb0 04bf
00000050: 6692 9fbe 16ee c2bd dead bc3e 573a eb3e
00000060: 80a0 3a3f 95b3 de3c c12d 1dbe 03b8 14bd
00000070: c18d 32be 7ad0 ee3e 4e5d 05be 2b1d 14bd
00000080: d5cd 3dbe 2cfb 9b3e e826 83be 40a3 be3d
00000090: 5a79 67bd b189 af3e d885 f53e 5dd9 fb3e
000000a0: a1d0 d33d 4e85 f1be 7773 80be 82f7 233e
000000b0: 495e 8dbe b543 5d3e 2858 2d3f 41c6 f03e
000000c0: d04d e23d 9291 c43e ef57 b53e fa30 a13d
000000d0: 22e1 80bd 3ec3 923e 81fe 53be b677 bebe
000000e0: ca53 24be c517 76be 763f 26be cb75 903d
000000f0: 53f7 1bbf a706 eb3d f171 f53e 242c 803d
00000100: 0756 3f3e f585 0abd d1e1 20be 5d86 a2be
00000110: bdbe e2be 5844 06bf 34dd 1c3e 4b1d 923e
00000120: 86ef e53e ab3a a73e 1b13 993e 3095 423d
00000130: ee9a bc3d 895a a2be 7e32 1fbe 8983 e5be
00000140: 4d2c d83e 110c 2cbe 95d8 eebe 356b e2be
00000150: cd44 533c eb81 ed3e 22c6 e5be 2926 ff3e
00000160: c1e0 27bf 63e0 4abe 3290 0a3f efa0 c4be
00000170: bb33 e3bd 4cd2 823e c22e cebe 3acd 853e
00000180: 2416 633c 1889 edbe cf76 573d 6f75 15bd
00000190: a88a 203d fe3f d63e 5519 c43e 28e5 cebe
000001a0: 1605 a03e b4b3 7abe 20ce b53e f6b3 92be
000001b0: c3c9 aebd c548 42be 0b6d a9bc 0bf8 d63d
000001c0: cb56 8ebe cdbd 29be f709 983e 2755 3e3e
000001d0: 871a 1abd 89dd bb3e 2c09 03bf 2c30 903e
000001e0: 7c11 0abf bd14 273e a064 4fbe c171 773e
000001f0: cda9 963b f376 ecbc d757 d03e a555 833c
00000200: 56cc 06bd de5f ff3e a17c 033f e61c 72bd
00000210: b8fb 7bbe 83e9 88be e8ea 05bf abb9 96be
00000220: 6adc 00be 7567 9fbe ce76 aabe 55dd b7bd
00000230: c4c7 873e 3813 09bf bcb9 a13e 0292 6abe
00000240: cfce 8d3c e424 d6be c222 f4be da9a 913e
00000250: 4ae4 b03e 340e d8be 1644 ffbe 8cf2 e13e
00000260: 89fc 223f cee1 963e 0c39 de3d aa27 b73d
00000270: f100 d13e 3263 1f3e ea4e ad3e 9845 3fbd
00000280: f731 3bbf 8bdb 28bb 107e e9bc 66eb d4be
00000290: e7be 8a3e a553 0abf 1665 07bf dfd0 c83e
000002a0: 4088 21be 26f2 efbe 91de 8e3e 430f 9ebc
000002b0: 5ba8 5abe 4236 c03e 0a9c 9c3d d528 9e3d
000002c0: cec1 193f 0b04 063e 5989 2ebe d0a1 a1be
000002d0: 8809 8ebd 36e2 9f3e a416 dbbe cb4c 4b3d
000002e0: df83 6dbe 8f89 a7bd ec8a 743d 127a 323e
000002f0: a2a5 41be 976c 94be 6cb8 bb3e b492 89bd
00000300: 7ab7 fb3e 5698 3a3e ccd0 85be 93f7 51be
00000310: 06f2 dbbd 4ccd a33e 0243 22be f0a3 cebe
00000320: a1c4 053e b9e3 48bd 13ae 97bd 58ba 863e
00000330: afb9 0c3e a607 a73e e5eb bf3e 119b a6be
00000340: 1f24 80be 0d66 55be fc7d 7fbd d8d5 ff3e
00000350: 868a 9f3e 1756 b4be e54e 0c3f f0ca e0be
00000360: 6a0d 923e fa64 0fbe 5139 42be 490c 9fbe
00000370: e810 bf3e 7810 293e 011a 4bbe 99f5 c33d
00000380: dd94 a83e b1ec 083f a8b0 84ba bcae 863e
00000390: dc4e 9cbe 4344 0d3f 5735 f7bd 6d12 31be
000003a0: e175 16be 0778 b03e 65be 8fbe e2f6 8ebb
000003b0: 78ee d0be 3953 383d efd1 d7be 4c87 d33e
000003c0: aa7d 0e3f 16b5 5ebe 844d d03e 5549 cfbe
000003d0: 5b71 cc3e 2e8a 18be 8093 183e ebe5 473d
000003e0: 7cb7 233d 6181 6abe 4d98 f3be e2b0 453e
000003f0: 174c 053e 9454 7e3e 3f92 9b3e e855 273e

sequential_17/conv1d_12/Conv1D f4 [64, 1, 3, 3]
0.12172252 0.12483651 -0.08421622 -0.13182628 -0.120292105 0.023810206 0.0054193977 0.06964055
0.017375821 -0.14611977 -0.063154906 -0.065168135 0.18153569 -0.11859314 -0.07725165 0.01608883
-0.20133126 -0.023526542 -0.14796303 -0.1281791 0.06566274 -0.13949348 0.11209824 0.12223373
0.1356956 0.1451954 0.10375845 -0.11829094 -0.013375534 0.008501939 -0.016039776 0.110109635
-0.016292077 -0.040588822 0.024199702 -0.150832 -0.06363167 -0.1857899 0.072431825 0.11892473
0.1610336 0.0023812589 -0.15644391 -0.015268085 -0.11217073 -0.1020039 -0.13385983 -0.010733771
-0.028182007 -0.1360529 -0.08091436 0.07584484 -0.011587177 -0.010056275 0.098945074 0.1487586
0.012215879 -0.14147565 -0.14655016 0.11450808 0.08189975 0.18743739 -0.1477125 -0.0025527342
-0.058489315 -0.042431243 0.08659013 0.07453324 0.018331343 0.16787055 -0.0067871897 -0.043936953
-0.11640685 0.02701674 0.09111694 -0.1191803 0.15255885 -0.11525443 0.14661077 -0.10271291
-0.1030036 0.0015779007 0.029478502 -0.07153491 0.060220104 -0.024938857 -0.034452677 0.09684683
-0.07345511 -0.054768335 -0.17780146 -0.10086104 -0.11418781 0.012426915 -0.05256895 -0.15035486
-0.05158079 -0.07185575 0.12029663 0.079502985 -0.12302906 0.03511265 0.029109975 -0.10414431
0.097435616 0.15280794 0.032826234 -0.014232038 0.12808283 0.14500375 0.07848952 0.16646032
0.0037627562 -0.03922447 -0.004733225 0.16662522 0.025003219 -0.12924717 0.116641656 -0.004132079
0.061577648 -0.028776344 0.106080435 0.025377987 -0.037749365 -0.13466787 0.14951628 0.17197327
-0.07441467 0.1266576 0.07080096 0.098237 -0.15266547 0.080485545 0.038188193 0.095164694
0.13555242 0.16654709 0.020604968 0.115631156 0.01834617 -0.097351365 0.093101926 0.1525773
0.14042176 -0.00035355642 -0.016421424 0.16980267 0.12475869 -0.1647978 0.13822652 -0.03324128
0.0018568125 -0.08299869 0.121885054 0.10102584 0.0647122 0.11495406 0.062368464 0.0028154596
-0.058767304 -0.062105823 0.14918433 0.120072916 -0.05103975 -0.0736601 -0.007650175 -0.15274282
0.1017658 0.07405633 -0.08340914 -0.04202113 0.11019554 -0.116137065 -0.010633383 0.08824158
-0.11020888 0.13478789 -0.10241397 -0.12318756 -0.13894975 -0.19315197 0.043906618 0.08479688
-0.12573276 -0.028112363 0.086202584 -0.080723405 0.12929706 0.08270594 -0.19571006 0.16541234
-0.11997239 -0.06449517 0.04855794 -0.07071835 -0.015554018 0.0070546153 -0.122824535 -0.11124738
0.0881864 0.12609991 -0.14506303 0.1290885 0.06692984 -0.14898184 -0.13635714 0.14272939
-0.1096365 -0.16475275 0.04771748 0.047208667 -0.018508058 -0.065398894 0.06542411 -0.029378135
0.007242451 0.020632237 0.005006625 -0.0064309207 0.0056536016 0.127344 -0.1223426 -0.13847363
-0.09548946 0.018655788 -0.166799 -0.06611072 -0.08342032 -0.092354484 -0.13049194 -0.009279089
-0.07239947 0.07080192 -0.04983557 -0.17344193 0.022301694 0.09875256 -0.1717979 0.0025154783
-0.15667042 -0.17856933 0.00959846 0.047796313 0.044614416 -0.03220148 0.12939152 -0.065340996
0.15430613 -0.10250687 0.07028944 -0.019599508 0.011221745 -0.18464167 -0.03139062 -0.15732521
00000000: a849 f93d 49aa ff3d 8e79 acbd 78fd 06be
00000010: b55b f6bd 9f0d c33c 3495 b13b b49f 8e3d
00000020: bd57 8e3c 6ca0 15be 5c57 81bd df76 85bd
00000030: 7ee4 393e f6e0 f2bd 1d36 9ebd b9cc 833c
00000040: c829 4ebe bcba c0bc 9f83 17be 6241 03be
00000050: 307a 863d 61d7 0ebe c393 e53d ae55 fa3d
00000060: caf3 0a3e 1aae 143e 4f7f d43d 8542 f2bd
00000070: 0e25 5bbc b74b 0b3c d965 83bc 2981 e13d
00000080: f676 85bc 7740 26bd 743e c63c b473 1abe
00000090: 5251 82bd b53f 3ebe 2357 943d cf8e f33d
000000a0: fee5 243e e50e 1c3b d532 20be fd26 7abc
000000b0: c5b9 e5bd 6ce7 d0bd 8d12 09be b3dc 2fbc
000000c0: f4dd e6bc 7451 0bbe 6eb6 a5bd 8a54 9b3d
000000d0: 25d8 3dbc 13c3 24bc b7a3 ca3d 2d54 183e
000000e0: 1c25 483c fede 10be 3f11 16be 3683 ea3d
000000f0: 0ebb a73d 96ef 3f3e f241 17be c64b 27bb
00000100: 7e92 6fbd 62cc 2dbd 2b56 b13d e2a4 983d
00000110: 9d2b 963c 42e6 2b3e 1367 debb 3cf7 33bd
00000120: b766 eebd 3652 dd3c 859b ba3d cd14 f4bd
00000130: 6338 1c3e 840a ecbd 2221 163e 255b d2bd
00000140: 8df3 d2bd 90d1 ce3a e67c f13c e580 92bd
00000150: 5ba9 763d 934c ccbc 401e 0dbd a157 c63d
00000160: a26f 96bd c354 60bd 9611 36be 3c90 cebd
00000170: 4cdb e9bd 429a 4b3c 8a52 57bd a0f6 19be
00000180: 6146 53bd 1c29 93bd 145e f63d 76d2 a23d
00000190: a9f6 fbbd 48d2 0f3d 0b78 ee3c 9d49 d5bd
000001a0: 538c c73d af79 1c3e cd74 063d 7e2d 69bc
000001b0: 2528 033e dd7b 143e 1dbf a03d 9374 2a3e
000001c0: 9398 763b d6a9 20bd 2b19 9bbb cd9f 2a3e
000001d0: 8dd3 cc3c 5f59 04be d2e1 ee3d 6466 87bb
000001e0: d838 7c3d 5ebc ebbc b340 d93d 7fe5 cf3c
000001f0: 149f 1abd 60e6 09be cc1a 193e c319 303e
00000200: b866 98bd 88b2 013e 1800 913d 7b30 c93d
00000210: 5654 1cbe 9bd5 a43d 396b 1c3d b5e5 c23d
00000220: 41ce 0a3e 528b 2a3e c0cb a83c 07d0 ec3d
00000230: b54a 963c 2760 c7bd 39ac be3d 393d 1c3e
00000240: b9ca 0f3e 8a5d b9b9 3986 86bc c0e0 2d3e
00000250: 7c81 ff3d c1c0 28be 418b 0d3e 0228 08bd
00000260: 4a60 f33a 38fb a9bd df9e f93d a3e6 ce3d
00000270: d487 843d 096d eb3d 1376 7f3d 9383 383b
00000280: fcb5 70bd ad62 7ebd c7c3 183e cae8 f53d
00000290: 0f0f 51bd 1bdb 96bd 52ae fabb 9d68 1cbe
000002a0: 966a d03d d8aa 973d 69d2 aabd 591e 2cbd
000002b0: 33ae e13d 45d9 edbd a437 2ebc 00b8 b43d
000002c0: 31b5 e1bd d605 0a3e 6abe d1bd c249 fcbd
000002d0: d848 0ebe a1c9 45be 6dd7 333d fda9 ad3d
000002e0: 17c0 00be e64b e6bc fb8a b03d 5052 a5bd
000002f0: 7366 043e bb61 a93d 3868 48be da61 293e
00000300: 16b4 f5bd 0b16 84bd b1e4 463d c8d4 90bd
00000310: 48d6 7ebc 672a e73b 6e8b fbbd abd5 e3bd
00000320: 129b b43d 5620 013e 678b 14be c72f 043e
00000330: 8312 893d b28e 18be 35a1 0bbe a727 123e
00000340: 1a89 e0bd f2b4 28be 6873 433d e05d 413d
00000350: 369e 97bc dbef 85bd 13fd 853d 6aaa f0bc
00000360: 1552 ed3b f004 a93c 9d0e a43b 79ba d2bb
00000370: d941 b93b 7766 023e c28e fabd 08cc 0dbe
00000380: fa8f c3bd 06d4 983c 5bcd 2abe 0f65 87bd
00000390: 46d8 aabd 5924 bdbd ae9f 05be 5207 18bc
000003a0: 2c46 94bd 9900 913d 6220 4cbd c39a 31be
000003b0: 0bb2 b63c c83e ca3d caeb 2fbe b9da 243b
000003c0: 366e 20be e1da 36be dc42 1d3c 11c6 433d
000003d0: 9bbd 363d b3e5 03bd 367f 043e 80d1 85bd
000003e0: 6d02 1e3e 1fef d1bd e9f3 8f3d 268f a0bc
000003f0: 69db 373c b512 3dbe 7393 00bd dc19 21be

sequential_17/conv1d_13/Conv1D f4 [64, 1, 3, 64]
-0.09315391 0.09659486 -0.11450904 -0.00010880787 0.034033157 -0.029322697 -0.048955992 -0.042551953
0.10406622 0.08644143 -0.042130426 0.059116453 0.079811245 0.028096361 -0.061467428 0.09929636
0.045689255 0.1038132 -0.11339941 -0.081160456 -0.11650218 -0.08374603 -0.1255733 -0.10738947
0.013889598 -0.08800718 0.020525472 -0.015235639 -0.1171253 -0.10280129 -0.033295393 0.038715076
-0.026592944 -0.04304698 -0.03257047 0.00727957 0.03846527 0.10684991 0.06472873 -0.0007697984
-0.058999464 0.011709109 -0.08270312 -0.052608285 0.07143878 -0.035239942 0.066409424 -0.100076236
0.0096976375 -0.014821164 0.12383208 0.13187256 -0.06587833 0.057877462 0.024900734 -0.043775365
0.02913268 0.0010377622 0.035779938 -0.02297062 -0.062958084 -0.052103598 -0.016718462 0.081638284
-0.06534908 0.05117844 0.048916418 -0.009828714 0.098124154 0.11489999 0.09993585 0.07327561
0.12194297 0.09911233 0.1056471 0.10642349 -0.11079342 -0.09188741 -0.094029106 -0.016930219
-0.07183983 0.13847615 0.116364874 0.0029501433 -0.03988045 -0.005273995 0.11838643 0.04337076
-0.1342844 0.032225844 0.03744487 0.06177307 0.097158335 -0.03699543 0.084017165 -0.09504755
-0.11387485 0.053964827 -0.015274085 -0.0035834026 -0.040179044 -0.037531603 0.08734953 -0.12929754
0.110005714 -0.07427415 0.01672534 0.1253636 0.0101161655 -0.000373879 -0.09527465 0.09051145
0.0821859 -0.092539 -0.00079066394 -0.06712115 0.009275505 -0.016885338 0.11383986 0.0075257267
-0.080472976 -0.0857037 0.029479207 0.026697475 0.044100337 0.062137567 0.08589892 -0.03780678
0.1211116 0.10564439 0.03355731 -0.14574784 -0.12497006 -0.04783956 0.031970207 0.0840146
-0.13850342 -0.004706646 0.121341094 0.075568765 0.10600379 -0.07236351 -0.052446637 -0.09264002
-0.11827306 -0.105392024 0.11135785 0.06847999 -0.065910734 -0.0154403765 0.07170147 -0.0017880847
0.008964314 -0.106427826 0.021076953 0.122851096 -0.027880229 0.083339445 -0.06568596 0.04898052
-0.010330055 0.006526505 0.02535629 -0.14799763 -0.1259326 -0.0056005213 -0.039909426 -0.01763931
0.03723964 -0.13998301 -0.02174766 0.029103832 0.09293074 -0.07683441 -0.06952733 -0.114171274
-0.00032149145 0.0307646 -0.031582866 0.08622706 -0.05714095 0.021247288 0.033822946 0.051712085
0.01861965 -0.030606551 0.0020421885 0.06023091 -0.09415633 -0.033561118 -0.11416588 -0.16024427
-0.050506826 0.016804332 -0.08286733 -0.13729054 -0.08683912 0.058274936 0.06975129 -0.1018703
-0.085130244 -0.031213166 -0.09375487 0.045479193 -0.006885832 0.05041397 0.025386255 -0.0244734
0.0005846531 0.05216149 0.047236856 0.104848206 0.115800954 -0.07878509 0.00087525713 -0.013328607
-0.10789744 -0.09249701 -0.031042911 0.10430412 -0.08926509 -0.034309644 -0.074693136 0.106646635
0.017892301 -0.1271775 0.082880855 -0.11823056 -0.13853623 -0.028400753 -0.13091521 0.033656478
0.08323414 0.04706673 0.025518484 -0.0684351 0.04023051 -0.045231882 0.10533503 0.010757783
0.09223402 -0.06418503 0.0103232395 -0.044278353 -0.15237142 0.020498076 0.10481708 -0.06466491
0.02256586 0.11725058 0.13362864 0.043055784 -0.027680356 0.023686487 0.025701636 -0.09334186
00000000: 7ac7 bebd 87d3 c53d b783 eabd c82f e4b8
00000010: 5a66 0b3d 2736 f0bc 1486 48bd f54a 2ebd
00000020: ac20 d53d 3408 b13d f490 2cbd 1824 723d
00000030: 1474 a33d 572a e63c 45c5 7bbd e45b cb3d
00000040: a824 3b3d 049c d43d f33d e8bd 7437 a6bd
00000050: b298 eebd 0a83 abbd 4a96 00be 03ef dbbd
00000060: 3291 633c 1c3d b4bd 0925 a83c e79e 79bc
00000070: 64df efbd 7c89 d2bd c060 08bd b393 1e3d
00000080: 72d9 d9bc 0852 30bd 9d68 05bd 7689 ee3b
00000090: c28d 1d3d 20d4 da3d 7f90 843d 4ccc 49ba
000000a0: 6ca9 71bd 90d7 3f3c 4160 a9bd c97b 57bd
000000b0: 7f4e 923d c257 10bd aa01 883d c5f4 ccbd
000000c0: d7e2 1e3c 78d4 72bc ac9b fd3d 9a09 073e
000000d0: 38eb 86bd eb10 6d3d a0fc cb3c cc4d 33bd
000000e0: a8a7 ee3c 8505 883a fc8d 123d e22c bcbc
000000f0: 2bf0 80bd 956a 55bd 28f5 88bc f931 a73d
00000100: bdd5 85bd 7ca0 513d 955c 483d 9d08 21bc
00000110: 51f5 c83d b050 eb3d 2bab cc3d 8611 963d
00000120: 3cbd f93d 68fb ca3d 825d d83d 8ff4 d93d
00000130: a9e7 e2bd 772f bcbd 5592 c0bd 3eb1 8abc
00000140: c320 93bd b1cc 0d3e b550 ee3d 3157 413b
00000150: af59 23bd 7ad1 acbb 9674 f23d 8aa5 313d
00000160: da81 09be 3fff 033d cb5f 193d c205 7d3d
00000170: f3fa c63d 8588 17bd 3111 ac3d 4aa8 c2bd
00000180: 3837 e9bd 390a 5d3d 2840 7abc 85d7 6abb
00000190: c892 24bd bdba 19bd 4fe4 b23d 9366 04be
000001a0: ad4a e13d 0c1d 98bd 9503 893c 515f 003e
000001b0: 46be 253c 3105 c4b9 5b1f c3bd 115e b93d
000001c0: 1551 a83d 1685 bdbd 8f44 4fba d076 89bd
000001d0: 4af8 173c 1f53 8abc df24 e93d 5f9a f63b
000001e0: 04cf a4bd 6c85 afbd 617e f13c aab4 da3c
000001f0: 8ea2 343d f683 7e3d c6eb af3d 48db 1abd
00000200: 5c09 f83d 165c d83d 6473 093d ec3e 15be
00000210: 4ef0 ffbd 6af3 43bd 31f3 023d d90f ac3d
00000220: d7d3 0dbe 353a 9abb ae81 f83d ccc3 9a3d
00000230: 8418 d93d 5233 94bd 49d2 56bd 0dba bdbd
00000240: 2539 f2bd c6d7 d7bd 960f e43d 3d3f 8c3d
00000250: 35fc 86bd a2f9 7cbc 38d8 923d 2b5e eaba
00000260: 0fdf 123c d5f6 d9bd 93a9 ac3c 5b99 fb3d
00000270: 1465 e4bc dfad aa3d 5c86 86bd cc9f 483d
00000280: 643f 29bc 4bdc d53b ffb7 cf3c b18c 17be
00000290: 7af4 00be 9484 b7bb 1178 23bd 5080 90bc
000002a0: 9888 183d b557 0fbe 2628 b2bc 296b ee3c
000002b0: 7952 be3d 5c5b 9dbd 5864 8ebd a1d2 e9bd
000002c0: da8d a8b9 0b06 fc3c 095d 01bd d097 b03d
000002d0: a10c 6abd cb0e ae3c ee89 0a3d 0dd0 533d
000002e0: 3c88 983c 97ba fabc 3dd6 053b b0b4 763d
000002f0: 09d5 c0bd 6277 09bd cdcf e9bd 1317 24be
00000300: 3fe0 4ebd 3da9 893c 59b6 a9bd e495 0cbe
00000310: b5d8 b1bd b3b1 6e3d c4d9 8e3d 60a1 d0bd
00000320: c458 aebd c1b2 ffbc 8e02 c0bd 6448 3a3d
00000330: 8ca2 e1bb e17e 4e3d d6f6 cf3c 717c c8bc
00000340: 6843 193a 49a7 553d 6f7b 413d a8ba d63d
00000350: 0d29 ed3d 145a a1bd 8371 653a 3b60 5abc
00000360: 55f9 dcbd 136f bdbd b44d febc 669d d53d
00000370: 9ed0 b6bd 4588 0cbd b7f8 98bd 8d69 da3d
00000380: e092 923c d23a 02be 70bd a93d dd22 f2bd
00000390: 71dc 0dbe b2a8 e8bc a30e 06be 60db 093d
000003a0: a976 aa3d 0bc9 403d 240c d13c b427 8cbd
000003b0: bfc8 243d 1145 39bd e4b9 d73d 6a41 303c
000003c0: 31e5 bc3d 7173 83bd ce22 293c 385d 35bd
000003d0: 4107 1cbe 95eb a73c 56aa d63d 096f 84bd
000003e0: 0adc b83c 1221 f03d f2d5 083e 435b 303d
000003f0: eac1 e2bc 2a0a c23c 3d8c d23c 042a bfbd

sequential_17/batch_normalization_12/batchnorm/sub f4 [64]
-0.4865401 -0.73626804 -1.3481946 -0.69438046 -1.2423618 -0.4724863 -0.92749023 -0.6071521
-0.0089628305 -1.1336648 -0.665973 -1.0676088 -0.6714712 -0.42028856 -0.038767517 -0.9370489
-1.591117 -0.13472992 -0.90300614 -0.1170324 -0.18149188 -0.5489774 -0.6426646 -1.0798186
-1.1466752 -0.46816102 -1.5879537 -0.40123618 -0.42893055 -1.1857998 -1.0471804 -1.2612288
-0.88424724 -1.1687963 -0.5208424 -0.8272849 -0.9071833 -0.10415104 -1.5888262 -1.124938
-0.2172674 -0.8521828 -0.04153572 -0.35011607 -1.344764 -1.0799016 -0.03254991 -0.59179294
-0.51969767 -0.4906339 -0.68091285 -0.33343196 -0.621407 -0.4181115 -0.9220406 -1.8202112
-0.5072787 -0.65216583 -1.1188133 -1.376395 -0.92646635 -1.8136637 -0.8991418 -0.53038484
00000000: c91b f9be 107c 3cbf a491 acbf ebc2 31bf
00000010: b605 9fbf b9e9 f1be 0070 6dbf 526e 1bbf
00000020: d6d8 12bc ee1b 91bf 357d 2abf 68a7 88bf
00000030: 89e5 2bbf 1030 d7be b0ca 1ebd 70e2 6fbf
00000040: b9a9 cbbf a4f6 09be 692b 67bf afae efbd
00000050: 02d9 39be c889 0cbf ab85 24bf 7f37 8abf
00000060: 41c6 92bf cdb2 efbe 1142 cbbf d46e cdbe
00000070: c99c dbbe 4ac8 97bf 020a 86bf f26f a1bf
00000080: 075e 62bf 1e9b 95bf ed55 05bf f1c8 53bf
00000090: 2a3d 68bf 244d d5bd a85e cbbf f8fd 8fbf
000000a0: 587b 5ebe a728 5abf 5c21 2abd 6a42 b3be
000000b0: 3a21 acbf 373a 8abf 0e53 05bd be7f 17bf
000000c0: e80a 05bf 5e34 fbbe 4e50 2ebf 98b7 aabe
000000d0: 8714 1fbf b612 d6be da0a 6cbf aefc e8bf
000000e0: 04dd 01bf 57f4 26bf 4635 8fbf b62d b0bf
000000f0: e62c 6dbf 2226 e8bf 282e 66bf 4dc7 07bf

sequential_17/batch_normalization_12/batchnorm/mul f4 [64]
2.4833982 1.629054 0.974168 2.3706255 2.6018913 3.4631517 0.9627178 2.1383176
7.3888936 1.5654254 1.408186 1.1248083 1.8952974 2.1103528 7.5104694 1.4144949
1.319224 6.2781525 2.0361967 5.4706326 4.904582 0.9254574 3.65796 1.5894213
1.1738101 2.1128128 1.000157 3.078637 2.4903955 2.0066392 0.8679136 1.2945158
2.3629637 1.5350761 2.2424982 2.8476708 1.4141512 6.899323 1.5439806 1.3881794
5.347269 2.6692128 7.5048637 4.1302276 1.0604175 1.5697783 7.1703176 1.3857967
1.7353846 1.7033619 2.1049275 4.2740107 1.5940496 2.9076698 1.169142 1.7871065
3.239713 4.1452937 2.2548254 1.1694679 0.9914818 2.023548 1.498016 2.534306
00000000: ffef 1e40 d784 d03f 1363 793f 54b8 1740
00000010: 6385 2640 47a4 5d40 ac74 763f 32da 0840
00000020: d171 ec40 dc5f c83f 703f b43f b8f9 8f3f
00000030: 1b99 f23f 0510 0740 c455 f040 2b0e b53f
00000040: 55dc a83f a0e6 c840 0c51 0240 6c0f af40
00000050: 56f2 9c40 c7ea 6c3f 041c 6a40 2872 cb3f
00000060: 693f 963f 5338 0740 2505 803f 6308 4540
00000070: a462 1f40 c76c 0040 962f 5e3f b2b2 a53f
00000080: cc3a 1740 607d c43f 1785 0f40 3d40 3640
00000090: e802 b53f 41c7 dc40 28a1 c53f ddaf b13f
000000a0: d41c ab40 62d4 2a40 d827 f040 d32a 8440
000000b0: c3bb 873f 7fee c83f 3e73 e540 c961 b13f
000000c0: 1521 de3f c307 da3f 22b7 0640 b2c4 8840
000000d0: d109 cc3f 4317 3a40 72a6 953f e8bf e43f
000000e0: 7557 4f40 3fa6 8440 0f4f 1040 20b1 953f
000000f0: c0d1 7d3f cf81 0140 fdbe bf3f 1232 2240

sequential_17/dense_41/BiasAdd/ReadVariableOp f4 [18]
-0.037247654 -0.044076152 -0.06478678 -0.022133637 0.027167117 -0.03393708 0.03203058 0.03384687
0.021768285 -0.03132942 0.014598576 -0.06632377 0.024975445 -0.051196814 -0.05114212 -0.0030914347
0.046330135 0.021768963
00000000: ff90 18bd 3289 34bd eeae 84bd 9a51 b5bc
00000010: 938d de3c 9c01 0bbd 7f32 033d 04a3 0a3d
00000020: 6753 b23c 4753 00bd de2e 6f3c c2d4 87bd
00000030: 4e99 cc3c c0b3 51bd 667a 51bd ab99 4abb
00000040: abc4 3d3d d354 b23c

sequential_17/dense_40/BiasAdd/ReadVariableOp f4 [32]
-0.044615228 -0.019888574 0.03180906 0.059599135 0.018532384 -0.004946271 0.018082166 0.04907852
0.03871082 0.04017598 0.044192772 0.019395554 0.043212634 -0.009898927 0.007810512 0.037139244
0.0023639293 0.02191394 -0.027123958 0.042264022 0.043776948 -0.018557398 0.05135906 0.0039440943
0.015582541 0.03479725 0.045306686 0.018748203 0.011959763 -0.011490841 0.047886446 0.0061104717
00000000: 75be 36bd 5ded a2bc 384a 023d 391e 743d
00000010: 3ad1 973c 5414 a2bb 0d21 943c 8f06 493d
00000020: 3d8f 1e3d 928f 243d 7b03 353d 6de3 9e3c
00000030: bbff 303d 1c2f 22bc 53ef ff3b 521f 183d
00000040: 27ec 1a3b dd84 b33c 1033 debc 0a1d 2d3d
00000050: 754f 333d af05 98bc e15d 523d 763d 813b
00000060: ea4d 7f3c 9087 0e3d 8193 393d d595 993c
00000070: e2f2 433c 1544 3cbc 9424 443d 5a3a c83b

unstack f4 [384]
-0.010691791 -0.02514067 0.03719857 0.013355516 0.0018741841 0.010126431 0.008452706 -0.017472439
0.001578146 0.015418742 -0.0027079482 -0.0129374685 0.014757137 0.001012585 0.052692216 0.003006604
0.028966485 -0.012629895 0.0077527603 -0.01865142 0.02465623 0.010122241 -0.019266317 0.010909442
-0.009923591 -0.0035237381 0.047352087 0.0005790172 -0.023041729 0.015422017 0.009802728 0.010880067
0.014420614 0.006882089 0.02003002 0.008238129 0.009675576 -0.011974862 -0.018193085 0.0023187187
0.015330245 -0.012228166 0.017230824 -0.009744092 0.015316083 0.03060589 0.0022973393 0.028434297
0.007395276 0.032560624 -0.02769356 0.030374885 -0.0042397394 -0.009655163 0.0117676575 0.024983788
0.01163128 0.012916291 0.005584512 0.016615452 0.012692193 0.017524766 0.0061680037 0.019853953
-0.033411372 0.02416762 -0.0036690638 -0.013319707 0.00032051807 -0.022997271 0.03418869 -0.010364319
0.020670038 0.0075129694 -0.00829204 -0.007816897 0.009801277 0.0052320436 -0.02041385 0.019533534
0.014980725 -3.921654e-06 -0.026674084 0.014980387 0.0037815596 0.025224922 -0.008633477 0.009455753
0.02486979 -0.019321648 -0.010681496 0.015836516 0.019898709 0.0006557085 0.006046512 0.029338304
0.03259758 0.007938499 0.01454267 0.0042161047 0.013258821 0.023188127 0.03826526 0.016795188
0.0026908484 -0.0025902002 -0.0117029855 0.0075627468 -0.017083481 0.02451204 -0.013441279 0.009496204
0.008776709 -0.010907355 -0.019643404 -0.014962842 -0.0018051038 0.0011635786 0.02399688 0.0038866731
0.008230488 0.025763633 0.024212511 0.029506486 0.02465899 0.024706041 -0.0036111444 0.012349192
0.006107401 0.010520055 0.012391643 -0.021998484 0.013242046 0.009301923 -0.033072382 0.012855901
-0.0059278132 -0.00021417151 0.0013424325 -0.026937848 0.024307063 -0.040234186 -0.031061305 -0.012528639
-0.009442547 0.009057625 -0.0050311703 -0.025721394 0.0068177744 -0.020237021 -0.023559475 0.01323544
0.0064499667 0.038442593 -0.022496525 -0.012349395 0.028157042 0.02263894 -0.047196507 -0.021348933
-0.030319646 -0.007772382 -0.017746905 -0.0088726645 -0.012529378 -0.022174109 0.02888382 -0.00013652115
-0.018845296 0.007861724 -0.015972976 -0.004713249 -0.0025621676 -0.009884394 0.0031613698 -0.01453955
-0.0083652055 0.0053488878 -0.027466422 -0.05430588 -0.013257458 -0.00836476 0.024592811 -0.026928829
0.0012984206 -0.020581078 0.013483182 -0.006508154 -0.01789746 0.009602989 -0.040282905 -0.000119470016
-0.039486624 -0.01795203 -0.012482271 0.0040881573 0.0070705437 -0.030501647 -0.017330345 0.0005743237
0.010674869 -0.0077178553 -0.04235754 -0.015765674 0.0014285914 0.0031490908 0.023629421 -0.0013176521
0.0018856403 0.005090034 -0.04106558 -0.0407871 -0.003467359 -0.01911711 -0.006762135 -0.0049751056
-0.023088727 -0.0097126365 -0.025895724 -0.036182053 0.014039816 0.012276298 -0.026087586 -0.023748344
-0.019030409 -0.015375369 -0.001977396 -0.016915545 -0.010725423 0.010338545 0.0022330282 -0.026653258
-0.051601328 -0.0010754442 -0.0014512625 0.023512354 0.015346219 -0.027897684 0.0042440393 -0.016794307
-0.062042132 -0.03887011 0.007675578 0.02459791 -0.023664095 0.002323185 -0.0013377513 0.018820401
0.013664474 0.008831381 0.011340551 -0.010167864 -0.027028514 -0.008535331 0.00198934 -0.019031385
00000000: 9f2c 2fbc cef3 cdbc 875d 183d 18d1 5a3c
00000010: 2fa7 f53a 54e9 253c 387d 0a3c 5c22 8fbc
00000020: cbd9 ce3a e49e 7c3c d577 31bb adf7 53bc
00000030: ebc7 713c b7b8 843a cbd3 573d 720a 453b
00000040: 1f4b ed3c 9eed 4ebc de0a fe3b ddca 98bc
00000050: ddfb c93c c2d7 253c 65d4 9dbc 84bd 323c
00000060: 8f96 22bc 84ee 66bb 43f4 413d 30c9 173a
00000070: 02c2 bcbc a1ac 7c3c 9f9b 203c 4f42 323c
00000080: 7044 6c3c 2683 e13b ff15 a43c 38f9 063c
00000090: 4f86 1e3c 3632 44bc aa09 95bc a5f5 173b
000000a0: b52b 7b3c a558 48bc a827 8d3c afa5 1fbc
000000b0: 4ff0 7a3c 34b9 fa3c f58e 163b 0bef e83c
000000c0: 1254 f23b 4a5e 053d 9bdd e2bc c0d4 f83c
000000d0: 83ed 8abb b030 1ebc 22cd 403c cdaa cc3c
000000e0: 2091 3e3c da9e 533c 48fe b63b 211d 883c
000000f0: eaf2 4f3c 1990 8f3c f71c ca3b c2a4 a23c
00000100: 5dda 08bd 2cfb c53c ad74 70bb e63a 5abc
00000110: 350b a839 c664 bcbc 7109 0c3d 1bcf 29bc
00000120: 3654 a93c 5b2f f63b 56db 07bc 7112 00bc
00000130: 8995 203c 9071 ab3b f23a a7bc ca04 a03c
00000140: b771 753c c096 83b6 9c83 dabc 4c70 753c
00000150: 0bd4 773b 7fa4 ce3c 6d73 0dbc 4dec 1a3c
00000160: bbbb cb3c 6f48 9ebc 7101 2fbc 95bb 813c
00000170: 9e02 a33c dae3 2b3a d221 c63b e256 f03c
00000180: 0a85 053d 7a10 023c 6144 6e3c 4027 8a3b
00000190: 873b 593c 07f5 bd3c 09bc 1c3d 1096 893c
000001a0: f258 303b 59c0 29bb e1bd 3fbc ebd0 f73b
000001b0: a8f2 8bbc 79cd c83c cf38 5cbc f795 1b3c
000001c0: 30cc 0f3c c3b4 32bc 34eb a0bc b526 75bc
000001d0: 3c99 ecba 3883 983a 1b95 c43c 8eb7 7e3b
000001e0: 2bd9 063c 410e d33c 5159 c63c 96b7 f13c
000001f0: a601 ca3c 5364 ca3c f3a8 6cbb 4454 4a3c
00000200: 9820 c83b 4f5c 2c3c 5106 4b3c 2a36 b4bc
00000210: 2bf5 583c 1867 183c e876 07bd 8fa1 523c
00000220: 1a3e c2bb 3a93 60b9 8ff4 af3a c3ac dcbc
00000230: 9b1f c73c 9acc 24bd 4774 febc ec44 4dbc
00000240: eab4 1abc 6f66 143c 84dc a4bb acb5 d2bc
00000250: a367 df3b 1cc8 a5bc cdff c0bc 75d9 583c
00000260: 3e5a d33b fb75 1d3d a24a b8bc 1e55 4abc
00000270: 99a9 e63c 4c75 b93c 2051 41bd f5e3 aebc
00000280: e860 f8bc 77af febb f561 91bc a75e 11bc
00000290: 0548 4dbc 7aa6 b5bc c39d ec3c 1e27 0fb9
000002a0: 7361 9abc 76ce 003c c2d9 82bc 9971 9abb
000002b0: 0aea 27bb 27f2 21bc fc2e 4f3b 4b37 6ebc
000002c0: 370e 09bc b945 af3b 4301 e1bc d86f 5ebd
000002d0: cf35 59bc 590c 09bc dd76 c93c d999 dcbc
000002e0: c42f aa3a a699 a8bc 90e8 5c3c 5a42 d5bb
000002f0: b29d 92bc db55 1d3c b0ff 24bd fa8b fab8
00000300: babc 21bd 2310 93bc 7082 4cbc f3f5 853b
00000310: 05b0 e73b 97de f9bc 5ef8 8dbc 368e 163a
00000320: a5e5 2e3c 10e6 fcbb 1a7f 2dbd 0427 81bc
00000330: 933f bb3a fa60 4e3b 7d92 c13c 11b5 acba
00000340: 9727 f73a 4dca a63b 6234 28bd 6010 27bd
00000350: a23c 63bb 7c9b 9cbc e694 ddbb 3606 a3bb
00000360: 9224 bdbc c021 1fbc 4523 d4bc a233 14bd
00000370: 4207 663c 8722 493c a2b5 d5bc e38b c2bc
00000380: a9e5 9bbc f9e8 7bbc 3397 01bb 7892 8abc
00000390: afb9 2fbc 0063 293c ff57 123b ef57 dabc
000003a0: ea5b 53bd ebf5 8cba 4a38 beba fb9c c03c
000003b0: b56e 7b3c af89 e4bc 9511 8b3b 3794 89bc
000003c0: e41f 7ebd 4436 1fbd 6a83 fb3b 8e81 c93c
000003d0: 34db c1bc 9440 183b 7c57 afba 3e2d 9a3c
000003e0: f5e0 5f3c 7fb1 103c b8cd 393c 1d97 26bc
000003f0: e76a ddbc c6d7 0bbc 965f 023b b5e7 9bbc

unstack1 f4 [384]
-0.010691791 -0.02514067 0.03719857 0.013355516 0.0018741841 0.010126431 0.008452706 -0.017472439
0.001578146 0.015418742 -0.0027079482 -0.0129374685 0.014757137 0.001012585 0.052692216 0.003006604
0.028966485 -0.012629895 0.0077527603 -0.01865142 0.02465623 0.010122241 -0.019266317 0.010909442
-0.009923591 -0.0035237381 0.047352087 0.0005790172 -0.023041729 0.015422017 0.009802728 0.010880067
0.014420614 0.006882089 0.02003002 0.008238129 0.009675576 -0.011974862 -0.018193085 0.0023187187
0.015330245 -0.012228166 0.017230824 -0.009744092 0.015316083 0.03060589 0.0022973393 0.028434297
0.007395276 0.032560624 -0.02769356 0.030374885 -0.0042397394 -0.009655163 0.0117676575 0.024983788
0.01163128 0.012916291 0.005584512 0.016615452 0.012692193 0.017524766 0.0061680037 0.019853953
-0.033411372 0.02416762 -0.0036690638 -0.013319707 0.00032051807 -0.022997271 0.03418869 -0.010364319
0.020670038 0.0075129694 -0.00829204 -0.007816897 0.009801277 0.0052320436 -0.02041385 0.019533534
0.014980725 -3.921654e-06 -0.026674084 0.014980387 0.0037815596 0.025224922 -0.008633477 0.009455753
0.02486979 -0.019321648 -0.010681496 0.015836516 0.019898709 0.0006557085 0.006046512 0.029338304
0.03259758 0.007938499 0.01454267 0.0042161047 0.013258821 0.023188127 0.03826526 0.016795188
0.0026908484 -0.0025902002 -0.0117029855 0.0075627468 -0.017083481 0.02451204 -0.013441279 0.009496204
0.008776709 -0.010907355 -0.019643404 -0.014962842 -0.0018051038 0.0011635786 0.02399688 0.0038866731
0.008230488 0.025763633 0.024212511 0.029506486 0.02465899 0.024706041 -0.0036111444 0.012349192
0.006107401 0.010520055 0.012391643 -0.021998484 0.013242046 0.009301923 -0.033072382 0.012855901
-0.0059278132 -0.00021417151 0.0013424325 -0.026937848 0.024307063 -0.040234186 -0.031061305 -0.012528639
-0.009442547 0.009057625 -0.0050311703 -0.025721394 0.0068177744 -0.020237021 -0.023559475 0.01323544
0.0064499667 0.038442593 -0.022496525 -0.012349395 0.028157042 0.02263894 -0.047196507 -0.021348933
-0.030319646 -0.007772382 -0.017746905 -0.0088726645 -0.012529378 -0.022174109 0.02888382 -0.00013652115
-0.018845296 0.007861724 -0.015972976 -0.004713249 -0.0025621676 -0.009884394 0.0031613698 -0.01453955
-0.0083652055 0.0053488878 -0.027466422 -0.05430588 -0.013257458 -0.00836476 0.024592811 -0.026928829
0.0012984206 -0.020581078 0.013483182 -0.006508154 -0.01789746 0.009602989 -0.040282905 -0.000119470016
-0.039486624 -0.01795203 -0.012482271 0.0040881573 0.0070705437 -0.030501647 -0.017330345 0.0005743237
0.010674869 -0.0077178553 -0.04235754 -0.015765674 0.0014285914 0.0031490908 0.023629421 -0.0013176521
0.0018856403 0.005090034 -0.04106558 -0.0407871 -0.003467359 -0.01911711 -0.006762135 -0.0049751056
-0.023088727 -0.0097126365 -0.025895724 -0.036182053 0.014039816 0.012276298 -0.026087586 -0.023748344
-0.019030409 -0.015375369 -0.001977396 -0.016915545 -0.010725423 0.010338545 0.0022330282 -0.026653258
-0.051601328 -0.0010754442 -0.0014512625 0.023512354 0.015346219 -0.027897684 0.0042440393 -0.016794307
-0.062042132 -0.03887011 0.007675578 0.02459791 -0.023664095 0.002323185 -0.0013377513 0.018820401
0.013664474 0.008831381 0.011340551 -0.010167864 -0.027028514 -0.008535331 0.00198934 -0.019031385
00000000: 9f2c 2fbc cef3 cdbc 875d 183d 18d1 5a3c
00000010: 2fa7 f53a 54e9 253c 387d 0a3c 5c22 8fbc
00000020: cbd9 ce3a e49e 7c3c d577 31bb adf7 53bc
00000030: ebc7 713c b7b8 843a cbd3 573d 720a 453b
00000040: 1f4b ed3c 9eed 4ebc de0a fe3b ddca 98bc
00000050: ddfb c93c c2d7 253c 65d4 9dbc 84bd 323c
00000060: 8f96 22bc 84ee 66bb 43f4 413d 30c9 173a
00000070: 02c2 bcbc a1ac 7c3c 9f9b 203c 4f42 323c
00000080: 7044 6c3c 2683 e13b ff15 a43c 38f9 063c
00000090: 4f86 1e3c 3632 44bc aa09 95bc a5f5 173b
000000a0: b52b 7b3c a558 48bc a827 8d3c afa5 1fbc
000000b0: 4ff0 7a3c 34b9 fa3c f58e 163b 0bef e83c
000000c0: 1254 f23b 4a5e 053d 9bdd e2bc c0d4 f83c
000000d0: 83ed 8abb b030 1ebc 22cd 403c cdaa cc3c
000000e0: 2091 3e3c da9e 533c 48fe b63b 211d 883c
000000f0: eaf2 4f3c 1990 8f3c f71c ca3b c2a4 a23c
00000100: 5dda 08bd 2cfb c53c ad74 70bb e63a 5abc
00000110: 350b a839 c664 bcbc 7109 0c3d 1bcf 29bc
00000120: 3654 a93c 5b2f f63b 56db 07bc 7112 00bc
00000130: 8995 203c 9071 ab3b f23a a7bc ca04 a03c
00000140: b771 753c c096 83b6 9c83 dabc 4c70 753c
00000150: 0bd4 773b 7fa4 ce3c 6d73 0dbc 4dec 1a3c
00000160: bbbb cb3c 6f48 9ebc 7101 2fbc 95bb 813c
00000170: 9e02 a33c dae3 2b3a d221 c63b e256 f03c
00000180: 0a85 053d 7a10 023c 6144 6e3c 4027 8a3b
00000190: 873b 593c 07f5 bd3c 09bc 1c3d 1096 893c
000001a0: f258 303b 59c0 29bb e1bd 3fbc ebd0 f73b
000001b0: a8f2 8bbc 79cd c83c cf38 5cbc f795 1b3c
000001c0: 30cc 0f3c c3b4 32bc 34eb a0bc b526 75bc
000001d0: 3c99 ecba 3883 983a 1b95 c43c 8eb7 7e3b
000001e0: 2bd9 063c 410e d33c 5159 c63c 96b7 f13c
000001f0: a601 ca3c 5364 ca3c f3a8 6cbb 4454 4a3c
00000200: 9820 c83b 4f5c 2c3c 5106 4b3c 2a36 b4bc
00000210: 2bf5 583c 1867 183c e876 07bd 8fa1 523c
00000220: 1a3e c2bb 3a93 60b9 8ff4 af3a c3ac dcbc
00000230: 9b1f c73c 9acc 24bd 4774 febc ec44 4dbc
00000240: eab4 1abc 6f66 143c 84dc a4bb acb5 d2bc
00000250: a367 df3b 1cc8 a5bc cdff c0bc 75d9 583c
00000260: 3e5a d33b fb75 1d3d a24a b8bc 1e55 4abc
00000270: 99a9 e63c 4c75 b93c 2051 41bd f5e3 aebc
00000280: e860 f8bc 77af febb f561 91bc a75e 11bc
00000290: 0548 4dbc 7aa6 b5bc c39d ec3c 1e27 0fb9
000002a0: 7361 9abc 76ce 003c c2d9 82bc 9971 9abb
000002b0: 0aea 27bb 27f2 21bc fc2e 4f3b 4b37 6ebc
000002c0: 370e 09bc b945 af3b 4301 e1bc d86f 5ebd
000002d0: cf35 59bc 590c 09bc dd76 c93c d999 dcbc
000002e0: c42f aa3a a699 a8bc 90e8 5c3c 5a42 d5bb
000002f0: b29d 92bc db55 1d3c b0ff 24bd fa8b fab8
00000300: babc 21bd 2310 93bc 7082 4cbc f3f5 853b
00000310: 05b0 e73b 97de f9bc 5ef8 8dbc 368e 163a
00000320: a5e5 2e3c 10e6 fcbb 1a7f 2dbd 0427 81bc
00000330: 933f bb3a fa60 4e3b 7d92 c13c 11b5 acba
00000340: 9727 f73a 4dca a63b 6234 28bd 6010 27bd
00000350: a23c 63bb 7c9b 9cbc e694 ddbb 3606 a3bb
00000360: 9224 bdbc c021 1fbc 4523 d4bc a233 14bd
00000370: 4207 663c 8722 493c a2b5 d5bc e38b c2bc
00000380: a9e5 9bbc f9e8 7bbc 3397 01bb 7892 8abc
00000390: afb9 2fbc 0063 293c ff57 123b ef57 dabc
000003a0: ea5b 53bd ebf5 8cba 4a38 beba fb9c c03c
000003b0: b56e 7b3c af89 e4bc 9511 8b3b 3794 89bc
000003c0: e41f 7ebd 4436 1fbd 6a83 fb3b 8e81 c93c
000003d0: 34db c1bc 9440 183b 7c57 afba 3e2d 9a3c
000003e0: f5e0 5f3c 7fb1 103c b8cd 393c 1d97 26bc
000003f0: e76a ddbc c6d7 0bbc 965f 023b b5e7 9bbc

unstack2 f4 [192]
0.0303119 -0.019284816 0.030365042 0.054163218 0.030786578 -0.00043472444 0.044504426 -0.023860637
0.019446436 0.01132429 0.014062931 0.044214245 0.012439956 0.069462836 0.0031361808 -0.0005696056
-0.004710936 0.008564064 0.07847045 0.024195991 0.04333958 0.011590681 0.036335226 0.03730718
0.06159688 -0.012693365 0.024452787 0.021300377 -0.00081567385 0.0041146223 -0.04500092 0.017819135
0.04216758 0.016683033 0.011092679 0.019637587 -0.0044512446 0.039634317 0.023090417 -0.0014965934
0.011441352 0.026763426 0.0013489533 0.0048967497 0.038555786 -0.014163921 0.021742431 0.025316104
-0.001267955 0.06842514 -0.018426701 0.051904872 0.042570844 0.010133438 0.06781485 0.0003666295
0.0052180057 -0.0048785326 -0.0008154662 -0.01092853 0.003150871 -0.0016262272 0.049307924 -0.024870323
0.0010675262 0.036290575 0.012741167 -0.02797952 -0.037596185 0.023696816 0.012537031 -0.018893769
-0.02538678 -0.018416537 0.021637926 0.015583223 -0.012105182 -0.028896768 0.004914647 -0.018198721
-0.0020507649 0.019146506 -0.0022659574 -0.019995872 -0.009333366 0.010979453 -0.01616175 -0.011978195
-0.017205816 0.021203281 -0.005021757 -0.05476336 -0.0008146465 -0.008320856 -0.0117639685 -0.024022585
0.011173672 -0.016221618 -0.0073474953 0.010305012 -0.009565612 0.008149262 -0.02265505 -0.02930254
0.013201101 0.0008696305 0.009683427 -0.012580645 -0.008333869 -0.021650417 -0.0096668815 -0.010138894
-0.029038858 -0.035155155 0.016585147 -0.041783683 -0.01882423 -0.025621273 -0.02253436 0.03719471
-0.0037500362 -0.021682307 -0.04068911 -0.029673569 -0.0056170602 0.008428192 0.015384909 -0.023946624
0.013278354 -0.02555244 0.026930373 0.018457398 0.0076140887 -0.00082343956 -0.010477187 0.01749007
0.02207435 -0.018192556 -0.016268043 0.0115044 -0.006846324 0.031786527 -0.0238701 -0.028639145
0.008960611 -0.01117701 0.001801696 -0.050774455 -0.0014481469 0.021709971 0.026580462 0.0074260314
0.011299751 -0.0021305103 0.018718746 0.033248067 0.0178187 -0.015833678 -0.0060124793 -0.01565939
0.02165748 -0.015260734 0.0023040886 0.013469064 -0.010783834 -0.030463615 0.019597357 -0.048497457
0.038159415 -0.002954911 -0.005152784 -0.017001899 0.029911673 -0.028802607 0.001098735 0.0070875078
-0.004502084 -0.012856358 -0.030550523 0.007606801 -0.0039995457 0.004032489 0.017051002 0.0031906394
0.019641155 0.043609917 0.03861842 0.020088747 0.026631542 -0.0049853767 0.051473796 0.010177066
00000000: a950 f83c 31fb 9dbc 1cc0 f83c 40da 5d3d
00000010: 2234 fc3c baeb e3b9 464a 363d 6277 c3bc
00000020: 224e 9f3c 8489 393c 3568 663c ff19 353d
00000030: f5d0 4b3c 8842 8e3d 6288 4d3b 9651 15ba
00000040: 325e 9abb 4a50 0c3c 1eb5 a03d ac36 c63c
00000050: d884 313d d7e6 3d3c 3fd4 143d 6acf 183d
00000060: 034d 7c3d d5f7 4fbc 3651 c83c 217e ae3c
00000070: f2d2 55ba f4d3 863b e252 38bd 6ff9 913c
00000080: eab7 2c3d dbaa 883c 11be 353c 01df a03c
00000090: bfdb 91bb 9857 223d 1d28 bd3c 5729 c4ba
000000a0: 8274 3b3c f93e db3c 5dcf b03a ea74 a03b
000000b0: acec 1d3d ca0f 68bc 2f1d b23c b863 cf3c
000000c0: 8331 a6ba 7b22 8c3d 98f3 96bc 349a 543d
000000d0: c45e 2e3d b806 263c 83e2 8a3d 2e38 c039
000000e0: cefb aa3b 19dc 9fbb 03c5 55ba 940d 33bc
000000f0: d87e 4e3b 2127 d5ba 1bf7 493d d9bc cbbc
00000100: 3cec 8b3a 6da5 143d 54c0 503c 4e35 e5bc
00000110: 75fe 19bd d31f c23c 1f68 4d3c 1bc7 9abc
00000120: f0f7 cfbc 47de 96bc 0542 b13c c650 7f3c
00000130: d054 46bc eab8 ecbc 0c0b a13b 7c15 95bc
00000140: 2066 06bb 22d9 9c3c 7580 14bb 62ce a3bc
00000150: f9ea 18bc 2ae3 333c a565 84bc 3140 44bc
00000160: 36f3 8cbc 81b2 ad3c 8d8d a4bb 8c4f 60bd
00000170: 008e 55ba 3354 08bc a9bd 40bc 03cb c4bc
00000180: c711 373c 33e3 84bc 42c3 f0bb 5ad6 283c
00000190: 16b9 1cbc 7b84 053c 1597 b9bc e10b f0bc
000001a0: 6e49 583c eaf7 633a 3da7 1e3c 0d1f 4ebc
000001b0: c88a 08bc 375c b1bc d761 1ebc 9b1d 26bc
000001c0: e6e2 edbc dafe 0fbd 93dd 873c 5e25 2bbd
000001d0: 4635 9abc b4e3 d1bc fa99 b8bc 7b59 183d
000001e0: 2bc3 75bb 189f b1bc a0a9 26bd fc15 f3bc
000001f0: 510f b8bb 6616 0a3c fc10 7c3c b62b c4bc
00000200: 748d 593c 5a53 d1bc 169d dc3c f833 973c
00000210: 9b7f f93b 18dc 57ba 82a8 2bbc 5647 8f3c
00000220: 44d5 b43c 8e08 95bc 8f44 85bc f37c 3c3c
00000230: 2157 e0bb 9732 023d 3a8b c3bc a49c eabc
00000240: 87cf 123c c71f 37bc e326 ec3a e0f8 4fbd
00000250: bfcf bdba 1cd9 b13c 45bf d93c 1156 f33b
00000260: 9722 393c 08a0 0bbb 0e58 993c 202f 083d
00000270: 86f8 913c a1b5 81bc 5504 c5bb 1f48 80bc
00000280: 076b b13c 2808 7abc 3100 173b 59ad 5c3c
00000290: aeae 30bc d58e f9bc a38a a03c 45a5 46bd
000002a0: 0c4d 1c3d 2ea7 41bb afd8 a8bb 9147 8bbc
000002b0: 5309 f53c 72f3 ebbc 6e03 903a 533e e83b
000002c0: 3886 93bb 79a3 52bc 1745 fabc 7942 f93b
000002d0: 9f0e 83bb f822 843b 8bae 8b3c 0c1a 513b
000002e0: 7de6 a03c 50a0 323d 592e 1e3d 2891 a43c
000002f0: 642a da3c 5f5c a3bb 30d6 523d b5bd 263c

unstack3 f4 [192]
0.0303119 -0.019284816 0.030365042 0.054163218 0.030786578 -0.00043472444 0.044504426 -0.023860637
0.019446436 0.01132429 0.014062931 0.044214245 0.012439956 0.069462836 0.0031361808 -0.0005696056
-0.004710936 0.008564064 0.07847045 0.024195991 0.04333958 0.011590681 0.036335226 0.03730718
0.06159688 -0.012693365 0.024452787 0.021300377 -0.00081567385 0.0041146223 -0.04500092 0.017819135
0.04216758 0.016683033 0.011092679 0.019637587 -0.0044512446 0.039634317 0.023090417 -0.0014965934
0.011441352 0.026763426 0.0013489533 0.0048967497 0.038555786 -0.014163921 0.021742431 0.025316104
-0.001267955 0.06842514 -0.018426701 0.051904872 0.042570844 0.010133438 0.06781485 0.0003666295
0.0052180057 -0.0048785326 -0.0008154662 -0.01092853 0.003150871 -0.0016262272 0.049307924 -0.024870323
0.0010675262 0.036290575 0.012741167 -0.02797952 -0.037596185 0.023696816 0.012537031 -0.018893769
-0.02538678 -0.018416537 0.021637926 0.015583223 -0.012105182 -0.028896768 0.004914647 -0.018198721
-0.0020507649 0.019146506 -0.0022659574 -0.019995872 -0.009333366 0.010979453 -0.01616175 -0.011978195
-0.017205816 0.021203281 -0.005021757 -0.05476336 -0.0008146465 -0.008320856 -0.0117639685 -0.024022585
0.011173672 -0.016221618 -0.0073474953 0.010305012 -0.009565612 0.008149262 -0.02265505 -0.02930254
0.013201101 0.0008696305 0.009683427 -0.012580645 -0.008333869 -0.021650417 -0.0096668815 -0.010138894
-0.029038858 -0.035155155 0.016585147 -0.041783683 -0.01882423 -0.025621273 -0.02253436 0.03719471
-0.0037500362 -0.021682307 -0.04068911 -0.029673569 -0.0056170602 0.008428192 0.015384909 -0.023946624
0.01641704 -0.028853921 0.03688452 0.028005116 0.018815644 0.012294245 -0.014889434 0.009220374
0.017485581 -0.008843371 0.0008229337 0.029901648 0.006751201 0.018795772 -0.053000897 -0.031608626
0.0027839837 -0.004115522 -0.0011348509 -0.04696523 -0.021304995 0.035010394 0.035949346 0.04275266
0.010420256 -0.0040149093 0.078004576 0.031211387 0.014731669 -0.029047258 -0.02892371 -0.020150943
0.019160751 -0.03548582 0.015790917 0.0014477544 -0.002624121 -0.030777553 0.04738966 -0.043013364
0.04195825 -0.009931602 0.008184786 -0.00387188 0.015627759 -0.04534823 0.008109695 0.02560489
-0.016532093 -0.021294918 -0.017918931 0.02594706 -0.03903201 0.010058337 0.010708109 -0.0006706947
0.021975415 0.046866775 0.016633814 0.03027749 0.024220275 -0.02649709 0.049831465 -0.0047640745
00000000: a950 f83c 31fb 9dbc 1cc0 f83c 40da 5d3d
00000010: 2234 fc3c baeb e3b9 464a 363d 6277 c3bc
00000020: 224e 9f3c 8489 393c 3568 663c ff19 353d
00000030: f5d0 4b3c 8842 8e3d 6288 4d3b 9651 15ba
00000040: 325e 9abb 4a50 0c3c 1eb5 a03d ac36 c63c
00000050: d884 313d d7e6 3d3c 3fd4 143d 6acf 183d
00000060: 034d 7c3d d5f7 4fbc 3651 c83c 217e ae3c
00000070: f2d2 55ba f4d3 863b e252 38bd 6ff9 913c
00000080: eab7 2c3d dbaa 883c 11be 353c 01df a03c
00000090: bfdb 91bb 9857 223d 1d28 bd3c 5729 c4ba
000000a0: 8274 3b3c f93e db3c 5dcf b03a ea74 a03b
000000b0: acec 1d3d ca0f 68bc 2f1d b23c b863 cf3c
000000c0: 8331 a6ba 7b22 8c3d 98f3 96bc 349a 543d
000000d0: c45e 2e3d b806 263c 83e2 8a3d 2e38 c039
000000e0: cefb aa3b 19dc 9fbb 03c5 55ba 940d 33bc
000000f0: d87e 4e3b 2127 d5ba 1bf7 493d d9bc cbbc
00000100: 3cec 8b3a 6da5 143d 54c0 503c 4e35 e5bc
00000110: 75fe 19bd d31f c23c 1f68 4d3c 1bc7 9abc
00000120: f0f7 cfbc 47de 96bc 0542 b13c c650 7f3c
00000130: d054 46bc eab8 ecbc 0c0b a13b 7c15 95bc
00000140: 2066 06bb 22d9 9c3c 7580 14bb 62ce a3bc
00000150: f9ea 18bc 2ae3 333c a565 84bc 3140 44bc
00000160: 36f3 8cbc 81b2 ad3c 8d8d a4bb 8c4f 60bd
00000170: 008e 55ba 3354 08bc a9bd 40bc 03cb c4bc
00000180: c711 373c 33e3 84bc 42c3 f0bb 5ad6 283c
00000190: 16b9 1cbc 7b84 053c 1597 b9bc e10b f0bc
000001a0: 6e49 583c eaf7 633a 3da7 1e3c 0d1f 4ebc
000001b0: c88a 08bc 375c b1bc d761 1ebc 9b1d 26bc
000001c0: e6e2 edbc dafe 0fbd 93dd 873c 5e25 2bbd
000001d0: 4635 9abc b4e3 d1bc fa99 b8bc 7b59 183d
000001e0: 2bc3 75bb 189f b1bc a0a9 26bd fc15 f3bc
000001f0: 510f b8bb 6616 0a3c fc10 7c3c b62b c4bc
00000200: 077d 863c 0f5f ecbc 3914 173d fc6a e53c
00000210: 4423 9a3c cd6d 493c d0f2 73bc 0d11 173c
00000220: ec3d 8f3c c9e3 10bc 25ba 573a 4df4 f43c
00000230: 2e39 dd3b 97f9 993c 7817 59bd 0c78 01bd
00000240: 7f73 363b 80db 86bb 47bf 94ba 9d5e 40bd
00000250: d087 aebc 0f67 0f3d 9f3f 133d 6a1d 2f3d
00000260: b9b9 2a3c 808f 83bb ddc0 9f3d 06af ff3c
00000270: 195d 713c 84f4 edbc 6bf1 ecbc 9713 a5bc
00000280: 02f7 9c3c 9459 11bd f45b 813c 94c2 bd3a
00000290: 72f9 2bbb 3521 fcbc a91b 423d c82e 30bd
000002a0: 6adc 2b3d 28b8 22bc 7b19 063c 5ebf 7dbb
000002b0: c905 803c 11bf 39bd 87de 043c 59c1 d13c
000002c0: 506e 87bc ae72 aebc b9ca 92bc ee8e d43c
000002d0: 07e0 1fbd b9cb 243c 1071 2f3c 8fd1 2fba
000002e0: c905 b43c 60f7 3f3d a343 883c 8008 f83c
000002f0: 9969 c63c 6d10 d9bc 141c 4c3d f41b 9cbb
