backend/exported_models/model_GRU.tflite (tflite, 402884 bytes, 18 tensors)

sequential_10/dense_20/BiasAdd/ReadVariableOp f4 [18]
-0.06252979 0.04724642 -0.04808307 -0.0025756261 0.04808119 -3.5731544e-05 0.020070238 0.02480039
-0.005031186 -0.042399157 0.013686922 -0.078806326 -0.03028572 -0.057511583 -0.09186305 0.013387942
0.029165413 0.030750137
00000000: 9e0f 80bd 7685 413d c1f2 44bd d6cb 28bb
00000010: c8f0 443d 74de 15b8 576a a43c 302a cb3c
00000020: a6dc a4bb bdaa 2dbd 1d3f 603c 3665 a1bd
00000030: c219 f8bc 4491 6bbd b222 bcbd 1959 5b3c
00000040: 4eec ee3c b6e7 fb3c

sequential_10/dense_19/BiasAdd/ReadVariableOp f4 [32]
-0.016683612 0.03250775 -0.017475847 -0.0010887802 0.023595605 0.072140545 0.019683301 0.051228516
0.047542885 0.010781844 -0.0074913977 0.014172578 0.030801954 0.021758404 -0.027076384 -0.011495233
0.005124425 0.044247948 0.011200367 0.030133583 0.021377515 -0.014651212 0.039679196 0.06636902
0.058917176 -0.0053170817 -0.017318401 0.0014166001 0.02623965 0.034244914 0.024043312 0.051503964
00000000: 12ac 88bc d926 053d 8229 8fbc 67b5 8eba
00000010: 924b c13c 6cbe 933d e03e a13c fed4 513d
00000020: 54bc 423d 55a6 303c 667a f5bb 1a34 683c
00000030: 6154 fc3c ae3e b23c 4bcf ddbc 8056 3cbc
00000040: cbea a73b 563d 353d be81 373c b4da f63c
00000050: e61f af3c a30b 70bc a786 223d 7bec 873d
00000060: 2353 713d ea3a aebb 52df 8dbc 36ad b93a
00000070: 89f4 d63c 6544 0c3d 7bf6 c43c d2f5 523d

sequential_10/dense_18/BiasAdd/ReadVariableOp f4 [64]
-0.020247577 0.0017942108 0.03696007 -0.010659711 -0.0066059586 0.005387577 0.03625462 0.0067351456
0.024488082 -0.007070975 0.03475689 -0.026837815 0.002809633 -0.0049476977 0.028243717 0.06599773
0.03427657 0.02865916 0.061185155 -0.036158655 0.030513257 0.0144386925 0.038179398 0.050667625
0.039611366 0.020496955 0.03486869 0.023872048 0.0471789 0.028861964 0.0010605564 -0.047309626
0.02403591 0.002037599 0.00027943533 -0.009055357 0.04503262 0.021788701 0.017411577 0.021485152
0.029940309 0.011040077 0.019568326 0.00814885 0.04894766 0.023227569 0.014708715 -0.027911618
0.023858882 0.02570175 -0.025552519 0.0048116012 -0.02118017 -0.010592196 -0.0025048591 0.007307448
0.010121808 0.0620985 0.03564271 0.040494367 0.03524294 0.0394006 0.042740166 0.07067841
00000000: 3fde a5bc b92b eb3a 7163 173d 12a6 2ebc
00000010: cc76 d8bb 468a b03b b97f 143d 7fb2 dc3b
00000020: 3b9b c83c a3b3 e7bb 3e5d 0e3d fada dbbc
00000030: d221 383b 4c20 a2bb 5e5f e73c d129 873d
00000040: 9765 0c3d 9dc6 ea3c 499d 7a3d 191b 14bd
00000050: f0f6 f93c 4490 6c3c 0062 1c3d db88 4f3d
00000060: 873f 223d 3be9 a73c 79d2 0e3d 508f c33c
00000070: aa3e 413d ed6f ec3c 5e02 8b3a bdc7 41bd
00000080: f5e6 c43c 3d89 053b 2d81 9239 ec5c 14bc
00000090: 2074 383d 387e b23c b9a2 8e3c a101 b03c
000000a0: 6145 f53c 70e1 343c c14d a03c c182 053c
000000b0: 577d 483d be47 be3c d2fc 703c e8a6 e4bc
000000c0: b473 c33c 7a8c d23c 8453 d1bc a3aa 9d3b
000000d0: 0982 adbc e48a 2dbc 9028 24bb 5173 ef3b
000000e0: f1d5 253c ff5a 7e3d 17fe 113d 6cdd 253d
000000f0: e75a 103d 8662 213d 5010 2f3d d8bf 903d

unstack f4 [384]
-0.08173029 -0.07866453 0.077897586 -0.05533898 -0.074801706 -0.021220353 -0.13229379 -0.12079663
-0.102164656 -0.060492415 -0.051398262 -0.036511615 -0.09485525 -0.04403813 -0.07695557 0.14694887
-0.12424237 0.04881363 -0.10663812 -0.042184964 -0.06638538 -0.025792211 0.009043438 -0.08086139
-0.05066252 -0.12082216 -0.048365954 -0.02729107 -0.054583423 0.086055696 0.04129677 -0.05701137
-0.059077214 -0.015729846 0.019017987 -0.07842927 -0.026456613 -0.07386955 -0.0016698204 -0.104071274
-0.05325011 0.0718992 0.046026606 -0.07986607 -0.098727636 -0.115152664 -0.0043159355 -0.1289142
-0.013052405 -0.074336864 0.042856324 0.04722404 -0.047559317 -0.022869 -0.11362999 -0.0097480705
-0.009599696 -0.07332772 -0.0008640242 -0.015880983 -0.122920856 -0.03054527 -0.104436226 -0.050189238
-0.113284975 -0.057085913 -0.046755776 -0.08500938 -0.04498145 0.12234527 0.004541149 -0.102375545
0.086415604 0.049075384 -0.046244152 0.09541074 -0.11160761 -0.10247444 -0.02678246 -0.025638295
-0.04037371 -0.13270332 -0.10446865 -0.060120713 -0.09044882 -0.051868092 -0.084762596 -0.1123831
0.06435137 -0.036027644 0.057185166 -0.08404811 0.044536643 -0.12510535 -0.059738614 -0.019930633
-0.033080816 -0.051466458 0.112963624 -0.052905135 0.02978759 -0.102535106 -0.11984779 -0.10913937
-0.053071417 -0.006865668 -0.08894337 -0.10006233 -0.0469542 -0.06480927 -0.010436027 0.008162559
-0.0010495265 -0.03818551 0.015445 0.0009891037 -0.063127846 -0.02884147 -0.03638401 -0.1265206
0.0028133332 -0.07260248 0.020510258 -0.06873994 -0.12286803 -0.022189854 -0.08983864 -0.10494499
0.03501532 0.07692561 0.026882326 -0.033401236 0.028283963 -0.026548222 0.03595805 -0.0061566914
0.010013046 0.020882327 0.007866242 0.0118587045 0.011573743 -0.033777814 -0.011946534 0.022277147
0.019127226 0.0022210616 0.018537465 0.004341663 -0.002648585 0.0100194495 0.0012321767 0.00802736
0.0056974045 -0.018074019 -0.03819274 0.00022024741 0.021571666 0.08602181 0.019334171 0.046889767
-0.014652018 0.029143177 0.03503142 -0.0051837894 0.009493082 0.032188874 0.007961966 0.018508716
0.021382906 0.01731048 0.034636296 -0.009020166 -0.007936156 0.0076759364 0.026300127 -0.024459172
0.007892538 0.02565811 0.06715768 0.03401074 0.014970807 0.03779211 -0.0059993495 0.016233083
0.014713116 0.0477176 0.05208751 -0.006853331 0.035266783 0.01935389 -0.013105683 0.06391351
-0.00341871 0.008947334 0.031962693 0.0033632396 -0.0060118577 0.01605931 0.019697094 -0.015414442
0.041671846 0.017273137 0.022596069 0.013400775 0.014168568 0.107127815 -0.0144551825 -0.006902479
0.013404703 0.021339035 0.031293854 0.015878884 -0.012410005 -0.034043744 0.041832194 0.01564644
0.0072465143 0.017497927 0.009080825 0.0048961774 0.03067096 0.038291823 0.015129095 0.0073236255
0.0015281006 -0.002407481 0.01035793 0.022910716 0.020641541 0.023465091 0.010892664 0.042972483
-0.019011592 0.11301404 0.0012281056 -0.007941577 0.0005458589 0.0356199 0.0016105495 -0.0031927654
-0.0051682685 0.010594912 0.0008558716 0.022652602 0.027430868 -0.009290614 0.029227428 -0.027986074
-0.003141962 -0.011808748 0.006013029 -0.04687756 0.022370119 0.023213685 -0.002843531 0.015350245
00000000: 3662 a7bd de1a a1bd c588 9f3d 20ab 62bd
00000010: a331 99bd 4ed6 adbc 0678 07be 3964 f7bd
00000020: b43b d1bd e5c6 77bd fc86 52bd 348d 15bd
00000030: 7843 c2bd 5461 34bd e29a 9dbd c479 163e
00000040: c972 febd cdf0 473d 1665 dabd 24ca 2cbd
00000050: 0ff5 87bd 304a d3bc ee2a 143c a89a a5bd
00000060: 8183 4fbd 9c71 f7bd 611b 46bd 8691 dfbc
00000070: de92 5fbd f83d b03d cd26 293d c184 69bd
00000080: f3fa 71bd e1db 80bc 9ccb 9b3c 869f a0bd
00000090: 8abb d8bc eb48 97bd e0dd daba 5223 d5bd
000000a0: ca1c 5abd e33f 933d 6586 3c3d d290 a3bd
000000b0: b731 cabd 29d5 ebbd b16c 8dbb 1602 04be
000000c0: c1d9 55bc ed3d 98bd 1d8a 2f3d ff6d 413d
000000d0: 8fcd 42bd c557 bbbc d7b6 e8bd 5fb6 1fbc
000000e0: 0b48 1dbc d82c 96bd af7f 62ba d618 82bc
000000f0: eebd fbbd 133a fabc a9e2 d5bd 3b93 4dbd
00000100: f401 e8bd ebd2 69bd fc82 3fbd 6619 aebd
00000110: 783e 38bd 2890 fa3d ebcd 943b 45aa d1bd
00000120: aafa b03d 4503 493d 826a 3dbd b566 c33d
00000130: 8892 e4bd 1fde d1bd e466 dbbc 6707 d2bc
00000140: e75e 25bd 61e3 07be a9f3 d5bd 2341 76bd
00000150: 3b3d b9bd a373 54bd 0398 adbd 1c29 e6bd
00000160: a7ca 833d b991 13bd fe3a 6a3d 6a21 acbd
00000170: 0e6c 363d 9e1b 00be 7ab0 74bd 9145 a3bc
00000180: c07f 07bd 7ece 52bd 7959 e73d 0eb3 58bd
00000190: 1b05 f43c edfd d1bd c272 f5bd 7684 dfbd
000001a0: 6a61 59bd 66f9 e0bb f127 b6bd 7bed ccbd
000001b0: 0c53 40bd b9ba 84bd dffb 2abc 41bc 053c
000001c0: 4490 89ba 6968 1cbd 060d 7d3c d0a4 813a
000001d0: 2c49 81bd f244 ecbc 6607 15bd 9e8e 01be
000001e0: e65f 383b 9cb0 94bd 2105 a83c 87c7 8cbd
000001f0: 3ca2 fbbd 7fc7 b5bc 52fd b7bd 66ed d6bd
00000200: 396c 0f3d 2d8b 9d3d 5338 dc3c bccf 08bd
00000210: c5b3 e73c a87b d9bc c048 133d 12be c9bb
00000220: c20d 243c 6a11 ab3c 69e1 003c 034b 423c
00000230: cc9f 3d3c 9b5a 0abd 65bb 43bc 907e b63c
00000240: b3b0 9c3c 3b8f 113b e2db 973c 8244 8e3b
00000250: e293 2dbb 9e28 243c fd80 a13a 3085 033c
00000260: 4bb1 ba3b f70f 94bc fe6f 1cbd 37f2 6639
00000270: 10b7 b03c 342c b03d b262 9e3c 7c0f 403d
00000280: 050f 70bc acbd ee3c 1b7d 0f3d c7dc a9bb
00000290: df88 1b3c 7bd8 033d e872 023c 979f 973c
000002a0: 342b af3c b5ce 8d3c cade 0d3d 51c9 13bc
000002b0: a706 02bc 6c86 fb3b 5d73 d73c 9a5e c8bc
000002c0: b44f 013c f530 d23c f789 893d d94e 0b3d
000002d0: 1e48 753c e6cb 1a3d 3196 c4bb 3efb 843c
000002e0: 480f 713c 8873 433d b659 553d e891 e0bb
000002f0: e773 103d 0d8c 9e3c 38b9 56bc 16e5 823d
00000300: 700c 60bb d797 123c 50eb 023d cc69 5c3b
00000310: 1eff c4bb d08e 833c cd5b a13c db8c 7cbc
00000320: 19b0 2a3d 6580 8d3c 641b b93c ed8e 5b3c
00000330: 4823 683c d465 db3d 6ed5 6cbc 312e e2bb
00000340: 669f 5b3c 33cf ae3c fc2d 003d 6f14 823c
00000350: 5553 4bbc 7471 0bbd 3c58 2b3d f72c 803c
00000360: 2b74 ed3b d057 8f3c bec7 143c 1d70 a03b
00000370: aa41 fb3c e3d7 1c3d 06e0 773c 06fb ef3b
00000380: 8c4a c83a d4c6 1dbb 4fb4 293c 41af bb3c
00000390: 7318 a93c dd39 c03c 2577 323c ea03 303d
000003a0: 33be 9bbc e873 e73d 63f8 a03a 631d 02bc
000003b0: f817 0f3a 2ce6 113d 1319 d33a b73d 51bb
000003c0: 945a a9bb 4896 2d3c 925c 603a f391 b93c
000003d0: b3b6 e03c a937 18bc 5c6e ef3c 0d43 e5bc
000003e0: 60e9 4dbb 7b79 41bc f108 c53b af02 40bd
000003f0: 8a41 b73c a02a be3c 895a 3abb 987f 7b3c

unstack1 f4 [384]
-0.08173029 -0.07866453 0.077897586 -0.05533898 -0.074801706 -0.021220353 -0.13229379 -0.12079663
-0.102164656 -0.060492415 -0.051398262 -0.036511615 -0.09485525 -0.04403813 -0.07695557 0.14694887
-0.12424237 0.04881363 -0.10663812 -0.042184964 -0.06638538 -0.025792211 0.009043438 -0.08086139
-0.05066252 -0.12082216 -0.048365954 -0.02729107 -0.054583423 0.086055696 0.04129677 -0.05701137
-0.059077214 -0.015729846 0.019017987 -0.07842927 -0.026456613 -0.07386955 -0.0016698204 -0.104071274
-0.05325011 0.0718992 0.046026606 -0.07986607 -0.098727636 -0.115152664 -0.0043159355 -0.1289142
-0.013052405 -0.074336864 0.042856324 0.04722404 -0.047559317 -0.022869 -0.11362999 -0.0097480705
-0.009599696 -0.07332772 -0.0008640242 -0.015880983 -0.122920856 -0.03054527 -0.104436226 -0.050189238
-0.113284975 -0.057085913 -0.046755776 -0.08500938 -0.04498145 0.12234527 0.004541149 -0.102375545
0.086415604 0.049075384 -0.046244152 0.09541074 -0.11160761 -0.10247444 -0.02678246 -0.025638295
-0.04037371 -0.13270332 -0.10446865 -0.060120713 -0.09044882 -0.051868092 -0.084762596 -0.1123831
0.06435137 -0.036027644 0.057185166 -0.08404811 0.044536643 -0.12510535 -0.059738614 -0.019930633
-0.033080816 -0.051466458 0.112963624 -0.052905135 0.02978759 -0.102535106 -0.11984779 -0.10913937
-0.053071417 -0.006865668 -0.08894337 -0.10006233 -0.0469542 -0.06480927 -0.010436027 0.008162559
-0.0010495265 -0.03818551 0.015445 0.0009891037 -0.063127846 -0.02884147 -0.03638401 -0.1265206
0.0028133332 -0.07260248 0.020510258 -0.06873994 -0.12286803 -0.022189854 -0.08983864 -0.10494499
0.03501532 0.07692561 0.026882326 -0.033401236 0.028283963 -0.026548222 0.03595805 -0.0061566914
0.010013046 0.020882327 0.007866242 0.0118587045 0.011573743 -0.033777814 -0.011946534 0.022277147
0.019127226 0.0022210616 0.018537465 0.004341663 -0.002648585 0.0100194495 0.0012321767 0.00802736
0.0056974045 -0.018074019 -0.03819274 0.00022024741 0.021571666 0.08602181 0.019334171 0.046889767
-0.014652018 0.029143177 0.03503142 -0.0051837894 0.009493082 0.032188874 0.007961966 0.018508716
0.021382906 0.01731048 0.034636296 -0.009020166 -0.007936156 0.0076759364 0.026300127 -0.024459172
0.007892538 0.02565811 0.06715768 0.03401074 0.014970807 0.03779211 -0.0059993495 0.016233083
0.014713116 0.0477176 0.05208751 -0.006853331 0.035266783 0.01935389 -0.013105683 0.06391351
-0.00341871 0.008947334 0.031962693 0.0033632396 -0.0060118577 0.01605931 0.019697094 -0.015414442
0.041671846 0.017273137 0.022596069 0.013400775 0.014168568 0.107127815 -0.0144551825 -0.006902479
0.013404703 0.021339035 0.031293854 0.015878884 -0.012410005 -0.034043744 0.041832194 0.01564644
0.0072465143 0.017497927 0.009080825 0.0048961774 0.03067096 0.038291823 0.015129095 0.0073236255
0.0015281006 -0.002407481 0.01035793 0.022910716 0.020641541 0.023465091 0.010892664 0.042972483
-0.019011592 0.11301404 0.0012281056 -0.007941577 0.0005458589 0.0356199 0.0016105495 -0.0031927654
-0.0051682685 0.010594912 0.0008558716 0.022652602 0.027430868 -0.009290614 0.029227428 -0.027986074
-0.003141962 -0.011808748 0.006013029 -0.04687756 0.022370119 0.023213685 -0.002843531 0.015350245
00000000: 3662 a7bd de1a a1bd c588 9f3d 20ab 62bd
00000010: a331 99bd 4ed6 adbc 0678 07be 3964 f7bd
00000020: b43b d1bd e5c6 77bd fc86 52bd 348d 15bd
00000030: 7843 c2bd 5461 34bd e29a 9dbd c479 163e
00000040: c972 febd cdf0 473d 1665 dabd 24ca 2cbd
00000050: 0ff5 87bd 304a d3bc ee2a 143c a89a a5bd
00000060: 8183 4fbd 9c71 f7bd 611b 46bd 8691 dfbc
00000070: de92 5fbd f83d b03d cd26 293d c184 69bd
00000080: f3fa 71bd e1db 80bc 9ccb 9b3c 869f a0bd
00000090: 8abb d8bc eb48 97bd e0dd daba 5223 d5bd
000000a0: ca1c 5abd e33f 933d 6586 3c3d d290 a3bd
000000b0: b731 cabd 29d5 ebbd b16c 8dbb 1602 04be
000000c0: c1d9 55bc ed3d 98bd 1d8a 2f3d ff6d 413d
000000d0: 8fcd 42bd c557 bbbc d7b6 e8bd 5fb6 1fbc
000000e0: 0b48 1dbc d82c 96bd af7f 62ba d618 82bc
000000f0: eebd fbbd 133a fabc a9e2 d5bd 3b93 4dbd
00000100: f401 e8bd ebd2 69bd fc82 3fbd 6619 aebd
00000110: 783e 38bd 2890 fa3d ebcd 943b 45aa d1bd
00000120: aafa b03d 4503 493d 826a 3dbd b566 c33d
00000130: 8892 e4bd 1fde d1bd e466 dbbc 6707 d2bc
00000140: e75e 25bd 61e3 07be a9f3 d5bd 2341 76bd
00000150: 3b3d b9bd a373 54bd 0398 adbd 1c29 e6bd
00000160: a7ca 833d b991 13bd fe3a 6a3d 6a21 acbd
00000170: 0e6c 363d 9e1b 00be 7ab0 74bd 9145 a3bc
00000180: c07f 07bd 7ece 52bd 7959 e73d 0eb3 58bd
00000190: 1b05 f43c edfd d1bd c272 f5bd 7684 dfbd
000001a0: 6a61 59bd 66f9 e0bb f127 b6bd 7bed ccbd
000001b0: 0c53 40bd b9ba 84bd dffb 2abc 41bc 053c
000001c0: 4490 89ba 6968 1cbd 060d 7d3c d0a4 813a
000001d0: 2c49 81bd f244 ecbc 6607 15bd 9e8e 01be
000001e0: e65f 383b 9cb0 94bd 2105 a83c 87c7 8cbd
000001f0: 3ca2 fbbd 7fc7 b5bc 52fd b7bd 66ed d6bd
00000200: 396c 0f3d 2d8b 9d3d 5338 dc3c bccf 08bd
00000210: c5b3 e73c a87b d9bc c048 133d 12be c9bb
00000220: c20d 243c 6a11 ab3c 69e1 003c 034b 423c
00000230: cc9f 3d3c 9b5a 0abd 65bb 43bc 907e b63c
00000240: b3b0 9c3c 3b8f 113b e2db 973c 8244 8e3b
00000250: e293 2dbb 9e28 243c fd80 a13a 3085 033c
00000260: 4bb1 ba3b f70f 94bc fe6f 1cbd 37f2 6639
00000270: 10b7 b03c 342c b03d b262 9e3c 7c0f 403d
00000280: 050f 70bc acbd ee3c 1b7d 0f3d c7dc a9bb
00000290: df88 1b3c 7bd8 033d e872 023c 979f 973c
000002a0: 342b af3c b5ce 8d3c cade 0d3d 51c9 13bc
000002b0: a706 02bc 6c86 fb3b 5d73 d73c 9a5e c8bc
000002c0: b44f 013c f530 d23c f789 893d d94e 0b3d
000002d0: 1e48 753c e6cb 1a3d 3196 c4bb 3efb 843c
000002e0: 480f 713c 8873 433d b659 553d e891 e0bb
000002f0: e773 103d 0d8c 9e3c 38b9 56bc 16e5 823d
00000300: 700c 60bb d797 123c 50eb 023d cc69 5c3b
00000310: 1eff c4bb d08e 833c cd5b a13c db8c 7cbc
00000320: 19b0 2a3d 6580 8d3c 641b b93c ed8e 5b3c
00000330: 4823 683c d465 db3d 6ed5 6cbc 312e e2bb
00000340: 669f 5b3c 33cf ae3c fc2d 003d 6f14 823c
00000350: 5553 4bbc 7471 0bbd 3c58 2b3d f72c 803c
00000360: 2b74 ed3b d057 8f3c bec7 143c 1d70 a03b
00000370: aa41 fb3c e3d7 1c3d 06e0 773c 06fb ef3b
00000380: 8c4a c83a d4c6 1dbb 4fb4 293c 41af bb3c
00000390: 7318 a93c dd39 c03c 2577 323c ea03 303d
000003a0: 33be 9bbc e873 e73d 63f8 a03a 631d 02bc
000003b0: f817 0f3a 2ce6 113d 1319 d33a b73d 51bb
000003c0: 945a a9bb 4896 2d3c 925c 603a f391 b93c
000003d0: b3b6 e03c a937 18bc 5c6e ef3c 0d43 e5bc
000003e0: 60e9 4dbb 7b79 41bc f108 c53b af02 40bd
000003f0: 8a41 b73c a02a be3c 895a 3abb 987f 7b3c

unstack2 f4 [192]
0.016939497 0.07850159 0.1138895 -0.023846626 0.0507127 0.11819357 0.050616223 0.032931276
-0.0051391455 0.06994549 0.05926056 0.015248783 -0.00959932 0.04096312 0.048879325 0.033429023
0.099567555 0.101493575 -0.021092493 -0.012701915 0.05755029 0.00046027428 0.09689894 0.047066268
0.024889717 0.088992134 0.05280814 0.10921644 0.06021241 0.123508334 -0.029996468 0.075863674
0.02692308 0.09515826 0.10036662 0.04184135 0.042334195 -0.0021347303 0.06534873 0.0466374
0.091899365 0.02170424 0.12930836 -0.0077287615 0.05310915 0.08178821 -0.0030009693 0.11064706
0.06981915 0.06876841 0.10693903 0.08874479 0.057543363 -0.015335542 0.07755873 0.055429507
-0.056303978 0.035238154 0.1277765 0.065744326 -0.00863372 0.063931495 0.034959804 0.057622474
0.05189826 0.012514206 0.0068770796 0.03682258 -0.0026848249 -0.04188768 -0.014529029 0.005077782
-0.011431809 -0.029549567 0.053499024 -0.008091648 0.01901968 0.015768219 0.036188047 -0.004774467
0.059631146 0.020089092 0.0376764 0.041591782 -0.0016943038 0.014469215 0.05079382 0.010419932
-0.0049594906 0.061125938 0.037018828 0.070206895 0.008033522 0.004713782 -0.016049152 -6.384654e-05
0.027171034 0.04286429 0.04046492 0.016667353 -0.04096271 0.05425799 0.02126711 -0.0056048348
-0.019092595 -0.036952462 0.038525525 -0.0041457196 0.06061035 0.041282378 -0.010999613 0.06605721
0.060204577 0.037288517 0.034212008 0.052739177 -0.02351509 0.0362045 0.042711236 0.02714454
-0.04766898 0.05642463 0.01730196 0.06835999 0.03880902 0.03198132 0.015625644 -0.014662248
0.010602805 -0.027310945 -0.003974171 0.054707482 0.009641612 -0.0011799771 -0.00021983455 0.015346509
0.0024802159 0.034927584 -0.037234712 0.042213533 -0.0045551057 0.0338386 0.02247924 0.00018981106
0.043656167 0.005329426 -0.03205765 0.0644651 0.017004784 0.037769955 0.035953414 0.004340415
-0.034895137 -0.005095973 -0.073463306 0.0030007698 -0.016257847 -0.020337269 -0.024239052 0.058100134
-0.038667716 0.03458837 -0.022067515 0.039437868 -0.054579955 -0.020623812 0.016986335 0.032048933
0.0023268948 -0.035879515 0.008386627 0.05898854 0.059634816 0.042407766 -0.042534113 0.013649147
-0.093392596 -0.0051729027 -0.00097574864 -0.064217374 -0.03524171 0.050925735 0.018705057 0.05820585
0.0144420685 0.034866344 0.0398705 0.068621084 -0.03921981 0.0031116086 -0.026679851 -0.019243702
00000000: b3c4 8a3c 71c5 a03d e63e e93d 005a c3bc
00000010: 1fb8 4f3d 780f f23d f552 4f3d f2e2 063d
00000020: 4766 a8bb 953f 8f3d 33bb 723d 08d6 793c
00000030: 7746 1dbc f2c8 273d b035 483d dfec 083d
00000040: 13ea cb3d dddb cf3d 2aca acbc b11b 50bc
00000050: dab9 6b3d f850 f139 f472 c63d 8fc8 403d
00000060: 85e5 cb3c 8241 b63d 594d 583d deac df3d
00000070: 4aa1 763d f0f1 fc3d 27bb f5bc 6a5e 9b3d
00000080: cb8d dc3c 55e2 c23d 048d cd3d d661 2b3d
00000090: 9f66 2d3d d5e6 0bbb 8ed5 853d dc06 3f3d
000000a0: bc35 bc3d 17cd b13c 6969 043e 8d41 fdbb
000000b0: fb88 593d 9480 a73d e9ab 44bb ed9a e23d
000000c0: 58fd 8e3d 74d6 8c3d da02 db3d d4bf b53d
000000d0: 97b2 6b3d ed41 7bbc 1dd7 9e3d 0d0a 633d
000000e0: 009f 66bd e255 103d d8d7 023e f6a4 863d
000000f0: 7274 0dbc 84ee 823d 0332 0f3d 8b05 6c3d
00000100: 4593 543d 6208 4d3c 2059 e13b 46d3 163d
00000110: e3f3 2fbb 6a92 2bbd 2a0b 6ebc 8663 a63b
00000120: 7b4c 3bbc ef11 f2bc cb21 5b3d d592 04bc
00000130: 29cf 9b3c 5a2c 813c eb39 143d 2273 9cbb
00000140: ca3f 743d e191 a43c 9252 1a3d 255c 2a3d
00000150: 6713 deba 4910 6d3c 2e0d 503d 5db8 2a3c
00000160: 3983 a2bb 315f 7a3d 0ea1 173d a2c8 8f3d
00000170: 099f 033c 1276 9a3b 8379 83bc 5ae5 85b8
00000180: ca95 de3c 7792 2f3d 8bbe 253d f989 883c
00000190: 84c8 27bd a03d 5e3d 5d38 ae3c c3a8 b7bb
000001a0: 1368 9cbc 775b 17bd f1cc 1d3d d1d8 87bb
000001b0: 8f42 783d b617 293d b937 34bc 0149 873d
000001c0: 1399 763d d8bb 183d e421 0c3d 0905 583d
000001d0: b8a2 c0bc 2b4b 143d faf1 2e3d 3a5e de3c
000001e0: 8c40 43bd 831d 673d d7bc 8d3c 5300 8c3d
000001f0: 35f6 1e3d d8fe 023d 5a01 803c ed39 70bc
00000200: 63b7 2d3c 34bb dfbc c339 82bb f414 603d
00000210: daf7 1d3c 76a9 9aba 6383 66b9 ed6f 7b3c
00000220: 1e8b 223b 3a10 0f3d 6d83 18bd 19e8 2c3d
00000230: ff42 95bb 589a 0a3d 6226 b83c 0508 4739
00000240: cfd0 323d 77a2 ae3b e24e 03bd 4706 843d
00000250: 9e4d 8b3c abb4 1a3d e343 133d 0a3a 8e3b
00000260: 34ee 0ebd 1ffc a6bb ee73 96bd 90a8 443b
00000270: 2d2f 85bc 589a a6bc fa90 c6bc 68fa 6d3d
00000280: 0a62 1ebd 89ac 0d3d efc6 b4bc 9a89 213d
00000290: 3b8f 5fbd 45f3 a8bc ed26 8b3c be45 033d
000002a0: d17e 183b 66f6 12bd 1068 093c f89d 713d
000002b0: a343 743d c4b3 2d3d 4038 2ebd aca0 5f3c
000002c0: 9e44 bfbd 7481 a9bb 62c9 7fba 6684 83bd
000002d0: 9c59 10bd 8197 503d 593b 993c 4269 6e3d
000002e0: 6d9e 6c3c 03d0 0e3d 404f 233d 3689 8c3d
000002f0: f4a4 20bd 21ec 4b3b b48f dabc f8a4 9dbc

unstack3 f4 [192]
0.016939497 0.07850159 0.1138895 -0.023846626 0.0507127 0.11819357 0.050616223 0.032931276
-0.0051391455 0.06994549 0.05926056 0.015248783 -0.00959932 0.04096312 0.048879325 0.033429023
0.099567555 0.101493575 -0.021092493 -0.012701915 0.05755029 0.00046027428 0.09689894 0.047066268
0.024889717 0.088992134 0.05280814 0.10921644 0.06021241 0.123508334 -0.029996468 0.075863674
0.02692308 0.09515826 0.10036662 0.04184135 0.042334195 -0.0021347303 0.06534873 0.0466374
0.091899365 0.02170424 0.12930836 -0.0077287615 0.05310915 0.08178821 -0.0030009693 0.11064706
0.06981915 0.06876841 0.10693903 0.08874479 0.057543363 -0.015335542 0.07755873 0.055429507
-0.056303978 0.035238154 0.1277765 0.065744326 -0.00863372 0.063931495 0.034959804 0.057622474
0.05189826 0.012514206 0.0068770796 0.03682258 -0.0026848249 -0.04188768 -0.014529029 0.005077782
-0.011431809 -0.029549567 0.053499024 -0.008091648 0.01901968 0.015768219 0.036188047 -0.004774467
0.059631146 0.020089092 0.0376764 0.041591782 -0.0016943038 0.014469215 0.05079382 0.010419932
-0.0049594906 0.061125938 0.037018828 0.070206895 0.008033522 0.004713782 -0.016049152 -6.384654e-05
0.027171034 0.04286429 0.04046492 0.016667353 -0.04096271 0.05425799 0.02126711 -0.0056048348
-0.019092595 -0.036952462 0.038525525 -0.0041457196 0.06061035 0.041282378 -0.010999613 0.06605721
0.060204577 0.037288517 0.034212008 0.052739177 -0.02351509 0.0362045 0.042711236 0.02714454
-0.04766898 0.05642463 0.01730196 0.06835999 0.03880902 0.03198132 0.015625644 -0.014662248
0.011673738 -0.03447165 -0.003899121 0.053742435 0.020604152 0.0032806075 -0.003284117 0.015091764
-0.0071413796 0.020607283 -0.0398598 0.043742318 -0.008089744 0.02347502 0.035502367 0.0013023111
0.03758425 -0.0029935867 -0.03355731 0.065029815 0.019490857 0.0469156 0.033036068 -0.0057392875
-0.029012904 -0.007635982 -0.06443111 0.004998975 -0.0136464285 -0.021787075 -0.020001123 0.04724467
-0.03132721 0.030438349 -0.026303034 0.047456015 -0.056050975 -0.016621586 0.011928884 0.028131956
0.005028725 -0.043011487 0.020361463 0.050218783 0.068645604 0.025519917 -0.041038983 -0.0009363801
-0.064447135 -0.0021725683 0.0063054427 -0.037903514 -0.03663026 0.036345765 0.02600644 0.06729299
0.0094511965 0.050428513 0.048770756 0.059375156 -0.0474131 0.008503419 -0.0071522268 -0.0261728
00000000: b3c4 8a3c 71c5 a03d e63e e93d 005a c3bc
00000010: 1fb8 4f3d 780f f23d f552 4f3d f2e2 063d
00000020: 4766 a8bb 953f 8f3d 33bb 723d 08d6 793c
00000030: 7746 1dbc f2c8 273d b035 483d dfec 083d
00000040: 13ea cb3d dddb cf3d 2aca acbc b11b 50bc
00000050: dab9 6b3d f850 f139 f472 c63d 8fc8 403d
00000060: 85e5 cb3c 8241 b63d 594d 583d deac df3d
00000070: 4aa1 763d f0f1 fc3d 27bb f5bc 6a5e 9b3d
00000080: cb8d dc3c 55e2 c23d 048d cd3d d661 2b3d
00000090: 9f66 2d3d d5e6 0bbb 8ed5 853d dc06 3f3d
000000a0: bc35 bc3d 17cd b13c 6969 043e 8d41 fdbb
000000b0: fb88 593d 9480 a73d e9ab 44bb ed9a e23d
000000c0: 58fd 8e3d 74d6 8c3d da02 db3d d4bf b53d
000000d0: 97b2 6b3d ed41 7bbc 1dd7 9e3d 0d0a 633d
000000e0: 009f 66bd e255 103d d8d7 023e f6a4 863d
000000f0: 7274 0dbc 84ee 823d 0332 0f3d 8b05 6c3d
00000100: 4593 543d 6208 4d3c 2059 e13b 46d3 163d
00000110: e3f3 2fbb 6a92 2bbd 2a0b 6ebc 8663 a63b
00000120: 7b4c 3bbc ef11 f2bc cb21 5b3d d592 04bc
00000130: 29cf 9b3c 5a2c 813c eb39 143d 2273 9cbb
00000140: ca3f 743d e191 a43c 9252 1a3d 255c 2a3d
00000150: 6713 deba 4910 6d3c 2e0d 503d 5db8 2a3c
00000160: 3983 a2bb 315f 7a3d 0ea1 173d a2c8 8f3d
00000170: 099f 033c 1276 9a3b 8379 83bc 5ae5 85b8
00000180: ca95 de3c 7792 2f3d 8bbe 253d f989 883c
00000190: 84c8 27bd a03d 5e3d 5d38 ae3c c3a8 b7bb
000001a0: 1368 9cbc 775b 17bd f1cc 1d3d d1d8 87bb
000001b0: 8f42 783d b617 293d b937 34bc 0149 873d
000001c0: 1399 763d d8bb 183d e421 0c3d 0905 583d
000001d0: b8a2 c0bc 2b4b 143d faf1 2e3d 3a5e de3c
000001e0: 8c40 43bd 831d 673d d7bc 8d3c 5300 8c3d
000001f0: 35f6 1e3d d8fe 023d 5a01 803c ed39 70bc
00000200: 3543 3f3c 2532 0dbd 6588 7fbb 0721 5c3d
00000210: 0aca a83c 76ff 563b 573a 57bb 7243 773c
00000220: 3c02 eabb 9bd0 a83c 0844 23bd 252b 333d
00000230: d88a 04bc af4e c03c ee6a 113d 4fb2 aa3a
00000240: f1f1 193d 0d30 44bb 6473 09bd 5a2e 853d
00000250: 4aab 9f3c 922a 403d d450 073d a210 bcbb
00000260: 78ac edbc 4237 fabb 75f4 83bd 71ce a33b
00000270: 4595 5fbc cf7a b2bc 65d9 a3bc a183 413d
00000280: f650 00bd d859 f93c 7679 d7bc 3d61 423d
00000290: b595 65bd fe29 88bc 5e71 433c fd74 e63c
000002a0: 01c8 a43b d02c 30bd 15cd a63c 36b2 4d3d
000002b0: 1196 8c3d 250f d13c 7e18 28bd 6877 75ba
000002c0: dcfc 83bd a661 0ebb e39d ce3b b740 1bbd
000002d0: 9d09 16bd 4cdf 143d 750b d53c e8d0 893d
000002e0: 31d9 1a3c 218e 4e3d d8c3 473d 5d33 733d
000002f0: 3d34 42bd ed51 0b3c 3a5d eabb 5768 d6bc

sequential_10/dense_18/MatMul f4 [64, 64]
-0.0064685764 0.041668322 0.018719979 -0.09753749 0.21733858 -0.019262757 0.075286485 -0.2580872
-0.22092886 -0.14374892 -0.12124687 -0.020008137 -0.21347363 -0.16171287 0.12656423 0.12826945
-0.008667937 -0.23999578 -0.042144 -0.14355354 -0.015998315 0.023288146 -0.14583215 0.25108427
0.012548339 0.18889055 0.027429147 -0.20379852 0.108227775 0.047222603 -0.23547804 0.014319292
-0.08075916 0.0313842 -0.014447664 0.080602854 0.021477481 -0.007468708 -0.20584153 0.20413691
0.053584617 0.14626136 0.05503669 0.19042888 -0.10407497 0.08791053 0.15191707 0.13853624
0.22705269 -0.15790495 0.14656869 0.21114126 0.03719347 0.13131912 0.0097282715 0.18366258
0.11301105 -0.0075423336 0.16934127 -0.19041158 0.119502455 0.24840242 0.14203206 0.0750726
-0.2067348 0.06791852 0.006231352 0.0038014578 0.22571549 -0.106182344 -0.014417397 -0.1372198
-0.044392873 0.1817533 -0.20994349 -0.0021444927 -0.14269891 0.08352593 0.19675706 0.15355468
-0.095060535 0.017049106 -0.19168319 0.118936904 -0.14059909 0.17158097 -0.14496642 -0.19296841
0.14700252 -0.09250854 -0.04019564 -0.20058537 0.13324691 -0.2318966 -0.030022744 0.09755823
0.0376229 -0.2006267 -0.24514343 0.10120815 0.04289194 0.17253655 -0.2555768 0.108300544
0.06823297 0.17012553 -0.10741832 0.033833973 0.08554671 0.10893798 0.050742436 -0.18881825
0.014620269 0.20674022 -0.28254274 -0.02734147 -0.08678276 0.06560998 0.06047623 0.23745999
0.07180186 0.0002261191 -0.09761289 0.2011589 -0.13901688 -0.0823225 0.21393906 -0.07154112
-0.114048935 -0.15773274 -0.15790777 -0.15541363 -0.20254917 0.0032885794 -0.009800944 0.0371725
0.01407248 -0.14263763 0.03543936 0.16067754 0.01707457 -0.11609692 -0.15704544 0.02205285
-0.12816846 -0.19463529 -0.10437999 0.058080517 0.0045408737 0.16215074 0.035195727 0.1925675
0.1761367 0.0899 0.083808765 0.054768737 0.14584078 -0.11972428 -0.022304397 0.01320934
0.035416808 0.041866936 -0.056118734 0.23483124 -0.04994446 -0.19847672 -0.18692936 -0.20288835
0.08289942 -0.030225407 0.12788689 0.16912569 0.0909159 0.08391153 -0.17382167 0.15226857
0.045413125 0.17442729 0.1946829 -0.18406264 0.14704669 -0.1768517 -0.11015893 0.12854217
-0.13870803 0.14486133 0.029926611 0.22484607 0.12707005 0.0906664 -0.020490322 -0.0043338407
0.18086523 -0.036381487 -0.19700697 0.101315945 -0.016600618 -0.12365789 -0.087526016 0.14256665
0.17798209 0.09839438 -0.14547533 0.03740123 0.00456821 -0.094128944 -0.18095586 0.11384315
-0.023651775 0.117139414 -0.16479857 -0.22929487 0.057529315 -0.088167466 0.15940063 0.1860616
0.052501757 -0.1440235 -0.13673143 0.05616837 -0.030562056 0.08571576 0.25339872 0.16535981
-0.08770283 0.13595757 -0.080798864 -0.14104688 0.011726284 0.031734694 -0.095702566 0.17891896
0.017309025 -0.12592414 -0.06851905 -0.032407615 0.04761709 0.042521082 -0.15143828 -0.015682671
0.14890514 0.09271028 0.14462535 -0.029986141 -0.050375428 0.09726039 -0.110432625 -0.07385162
0.21110941 0.22695589 0.24341138 -0.01881323 0.18652831 -0.07190886 -0.15082413 0.05403079
00000000: 5af6 d3bb 67ac 2a3d a45a 993c bcc1 c7bd
00000010: 018e 5e3e eecc 9dbc cd2f 9a3d 0124 84be
00000020: 2d3b 62be eb32 13be 4750 f8bd 1be8 a3bc
00000030: d598 5abe 0f98 25be 0e9a 013e 1159 033e
00000040: f603 0ebc 74c1 75be 309f 2cbd b3ff 12be
00000050: e60e 83bc c8c6 be3c 0655 15be 1e8e 803e
00000060: 8c97 4d3c 866c 413e 17b3 e03c 8fb0 50be
00000070: 86a6 dd3d 7d6c 413d 2821 71be 779b 6a3c
00000080: 0f65 a5bd b88c 003d e5b5 6cbc 1c13 a53d
00000090: 8bf1 af3c 10bc f4bb 1fc8 52be 4409 513e
000000a0: 8b7b 5b3d 8ac5 153e 276e 613d caff 423e
000000b0: 4225 d5bd 700a b43d 2690 1b3e 72dc 0d3e
000000c0: 8080 683e d6b1 21be 1a16 163e 6a35 583e
000000d0: 2e58 183d 8578 063e 5463 1f3c 0b12 3c3e
000000e0: 5672 e73d ae25 f7bb cc67 2d3e 41fb 42be
000000f0: b4bd f43d 345d 7e3e da70 113e aabf 993d
00000100: 4ab2 53be dd18 8b3d 5f30 cc3b e121 793b
00000110: f621 673e 2176 d9bd f236 6cbc 5983 0cbe
00000120: 4dd5 35bd 891d 3a3e 6dfb 56be 9e8a 0cbb
00000130: aa1f 12be a50f ab3d af7a 493e 703d 1d3e
00000140: 19af c2bd 91aa 8b3c 9948 44be 3195 f33d
00000150: 35f9 0fbe ecb2 2f3e 1472 14be 8399 45be
00000160: d487 163e 1e75 bdbd 2fa4 24bd 4066 4dbe
00000170: e171 083e 4d76 6dbe 42f2 f5bc 9ccc c73d
00000180: 781a 1a3d 1671 4dbe e106 7bbe 3846 cf3d
00000190: 75af 2f3d 6cad 303e f6da 82be adcc dd3d
000001a0: babd 8b3d 6335 2e3e 23fe dbbd 7e95 0a3d
000001b0: 1d33 af3d e01a df3d 4dd7 4f3d 9259 41be
000001c0: da89 6f3c b5b3 533e 71a9 90be 38fb dfbc
000001d0: 29bb b1bd 865e 863d ecb5 773d b628 733e
000001e0: db0c 933d 621a 6d39 44e9 c7bd 99fc 4d3e
000001f0: 715a 0ebe b398 a8bd d712 5b3e 2784 92bd
00000200: 7d92 e9bd b184 21be 93b2 21be c024 1fbe
00000210: 0d69 4fbe 3585 573b 2394 20bc 3142 183d
00000220: 4290 663c 990f 12be dd28 113d a788 243e
00000230: f8df 8b3c 39c4 edbd 85d0 20be 2ea8 b43c
00000240: 983e 03be 794e 47be 2dc5 d5bd d6e5 6d3d
00000250: 9ccb 943b d80a 263e 6529 103d 6a30 453e
00000260: 2e5d 343e 7e1d b83d eea3 ab3d 2f55 603d
00000270: 4957 153e 0132 f5bd b6b7 b6bc fd6b 583c
00000280: 3711 113d aa7c 2b3d c2dc 65bd 9a77 703e
00000290: 9092 4cbd 7b3d 4bbe 696a 3fbe f7c1 4fbe
000002a0: 2cc7 a93d 469b f7bc c8f4 023e 492f 2d3e
000002b0: 1e32 ba3d cfd9 ab3d 4ffe 31be 4bec 1b3e
000002c0: 1d03 3a3d 119d 323e f45a 473e eb7a 3cbe
000002d0: 6893 163e 9d18 35be 019b e1bd 8fa0 033e
000002e0: 7a09 0ebe 8756 143e a728 f53c 0c3e 663e
000002f0: a71e 023e 4eaf b93d 52db a7bc e402 8ebb
00000300: bc34 393e c104 15bd 32bc 49be bc7e cf3d
00000310: 05fe 87bc 5940 fdbd d740 b3bd fefc 113e
00000320: f040 363e fe82 c93d 7cf7 14be 0832 193d
00000330: ecb0 953b adc6 c0bd 7e4c 39be 9926 e93d
00000340: 5ec1 c1bc cae6 ef3d f5c0 28be 46cc 6abe
00000350: dca3 6b3d 2591 b4bd eb39 233e ef86 3e3e
00000360: 150c 573d e57a 13be 5303 0cbe ce10 663d
00000370: 475d fabc bf8b af3d 7abd 813e 1554 293e
00000380: 8b9d b3bd 7638 0b3e e079 a5bd 986e 10be
00000390: 9a1f 403c 3dfc 013d b5ff c3bd 8836 373e
000003a0: a8cb 8d3c 42f2 00be b753 8cbd d9bd 04bd
000003b0: 230a 433d 962a 2e3d a312 1bbe f278 80bc
000003c0: 977a 183e e3de bd3d ab18 143e 7fa5 f5bc
000003d0: 7756 4ebd 7530 c73d 802a e2bd 853f 97bd
000003e0: 112d 583e 2067 683e d540 793e 341e 9abc
000003f0: 4701 3f3e f444 93bd a471 1abe 644f 5d3d

sequential_10/dense_19/MatMul f4 [32, 64]
0.05676864 0.2852645 -0.003027337 0.04943187 0.03561257 -0.10031446 -0.13007914 0.054514118
0.12539549 -0.06667535 0.1221284 -0.071853094 -0.1977963 -0.024308978 -0.24077271 0.124269284
-0.07400014 -0.0939587 0.12440543 -0.024173882 0.22945023 0.2570018 -0.10576732 -0.24588002
0.033186562 0.11033697 0.057303123 0.26492667 0.13759941 0.04619128 -0.12224027 -0.121692896
-0.18028565 0.035446852 -0.0042469637 0.20763446 0.08591621 -0.2799496 0.23038898 -0.2504032
0.22158937 -0.012844054 0.11819001 0.10987077 0.20378877 -0.12271941 0.21386923 0.03446475
0.17049924 -0.23386332 0.16973597 0.25234663 0.056742955 0.10765237 0.05601929 -0.17684224
-0.26809123 -0.25787768 0.23901048 0.05062837 0.09173694 0.08772094 -0.13318959 0.043949936
0.17051065 -0.23924617 0.21226555 0.1397485 0.20922394 -0.20712526 0.12113813 -0.16724221
-0.04830092 -0.18858354 -0.019172095 0.14923064 0.07313524 0.13354108 0.22576217 -0.11419957
0.17873116 0.11264417 0.085614495 -0.061966613 -0.21576698 -0.03696754 0.12402897 0.2668137
-0.15861498 -0.10394398 0.033197533 0.037165783 0.25724977 -0.17938042 -0.07229714 0.16033573
0.08616793 0.065777645 0.05184251 0.050484598 -0.14506339 -0.12378289 -0.13596871 0.06866234
0.26138994 0.047820535 0.021798857 0.09650445 0.19637737 0.27783188 -0.061853547 -0.05313344
0.22652188 0.09326787 0.15903094 -0.117474854 -0.1771684 0.22939014 0.020123582 -0.12634577
0.08729465 -0.17492813 -0.0231544 0.23771094 -0.03406298 0.2444415 -0.21684398 -0.20161238
-0.034948006 -0.24457124 0.09957966 0.13195363 0.19688974 -0.076530024 0.0615466 -0.26521787
-0.21187799 0.18578102 0.03896524 -0.2598383 0.08723979 0.14804545 -0.06533138 -0.27314824
-0.21746829 -0.123945124 0.025856515 0.14249937 0.103805035 -0.25241306 0.09359038 -0.10081895
-0.1394463 -0.28656894 0.12737328 0.056510378 -0.06954101 -0.11627761 -0.121189766 -0.17331684
-0.1372938 -0.22664304 0.21836662 0.11280755 0.12364505 -0.24327247 -0.053550273 -0.15688334
0.18401437 -0.16528054 0.09662438 0.08986086 -0.17604707 0.09074523 -0.05841074 -0.02151821
0.012935285 0.050070107 0.0047846003 0.21257976 0.21324758 0.12643704 0.07958667 0.16756456
-0.063011974 0.09116071 0.0017114922 0.09015487 -0.2528747 0.08823365 -0.11719712 -0.110412136
0.119830966 -0.28134698 -0.22182901 -0.06653894 -0.15017061 -0.00053159124 -0.1432236 -0.20621726
-0.21039557 -0.0037730243 0.14055051 -0.17394522 0.17676003 0.22986987 -0.14410445 -0.1116603
0.016814167 0.041782822 0.101869434 -0.29356965 0.19670169 0.007886503 -0.13953368 0.16232756
-0.11635398 0.2077311 0.20858572 0.18626757 0.12407866 -0.14886376 -0.08453689 0.199285
0.22518419 -0.0015571241 -0.18717045 0.15824877 0.2418525 0.16969176 0.085453086 -0.2117131
0.1948402 -0.20437588 -0.12712449 -0.0913836 -0.0017866642 0.13827735 0.059951007 -0.18586169
-0.013645248 0.17038035 0.078901865 -0.24376899 -0.08811094 0.047252756 0.084440745 -0.16014007
-0.055936363 -0.2321191 -0.22835411 0.016748141 0.08782848 0.0066266344 -0.25277233 -0.21256682
00000000: 3c86 683d 300e 923e 4966 46bb 1379 4a3d
00000010: 7cde 113d ab71 cdbd 7733 05be 324a 5f3d
00000020: ad67 003e 168d 88bd 741e fa3d b727 93bd
00000030: 1d8b 4abe 9f23 c7bc 1f8d 76be e580 fe3d
00000040: 638d 97bd 6b6d c0bd 46c8 fe3d 4e08 c6bc
00000050: 00f5 6a3e bd95 833e 899c d8bd f9c7 7bbe
00000060: a2ee 073d 59f8 e13d aeb6 6a3d 78a4 873e
00000070: dce6 0c3e 1133 3d3d 1b59 fabd 203a f9bd
00000080: cd9c 38be b830 113d 1d2a 8bbb 219e 543e
00000090: d7f4 af3d 8e55 8fbe 17eb 6b3e d934 80be
000000a0: 53e8 623e de6f 52bc 9b0d f23d ed03 e13d
000000b0: 01ae 503e 5054 fbbd 8900 5b3e e92a 0d3d
000000c0: 5a97 2e3e de79 6fbe 44cf 2d3e 9433 813e
000000d0: 4d6b 683d d978 dc3d 7c74 653d 2216 35be
000000e0: 4143 89be 8b08 84be 2abf 743e b25f 4f3d
000000f0: 94e0 bb3d 09a7 b33d da62 08be d904 343d
00000100: 589a 2e3e f3fc 74be 245c 593e 3b1a 0f3e
00000110: cd3e 563e a518 54be 4517 f83d 8b41 2bbe
00000120: 2fd7 45bd 0b1c 41be cc0e 9dbc ebcf 183e
00000130: eec7 953d febe 083e 332e 673e 77e1 e9bd
00000140: 4d05 373e fdb1 e63d a756 af3d b4d0 7dbd
00000150: 05f2 5cbe 466b 17bd e702 fe3d ce9b 883e
00000160: f76b 22be 95e0 d4bd 23fa 073d 263b 183d
00000170: 3eb6 833e 80af 37be 8610 94bd 0d2f 243e
00000180: d078 b03d 6eb6 863d d058 543d f0c8 4e3d
00000190: 7f8b 14be e281 fdbd 623b 0bbe d79e 8c3d
000001a0: e7d4 853e 77df 433d 8493 b23c 20a4 c53d
000001b0: 2617 493e fb3f 8e3e 255a 7dbd 73a2 59bd
000001c0: 5af5 673e 3a03 bf3d 02d9 223e a896 f0bd
000001d0: a26b 35be 40e5 6a3e 36da a43c c960 01be
000001e0: 8ac7 b23d 5c20 33be 4cae bdbc 7f6a 733e
000001f0: a085 0bbd df4e 7a3e 590c 5ebe 7a73 4ebe
00000200: a425 0fbd e270 7abe 6cf0 cb3d da1e 073e
00000210: 779d 493e c6bb 9cbd 4a18 7c3d a3ca 87be
00000220: 8bf6 58be 613d 3e3e 049a 1f3d 8709 85be
00000230: c6aa b23d 3a99 173e 75cc 85bd 16da 8bbe
00000240: 02b0 5ebe f1d6 fdbd 0bd1 d33c 5beb 113e
00000250: bc97 d43d 493c 81be 50ac bf3d 2a7a cebd
00000260: 03cb 0ebe 2ab9 92be 246e 023e 6d77 673d
00000270: 846b 8ebd f522 eebd 5732 f8bd f879 31be
00000280: bf96 0cbe 1d15 68be 809b 5f3e a507 e73d
00000290: 9e39 fd3d 6b1c 79be 8857 5bbd 07a6 20be
000002a0: 436e 3c3e 4d3f 29be 01e3 c53d f808 b83d
000002b0: af45 34be a3d8 b93d 1a40 6fbd f546 b0bc
000002c0: 85ee 533c 5016 4d3d 23c8 9c3b 82ae 593e
000002d0: 935d 5a3e b678 013e 56fe a23d 0b96 2b3e
000002e0: 6c0c 81bd 77b2 ba3d 2654 e03a 1ea3 b83d
000002f0: cb78 81be d8b3 b43d 0b05 f0bd c21f e2bd
00000300: f069 f53d b60c 90be 2527 63be 9145 88bd
00000310: 53c6 19be 7c5a 0bba 35a9 12be 9e2a 53be
00000320: f071 57be d844 77bb 79ec 0f3e b21e 32be
00000330: 9500 353e 0263 6b3e 1e90 13be 28ae e4bd
00000340: ddbd 893c 7724 2b3d eca0 d03d c34e 96be
00000350: 2b6c 493e 6436 013c ebe1 0ebe 3239 263e
00000360: ff4a eebd 76b7 543e 7f97 553e edbc 3e3e
00000370: f41c fe3d be6f 18be ad21 adbd 5e11 4c3e
00000380: af96 663e 6a18 ccba 9ca9 3fbe f70b 223e
00000390: 2fa8 773e adc3 2d3e 0702 af3d 52cb 58be
000003a0: 3084 473e e947 51be ec2c 02be 5327 bbbd
000003b0: 812e eaba 9498 0d3e 308f 753d 8752 3ebe
000003c0: 5190 5fbc 3078 2e3e 4d97 a13d 949e 79be
000003d0: 8273 b4bd 1b8c 413d 45ef ac3d c2fb 23be
000003e0: 871d 65bd a1b0 6dbe a9d5 69be 6633 893c
000003f0: 6bdf b33d 3d24 d93b 606b 81be 1eab 59be

sequential_10/dense_20/MatMul f4 [18, 32]
-0.22849527 0.09886732 0.13103813 -0.18550453 0.12556188 -0.32306203 0.09887549 -0.43249354
-0.13724227 0.114779785 -0.37454417 -0.40480927 -0.045082822 -0.13136598 0.019708613 0.12879789
-0.45713413 0.14853717 -0.3994464 0.105359755 0.037754457 0.26693735 -0.19458002 -0.25312534
-0.2933691 0.18000989 0.06627601 0.07185121 0.22765228 -0.19438367 -0.090778284 -0.27095598
-0.16454281 -0.1856516 -0.2886285 -0.30004933 0.34333557 0.13518968 0.09605219 0.11816572
-0.2710239 0.06745275 0.06231387 -0.047865607 0.22505133 0.10765702 -0.04036981 -0.32417914
-0.17122969 -0.3110294 0.13586186 -0.052725345 -0.24267519 0.18125014 0.11495317 -0.114924096
0.30727014 -0.25707132 -0.15489256 -0.3297818 -0.11959049 0.14416312 -0.14492528 -0.13850255
0.065618664 -0.18255785 0.28889108 0.03464918 -0.062060677 -0.2902087 -0.09782405 -0.29583156
-0.16988327 -0.29039305 -0.16324213 -0.096911035 -0.29580766 0.038096286 -0.23184161 -0.074418016
-0.29154184 -0.37054187 0.11885486 0.081485026 0.030252522 -0.24479343 0.22425826 -0.3201836
-0.36953777 -0.28712893 -0.22763056 0.07199447 -0.006514283 0.18744102 -0.18195623 0.17810893
0.258054 0.017355917 -0.3504462 -0.22110197 0.18763113 0.29041675 0.07692636 -0.13833323
-0.15359488 0.016291175 -0.21571618 -0.21507643 0.07623514 -0.10604822 0.15458158 0.27461025
-0.17107396 -0.13667488 -0.0984166 -0.049055483 -0.25715363 0.16246621 -0.1556739 -0.2573628
0.06795952 -0.19894207 -0.27085936 -0.12059796 -0.22255804 -0.22614929 -0.16450916 -0.3646965
-0.2604208 -0.073119536 -0.26043168 0.2157554 -0.43915728 -0.35142484 0.2842489 0.15748855
-0.046670645 -0.018262113 0.16435967 -0.095448785 -0.30727726 -0.15924308 -0.25822023 -0.5613267
-0.07522541 0.36647555 0.07262994 0.07011206 -0.0983106 0.0789629 0.0488811 -0.2888742
0.37772343 0.31903744 0.4095456 -0.23920342 -0.02428185 -0.25058293 0.017850881 -0.16170874
0.35215506 0.01698277 -0.32118112 0.04742293 -0.4246516 -0.003257839 -0.14963757 0.008896447
0.08777933 0.18107943 0.33407673 0.38297975 -0.331449 0.28832227 -0.11069535 -0.3051534
0.203517 0.32521775 0.18090604 -0.07993022 -0.22848149 -0.18990147 -0.3411271 -0.48268974
-0.25042364 0.086026795 -0.10296392 0.25281218 -0.05998175 -0.3136838 -0.19350018 -0.5026308
0.15164898 -0.27599365 0.22546531 -0.17681143 -0.28435302 -0.3912494 -0.042032346 0.08031426
-0.13972592 -0.23571612 -0.37086728 0.14573723 0.35302836 0.2173917 0.3146928 -0.20256634
0.042234767 -0.12306253 0.21459769 0.37269327 -0.38846517 -0.3589141 -0.34071216 0.043711264
-0.25811297 -0.37503636 0.11239151 0.0824432 0.40365884 -0.4304234 -0.017248372 -0.16032068
-0.17459479 0.15623632 -0.16518511 0.26416972 -0.50399756 -0.46059582 0.120681055 0.24090418
0.08977204 -0.14297763 0.02289815 0.076059625 -0.24064593 0.037140667 0.25877413 -0.20695005
-0.14188492 -0.056242004 -0.12258891 0.14402997 -0.35521802 -0.21618755 -0.41278857 0.15006743
0.044216026 -0.087157086 -0.3526888 -0.05287166 0.281288 -0.19106121 -0.37727848 0.33768955
00000000: aafa 69be f37a ca3d dc2e 063e e6f4 3dbe
00000010: 4b93 003e 6368 a5be 3c7f ca3d cb6f ddbe
00000020: 3d89 0cbe aa11 eb3d 41c4 bfbe 2943 cfbe
00000030: c4a8 38bd ce84 06be f573 a13c 98e3 033e
00000040: 7c0d eabe 211a 183e 3d84 ccbe dbc6 d73d
00000050: 6ba4 1a3d 03ac 883e fc3f 47be a599 81be
00000060: 7a34 96be 8354 383e b7bb 873d ba26 933d
00000070: ae1d 693e 830c 47be f7e9 b9bd beba 8abe
00000080: e97d 28be 741b 3ebe 1dc7 93be 11a0 99be
00000090: aec9 af3e 2a6f 0a3e 03b7 c43d de00 f23d
000000a0: a5c3 8abe ab24 8a3d d43c 7f3d ba0e 44bd
000000b0: db73 663e 497b dc3d d05a 25bd cffa a5be
000000c0: d656 2fbe 3f3f 9fbe 5f1f 0b3e 88f6 57bd
000000d0: d87f 78be a399 393e 916c eb3d 535d ebbd
000000e0: 8352 9d3e da9e 83be 289c 1ebe 29d9 a8be
000000f0: dceb f4bd 7f9f 133e 4b67 14be 9dd3 0dbe
00000100: 1463 863d 72f0 3abe 88e9 933e 4cec 0d3d
00000110: 5633 7ebd 3c96 94be fa57 c8bd 3c77 97be
00000120: e1f5 2dbe 66ae 94be f228 27be 4b79 c6bd
00000130: 1a74 97be da0a 1c3d e367 6dbe 7968 98bd
00000140: f944 95be aab7 bdbe 2d6a f33d 9fe1 a63d
00000150: 23d4 f73c 21ab 7abe f5a3 653e 1bef a3be
00000160: 0e34 bdbe 9002 93be fc17 69be d671 933d
00000170: c475 d5bb 8af0 3f3e bc52 3abe 3062 363e
00000180: a71f 843e ff2d 8e3c af6d b3be 8e68 62be
00000190: 6022 403e 81b1 943e 918b 9d3d 3aa7 0dbe
000001a0: fa47 1dbe 1275 853c b4e4 5cbe ff3c 5cbe
000001b0: 2b21 9c3d cf2f d9bd a24a 1e3e b799 8c3e
000001c0: 032e 2fbe 80f4 0bbe a48e c9bd 67ee 48bd
000001d0: a4a9 83be 8b5d 263e fb68 1fbe 0fc5 83be
000001e0: 5c2e 8b3d 78b7 4bbe 14ae 8abe 10fc f6bd
000001f0: 41e6 63be ae93 67be 1775 28be 80b9 babe
00000200: e055 85be b2bf 95bd 4d57 85be fcee 5c3e
00000210: 39d9 e0be f5ed b3be 1289 913e ae44 213e
00000220: b829 3fbd 6d9a 95bc e74d 283e a77a c3bd
00000230: 7253 9dbe 9e10 23be 7135 84be 1bb3 0fbf
00000240: c80f 9abd afa2 bb3e 02bf 943d e996 8f3d
00000250: 1157 c9bd 4db7 a13d 8c37 483d 52e7 93be
00000260: f764 c13e e058 a33e f6af d13e bef1 74be
00000270: bbea c6bc 684c 80be 033c 923c fa96 25be
00000280: ab4d b43e 731f 8b3c da71 a4be 8c3e 423d
00000290: ef6b d9be 7881 55bb 973a 19be 67c2 113c
000002a0: a6c5 b33d e36c 393e 1b0c ab3e ec15 c43e
000002b0: afb3 a9be fa9e 933e 3eb4 e2bd 113d 9cbe
000002c0: c366 503e f182 a63e 6f3f 393e 75b2 a3bd
000002d0: 0df7 69be 8875 42be 36a8 aebe 1c23 f7be
000002e0: 8737 80be d12e b03d bfde d2bd 9970 813e
000002f0: 6caf 75bd 2a9b a0be e924 46be 69ac 00bf
00000300: df49 1b3e 0a4f 8dbe 61e0 663e 0e0e 35be
00000310: b896 91be d751 c8be 1c2a 2cbd ce7b a43d
00000320: 5014 0fbe 915f 71be 51e2 bdbe 243c 153e
00000330: 22c0 b43e ee9b 5e3e 6a1f a13e 8d6d 4fbe
00000340: 5dfe 2c3d 3508 fcbd 7fbf 5b3e a7d1 be3e
00000350: e8e4 c6be 97c3 b7be d371 aebe 950a 333d
00000360: 6227 84be c404 c0be 852d e63d fbd7 a83d
00000370: 5fac ce3e 7560 dcbe 754c 8dbc 1b2b 24be
00000380: fac8 32be 6afc 1f3e 4926 29be 4141 873e
00000390: fc05 01bf 37d3 ebbe a127 f73d 96af 763e
000003a0: 67da b73d ba68 12be e794 bb3c 26c5 9b3d
000003b0: e36b 76be d020 183d 0b7e 843e b7ea 53be
000003c0: 484a 11be 045e 66bd e50f fbbd 987c 133e
000003d0: 23df b5be 4560 5dbe 0659 d3be 47ab 193e
000003e0: dd1b 353d 6a7f b2bd a093 b4be f48f 58bd
000003f0: fb04 903e 8da5 43be a52a c1be a5e5 ac3e

unstack4 f4 [384]
-0.08173029 -0.07866453 0.077897586 -0.05533898 -0.074801706 -0.021220353 -0.13229379 -0.12079663
-0.102164656 -0.060492415 -0.051398262 -0.036511615 -0.09485525 -0.04403813 -0.07695557 0.14694887
-0.12424237 0.04881363 -0.10663812 -0.042184964 -0.06638538 -0.025792211 0.009043438 -0.08086139
-0.05066252 -0.12082216 -0.048365954 -0.02729107 -0.054583423 0.086055696 0.04129677 -0.05701137
-0.059077214 -0.015729846 0.019017987 -0.07842927 -0.026456613 -0.07386955 -0.0016698204 -0.104071274
-0.05325011 0.0718992 0.046026606 -0.07986607 -0.098727636 -0.115152664 -0.0043159355 -0.1289142
-0.013052405 -0.074336864 0.042856324 0.04722404 -0.047559317 -0.022869 -0.11362999 -0.0097480705
-0.009599696 -0.07332772 -0.0008640242 -0.015880983 -0.122920856 -0.03054527 -0.104436226 -0.050189238
-0.113284975 -0.057085913 -0.046755776 -0.08500938 -0.04498145 0.12234527 0.004541149 -0.102375545
0.086415604 0.049075384 -0.046244152 0.09541074 -0.11160761 -0.10247444 -0.02678246 -0.025638295
-0.04037371 -0.13270332 -0.10446865 -0.060120713 -0.09044882 -0.051868092 -0.084762596 -0.1123831
0.06435137 -0.036027644 0.057185166 -0.08404811 0.044536643 -0.12510535 -0.059738614 -0.019930633
-0.033080816 -0.051466458 0.112963624 -0.052905135 0.02978759 -0.102535106 -0.11984779 -0.10913937
-0.053071417 -0.006865668 -0.08894337 -0.10006233 -0.0469542 -0.06480927 -0.010436027 0.008162559
-0.0010495265 -0.03818551 0.015445 0.0009891037 -0.063127846 -0.02884147 -0.03638401 -0.1265206
0.0028133332 -0.07260248 0.020510258 -0.06873994 -0.12286803 -0.022189854 -0.08983864 -0.10494499
0.03501532 0.07692561 0.026882326 -0.033401236 0.028283963 -0.026548222 0.03595805 -0.0061566914
0.010013046 0.020882327 0.007866242 0.0118587045 0.011573743 -0.033777814 -0.011946534 0.022277147
0.019127226 0.0022210616 0.018537465 0.004341663 -0.002648585 0.0100194495 0.0012321767 0.00802736
0.0056974045 -0.018074019 -0.03819274 0.00022024741 0.021571666 0.08602181 0.019334171 0.046889767
-0.014652018 0.029143177 0.03503142 -0.0051837894 0.009493082 0.032188874 0.007961966 0.018508716
0.021382906 0.01731048 0.034636296 -0.009020166 -0.007936156 0.0076759364 0.026300127 -0.024459172
0.007892538 0.02565811 0.06715768 0.03401074 0.014970807 0.03779211 -0.0059993495 0.016233083
0.014713116 0.0477176 0.05208751 -0.006853331 0.035266783 0.01935389 -0.013105683 0.06391351
-0.00341871 0.008947334 0.031962693 0.0033632396 -0.0060118577 0.01605931 0.019697094 -0.015414442
0.041671846 0.017273137 0.022596069 0.013400775 0.014168568 0.107127815 -0.0144551825 -0.006902479
0.013404703 0.021339035 0.031293854 0.015878884 -0.012410005 -0.034043744 0.041832194 0.01564644
0.0072465143 0.017497927 0.009080825 0.0048961774 0.03067096 0.038291823 0.015129095 0.0073236255
0.0015281006 -0.002407481 0.01035793 0.022910716 0.020641541 0.023465091 0.010892664 0.042972483
-0.019011592 0.11301404 0.0012281056 -0.007941577 0.0005458589 0.0356199 0.0016105495 -0.0031927654
-0.0051682685 0.010594912 0.0008558716 0.022652602 0.027430868 -0.009290614 0.029227428 -0.027986074
-0.003141962 -0.011808748 0.006013029 -0.04687756 0.022370119 0.023213685 -0.002843531 0.015350245
00000000: 3662 a7bd de1a a1bd c588 9f3d 20ab 62bd
00000010: a331 99bd 4ed6 adbc 0678 07be 3964 f7bd
00000020: b43b d1bd e5c6 77bd fc86 52bd 348d 15bd
00000030: 7843 c2bd 5461 34bd e29a 9dbd c479 163e
00000040: c972 febd cdf0 473d 1665 dabd 24ca 2cbd
00000050: 0ff5 87bd 304a d3bc ee2a 143c a89a a5bd
00000060: 8183 4fbd 9c71 f7bd 611b 46bd 8691 dfbc
00000070: de92 5fbd f83d b03d cd26 293d c184 69bd
00000080: f3fa 71bd e1db 80bc 9ccb 9b3c 869f a0bd
00000090: 8abb d8bc eb48 97bd e0dd daba 5223 d5bd
000000a0: ca1c 5abd e33f 933d 6586 3c3d d290 a3bd
000000b0: b731 cabd 29d5 ebbd b16c 8dbb 1602 04be
000000c0: c1d9 55bc ed3d 98bd 1d8a 2f3d ff6d 413d
000000d0: 8fcd 42bd c557 bbbc d7b6 e8bd 5fb6 1fbc
000000e0: 0b48 1dbc d82c 96bd af7f 62ba d618 82bc
000000f0: eebd fbbd 133a fabc a9e2 d5bd 3b93 4dbd
00000100: f401 e8bd ebd2 69bd fc82 3fbd 6619 aebd
00000110: 783e 38bd 2890 fa3d ebcd 943b 45aa d1bd
00000120: aafa b03d 4503 493d 826a 3dbd b566 c33d
00000130: 8892 e4bd 1fde d1bd e466 dbbc 6707 d2bc
00000140: e75e 25bd 61e3 07be a9f3 d5bd 2341 76bd
00000150: 3b3d b9bd a373 54bd 0398 adbd 1c29 e6bd
00000160: a7ca 833d b991 13bd fe3a 6a3d 6a21 acbd
00000170: 0e6c 363d 9e1b 00be 7ab0 74bd 9145 a3bc
00000180: c07f 07bd 7ece 52bd 7959 e73d 0eb3 58bd
00000190: 1b05 f43c edfd d1bd c272 f5bd 7684 dfbd
000001a0: 6a61 59bd 66f9 e0bb f127 b6bd 7bed ccbd
000001b0: 0c53 40bd b9ba 84bd dffb 2abc 41bc 053c
000001c0: 4490 89ba 6968 1cbd 060d 7d3c d0a4 813a
000001d0: 2c49 81bd f244 ecbc 6607 15bd 9e8e 01be
000001e0: e65f 383b 9cb0 94bd 2105 a83c 87c7 8cbd
000001f0: 3ca2 fbbd 7fc7 b5bc 52fd b7bd 66ed d6bd
00000200: 396c 0f3d 2d8b 9d3d 5338 dc3c bccf 08bd
00000210: c5b3 e73c a87b d9bc c048 133d 12be c9bb
00000220: c20d 243c 6a11 ab3c 69e1 003c 034b 423c
00000230: cc9f 3d3c 9b5a 0abd 65bb 43bc 907e b63c
00000240: b3b0 9c3c 3b8f 113b e2db 973c 8244 8e3b
00000250: e293 2dbb 9e28 243c fd80 a13a 3085 033c
00000260: 4bb1 ba3b f70f 94bc fe6f 1cbd 37f2 6639
00000270: 10b7 b03c 342c b03d b262 9e3c 7c0f 403d
00000280: 050f 70bc acbd ee3c 1b7d 0f3d c7dc a9bb
00000290: df88 1b3c 7bd8 033d e872 023c 979f 973c
000002a0: 342b af3c b5ce 8d3c cade 0d3d 51c9 13bc
000002b0: a706 02bc 6c86 fb3b 5d73 d73c 9a5e c8bc
000002c0: b44f 013c f530 d23c f789 893d d94e 0b3d
000002d0: 1e48 753c e6cb 1a3d 3196 c4bb 3efb 843c
000002e0: 480f 713c 8873 433d b659 553d e891 e0bb
000002f0: e773 103d 0d8c 9e3c 38b9 56bc 16e5 823d
00000300: 700c 60bb d797 123c 50eb 023d cc69 5c3b
00000310: 1eff c4bb d08e 833c cd5b a13c db8c 7cbc
00000320: 19b0 2a3d 6580 8d3c 641b b93c ed8e 5b3c
00000330: 4823 683c d465 db3d 6ed5 6cbc 312e e2bb
00000340: 669f 5b3c 33cf ae3c fc2d 003d 6f14 823c
00000350: 5553 4bbc 7471 0bbd 3c58 2b3d f72c 803c
00000360: 2b74 ed3b d057 8f3c bec7 143c 1d70 a03b
00000370: aa41 fb3c e3d7 1c3d 06e0 773c 06fb ef3b
00000380: 8c4a c83a d4c6 1dbb 4fb4 293c 41af bb3c
00000390: 7318 a93c dd39 c03c 2577 323c ea03 303d
000003a0: 33be 9bbc e873 e73d 63f8 a03a 631d 02bc
000003b0: f817 0f3a 2ce6 113d 1319 d33a b73d 51bb
000003c0: 945a a9bb 4896 2d3c 925c 603a f391 b93c
000003d0: b3b6 e03c a937 18bc 5c6e ef3c 0d43 e5bc
000003e0: 60e9 4dbb 7b79 41bc f108 c53b af02 40bd
000003f0: 8a41 b73c a02a be3c 895a 3abb 987f 7b3c
