frontend/pdiot_app/assets/models/model_online.tflite (tflite, 949424 bytes, 28 tensors)

sequential/conv1d/BiasAdd/ReadVariableOp f4 [64]
00000000: c486 953e 2f48 35be acd3 abbe fc33 03be
00000010: 2edb 93be eed9 81bd 3a9e 97be 01b6 ecbd
00000020: 7c1e 2ebe c68d b9be 3514 223e b808 58be
00000030: 6ad4 8abe 294c 4dbe 8347 b4be a8ff 8bbd
00000040: c6de 93bd d081 8e3e 689b 75be 5ece 903d
00000050: 7c1f c03d 72c3 4dbe 8a5e ecbe 212c 8dbe
00000060: eb46 5abe 7eee fbbd da2b 38be 4e48 8ebe
00000070: 83d0 53be bd3f 1cbe e1c4 bf3d 116f f7bd
00000080: 3cb1 4dbe 425d 96bd ac28 9ebe e177 9b3c
00000090: 2c50 2ebe 316d 933c c9e8 563b e042 e4be
000000a0: 52ea 3dbe f1cb 0fbe a985 9dbe dde9 c3be
000000b0: 811b 2f3e beb1 26be 6da9 a53e c5c4 c8bd
000000c0: 19e7 30be ec03 80be b4b4 313e 4c9f 17bd
000000d0: 8a2f f6bd 374f a3be 7998 47be 924c 52be
000000e0: 2fb0 67be 7c81 07be cdf6 2fba c93f 1dbd
000000f0: 2cdb 5cbb 80a6 5cbe aaea 74bd bb7d 2dbe
0.2920438 -0.17703317 -0.3355993 -0.12812799 -0.28878158 -0.06340395 -0.29612905 -0.11558152
-0.17003816 -0.36240977 0.15828021 -0.21097076 -0.27115184 -0.20048584 -0.3521081 -0.06835872
-0.07220225 0.27833414 -0.23985064 0.070706114 0.09381005 -0.20094088 -0.46165878 -0.2757273
-0.21316116 -0.12301348 -0.17985478 -0.2778954 -0.2068501 -0.15258689 0.093637235 -0.12081731
-0.20087141 -0.07342006 -0.30890405 0.018978061 -0.1702277 0.017996402 0.003279256 -0.44582272
-0.18546417 -0.14042641 -0.30766037 -0.3826436 0.17100336 -0.16278741 0.32355824 -0.09803156
-0.17275657 -0.25002992 0.17354089 -0.03701715 -0.12020786 -0.31896374 -0.19491757 -0.20537022
-0.22625802 -0.13232988 -0.00067124964 -0.03839091 -0.0033699973 -0.2154789 -0.059794106 -0.16942494

sequential/conv1d_1/BiasAdd/ReadVariableOp f4 [64]
00000000: bf64 eabe 03f1 31be cdd2 21be e57b 183e
00000010: 30b6 4abd bf11 95bc c528 05be 4e6e 79be
00000020: b61c 65be d1d3 1dbd 7ead f4bd eb00 bcbd
00000030: 94d6 d43c 89eb 5bbe b3df 56be bc33 e33c
00000040: ba0d 25bc 4d2f 623e 30ab c0be 658a 5dbd
00000050: a9c3 05be 5b16 8fbe 3e1a 803d dc16 25be
00000060: 6f8f 13bd 5836 9ebd f554 92bc b51f a3bd
00000070: 4728 acbe 75f6 9dbe 4370 0cbe f037 9fbc
00000080: 6bb7 2dbe 9949 30be 4cc3 c0be d4a1 c1bc
00000090: 4455 49be 6a40 80bd 27fd fa3c 3d43 513e
000000a0: 774e d4bd 5470 ddbc 7a6d 783d 79ad 45be
000000b0: 11b6 aabd 700c 6ebd 186c 79bb a2e9 a4bd
000000c0: 693e f1bd 96f6 34be 0756 713d e9ed f9bd
000000d0: fcb0 94be 1b81 41be eabb fe3d 9581 e4be
000000e0: 6891 463e 70cd 533e 58b3 0c3d 87a9 0a3d
000000f0: 3cf0 15be 0f14 b43b 269f 74be 8f2c c23d
-0.45779988 -0.17377095 -0.1580307 0.14891012 -0.049490154 -0.018196939 -0.13003834 -0.24358484
-0.22374234 -0.038532082 -0.119471535 -0.091798626 0.025981225 -0.21476568 -0.20983772 0.02773463
-0.010074073 0.22088356 -0.37630606 -0.05408706 -0.1306292 -0.27946743 0.06255005 -0.16122001
-0.03602546 -0.07725209 -0.017862776 -0.07965032 -0.3362448 -0.30852094 -0.137147 -0.019435853
-0.169645 -0.17215575 -0.37649 -0.023636736 -0.19661433 -0.06262286 0.03063829 0.20435806
-0.103665285 -0.027031101 0.06065128 -0.19304456 -0.08335508 -0.05811733 -0.0038058814 -0.080523744
-0.11779482 -0.1767219 0.058919933 -0.12203581 -0.29041278 -0.18896906 0.124381855 -0.44630113
0.19391406 0.20683837 0.034350723 0.03385308 -0.14642423 0.0054955552 -0.23888835 0.09481155

sequential/conv1d_2/BiasAdd/ReadVariableOp f4 [128]
00000000: d6f2 bb3c e497 85be 0b25 633e d914 44bd
00000010: 9e42 23be 00d6 89bd 5532 00be 84b1 cbbd
00000020: 682c f4bd ce09 313d 146e 1fbe f360 26be
00000030: 6820 67be dea0 a83d 6f95 b53d 352c 113e
00000040: 3536 36be 0b03 1bbe 60d5 223e 1319 45be
00000050: 4cdb e1bd b5d4 f9bd d4e0 ccbd d8f0 063e
00000060: 0a6c 07be 565a 143d 1a2b 1c3e a678 803e
00000070: 2518 03be e039 233d 81a3 ccbd 5c7a 2a3c
00000080: 181b 8abd 9828 63be 0a01 9bbd 2af9 693d
00000090: cd08 01bd 1786 5dbd 45d1 b73c b415 a6bd
000000a0: c09c f93d 048f 723e 2a33 81bd 45b7 7cbe
000000b0: e978 2f3d ad53 9dbd d98d d43d e645 53bd
000000c0: 8bd3 4ebe be2c 8cbe b9c5 07bd e63b 8b3e
000000d0: 25c2 18bd 1967 55be 1227 bdbc 0058 ce3d
000000e0: 7cb4 3abc 6a49 33bd 6d9b 133e 0e6c 94bd
000000f0: ab1e 283e 2b50 7cbe 9886 5fbe 673e 76be
00000100: 6abd 3ebc e81c 7fbd 1518 2f3d fbc1 bcbd
00000110: 9cd7 8b3d d1da 02be d0ca 3f3e bcad e9bd
00000120: d105 d93d 6c13 ee3a 49d8 a7bd 0cf3 023e
00000130: 10b8 903e ae0b a63d 6cc9 dd3d 1103 58be
00000140: 0fbc 93bd 4812 b1bd 2f1b 34bd a99c 643e
00000150: 9bd2 b2bd 9409 c73c 7252 8dbe d71b d7bd
00000160: 28bc b3bc 26c6 92bd 949d 17be 481e b9bd
00000170: 963f dbbd 5c3e 96bd 23fb 55bd f3b5 7ebd
00000180: 862f 073d 6596 033c 7c7a adbd 6ce8 2bbe
00000190: 729d 523e ac7a 8abd b9cb d8bd efd3 653d
000001a0: 0e26 56bd cda9 853c c908 003b bd17 b33d
000001b0: 76ec 95bd f179 d9bd a8c4 79be 2632 25be
000001c0: be89 76be f082 12ba 9319 85be 1560 eebd
000001d0: b7c9 02be 233f 72be 07b3 b3bd aaf2 97bd
000001e0: 68b4 bdbd 996e 5bbd 4afd cdbd d59c 7cbd
000001f0: 81d0 01be 49b5 bfbb ca24 d7bb ecf9 a5bd
0.022942942 -0.26092446 0.221821 -0.047871444 -0.15943381 -0.067302704 -0.125192 -0.09945968
-0.11922532 0.04322224 -0.15569335 -0.1624792 -0.22570956 0.08233808 0.08866393 0.1417702
-0.17794116 -0.1513788 0.15901709 -0.19247846 -0.11028156 -0.12198774 -0.1000382 0.13177812
-0.13224807 0.036218964 0.15250817 0.25092047 -0.12802179 0.039850116 -0.099921234 0.010405149
-0.06743449 -0.22183454 -0.075685576 0.057122387 -0.031502534 -0.054082956 0.022438655 -0.08109608
0.12188101 0.23687369 -0.06308587 -0.24679287 0.04283992 -0.076819755 0.10378618 -0.051580332
-0.20197885 -0.27377886 -0.033147547 0.27194136 -0.037294526 -0.2084011 -0.02308992 0.100753784
-0.01139557 -0.043771185 0.14414759 -0.07247172 0.16417949 -0.24639957 -0.21828687 -0.24047242
-0.0116418395 -0.062283427 0.042747576 -0.09216686 0.068282336 -0.12778784 0.1872971 -0.1141009
0.105968125 0.0018163747 -0.0819555 0.12788028 0.2826543 0.081076965 0.10829434 -0.2109492
-0.07213604 -0.08646065 -0.043971237 0.22325386 -0.08731576 0.02429656 -0.27601963 -0.10503357
-0.021940306 -0.071667 -0.14806205 -0.09038979 -0.107054874 -0.07336113 -0.052241456 -0.06218524
0.033004306 0.008031462 -0.08470628 -0.1678788 0.20567873 -0.06761679 -0.10585732 0.05611032
-0.052282386 0.016316319 0.0019536486 0.08744762 -0.07320492 -0.106189616 -0.24391425 -0.16132411
-0.24075982 -0.0005588969 -0.25996074 -0.1163942 -0.1277226 -0.23656897 -0.08774381 -0.07419331
-0.092629254 -0.05357227 -0.10058077 -0.061673004 -0.12677194 -0.0058504683 -0.006565665 -0.081043094

sequential/conv1d_3/BiasAdd/ReadVariableOp f4 [128]
00000000: 062d 603d 231d d8bd 10da 3e3d 8d7f 033d
00000010: ad07 d5bd 0177 1c3d e4d0 f53c 5cba 123d
00000020: 98de c73d 387e 8dbd 20de 46bd 14ea 39bc
00000030: 68c5 b0bd 04b3 f33d 76fa 0abd a95f 2ebc
00000040: a545 6ebd bc4b 28be c160 093d cbf0 953d
00000050: 3bba 0e3e 65fa db3b be88 53bd 61db 6f3c
00000060: 663d b03d d7a2 0cbd b6c1 02bd baa8 003d
00000070: 0c1e ec3c c45f 1d3e a2b1 2ebd cfe3 d5bd
00000080: 74a9 0c3d 29a8 8dbd 3ad7 60bb 6385 1abe
00000090: be21 ac3c fd00 4bbd ba1d 1cbc 6891 e03d
000000a0: eedf bfbc dc2b acbd a123 883d 7a75 1e3e
000000b0: 1871 9d3d 72e9 5fbc c5ad 0f3c 23b5 ffbc
000000c0: 1c50 b63d 1706 24bd e59e 4abd 82c3 36bd
000000d0: 838f b9bd 9619 f83c 56b7 63bd 8a51 04be
000000e0: 9ca3 96be a02f d7bd 740c 053e 4e54 94b9
000000f0: 604c 4cbd 458d 9b3d d594 15be 52d0 b8bc
00000100: 5890 9ebd 2c35 07bd 9f77 93bd 001b d23d
00000110: 46b0 07bd 2852 f6bc 6c27 1bbd 51fb 09bb
00000120: 462a 20bd 016d ce3d c883 edbc 5ac8 a23d
00000130: 513d 633d d9ce 863d bbd3 f8bb 7ed2 8a3d
00000140: 8431 babd 403b 2e3e d03e 77bb 956b 3fbd
00000150: 94dc 9ebc 78bd 3a3e d3bb 7abd bda0 b73b
00000160: 0537 603d 453b fcbd a317 913a 46cc 483c
00000170: b715 0fbd eb45 8b3d d92b d5bd 8bb2 28bd
00000180: 780e 3b3c 031a 49bd 42ce 32bd 527d 7a3c
00000190: 5728 28be 8231 e1bc 546b 503d 0a29 f13d
000001a0: 7c07 8ebc bced 39bd aa6a 9fbd 9ba8 5f3d
000001b0: a67b 00bc 24a9 593d a410 003e 26d6 ca3b
000001c0: 7cbb c13d fbad 4dbc 48f8 7d3c 956c 31bd
000001d0: 4231 9b3d f6dc 82bd 80a1 5b3a 2465 743d
000001e0: 7db7 ad3a 558e 85bc 3dd2 443d b7b1 bcbd
000001f0: 7689 053d 2f90 903d 94a6 21bd e7b0 433b
0.054730438 -0.105524324 0.04659468 0.032104064 -0.10401855 0.03819943 0.030006833 0.035822257
0.09759253 -0.0690884 -0.04855168 -0.0113473125 -0.08631402 0.11899379 -0.033930264 -0.010642924
-0.058171887 -0.1643514 0.033539537 0.07321318 0.13938229 0.006713199 -0.05164408 0.014639706
0.08605461 -0.034334984 -0.03192302 0.03141091 0.028822921 0.15368563 -0.042649873 -0.10443842
0.03434129 -0.0691684 -0.0034307973 -0.15089945 0.021012183 -0.04956149 -0.009528572 0.10965234
-0.023422208 -0.08406803 0.06647421 0.15474501 0.076875865 -0.013666498 0.008769457 -0.031214302
0.089019984 -0.04004487 -0.04946794 -0.044620045 -0.09060576 0.030285638 -0.055594765 -0.1292173
-0.294217 -0.105071306 0.12993032 -0.00028291572 -0.049877524 0.075953044 -0.14607556 -0.022560272
-0.07742375 -0.033009693 -0.0720055 0.10259056 -0.03312709 -0.030068472 -0.037879393 -0.0021054337
-0.039102815 0.100793846 -0.028993502 0.0794837 0.055478398 0.06582422 -0.0075935996 0.067784294
-0.090914756 0.1701479 -0.0037726648 -0.046733458 -0.01939229 0.18236339 -0.06121428 0.0056038783
0.05473997 -0.12315992 0.0011069666 0.012255734 -0.03493282 0.06800445 -0.10408754 -0.041185897
0.011417024 -0.049097072 -0.043653734 0.015288668 -0.16421638 -0.027489427 0.050883606 0.11775406
-0.017337553 -0.045392737 -0.077840164 0.054604154 -0.00784198 0.05313982 0.12506348 0.0061900793
0.09459588 -0.012553687 0.015501089 -0.043316443 0.075777546 -0.06389801 0.00083782524 0.059666768
0.0013253536 -0.01630322 0.04805206 -0.09213584 0.032601796 0.07058751 -0.039465502 0.002986008

sequential/dense/MatMul;sequential/dense/Relu;sequential/dense/BiasAdd f4 [64]
00000000: 2c5f 06bf 3c09 38be 9f1d 1ebf c6f1 223e
00000010: 69ea 43be f509 90be fab4 483f 3099 f33c
00000020: 8854 283f e8cd b5be f7a0 1e3f 30ae 0d3e
00000030: 31b0 983e df6c 9b3c 16ef f2be 62ee cd3c
00000040: e36e 23be 1035 93bf 438e 013f 5356 47bf
00000050: e040 e8bd ebdf 7a3e 77b2 7ebd 753a 5d3f
00000060: 4c81 c3bc 6cf0 8cbe 2871 0e3e d42a 53be
00000070: 5d19 33bd bdb2 843e 63ef 2c3e dae4 543d
00000080: 2194 bcbe 21dc 07be 23b5 24bd d384 3dbf
00000090: 7edc 8abe adbf 603e e0e1 68bf 0867 38be
000000a0: 0392 d23d 0f2f adbe fd49 67be 48b1 f83c
000000b0: f12d 713f 3cfe 1ebf dfd1 853e 55ac d53e
000000c0: 1f9e 2ebf e151 c6be cf1f 603f 9db6 90be
000000d0: 0503 e63d 089e 09bf 1dd6 88bc fe30 f9be
000000e0: 6e48 0abf e223 89be 5ce2 92be 5527 d9be
000000f0: 700a 80be f01f 85bb 51ae 253d b4b0 3abf
-0.5248897 -0.17972273 -0.6176395 0.15912542 -0.19132389 -0.28132597 0.7840115 0.029736131
0.65753984 -0.35508657 0.6196436 0.13835979 0.29821923 0.018972812 -0.47448033 0.025138084
-0.15960269 -1.1500568 0.506077 -0.77866095 -0.11340499 0.2449948 -0.062181916 0.86417323
-0.023865364 -0.27527177 0.13910353 -0.20621806 -0.04372536 0.25917616 0.16888194 0.051976062
-0.36831763 -0.13267566 -0.040211808 -0.740308 -0.27121347 0.21948119 -0.9096966 -0.18008053
0.10281756 -0.33824965 -0.22586818 0.030357972 0.94210726 -0.6210668 0.2613668 0.4173304
-0.68210024 -0.38734344 0.87548536 -0.28264323 0.11231045 -0.5375676 -0.01670366 -0.4867019
-0.5401677 -0.2678519 -0.28688323 -0.4241282 -0.25007963 -0.004062645 0.040449444 -0.7292588

sequential/batch_normalization_1/batchnorm/mul_1;sequential/batch_normalization_1/batchnorm/add_1;sequential/dense/MatMul;sequential/dense/Relu;sequential/dense/BiasAdd f4 [64, 64]
00000000: c78a 143e a275 d43c e97b 11bd 1b35 3e3c
00000010: 660e 253e 587f dc3d ade1 f73d e837 f7bd
00000020: 4c1e f23d 1915 c5b9 8f54 37be e936 46bd
00000030: 4a61 48be 090f 59bd 743b 02be e01b 2c3e
00000040: 7feb a13e 326e 013e 8941 8c3e 93cf 2f3e
00000050: 5e64 2e3e d2d3 a5b8 4f89 db3d 3541 b03e
00000060: 774e 583e 8a8a efbd 682c cbbc 4444 873e
00000070: 5cdd d63d e969 e23e 1e7d 1ebc 7563 53be
00000080: 2577 883b 3400 9a3e 420d ea3a 6d07 5b3e
00000090: 0913 87be 93a0 0ebe aa86 24be 9ede 27bd
000000a0: 8d2d f5be 48d8 163e 4563 41be 7d8c d1bc
000000b0: c2db 38be 67f3 e7bc 4835 bdbe fbe1 833e
000000c0: ec4d a1bd 82d0 11be 430a 113f b620 37bd
000000d0: 072c 8f3e fbd0 e83e 94b1 493e 3341 42bc
000000e0: f883 3d3e b2d3 a7bc 7a2a cabe 3d8d a33e
000000f0: 7448 fb3c 3fd6 083e bf22 6fbe 4313 7fbd
00000100: f4b2 4a3e 545f 9d3e 8d95 42be 3de6 36bd
00000110: bc73 013c f377 6fbe 04f3 14bd 0bf0 afbd
00000120: d66f f2be ea26 c3bd bb1a 89be a73b 8dbe
00000130: 468d 723e e4d4 60be 4630 003e 4f7f 4bbd
00000140: 78e6 acbe 9a00 413e dd69 30bd d4a5 a83d
00000150: 0594 5fbe 0a90 30be ea28 f53d acfd c63e
00000160: 05f5 7abe bbf2 85be 0d87 a33e fdcd 82be
00000170: a14b c63e 095a 5c3d c2f9 123e b63b aabd
00000180: 4a69 9c3e b5da 983d ad3b 0c3e 8e15 e0bd
00000190: 0290 5a3e 74f6 47be 5ad5 7bbe 4e69 db3d
000001a0: 9a18 993d f2b0 3abe 4508 e03d 8e43 433e
000001b0: e897 10be b442 a43e ef84 65bd 7924 91bc
000001c0: 3fb7 ee3d d36a e73e f172 bebe c686 c63e
000001d0: 27bd 85be 0e4d fbbe 77e8 c43d c173 43be
000001e0: b2f4 abbe 3815 c1bd 2936 d9be 9dda 223e
000001f0: 9416 523d 3e23 2b3e b073 8c3e e878 99bc
00000200: c716 34be b8c0 0ebe 4151 cbbd aba5 8e3d
00000210: 3729 e2bd 767f 8fbe d163 213e c701 953e
00000220: 42af 823e 17a2 71bd b85d b3bb a52b 4cbe
00000230: 331a 7dbd 9af2 5abe cbaf eabe 17af 11be
00000240: 99e4 3e3e 31c9 c6bd 1edf 0cbe ac5f 023d
00000250: 312f 8e3e e646 1abe c6db 613e ae1a a13d
00000260: fd9e 473e eb0d 823c b5f4 40be 101c 2fbe
00000270: 6c9c 86be dc9e 10be fb80 10be f222 c53e
00000280: 44f4 e83a 8e85 1c3d 6bc9 49bd 4c27 163e
00000290: a584 e0bc e256 923e 0583 05bd 226d 40be
000002a0: 9fb6 41bd 4ffc b5bd 0bff 5f3d 8f76 01bf
000002b0: 6d3c a4be 4f5a 3f3e 08c7 c6be 2a4a c0be
000002c0: c406 36bd 9f79 0d3d 7f6a 3b3e 5505 83be
000002d0: dada ea3a 7866 6d3e 2db5 d53e 9236 b9bb
000002e0: 54fa 1c3c bff6 003f 597d cabd fd67 d03e
000002f0: b33f 393e 4a44 753e 41ed 273e c5ea a5be
00000300: 6ad6 073e 59f0 a93e 7fdc 02bf 1513 a73d
00000310: dc49 463e 48d5 7e3e 94d9 b1bd 7998 22be
00000320: 48e5 1ebd e91a d8be 5f63 58bd 19e1 5e3e
00000330: 09fc 553e 429b 033e d98a 813e f684 d2be
00000340: 212c 503e 7ff7 41be 6029 1a3e 70f6 adbe
00000350: 7fb2 783e d90e d73e 83e0 1abf c664 833e
00000360: 87f6 cebc 7c65 d3bd da72 18bd 8f43 3d3e
00000370: 98c2 cb3c ea61 72be f29a 41be 7333 623d
00000380: 8a44 183f 01f8 e53d 8001 a93d 7698 16be
00000390: e030 433e 1a09 80be 9c59 e3bd 9f3a cabc
000003a0: 9663 8a3c 7218 35be 1e8b 17be 9b9e 863e
000003b0: d3f5 213e 54e3 d6bd c6a9 f6bd c85b d0bd
000003c0: fbf8 2ebe ba87 fd3b 9729 5cbe c414 953d
000003d0: 1de2 8abe c1fc 5d3e a08d 0a3c 8a0a 89bc
000003e0: 3aa9 59bd 85ab 753e 19a5 4cbe 50fd 813d
000003f0: 36c4 1d3e 559a 2bbf 084e 65be e268 013e
0.14506064 0.025934998 -0.03551856 0.011609341 0.16118774 0.107664764 0.12103591 -0.1207121
0.11822185 -0.00037590487 -0.1790335 -0.04839221 -0.19568363 -0.052992854 -0.12717992 0.16807508
0.31624982 0.12639692 0.2739375 0.17169027 0.17030475 -7.907268e-05 0.10719549 0.3442475
0.21123682 -0.11696346 -0.024801448 0.2641927 0.1049144 0.44221428 -0.009673385 -0.20643409
0.0041645938 0.3007828 0.0017856734 0.21389551 -0.2638171 -0.13928442 -0.16066995 -0.04098379
-0.47886315 0.14730942 -0.18885525 -0.025579685 -0.18052581 -0.028314305 -0.36954713 0.25758347
-0.078761905 -0.14239696 0.56656283 -0.04470893 0.27963278 0.4547194 0.19696647 -0.011856365
0.18507373 -0.020486686 -0.39485532 0.31943694 0.030674197 0.13362978 -0.23353098 -0.06227423
0.19794828 0.30736792 -0.19002362 -0.044653166 0.007901128 -0.23385601 -0.03636457 -0.085907064
-0.4735095 -0.09528907 -0.26778206 -0.27584574 0.23686704 -0.21956211 0.12518415 -0.049681958
-0.33769584 0.18847886 -0.04306971 0.08234754 -0.21833809 -0.17242447 0.11970694 0.3886541
-0.2450753 -0.2616175 0.31938973 -0.25547782 0.38729575 0.0537968 0.14353088 -0.0831217
0.3054908 0.0746359 0.1369464 -0.10941611 0.21343997 -0.19527608 -0.24593106 0.10713445
0.074753955 -0.18231562 0.10939077 0.19068739 -0.14120448 0.3208214 -0.05603498 -0.017717587
0.11656045 0.45198688 -0.37197068 0.387747 -0.26120874 -0.49082226 0.09614652 -0.19087125
-0.33585125 -0.09427875 -0.42424133 0.15903707 0.051291063 0.16712663 0.27432013 -0.01873441
-0.17586814 -0.13940704 -0.09927607 0.069651924 -0.11043017 -0.28026932 0.15760733 0.29102919
0.25524336 -0.05899247 -0.0054738186 -0.19938524 -0.061792564 -0.21381608 -0.45837244 -0.14226948
0.1864189 -0.09706343 -0.13756987 0.03182952 0.2777038 -0.15066108 0.22056493 0.07866417
0.19494243 0.015875777 -0.18843348 -0.17100549 -0.26291215 -0.141231 -0.14111702 0.38503224
0.0017772992 0.038213305 -0.049264353 0.14663428 -0.027407 0.2858191 -0.032595653 -0.18791631
-0.0472933 -0.08886015 0.054686587 -0.5057153 -0.3207735 0.18686794 -0.38823724 -0.37556583
-0.044440046 0.034539815 0.18302344 -0.25590006 0.0017918006 0.2318362 0.4173979 -0.0056522572
0.009581167 0.50376505 -0.098871894 0.40704337 0.18090706 0.23951831 0.16399099 -0.32405677
0.13265386 0.33191183 -0.511177 0.081579365 0.19364113 0.24886048 -0.08684078 -0.15878476
-0.03879288 -0.4220803 -0.052829143 0.21765555 0.20896925 0.12852195 0.25301245 -0.41117066
0.20329334 -0.18942069 0.15054846 -0.3397708 0.24286841 0.42003515 -0.6049883 0.25662822
-0.025264038 -0.10322091 -0.037218906 0.18482803 0.024873063 -0.23670164 -0.18906763 0.055224847
0.5947958 0.112289436 0.08252239 -0.14706597 0.19061613 -0.25006944 -0.11101076 -0.024686156
0.01689319 -0.17685106 -0.14799163 0.2629288 0.15816431 -0.10492578 -0.120441005 -0.10173756
-0.17087166 0.007737127 -0.2150024 0.07279351 -0.27125636 0.21678449 0.008456618 -0.016728658
-0.053139903 0.23991211 -0.19984855 0.06347144 0.1540688 -0.67032367 -0.22393048 0.12637666

sequential/conv1d/Conv1D f4 [64, 1, 3, 3]
00000000: 0241 043e f60a 58be 2cc6 06be 5fb3 363e
00000010: a6b3 9fbe ec86 bb3d 2c6e b33d c60b 94be
00000020: 826a 14be fa3a 45be a75c 5bbe 7b17 aabd
00000030: e143 2fbe d4ec 3c3e 2163 b33c 8879 9c3e
00000040: 78a9 81bd f052 8f3d def7 c43d 5bea b5bd
00000050: 49e3 a33d 483c 053e 10c6 473e a15e 78bc
00000060: ce91 18be 6a61 c3bd 669a 233e 036a b43d
00000070: e4f8 a3be 8997 e83c 71ba 113e a4a5 443d
00000080: 96a5 cbbd 8562 03be 114d 413e 626b 8b3d
00000090: 0002 9f3b f564 5d3e b01e eebd 4287 233e
000000a0: 5782 803d 4e4d 1b3e 366a 06bd 74bb 583e
000000b0: 746c 3abe 340b 7abe 4f0f 1a3d ce18 33bd
000000c0: b803 923d 19e5 ccbe bf1b 9ebd f23d 853e
000000d0: 2d1f 993e dc43 073e a681 423e bd45 26ba
000000e0: db37 8fbc b87b 2f3e ec3a b43c c8df a2bd
000000f0: 6d0c 113e 598b e1bd 61d1 38be f1b4 7abe
00000100: 4186 5b3e b2fc 38bc 8a69 7e3d b9ef b7bd
00000110: 2bd3 393e 3635 403e 2e93 5fbe 4210 20be
00000120: 8caf a7bd f695 863d 4e81 003e 5d29 a1bc
00000130: b054 b7bc 0df2 25bd b6a8 173e 0293 6dbe
00000140: 826d 92bd d556 9f3e c3c1 c2bd 5312 9f3d
00000150: 04e6 a13e 7326 85bd ca1e 073c 6de5 a93e
00000160: 6a90 42bd b212 313e a353 74bd 10b3 67be
00000170: f2e9 80bb b95b 07be 54d9 0dbe 9a4a dfbd
00000180: 3cca a03e 83b2 0bbd 1c84 0cbd a72d 20be
00000190: 58d4 32be 67d4 d2bd a1c8 333e 903d 1ebe
000001a0: cf0a 973c 2467 333d e122 223e e5b6 333e
000001b0: 3966 0c3e b892 3ebe 001f 0bbe 8a0c b13c
000001c0: 5c85 d9ba 27a5 d93c 2161 0d3e f8eb 843e
000001d0: ef7d 27be fbb0 353d 8f0d 493e 16bd 68be
000001e0: 1e96 83be 5ab3 0abe cd63 563e 82c3 433e
000001f0: 380a fcbd 62d6 a9b8 1c1c 01be f457 053e
00000200: ecfd 223e 8983 713d 47c0 ac3b 3bad 453d
00000210: 06a9 8dbd ad12 8bbe 7c4f 9d3d 7706 043e
00000220: 74cc 7ebd b7a2 51be ed7d d13d 8b8a efbb
00000230: 9ba1 f5bd 42f8 14bb 9411 98be d4cc 8d3d
00000240: 584b 8cbe 7b25 223e b8e2 cd3d dd15 fcbd
00000250: 81c6 39bd 78c5 e13b c963 30bd ebb8 08bc
00000260: 3977 fa3b a542 ad3d 66a4 f4be eea9 b03d
00000270: a5ee 74bd 05af 05bf b0c8 f43c 83b0 37be
00000280: eb07 1abf 0711 fcbd 942b e13d ecd6 903e
00000290: 967d 86bc 15b8 2b3e c162 8c3e 160b 4dbd
000002a0: 9524 0b3d 505c 713e 6dd2 6c3d 9d65 4abe
000002b0: f60a 52be e4ee 673d 3471 d0bd 448b 95bb
000002c0: a84e 1cbe c0aa 2cbe db84 52be 47dd fabc
000002d0: d044 55be 6bd6 6cbe e694 6dbc 448c 69be
000002e0: 91b5 54bd 19a0 213c 474c ddba 786b 8abc
000002f0: 569b 0cbe 1db9 31be 2d5a 133d 70c5 2fbe
00000300: 919e 1d3c 796f 47bd db3e 62be 14bd 2e3d
00000310: bd66 e6bc abbb cbbd 5d4b f93d f444 9bbb
00000320: a026 463e 1163 5f3e c266 bfb9 d1fa 15be
00000330: 6ccc 1a3b c070 253e d6e8 17be e06a 00bd
00000340: c884 0abd e04c 0b3e e1f5 e8bd 48a8 cebc
00000350: 5f7e 49bd 5111 66bd d3b9 603d 1efc c4bd
00000360: 0648 9dbd 9cdc 613e 79bf 1bbb ee2a 823c
00000370: 9016 e93c 7298 50bd d64e 073e c177 a9be
00000380: c7be 05bd dbe6 213e d38a 8e3b 0c4c 65be
00000390: 4551 34be d659 0dbe 445f 173e 44eb 3c3d
000003a0: 000b f23c 3423 f03d 204d 68be 35a5 a73d
000003b0: 0894 1cbe 0714 313d c26f 1bbe f9f1 b43d
000003c0: 84d5 d23d af47 3fbd 661d 863d c497 d6bc
000003d0: beec 90bd 0e62 e63d 1622 1d3d 37ac 3bbd
000003e0: b3cc 20be 1e65 bb3d 02aa 913d a328 8b3d
000003f0: fafc 513e 3268 8ebb 124a 58be 6403 be3d
0.12915424 -0.21097931 -0.13161534 0.17841862 -0.31191748 0.09156594 0.08761248 -0.28915232
-0.14493755 -0.19260779 -0.21422063 -0.0830526 -0.17115737 0.18449718 0.021897854 0.3056147
-0.06331152 0.06998241 0.096175894 -0.088825904 0.080023356 0.13011277 0.19509149 -0.01515928
-0.1489937 -0.09540065 0.15976867 0.08809283 -0.32025826 0.02839257 0.14231278 0.04800953
-0.099436924 -0.12830551 0.18877055 0.06807591 0.0048525333 0.21620543 -0.11626947 0.15969566
0.0627486 0.15166208 -0.032816134 0.21165258 -0.18205434 -0.24418336 0.037612256 -0.043724827
0.071296155 -0.40018538 -0.07720136 0.26023823 0.29906598 0.1320948 0.1899477 -0.0006342789
-0.017482689 0.17137039 0.022000752 -0.07952839 0.14164896 -0.110129066 -0.18048622 -0.24483086
0.21437933 -0.011290716 0.06211237 -0.0898127 0.1814696 0.18770298 -0.21833488 -0.15631202
-0.0818778 0.065715715 0.12549326 -0.019673044 -0.02237925 -0.04051404 0.14810452 -0.2320061
-0.07149793 0.31120935 -0.09509613 0.07767167 0.316208 -0.06501474 0.008247087 0.3318285
-0.047501005 0.17292288 -0.059650075 -0.226269 -0.0039341385 -0.13218583 -0.13852435 -0.10902901
0.31404293 -0.03410579 -0.034305677 -0.15642415 -0.17463815 -0.10294419 0.17557003 -0.15453172
0.018437771 0.043799534 0.15833618 0.17550237 0.1371087 -0.18610656 -0.13586044 0.021612424
-0.001659553 0.026568009 0.13806583 0.2596128 -0.16356634 0.044358235 0.19634078 -0.2272838
-0.25700468 -0.1354498 0.20936508 0.19117549 -0.123066366 -8.09848e-05 -0.12608379 0.13021833
0.15917176 0.058963332 0.0052719447 0.04826091 -0.06917004 -0.27162686 0.07681176 0.12893091
-0.0622067 -0.20472227 0.102290966 -0.007310217 -0.119937144 -0.002273098 -0.2970091 0.069238335
-0.27401233 0.1583461 0.10053009 -0.123088576 -0.045355324 0.006889995 -0.043063913 -0.008344869
0.007643607 0.08459977 -0.47781676 0.086261615 -0.0597979 -0.52220184 0.029880852 -0.17938428
-0.6016833 -0.12307935 0.1099464 0.28288972 -0.016417306 0.1676944 0.27419093 -0.0500594
0.033970434 0.2357037 0.057817865 -0.19765325 -0.20511994 0.05662431 -0.10177842 -0.004563721
-0.1526438 -0.16862011 -0.20558493 -0.030623091 -0.20827031 -0.23128669 -0.014500832 -0.22807413
-0.051930968 0.00986483 -0.0016883694 -0.016896948 -0.13731131 -0.17355771 0.03597467 -0.1716516
0.009620325 -0.048690293 -0.2209429 0.042660788 -0.028125161 -0.09947904 0.121725775 -0.0047384445
0.19350672 0.21815135 -0.0003650692 -0.1464646 0.002362038 0.16156292 -0.14834914 -0.031351924
-0.033818036 0.13603544 -0.11375023 -0.025226727 -0.049192782 -0.056168858 0.054864716 -0.096184
-0.07679753 0.22056812 -0.002376525 0.015889611 0.028453141 -0.050926633 0.13213667 -0.33099177
-0.032652643 0.1581072 0.004350045 -0.22392291 -0.17609127 -0.13803801 0.14782435 0.046122804
0.02954626 0.117254645 -0.22685671 0.081858076 -0.15290844 0.04323199 -0.15179351 0.08835215
0.10294631 -0.046699222 0.06548576 -0.026195414 -0.07076405 0.11249171 0.038362585 -0.045818534
-0.15703087 0.09150146 0.071125045 0.0679486 0.20506659 -0.004345917 -0.21122006 0.092779905

sequential/conv1d_1/Conv1D f4 [64, 1, 3, 64]
00000000: ab73 a2bd 54fa be3d 2692 553e 6bb3 f1bd
00000010: 7ff7 a13d b0fb dc3c b109 e4bd 35ff 123e
00000020: 5b5a 84bd 873a acbe 72e2 d9be 72a9 af3c
00000030: 3d08 73bd 88da 5fbc 586a 26be 00c3 e5bd
00000040: 6f4a 0d3d eaac 133e dcd3 4b3e 1568 30be
00000050: 546a bbbe b113 a53d c6fd d43c 1360 4b3d
00000060: e53b c23b 7ee3 3a3e fc09 24ba 68ef bfbb
00000070: 3702 79bc 131a d5be c771 03be 369b 54bd
00000080: 26d0 b8bd b8de 7bbc 05a3 bd3d 5bd2 69bf
00000090: 50ac 80bd 1463 08bd 215c cbbe db5b a33d
000000a0: 68c2 8abd 0658 003e bba0 973d 4a19 1f3b
000000b0: fdab 1e3e 82f6 4e3d 9a84 a2bd bd7c 513e
000000c0: 242d 29bf 10ec c2be 5912 92be 8bda 263b
000000d0: 05e6 50ba 3711 0bbe 1ee8 b33b cd73 83bc
000000e0: b9e7 063e e05d ecbd 2b2e f43d c83f edbd
000000f0: c6cc 2cbb 8632 62bd 8456 0d3e f14c 5ebc
00000100: 6d20 2fbe cca0 97bc 2c13 463e 2f10 f33c
00000110: d4e0 133e 7dad 003d 4cda 08be cca2 c13d
00000120: f377 61bd 7246 8cbe aa9c 9c3d cb7b 47bd
00000130: 66f1 be3d bb6a d63d 78c0 e2bd 904a 42be
00000140: 8661 59bd e682 e8bd 62b7 28bc 7d0c 67bd
00000150: b1c2 b5be bbdf c03d c168 493e 2122 02be
00000160: 8d00 9ebd af1e f63d 02d2 d7bc 3a41 503d
00000170: 5e94 c83d 2332 87bd 45c0 7e3a 0a24 eb3d
00000180: 55b7 803d 3a36 25be 39de e23d fdd6 73bf
00000190: 1a46 87bd 7bf1 80bd 90b6 2cbf 2d04 cd3d
000001a0: 2abd 483d a161 97bc 50c6 213d 5ba4 bb3d
000001b0: 7a4e 423d d10c 233e 5ca9 dbbe 7f62 a2be
000001c0: 82e1 39bf 9d47 2cbd dc95 d8be ad5f 163e
000001d0: 82f3 873d 167f fabc 2600 20bc fab2 46bd
000001e0: b679 1a3e a87e bf3d b36e a03a 19c6 e1bd
000001f0: db99 2f3e cd39 3dbe ee6d 303e 7129 79bd
00000200: e09d 81be f20f 383e 0fdd 423e 7c83 7f3d
00000210: 6a29 d4bc 95b8 f5bb c3f8 a63d 2943 993c
00000220: 4853 113e 28a8 e0bd 10af f73c 0f74 8f3d
00000230: 1927 cbbd bc78 963d dcee 233e 60b1 1f3d
00000240: cf70 f4bd 362d 52be 1a92 1b3e b32c 553d
00000250: a776 10bf 81df 55bd fc54 193e afdd d7bd
00000260: 5b42 d43d 18df b83d c31b 8a3d f298 073e
00000270: 604f 09be 4617 14bd 930a ee3d 399c 2c3e
00000280: 8e7e 58bd 0264 19bd 6dd0 033e b1aa babe
00000290: 6b66 533d 04ca c73d 7144 d8be 92b6 223e
000002a0: 1302 48be a3c5 f53d edbb be3d a948 503e
000002b0: 7366 9bbd 7a42 11bd a888 09be 5d07 07bd
000002c0: 341d bbbe bdf9 af3d e80b 05be e181 493e
000002d0: f31c 073e 9000 873d 1754 a03c 58a6 ea3d
000002e0: 6460 153e 5624 983e 9b7c e73d a655 32bd
000002f0: 1fba 7c3d f7ca 8339 bbcd f63d 0ef5 c0bc
00000300: 2018 2f3c 25db 863e 36d8 2abd fb42 8c3e
00000310: 5658 9cbd ad91 aa3e fa74 e63d 77f9 613c
00000320: 30da 073c 479e c53d 48d7 b33d 1384 9b3e
00000330: c364 4bbe e9ea 8f3e 261f 763d f369 183e
00000340: 101c 563d fb60 18be 0bda 13bd 9a4f 6f3d
00000350: cf77 0abd 1791 9e3d 67c1 673d f322 0c3c
00000360: 5e0a c5bd 4016 e73d dd0a ce3d 7a4f 1a3d
00000370: b319 a0bd 33a6 453c d28c 7cbd e18b 57be
00000380: ed7b d93d 4c04 fb3d 2d04 fbbc 59fb a33d
00000390: 54e3 893d fa54 743d c53a 123e d56b 81ba
000003a0: 2604 cfbd a386 f3bd b7a5 3d3d e8b2 d7bb
000003b0: 446f cfbd 0f27 323d 6697 c7be 08a9 d63b
000003c0: 2ebe 9f3d 58bf 113d fdaa cb3d 9f9d 2b3e
000003d0: 970b f93d 0de3 103e bebd 2d3e 3ac4 7a3d
000003e0: f815 9c3e b030 a6bd d65a 353e 6736 283e
000003f0: df6d 29be 65d3 2fbe fb8c ac3d db25 c23d
-0.07932218 0.0932509 0.20856532 -0.118017994 0.07908534 0.026975483 -0.11134661 0.14355166
-0.064625464 -0.33638403 -0.42555577 0.021443103 -0.05933403 -0.013662942 -0.16251504 -0.11218834
0.034494814 0.1442143 0.19905037 -0.17227204 -0.3660456 0.080603965 0.025999915 0.04965217
0.00592755 0.18250844 -0.00062575913 -0.005857397 -0.015198282 -0.41621456 -0.12836371 -0.051905833
-0.09024076 -0.0153729245 0.09259609 -0.913366 -0.06282866 -0.033297613 -0.39718726 0.079765044
-0.06775361 0.12533578 0.07403704 0.0024276548 0.15495296 0.050528057 -0.07935448 0.2045774
-0.66084504 -0.38070726 -0.28529623 0.0025459852 -0.0007968846 -0.13580786 0.005490317 -0.016046429
0.13174333 -0.11541343 0.11922868 -0.11584431 -0.0026367172 -0.055223964 0.13802534 -0.013568149
-0.17102213 -0.018509291 0.19343251 0.029670803 0.14441234 0.03141545 -0.13364524 0.09454879
-0.055046033 -0.27397496 0.07647069 -0.048702043 0.09323387 0.10469576 -0.11071867 -0.18973756
-0.05307152 -0.11353092 -0.010297628 -0.056408394 -0.355001 0.09417673 0.19668867 -0.12708332
-0.07714949 0.12017571 -0.026345257 0.050843455 0.09793924 -0.0660136 0.00097179814 0.11481483
0.06284968 -0.16133967 0.11077542 -0.9524992 -0.06605168 -0.06296059 -0.6746607 0.10010562
0.049008526 -0.01847917 0.039495766 0.09162208 0.047438122 0.15922858 -0.42902648 -0.31715772
-0.7260972 -0.042060483 -0.42301834 0.14684935 0.06638242 -0.030578177 -0.00976566 -0.04851053
0.15085492 0.0935033 0.0012240022 -0.11024112 0.17148535 -0.1847908 0.17229435 -0.060830537
-0.25315762 0.17974833 0.1902964 0.062381253 -0.025898654 -0.0074988105 0.08152916 0.018708782
0.14191926 -0.10969573 0.030234843 0.07004558 -0.09919567 0.07347247 0.16009086 0.038987517
-0.11935579 -0.20525059 0.15192452 0.05204458 -0.5643105 -0.052215103 0.14973825 -0.1054033
0.10364219 0.09026927 0.067435764 0.13241938 -0.13409185 -0.036155008 0.116231106 0.16856469
-0.052855067 -0.03744889 0.12872477 -0.36458352 0.051611345 0.09755328 -0.42239717 0.15889958
-0.19532041 0.12000587 0.09313188 0.20340218 -0.075879 -0.035463788 -0.13431036 -0.032966007
-0.36545718 0.08592556 -0.12992823 0.19678451 0.13194637 0.06591904 0.019571347 0.11457509
0.14587551 0.29715222 0.113030635 -0.043538712 0.061700936 0.00025137488 0.12050959 -0.023554351
0.010686904 0.2633907 -0.0417101 0.27394852 -0.07634036 0.33314267 0.1125278 0.013792387
0.008291766 0.0964933 0.08781296 0.30374202 -0.19862656 0.2810891 0.0600883 0.14884166
0.052272856 -0.14880745 -0.036096614 0.058425523 -0.033805665 0.077425174 0.056580927 0.008553254
-0.09621118 0.11283541 0.10060666 0.03767345 -0.07817402 0.012063551 -0.061657734 -0.21049453
0.1061934 0.12256679 -0.03064164 0.08006925 0.067328125 0.059651352 0.14280231 -0.0009874055
-0.10108213 -0.11890914 0.046300616 -0.0065826066 -0.10128644 0.04349428 -0.38982695 0.006550912
0.07799946 0.03558287 0.09944723 0.16759346 0.12160414 0.14149113 0.16966912 0.061222292
0.3048551 -0.08114755 0.17710432 0.16427003 -0.16545819 -0.17170484 0.084253274 0.094798766

sequential/conv1d_2/Conv1D f4 [128, 1, 3, 64]
00000000: a2d2 cabd db9d bb3d 7d97 933d 0b10 64be
00000010: 010f 4fbe 8698 5abe 7cd2 1dbd 76d7 543d
00000020: c53c 25be 7e7d 513d 6fa8 81bd a8ef 253c
00000030: 8a3b 6fbd 59e6 a53d 6c9d 74bd dcc0 153d
00000040: 0203 aaba 6b4f f3bd 2266 e3bd 6258 8dbc
00000050: 85e6 c63c f71a c8bd fb35 4ebc 27a0 f03c
00000060: c3d6 c0be 2ab3 bebd 04ec 0dbe 80c4 0ebc
00000070: d98e 42be ed90 a23d 2236 fcbd edae 54bd
00000080: 7523 24bd d01c a13c 4502 973c 7800 b6bd
00000090: 5b20 7dbe 20aa a3bd e1f3 09be 7f03 b53b
000000a0: 3a14 c9bc dc7d f4bc c207 0dbe 4e29 e73d
000000b0: a291 bebd 15e6 803d 86c3 a5bd f241 113e
000000c0: 2006 ddbd 8b92 543d b6e3 c1bd 9b22 0cbd
000000d0: e072 18be d8f3 0abe 36cf debd b2ad e1bc
000000e0: d61d 86be c47e 27bc 087e a3bd f962 fbbd
000000f0: 9549 983b bb4c 533d 0ecd 40bd c600 5dbe
00000100: 1861 af3c 81d3 673d ad2f b6bd c573 4cbe
00000110: 4b93 b7be 68b9 94be eae5 b43c 92d8 233e
00000120: 0dc4 93be bfa6 ff3c dc60 c4bd 4e97 87bd
00000130: 6ec8 f5bd 2672 a73d e351 91bd cece 023e
00000140: 081d 22bd 6f44 0ebe 2dac 66be 84f1 c63c
00000150: 3048 b4bd e80f b0bd 6323 cbbc 7c3c 993b
00000160: 714a 44be 0848 f2bc c8a3 44be 59ce e6bd
00000170: 82d3 26be 707b 58bd f95b 2fbd dd80 823c
00000180: f4cb 973d df22 35bd 2e8b 0a3e 5109 883c
00000190: c9fe ffbd adbb 50be 3253 bbbd e555 07bc
000001a0: 89d8 913d 1334 333c c02b 3b3d 169a 8dbd
000001b0: f8c4 09be 7ff8 753c 4a3b e5bd fb9f da3d
000001c0: a306 6bbd 4867 0cbd 11e9 b0bd 0c80 b73d
000001d0: 25cc 15be d07a 17be 74c8 06be d3b8 2a3d
000001e0: 9cb6 8bbe a978 d6bd 995e 16bd 9a05 98bd
000001f0: 62d3 903d 5b32 523d d135 f7bd 0f0a 95be
00000200: e72c 98bd 7737 b2ba 7dde e2bd 7388 62be
00000210: 2bd8 80be cb2b 74be d0e5 813a db8a 563d
00000220: 2abd 24be 0e7b bfbc d595 a4bd 70f4 87bd
00000230: c524 13be e208 753d 361b ccbd 22e2 b53d
00000240: e02f 8a3c 4161 8a3c 9eaa 31be 4d6d f3bd
00000250: ee4e 253d cd2d 9bbd 2903 8ebc 2403 5c3d
00000260: 2677 96be 946f 493d c7fc c8bd 4b50 c9bd
00000270: 6c68 47be 2436 1b3e d98c a3bd 4ba2 613d
00000280: 0c64 febd 0b37 363d f1b0 a53d 3246 e4bc
00000290: 7a5a 4fbe 804c 8ebe 1614 3d3c 1592 00be
000002a0: 14af cd3d 6a28 e43b 5ad2 37bd 8e4d fcbd
000002b0: 4d72 2e3d 90dd 073e fff0 32be 2920 ac3d
000002c0: 5741 01bd f669 1b3d 1404 24bb 363f a73c
000002d0: df66 47be 32cb 7fbd 724d 55bd 01ec 84bd
000002e0: 632d 7cbe 2caa aa3d 323b bfbc bdfe a1bd
000002f0: 1d82 bfbd 6e69 ea3d 3031 07bd fc98 a9be
00000300: ab35 383e 924b 063d b6cb 023d fab4 19bd
00000310: 1f41 a7bd 7195 07bd 00bb 5bbd 44bd b8bd
00000320: 4291 b53d da90 d03d 36ce 2abd d174 183e
00000330: 21c9 393c 9007 38bd b859 08bd 21eb 12bb
00000340: a592 dc3d 3a92 afbd 03cb 2fbe e2f0 913e
00000350: 580c f1bc 6742 993e 503b 5e3d 8a01 c1ba
00000360: af0c 4cbd 16d6 76be 0c8f 9b3d 267b a53d
00000370: 1da4 523d 6322 583c 2d68 af3d c31e 4d3e
00000380: 9bdf ca3d 50cf 383e 9057 4a3c 9a50 573e
00000390: 5634 293e 6189 b33e a19c 553e 0b42 8b3e
000003a0: b1bc 953d 8067 093b 92ff a2bd ef17 04bc
000003b0: ff87 1bbe 89d5 95bd dd1b 10be b0ad a83d
000003c0: 6a85 8c3d 7da4 be3e 595e ec3d 4fff 0cbe
000003d0: cdd2 d63d b710 24be 4bea 963d b7e9 c33e
000003e0: 2d3a 02bd 6cb9 513d 69db c03c 5579 143e
000003f0: 54f6 27be 189a a43e 8d73 323e 4550 74bd
-0.09903456 0.09160968 0.072066285 -0.22271745 -0.20220567 -0.21347246 -0.03853081 0.051963292
-0.16136463 0.05114507 -0.06330954 0.010127939 -0.05840639 0.08100576 -0.05972044 0.03656088
-0.0012970867 -0.11880382 -0.11103465 -0.017254058 0.024279842 -0.09770768 -0.012586112 0.029373242
-0.3766385 -0.093115166 -0.13859564 -0.008713841 -0.18999805 0.07937799 -0.123150125 -0.051924635
-0.040072877 0.01966706 0.0184337 -0.08886808 -0.24719374 -0.07991433 -0.13471939 0.0055240984
-0.024545778 -0.02984517 -0.1377249 0.11287175 -0.09305121 0.06293885 -0.08093934 0.14185312
-0.10792184 0.051897567 -0.094672605 -0.03421269 -0.14887571 -0.13569582 -0.10879366 -0.027548645
-0.26194638 -0.010223094 -0.07983023 -0.12274737 0.0046474435 0.051586848 -0.047070555 -0.21582326
0.021408603 0.05659819 -0.08895812 -0.19966038 -0.35854563 -0.29047704 0.022082288 0.16000584
-0.28860512 0.03120744 -0.09588787 -0.06620656 -0.120011196 0.08176069 -0.07095697 0.12774202
-0.039578468 -0.13893293 -0.22526617 0.024285085 -0.08802831 -0.08596784 -0.024797147 0.0046763998
-0.19169022 -0.029575363 -0.19203103 -0.112698264 -0.16291621 -0.052852094 -0.04281232 0.015930587
0.07411948 -0.04422271 0.13529655 0.016606005 -0.12499768 -0.20384093 -0.091467276 -0.008260225
0.07121379 0.010937708 0.04569602 -0.06914155 -0.13454044 0.015012859 -0.11192949 0.10675045
-0.057379376 -0.034278184 -0.08638204 0.0895997 -0.14628656 -0.14792943 -0.13162404 0.04168017
-0.27287757 -0.10472233 -0.03671131 -0.074229434 0.07071568 0.051317554 -0.120708115 -0.29109237
-0.074304394 -0.0013596852 -0.110775925 -0.22122364 -0.25164923 -0.2384483 0.0009910408 0.052378517
-0.16087785 -0.023374107 -0.08036391 -0.0663842 -0.14369495 0.059822924 -0.099661276 0.08881022
0.016868532 0.016892077 -0.17350242 -0.11886082 0.040358476 -0.07577095 -0.017335491 0.053713933
-0.29387778 0.049178675 -0.098138385 -0.09829768 -0.19473428 0.15157372 -0.07985849 0.055086415
-0.12421426 0.044486087 0.080903895 -0.027865503 -0.20249358 -0.2779274 0.011540433 -0.12555726
0.10043159 0.0069628255 -0.04487834 -0.1231948 0.042589474 0.13268113 -0.17474745 0.084045716
-0.031556454 0.03794285 -0.0025026845 0.020415884 -0.19472836 -0.06244964 -0.05207581 -0.06490327
-0.24626689 0.08333239 -0.023343656 -0.079099156 -0.09350989 0.1144589 -0.033005893 -0.3312453
0.17989223 0.032786913 0.031932555 -0.03752611 -0.08166718 -0.033101503 -0.053645134 -0.090204746
0.08865596 0.10183878 -0.041700564 0.14888312 0.011339457 -0.044929087 -0.033288687 -0.002241798
0.10770158 -0.085728124 -0.17167287 0.28504092 -0.029424831 0.29933473 0.054255784 -0.001472519
-0.049816784 -0.24105105 0.075956434 0.08080129 0.051426042 0.013191792 0.08564792 0.20031266
0.099059306 0.18047833 0.012349978 0.21026841 0.16523871 0.3506575 0.2086053 0.27198824
0.07311381 0.0020966232 -0.079589024 -0.008062347 -0.15188597 -0.07316119 -0.14073129 0.08236253
0.06861384 0.3723487 0.11541433 -0.13769267 0.10489426 -0.16022001 0.073689066 0.38264248
-0.031793762 0.051202223 0.023542123 0.1449941 -0.1640256 0.32148814 0.17426892 -0.059646863

sequential/conv1d_3/Conv1D f4 [128, 1, 3, 128]
00000000: 91a3 bb3d f0d8 ecbb 446c d63c 9e0c febd
00000010: 55ff 143d 8c20 73bd 870a 00be 9e70 23bd
00000020: 7a03 b03c a29d 0ebe cffc f3bc e729 babd
00000030: a089 453c 81bd c9bc 7a21 463e 0332 d23d
00000040: 39d8 283d 32f8 53be 8018 8bbd e14a 31bc
00000050: 220e 20bc 551a 0bbe 366d 1cbe fbf3 bebd
00000060: c0ea 5fbd 6fd7 e4bc d052 8a3c 68cb 60be
00000070: 3695 26bd 1a5e 1fbe aaff 68bd 3acb 793d
00000080: 4dfc 703d a936 00bd aadf a4bd 62a4 04be
00000090: 985e 8fbd 4e17 a8ba 6fca 42be cad9 39bc
000000a0: 2458 613d 1dec cc3d fdcf 0cbe f719 213b
000000b0: b185 14bc 3c6b 00be d96d a8bd c2c8 cfbc
000000c0: 8be2 273c 320c 8dbd 77c3 963d 6ee5 a53d
000000d0: a72b d2bd 5110 6fbd 766e b0bb cb95 5b3e
000000e0: ebbe 35bd 6d78 88bd 7484 6b3d f1d9 9ebb
000000f0: 4f8c 723d eb6a 313c 1881 ec3c bf6b 4bbe
00000100: 1ec4 573e 2b66 26bd 2bf6 adbc 72d5 64bd
00000110: a2e1 1e3e 26c8 51bd 7d98 0a3e 33c5 553d
00000120: c4c1 9c3c cc7c b43d 5ce3 8d3d cf35 43bd
00000130: 2467 d8bd 699c 33be 8136 503d 23d1 c4bd
00000140: 6053 9d3d 6564 71bd e116 e7bc 0b77 8e3d
00000150: 4fa8 7dbd 2d71 9f3d 009a ae3c b7ef 09bb
00000160: 1c50 36be 2462 07be b4ce 2c3d c6e0 5bbd
00000170: 5a7b bb3c 65d9 543d d104 433e 8374 ee3d
00000180: 7f6a aabc 39a3 bf3d d00a 37bd cc9a 33be
00000190: ae85 3b3d 5be5 2cbd 6030 1cbe 2ca2 a9bd
000001a0: 04e7 a8bd 7396 97bd 677a 2d3c ca80 1fbe
000001b0: d784 a4bc 6c69 da3c 5794 87be e685 fa3c
000001c0: cedc fbbc b98d 00be 908c febd f46c 973d
000001d0: 2d88 05be 3bec 2e3d 9a86 b33d 1d80 c43b
000001e0: 9e92 53be 28f8 a03d 7385 553d 29bd 5c3b
000001f0: 83be 3dbd d787 eabd be4c ce3c 6b9d c03d
00000200: 7745 5f3e 75ee 863d 940e 73bd 06cc 19be
00000210: fa47 a2bd 5672 4abe 9177 e6bc fc16 eb3c
00000220: ae3e 89bc 0658 ebbd fe1b 0fbe 5f70 0bbe
00000230: 98ed 2b3d 2099 03bd 90a3 433e 464b b23c
00000240: ecfb 36bc 9751 55be f30d 34bc 0be0 a0bd
00000250: a0af 09bd 483e e2bc ced2 39be 7a7e 933c
00000260: 16ef 31bd 5cb8 60bd 781b 103d 014d afbd
00000270: 10c1 6bbd 6734 f4bd 66bf a73d 7d11 943d
00000280: da78 fd3d a5bd 28bd 3429 0cbe dd8b bdbd
00000290: ae50 e4bb fd05 ad3c e41c 95bd 1a8a 9dbc
000002a0: 4560 dd3d d135 b23d 2a59 2e3b 50b8 c3bd
000002b0: ecf4 e73d ed96 b5bd e945 0bbc 27fe a1bd
000002c0: cc49 abbd 52be 9b3c b005 ac3d 7881 dd3d
000002d0: 4c7a b1bd 50c2 32bd 406b d9bd 9f89 3c3e
000002e0: 25ae 823d 52c4 c1bd 0bf5 e4bd d255 aabd
000002f0: d5e5 15bc 7570 f9bd 4866 8abd 856d 08be
00000300: f954 393e 2ed0 57bd 6856 dbbd 5e48 473d
00000310: de52 363e 90e5 9fbd 3407 1a3e 3df9 803c
00000320: 0b12 9fbd f59e 373c e37e 163d 3b3e 05bd
00000330: d1ce eabd 9f15 35be 5800 233d ac58 18be
00000340: f3e0 e1bc 5516 a6bd c333 d9bd 7918 253e
00000350: fa9b e3ba e52a 2abc 09ef e0bc b9e4 a7ba
00000360: 61d8 5abe 6e9c 14bd 2c68 fabc 60b2 5abc
00000370: ae0e 6d3d a624 89bd 45f1 7f3e 5b43 443c
00000380: 39fb f0bd 14cd b93c 0d22 dabd 2f57 2cbe
00000390: f22a 57bd e1c9 f1bd 3352 c0bd 0e08 cfbd
000003a0: f91e 96bd 3408 cfbd 6036 c43b d13a b3bd
000003b0: 1392 75bd d57b 173e 1c66 4ebe ffe3 2abd
000003c0: 0079 3dbd e226 00be f9ed 10be 560c 773c
000003d0: 259c 823c f08a c43d be08 99bc ecd5 0e3c
000003e0: b705 6dbe 47d1 373d 0d2e b23d 68b5 b33c
000003f0: f0ca 663b 8078 0dbe 311c 94bd c6fc e3bc
0.09162057 -0.0072280094 0.026174672 -0.1240475 0.036376316 -0.05935721 -0.12504016 -0.039902322
0.021486033 -0.1392732 -0.029783634 -0.090900235 0.012056738 -0.024626495 0.19348708 0.10263445
0.04122183 -0.20700148 -0.067917824 -0.010821075 -0.0097689945 -0.13584264 -0.15276036 -0.09323879
-0.054667234 -0.027934758 0.016885191 -0.21952593 -0.040669642 -0.1556324 -0.056884445 0.060984828
0.058834363 -0.031302128 -0.08050473 -0.12953332 -0.07000464 -0.0012824328 -0.19022535 -0.011343429
0.055015698 0.100059725 -0.13751216 0.0024582127 -0.009065078 -0.12540907 -0.08224077 -0.025364283
0.010246883 -0.06887092 0.07361501 0.08100401 -0.10262232 -0.05836517 -0.0053842617 0.2144386
-0.044371527 -0.066635944 0.057499364 -0.004847758 0.05921584 0.010828714 0.02887015 -0.1986532
0.21070907 -0.04062478 -0.021235546 -0.05586762 0.1551576 -0.051216267 0.13534732 0.052190017
0.019135363 0.088128656 0.06928131 -0.047658738 -0.105665475 -0.17540134 0.05083323 -0.09610202
0.07681918 -0.058933634 -0.028209152 0.069562994 -0.06192809 0.077852584 0.021313667 -0.0021047422
-0.17803997 -0.13221031 0.042189315 -0.053681158 0.022885967 0.051965136 0.19044806 0.116433166
-0.020802734 0.09357304 -0.044688046 -0.17539519 0.045781784 -0.042210918 -0.15252829 -0.08282885
-0.08247188 -0.07401743 0.010588265 -0.15576473 -0.020082874 0.026661597 -0.26480362 0.030581426
-0.030744936 -0.12554063 -0.12429154 0.07393828 -0.13040228 0.042705756 0.087659076 0.0059967176
-0.20661399 0.07859832 0.05212922 0.0033682084 -0.046324264 -0.11451691 0.025183078 0.09405025
0.21803842 0.06588451 -0.059340075 -0.15019235 -0.07923885 -0.19770178 -0.028133186 0.028697483
-0.01675352 -0.114913985 -0.13975522 -0.13617085 0.041974634 -0.032128453 0.19105363 0.021764409
-0.011168461 -0.20831905 -0.010989654 -0.07855233 -0.033614755 -0.027617589 -0.18146822 0.018004645
-0.0434409 -0.05486332 0.035182446 -0.08559609 -0.057557166 -0.119240575 0.08190803 0.07229898
0.12376566 -0.041196484 -0.13687593 -0.092551924 -0.0069676256 0.02112102 -0.07280901 -0.019230891
0.108093776 0.08701671 0.002660344 -0.09556639 0.11326012 -0.088666774 -0.008500555 -0.07909804
-0.08363685 0.01901165 0.08399522 0.1081571 -0.086659044 -0.043642342 -0.106161594 0.18411873
0.06380872 -0.09461273 -0.11179551 -0.0831715 -0.0091490345 -0.121796526 -0.0675779 -0.13323028
0.18098821 -0.05268877 -0.1070984 0.048653 0.17805049 -0.078074574 0.1504181 0.015743846
-0.07767113 0.011207332 0.036742102 -0.03253005 -0.11465228 -0.17684029 0.03979525 -0.14877576
-0.027573084 -0.08109728 -0.10605576 0.16122617 -0.001736521 -0.010386203 -0.02745773 -0.0012809254
-0.21371605 -0.036281995 -0.030567251 -0.013348192 0.057875328 -0.06696443 0.24994381 0.011978949
-0.11766667 0.022680797 -0.10651026 -0.16830133 -0.05253119 -0.118060835 -0.09390678 -0.10108958
-0.07330126 -0.101089865 0.0059879273 -0.08751453 -0.05995376 0.14793332 -0.20156139 -0.04172134
-0.046257973 -0.12514833 -0.1415328 0.015078625 0.015943596 0.09596813 -0.018680926 0.008717995
-0.23146711 0.044877317 0.0870019 0.021937087 0.0035216175 -0.13815498 -0.072319396 -0.027830493

sequential/batch_normalization/batchnorm/sub f4 [128]
00000000: 9aec a4bd 35a1 27bf b6c3 44bf b8cb 6bbe
00000010: 714f d4be 28fc 00bd 8d5e 84bb f861 dfbc
00000020: bd4f 16c0 60e3 79be 37cf fcb5 a853 04be
00000030: 322f 08bd 1777 06bf 1998 5834 f524 3339
00000040: c032 54bd d965 dfbc d218 28bf d36b 84bf
00000050: 3d4c 0bbf c8fc 1bbf 8b82 993d 024f cfbe
00000060: 1ac3 12bf c1e4 03bf c893 c3be b0d0 22bf
00000070: 086a 85bf 4a80 02bf b4f0 3537 0cb8 80be
00000080: 52ed eabe 6636 2ebf f36c ca2c b45d 313a
00000090: 6462 2dbf fd95 c0bf 8521 b1be 5e5e 3cbf
000000a0: 326f 1fbf baf3 8abf 4c55 83bf 2ff6 4bbf
000000b0: 9644 33bf cf17 a5bf 809c e8be 2e2d 32ba
000000c0: 0faa b5be a657 2dbf aaae 43b8 6310 c5be
000000d0: 2002 4bbb e83a e5bd 0f60 3bbe 1374 1ebf
000000e0: 321b c1be fa60 dc39 9407 00bf bef8 dfbd
000000f0: 655a 69be ba8a 8abe b580 c437 ce88 55af
00000100: 9459 7cba 588e 4eb6 bc0d fc2f 3b00 25bf
00000110: 2319 5dbf 02d6 76b4 e915 23bb 1133 c9be
00000120: 1c9e d5be f50b 6bbf d618 02bc d4fb 10bf
00000130: e249 1dbf d44e b3bf c966 ce36 8b83 0fbf
00000140: 42e4 18c0 55ca fbbe 7036 49bf 96c4 253b
00000150: 795f 7dba ecb7 44bf c4ad 61bf 7c65 91bf
00000160: 3876 63bf 1f52 11be 0ffc 87bf 2466 73b3
00000170: c5cb 48aa a413 38be 94b3 6fbd 48a4 10be
00000180: c02b 0fbb 9138 82b1 da78 5ebe 84c5 8cbe
00000190: af3f 4bbf 0561 8bbe 200f 7ebf 28f0 51bf
000001a0: c695 64b4 26ed 8e30 e4b4 523b b2d2 85be
000001b0: de53 40be 1e4a 8fbe 5d21 3bbf 1601 f5bf
000001c0: 8efc 7bbf 0ee1 94a8 7ab0 67bf 9ede 1ab7
000001d0: 1d33 41bf e667 6fbf 842a 21bf faed 42bf
000001e0: 968d 90bd b13e 6337 0c5f 0cbf c2a0 27bf
000001f0: bcfa 70bd f4df 6abf 3a04 bdbe ae8c 29bf
-0.08052941 -0.6548036 -0.7686113 -0.23026931 -0.4146686 -0.031490475 -0.0040395916 -0.027268395
-2.3486168 -0.24403143 -1.883577e-06 -0.12922537 -0.033248134 -0.52525467 2.01719e-07 0.00017084538
-0.05180621 -0.027270244 -0.6566287 -1.0345405 -0.54413205 -0.6093259 0.07495602 -0.40489966
-0.5732895 -0.51520926 -0.38198686 -0.6359968 -1.0422983 -0.50977004 1.0844484e-05 -0.25140417
-0.45884186 -0.68051755 5.753281e-12 0.0006765977 -0.6772826 -1.5045773 -0.34595886 -0.7358149
-0.62279046 -1.085563 -1.0260406 -0.7967252 -0.7002653 -1.2897891 -0.454319 -0.00067968934
-0.35481307 -0.67711866 -4.665429e-05 -0.38489065 -0.0030976608 -0.11192876 -0.18298362 -0.61895865
-0.3771606 0.00042033923 -0.50011563 -0.10936116 -0.22788389 -0.27058965 2.3424955e-05 -1.942084e-10
-0.0009626385 -3.0779247e-06 4.5848292e-10 -0.64453477 -0.8636648 -2.2988391e-07 -0.0024884886 -0.39296773
-0.4172219 -0.9181512 -0.007940492 -0.5663426 -0.6144086 -1.4008431 6.151244e-06 -0.56060094
-2.3889318 -0.49177805 -0.7859869 0.0025294176 -0.00096654106 -0.7684314 -0.8815577 -1.1359096
-0.8885226 -0.14191483 -1.0623797 -5.6670743e-08 -1.7834265e-13 -0.17976242 -0.05852087 -0.14125168
-0.0021846145 -3.789929e-09 -0.21725789 -0.27494442 -0.7939405 -0.27222458 -0.9924183 -0.82007074
-2.1288642e-07 1.0399261e-09 0.0032151276 -0.2613731 -0.18781993 -0.27986234 -0.73097783 -1.9140956
-0.9843224 -1.6528903e-14 -0.90503657 -9.230947e-06 -0.7546862 -0.9351791 -0.629555 -0.76144373
-0.070582554 1.3544851e-05 -0.5483253 -0.6547967 -0.05883287 -0.91747975 -0.36917287 -0.66230285

sequential/batch_normalization/batchnorm/mul f4 [128]
00000000: 2f25 743e c75e ef3d b9d6 623e f30b 0b3e
00000010: 503a 523d ffc0 503e 9a8b 1342 4b82 a23f
00000020: 36af 1d3e ad27 233e eb59 f941 9b40 063f
00000030: 7ce0 ae3f 9a2a 913e 4bff fb41 8d96 f941
00000040: 20ef a93f 970f 6f41 a93d 3f3e 637b 333e
00000050: 3d2e 883d 3b3e 6c3d 6cfc d53f daaf 3b3f
00000060: 0122 413e d32b c43e 4b7b b33e db31 283e
00000070: 48ed c23d d6be 003f 40cd e741 987b 913e
00000080: 7a2a f43d 7791 c63d 1c35 fb41 29c0 aa41
00000090: e71a aa3e 95dc 123e d395 893f 3fc2 ce3d
000000a0: 9b4d 1d3f 32e8 e03d 3be7 d13d d400 103e
000000b0: fa4d b03d c669 b73d 4ba4 af3d e31f f341
000000c0: 4cbd 843e 94a0 443e a21f f641 d300 9f3d
000000d0: 7b8e 553d 37f8 aa3f 7f5b 333e 3cc3 763d
000000e0: a61d a33d 3985 e741 5bc4 453f d65f 093f
000000f0: a8b1 013f 3c9d 7e3f 771d f741 b285 fb41
00000100: 32e6 f341 05b6 f541 ddd5 e441 b9c5 bd3d
00000110: 9e6d 893d 945a 1a42 6637 f141 8187 ab3e
00000120: 8273 683e ae60 553e beff e441 aecd 153e
00000130: d253 373e aa1d fc3d 278a f641 d3bd c53e
00000140: 2b0d 2d3e c0b1 413f f6bc f33e 608a ea41
00000150: e5b7 fb41 d485 8f3d 1356 043e bf2f ad3d
00000160: 7426 c93d 0786 513e 460b 8d3d 4bd7 0542
00000170: 7c2f f441 54d1 233e acdd 743d 31c5 103e
00000180: 7ab4 023d 7798 ee41 6470 1f3e 44f1 e13f
00000190: 7c7a 883d fdbe bc3d e57c 633e 0cc5 053e
000001a0: c51f f641 2f2d 0042 3193 c341 4c8b 563e
000001b0: ac09 2b3e 6b23 ce3d aad6 d03e 5fca c43d
000001c0: 6330 a33d d8a8 f541 6918 403e 3c0a ed41
000001d0: 1fc6 813e 6ef4 d33d d60e 2b3e 1012 593f
000001e0: e2c5 7b3e 0a0a f841 949f b03d 362c 893e
000001f0: a170 ab3e 08fa 9b3d 9f3a de3d 8f5b 2e3e
0.2384231 0.11687999 0.22152223 0.13578777 0.051325142 0.20386122 36.88633 1.2696012
0.15398869 0.15933104 31.168905 0.5244233 1.3662257 0.28352815 31.499655 31.198511
1.32761 14.941306 0.18675865 0.17527537 0.06649444 0.057676535 1.6717658 0.73315203
0.18860628 0.38314685 0.35055003 0.16425268 0.09517914 0.5029119 28.97522 0.28414607
0.11922164 0.09695714 31.400932 21.343828 0.3322365 0.14341958 1.0748848 0.10095643
0.6144654 0.10981788 0.10249182 0.14062816 0.08608623 0.089557216 0.08576258 30.39057
0.25925672 0.1920188 30.765446 0.07763829 0.052137833 1.3356999 0.17515372 0.060244784
0.07964639 28.94005 0.7725274 0.5366186 0.50661707 0.9945867 30.889387 31.44028
30.4874 30.713877 28.604425 0.09266228 0.06710361 38.588455 30.15205 0.3350182
0.22700313 0.20837662 28.624874 0.14629242 0.17903069 0.123103455 30.817457 0.38621387
0.16899554 0.7566185 0.47605103 29.317566 31.464792 0.070079476 0.1292346 0.084563725
0.098217875 0.20461284 0.06886916 33.460247 30.523186 0.15997821 0.059781715 0.14137723
0.031910397 29.824446 0.15570217 1.7651753 0.06663987 0.092161156 0.22215612 0.13063449
30.765512 32.044125 24.44687 0.20951575 0.16702908 0.10065349 0.40788776 0.09608912
0.079682134 30.707443 0.18759312 29.629997 0.25346467 0.10349356 0.16704878 0.84793186
0.24587205 31.004902 0.08624187 0.26791543 0.33484367 0.07616049 0.10851025 0.17027114

sequential/dense_2/BiasAdd/ReadVariableOp f4 [12]
00000000: 654d 66bd e12b 59bd 15da b43d 8b28 1c3e
00000010: ede0 053e 592b 80be cff6 b2bd 0ebd 823c
00000020: 77c7 dabd e026 f5bd 020d 143d 1f93 c33d
-0.056226153 -0.05302036 0.08830658 0.15249841 0.13074084 -0.25033072 -0.08738481 0.015959289
-0.10682576 -0.119703054 0.036145218 0.095495455

sequential/dense_1/BiasAdd/ReadVariableOp f4 [32]
00000000: e25c 923e f8cc e33d 7ee9 563e cc45 0e3e
00000010: e977 853c e0ca ad3d cecd ee3d 87d0 ce3e
00000020: 5d9f e63d 43d6 f0bd 635d 913d 791a a13d
00000030: 2b7e 233e 0b90 38bd c651 15be 931c 103d
00000040: b445 113e b9ed ac3d 14e6 c23d a0ee 3e3e
00000050: fee4 7a3e 27d4 573e eb97 403e 24d2 8f3e
00000060: 0d17 a4bd c949 1a3e 6454 873e 0ec4 ce3d
00000070: 1cc2 903d dbe3 0b3d d1e6 153e 5e78 583d
0.2858649 0.11123079 0.20987508 0.13893813 0.01629253 0.08485961 0.11660348 0.4039347
0.11260865 -0.11759617 0.0709789 0.078663774 0.15966098 -0.045059245 -0.14581975 0.0351835
0.14186746 0.084437795 0.0951654 0.18645716 0.24501416 0.21077023 0.18807952 0.28090012
-0.08012209 0.1506721 0.26431572 0.10095988 0.070682734 0.034152847 0.1463883 0.052849166
