frontend/pdiot_app/assets/models/model_online_3CNN_2dense_74.tflite (tflite, 472148 bytes, 10 tensors)

sequential_10/conv1d_25/BiasAdd/ReadVariableOp f4 [64]
000000 7e 43 1c be f0 8f 84 bd 25 c9 39 bd 7d ac a4 bd
       -0.15260121 -0.064727664 -0.045357842 -0.08040712
000010 3e d9 f5 bd aa 60 38 3d f9 76 35 be 7d a1 36 be
       -0.12004326 0.04501406 -0.17721166 -0.1783504
000020 03 77 00 be 70 9a 13 be 66 64 a5 be 40 9e 45 be
       -0.125454 -0.14414382 -0.3230316 -0.19298649
000030 cd 5c e1 bd f9 98 22 3e 8d 76 8a be b6 c7 28 be
       -0.110040285 0.15878667 -0.27043572 -0.16482434
000040 a5 f6 8d bd 47 35 9c be 82 8a f4 bd 40 7a f3 bd
       -0.06931809 -0.30509397 -0.11940481 -0.11888552
000050 ca 13 c2 3d 0d 2c f9 bd 71 11 80 bd 82 32 92 be
       0.09476431 -0.12166605 -0.06253327 -0.2855416
000060 6b 1e 00 be 1a 02 d4 bd d1 a7 57 bd 02 fd 13 be
       -0.12511604 -0.10351963 -0.052650277 -0.14451984
000070 6e 96 d0 bd f6 02 11 be a5 3e 6c bd 76 8d 4e bd
       -0.10184942 -0.14161286 -0.05767693 -0.050427876
000080 32 ad df bd c0 d1 f6 bd 13 f3 96 bd 6d a3 8a be
       -0.10921706 -0.120517254 -0.073705815 -0.2707781
000090 e9 91 36 be a5 9b 5a be 32 0b 0c be 21 96 ec be
       -0.17829098 -0.21348436 -0.13676146 -0.4620829
0000a0 27 32 04 bf 31 7b 42 be 2b 86 32 bc 50 10 75 be
       -0.51639026 -0.18992306 -0.010896246 -0.23932004
0000b0 45 1a 1c bd 8b 02 4b bd 6d b0 2e be 5b 90 43 be
       -0.03811099 -0.049562972 -0.17059489 -0.19098036
0000c0 5a 30 8b be c9 29 82 be dd b7 98 be b0 2f 06 bc
       -0.27185327 -0.25422505 -0.29827777 -0.0081900805
0000d0 46 3b f8 bb 48 a1 2d be 39 0a 20 be 30 49 4e bd
       -0.0075754253 -0.16956055 -0.156289 -0.050362766
0000e0 f3 3b 96 be 28 04 db 3d da d0 9a be 8d 16 80 be
       -0.29342613 0.10694152 -0.30237466 -0.25017205
0000f0 71 44 7f be 2f 5b 03 be e0 85 8e bd 8e 2f a3 be
       -0.24928452 -0.12827753 -0.069591284 -0.3187222

sequential_10/conv1d_26/BiasAdd/ReadVariableOp f4 [64]
000000 30 63 2d bb 45 da e9 bb e7 78 9e bc 98 82 d8 bc
       -0.0026456825 -0.0071366155 -0.01934476 -0.02642946
000010 a2 8b 0a 3e 93 61 5a bb 95 b7 73 bc ac d9 64 be
       0.13529828 -0.003332232 -0.014875312 -0.2234866
000020 5f 58 ad bc a0 86 bb bc 52 20 2a 3d 7a 27 e8 bc
       -0.021160303 -0.022891343 0.04153473 -0.028339136
000030 5a c5 1b be f9 c3 d3 3c 97 77 66 bc 1f a6 7d bc
       -0.15212002 0.025850283 -0.014066598 -0.015481501
000040 0c 8b 2c bb f7 72 ca bc 8a 70 10 bc e8 1a 3b ba
       -0.0026327996 -0.024713023 -0.008815894 -0.0007137493
000050 2e e3 61 3d 4f 43 91 3d d7 69 f7 bb 99 32 5d b5
       0.055148296 0.07092916 -0.007550459 -8.2402545e-07
000060 79 11 c1 3d 66 2d 92 bc 97 b9 57 bd cd 26 09 bb
       0.09427161 -0.017843913 -0.052667227 -0.0020927668
000070 e5 0a 8a bd 0a ea 5b bd 47 eb c9 bc 26 76 89 b6
       -0.06740359 -0.053689994 -0.024648322 -4.0966725e-06
000080 16 4f 20 3d 88 6a d7 3b a6 e1 30 bd c2 11 98 bb
       0.039137922 0.006573979 -0.043183945 -0.004640789
000090 09 a3 2a ba 10 eb 29 3d dd 83 99 bd b4 30 59 be
       -0.00065092795 0.04148394 -0.07495854 -0.21209985
0000a0 8b a9 36 bc d4 4a ae b8 12 92 69 bc 1f d8 6a bc
       -0.011148821 -8.3109044e-05 -0.014256017 -0.014333754
0000b0 33 04 b9 bd 5e fa cf 3d 56 d5 18 bd 61 7c 5c 3d
       -0.09034004 0.101551756 -0.037312828 0.053829554
0000c0 12 6c fb be e3 96 13 bd 6a bb 82 bd 6f 2f 3d bd
       -0.4910589 -0.03603257 -0.06383403 -0.046187814
0000d0 f3 84 af bb 2d 90 49 bd c2 1a 91 bd f6 10 a8 bb
       -0.005356425 -0.049209762 -0.07085182 -0.005128975
0000e0 8e 0a db bd 06 36 fc 3d eb 9a ee bb cf 0a b1 bc
       -0.106953725 0.12314992 -0.0072816513 -0.0216116
0000f0 18 2b 5e bd ae 46 ff bb 88 17 6a b9 b2 85 f5 3d
       -0.054240316 -0.007790408 -0.00022324745 0.11988391

sequential_10/conv1d_27/BiasAdd/ReadVariableOp f4 [64]
000000 2d 5b 22 bd e0 2f 3f bc 4e 4e 87 bd 9c 7d 67 3a
       -0.039637733 -0.011669129 -0.06606732 0.0008830668
000010 fc 0f a9 3d 96 fc e7 bc 4f fc 4a 3d df 80 1b 3d
       0.08255002 -0.028318685 0.049557026 0.037964698
000020 44 0c 0d bd d9 1b 4a bb e9 00 80 3d 17 66 99 bc
       -0.034435526 -0.0030839352 0.062501736 -0.018725438
000030 2e 4e 14 bd bc b5 f0 bc 82 ec 17 3d f0 77 7f bd
       -0.03620737 -0.029383533 0.037090786 -0.06237024
000040 28 c0 c0 bb 84 e4 aa ba 8d c8 21 bd 00 f7 96 3d
       -0.005882282 -0.0013038074 -0.0394979 0.0737133
000050 1e 83 58 3d af 5f 98 bb d5 01 48 3d ee 7e de b8
       0.052859418 -0.0046500782 0.048829872 -0.000106094274
000060 58 53 3f bc e4 5a ca bc 5c 7d 0d bd 94 18 1a 3e
       -0.011677586 -0.024701543 -0.03454338 0.15048438
000070 3a 45 99 bc c4 d0 02 bd 8b 65 f0 bc 6e 81 34 bc
       -0.018709768 -0.031937376 -0.029345294 -0.011017187
000080 20 f8 e0 bc 99 c1 83 bb 62 32 16 3e 3e ae 03 3e
       -0.027462065 -0.0040208814 0.14667657 0.12859437
000090 bd fc 04 3e 6f 70 b4 bc a3 d9 5c 3d c9 76 24 3e
       0.12987037 -0.022026269 0.053918492 0.16060938
0000a0 c4 1a 45 bd 3a 70 24 3d 4a 48 f2 3d ef a4 1c 3d
       -0.04812123 0.04014609 0.11830194 0.03824323
0000b0 dd 24 2f bd 05 57 e6 b9 67 69 0b bd 56 ca 1f bc
       -0.042759765 -0.00043933853 -0.034036066 -0.0097528305
0000c0 fb 55 98 3d 61 c2 e7 bc f0 d3 12 bc a2 7f 07 3e
       0.074382745 -0.02829093 -0.008961663 0.13232282
0000d0 72 8f 8c bc d9 a6 93 bd 43 03 22 3e c4 dd a4 bc
       -0.017158244 -0.07209558 0.15821557 -0.020125277
0000e0 9a df c9 3d 5e 47 5a 3d 90 3e 40 bc 44 5e 0d bd
       0.09857102 0.053290717 -0.011733666 -0.034513727
0000f0 33 8b 1f 3e cb 9f 61 bd 80 51 a7 ba ce cd 02 3e
       0.15580444 -0.05508403 -0.0012765378 0.12773821

sequential_10/conv1d_25/Conv1D f4 [64, 1, 3, 6]
000000 58 2a 1e 83 0f c6 8b 03 b9 8a 59 83 6c ba fb 02
       -4.6480635e-37 8.215158e-37 -6.3929814e-37 3.6988136e-37
000010 1a 4c e5 82 b5 63 90 83 78 04 88 83 e1 d8 90 03
       -3.3692206e-37 -8.486451e-37 -7.994388e-37 8.513352e-37
000020 f2 71 57 83 f7 a3 fd 82 87 5b 9f 02 6f ef c1 03
       -6.3313624e-37 -3.726912e-37 2.3415484e-37 1.1398492e-36
000030 d8 22 a6 02 03 cb 9d 03 89 52 5b 83 43 c1 44 03
       2.4411507e-37 9.27424e-37 -6.445306e-37 5.7821077e-37
000040 e6 8a e3 82 c6 ed 5a 83 06 d3 be 3a f3 13 96 3c
       -3.3434376e-37 -6.4337393e-37 0.001455874 0.01832006
000050 9b 92 61 bb 1f 79 6f be e0 d1 53 bd dc f3 8a bd
       -0.003441966 -0.23386048 -0.051713824 -0.06784794
000060 10 a5 41 3a d7 88 9c 3c 4c cd 8b 3a 3e a0 f7 3c
       0.0007386962 0.01910822 0.0010666042 0.030227777
000070 e0 c0 a4 3c ba 5c 86 bd 9f c8 63 bb 68 df 57 3c
       0.020111501 -0.06560655 -0.003475703 0.013175823
000080 1b 7f 5d ba b0 1c 58 3e 12 47 05 3d ee 45 20 3e
       -0.0008449421 0.21104693 0.03253848 0.15651676
000090 35 d4 3c 3c 25 b8 a7 3b a4 e2 2d bc 08 a9 54 3e
       0.0115252035 0.0051183873 -0.010613117 0.20767605
0000a0 71 33 07 be c2 fd f7 3d 49 85 6f 3c e8 29 83 3b
       -0.13203217 0.12108947 0.01461918 0.0040027983
0000b0 c6 8b d6 ba 83 09 31 bc 8a 5b e9 bc dd 04 a8 3c
       -0.001636856 -0.01080549 -0.028486032 0.020510131
0000c0 b8 b7 7b 3c 9c 4e d5 3b ba 87 e2 3a 6b 93 51 be
       0.015363626 0.006509615 0.0017282881 -0.20466392
0000d0 e7 71 22 3e 43 eb de bd e0 13 03 3c cc 9b 4d ba
       0.15863763 -0.10884716 0.008000344 -0.0007843345
0000e0 58 da 09 3c 33 ae c1 3c a7 83 3b 3c 88 50 46 be
       0.008413874 0.023642635 0.011444963 -0.19366658
0000f0 66 1c 03 bc 00 14 46 bc ac 5d 5d 3c fa a9 25 bd
       -0.008002376 -0.012089729 0.013511103 -0.040445305
000100 5a a5 90 bc 70 48 c5 3e 40 5a 6e 3a 51 ea 8b bc
       -0.01765697 0.38531828 0.0009092428 -0.017079504
000110 dd 76 93 3c 90 9d 0a 3c c6 53 93 3c bd 75 4d be
       0.018001014 0.008460417 0.017984282 -0.20064445
000120 cf bd af 3c aa 6f a1 3c 61 f4 d6 bc 0d ad cd bc
       0.021452812 0.019706566 -0.026239576 -0.025106931
000130 32 15 79 bd 38 b0 65 3a 4e bb a8 3c e3 3f 9e 3c
       -0.06081123 0.00087619154 0.020597126 0.019317573
000140 bf 52 b6 bc a8 e3 89 3c 78 00 b9 3d 74 33 e4 3d
       -0.022256253 0.016832188 0.090332925 0.111426264
000150 18 fb 9d 3c 42 96 7d 3c 12 02 67 bc d0 7c 80 bb
       0.01928477 0.015477719 -0.014099615 -0.003921129
000160 19 4a a3 bc 6c 03 ea bd 01 1e 10 be 9d dc 4f be
       -0.019932793 -0.11426434 -0.14073946 -0.20299001
000170 28 bd 6e 3c 44 32 ac bb 3b 9e 9b 3a 5d 72 ab bc
       0.014571466 -0.0052550156 0.0011872718 -0.020928556
000180 f8 d3 0e be 02 ff 4e be 9b 12 fc 3c 8a 05 db ba
       -0.13948047 -0.20214465 0.03077059 -0.0016710025
000190 07 2b a7 bb f0 34 0c bc 62 9e 0e be 33 98 4a be
       -0.005101565 -0.008557543 -0.13927606 -0.19784622
0001a0 05 98 97 3c 37 eb 70 bb f6 42 97 bb 4e fe 1c bc
       0.018505106 -0.0036761293 -0.0046161367 -0.009582115
0001b0 ce e1 cb 3c 35 ae a1 bc 3c f4 04 3c bf c6 0e 3c
       0.024887946 -0.019736389 0.008114871 0.008714377
0001c0 81 1c 21 3d e1 de 3f be 9c 21 ae 3c 8a 5e a3 bc
       0.039333824 -0.18737365 0.02125626 -0.01994254
0001d0 51 48 ef 3b 6c f0 dd 3b aa 8b e2 3c 8c d9 1a be
       0.007302322 0.0067730453 0.027654488 -0.1512205
0001e0 bd b6 b0 3c b5 a3 98 bc 0c 84 c2 3b eb 9c 17 bb
       0.021571511 -0.01863275 0.0059361514 -0.0023134302
0001f0 e5 a1 13 3c 21 cd 0d be b0 11 a1 3c d4 84 3d 3a
       0.009010767 -0.13847782 0.019661754 0.0007229571
000200 7a cd 23 bd 9b 5e 06 3e 0f df 53 bd be 65 b9 3d
       -0.03999088 0.13122027 -0.051726397 0.09052609
000210 57 ac b0 3c 68 0e 10 3b 0d c2 05 bd 6f 8d 90 be
       0.021566553 0.0021981243 -0.032655764 -0.28232905
000220 fe b5 d2 3d 83 16 b7 bd 32 9c 3f 3c df 80 f8 bb
       0.102886185 -0.08939841 0.011694955 -0.007583722
000230 68 ef e8 bc 98 89 1f 3e 2e 4c 7a bd 41 f2 e1 3c
       -0.02843447 0.15579832 -0.061107807 0.027581336
000240 84 63 35 83 06 66 f0 82 a0 81 76 83 72 44 46 03
       -5.3305358e-37 -3.532339e-37 -7.2441705e-37 5.826554e-37
000250 8e 35 2d 03 d8 ae 75 82 44 c2 49 83 c0 85 0a 83
       5.090161e-37 -1.8049935e-37 -5.9291597e-37 -4.0708093e-37
000260 62 a8 b6 83 1c 19 19 03 17 1f 10 83 8c 89 8c 02
       -1.0735657e-36 4.4991483e-37 -4.2353486e-37 2.06501e-37
000270 37 05 6c 83 2c c6 44 83 d3 df 5d 83 34 e5 2d 83
       -6.9360153e-37 -5.7826713e-37 -6.5203e-37 -5.1103243e-37
000280 33 51 44 03 68 ba 0d 03 de c2 8d 03 ad 51 87 02
       5.7692435e-37 4.165016e-37 8.3319745e-37 1.9883347e-37
000290 b5 4b 91 03 3f c8 15 03 f8 77 2e 83 4b 26 6d 82
       8.5397155e-37 4.4017036e-37 -5.127172e-37 -1.7423e-37
0002a0 cc fb 8e 03 bf 4e 84 01 a2 45 8b 03 64 aa b5 02
       8.40382e-37 4.8602137e-38 8.185673e-37 2.669336e-37
0002b0 fb 61 17 83 e0 9f 32 03 09 39 80 03 37 ae d5 01
       -4.448739e-37 5.2493026e-37 7.5362585e-37 7.849383e-38
0002c0 74 07 bb 03 0c b5 1a 03 92 47 48 83 4f 98 73 83
       1.0992583e-36 4.5464364e-37 -5.8856876e-37 -7.1586124e-37
0002d0 b6 3e 02 be 66 9b b7 3d 56 e0 56 bc d7 0d 01 bc
       -0.12719235 0.08965187 -0.013115009 -0.007876835
0002e0 18 1b e5 bb 2d e1 7a 3d 86 56 02 be f3 1e b7 3d
       -0.006991755 0.0612499 -0.12728319 0.0894145
0002f0 71 b5 55 bc e2 8b 3b bc 72 14 f6 3b 21 57 5f 3d
       -0.013043747 -0.011446925 0.0075097615 0.054526452
000300 24 47 02 be 45 dd b7 3d e7 da 38 bc 06 63 52 bc
       -0.1272245 0.08977751 -0.011282659 -0.012840992
000310 d6 fa 95 3c 5a f8 28 3d d6 1d f5 bc d4 a2 2c 3d
       0.018308084 0.04125247 -0.029921453 0.042147473
000320 90 34 bf ba 02 6d a5 bd e6 40 62 bd 7f 9c 71 be
       -0.0014587808 -0.08077432 -0.055237673 -0.23594855
000330 d9 a7 f3 bc 3f fa 36 3d fe 7a eb bb 0f c1 35 3c
       -0.029743122 0.044672247 -0.0071862927 0.011093392
000340 92 0a 7f bc 42 cd a5 bd 5f b4 d5 bc 61 0d 39 3d
       -0.015566485 -0.080957904 -0.026086984 0.045178775
000350 c0 f6 36 bc db 10 09 be d3 c5 88 bd cc 84 31 be
       -0.011167228 -0.13385336 -0.06678357 -0.17335814
000360 84 07 4c 03 ac 53 5f 02 02 f5 2a 02 06 7c 15 83
       5.995884e-37 1.6407465e-37 1.2559941e-37 -4.3929536e-37
000370 81 23 4f 03 6f 50 5b 82 79 74 62 80 58 2d 7e 02
       6.087259e-37 -1.6112662e-37 -9.041661e-39 1.8673986e-37
000380 a6 3e ae 02 09 cd 14 03 c6 d0 30 83 84 7c b9 02
       2.560296e-37 4.372866e-37 -5.196141e-37 2.7254775e-37
000390 c6 c7 9f 81 3b f5 6c 02 94 00 b9 02 5c 0e 33 83
       -5.8694036e-38 1.7408919e-37 2.7183639e-37 -5.2619856e-37
0003a0 e9 b2 3b 03 7c 99 99 01 a5 14 79 3c a0 0f 4b 3e
       5.515974e-37 5.6423563e-38 0.015202676 0.19830179
0003b0 35 43 eb 3d f5 b1 c7 3a 92 a1 09 bc 20 23 15 bb
       0.11487428 0.001523553 -0.008400338 -0.0022756532
0003c0 06 a3 7e 3c a1 b3 4b 3e f7 de e7 3d f0 ee 87 3a
       0.0155417975 0.19892742 0.11321824 0.0010370892
0003d0 56 3e 5a bc f9 70 ca ba 91 ce 89 3c 7b 24 4b 3e
       -0.013320526 -0.0015445045 0.016822131 0.19838135
0003e0 8a 94 e6 3d 8b 67 c4 b9 ac e8 d4 38 89 19 9b bb
       0.112588 -0.0003746118 0.00010152286 -0.0047332686
0003f0 02 e9 70 3c 09 67 22 3c bf bd 8a bc ed 80 0f 3d
       0.014703991 0.009912261 -0.016936181 0.035035063

sequential_10/conv1d_26/Conv1D f4 [64, 1, 3, 64]
000000 d9 b0 2e 83 37 21 82 03 8f cd 18 03 40 e1 36 03
       -5.1337015e-37 7.648339e-37 4.4904755e-37 5.3743567e-37
000010 a4 a9 80 83 b6 4d 4c 82 76 5d ae 03 1f ee 8d 83
       -7.562111e-37 -1.5009855e-37 1.0248258e-36 -8.341905e-37
000020 83 7f 95 83 02 8c 1c 03 30 44 1a 03 c8 21 f7 82
       -8.786708e-37 4.6005e-37 4.533481e-37 -3.6312778e-37
000030 25 80 b9 02 74 70 9d 01 05 83 63 82 6c 9f 27 83
       2.7256858e-37 5.7834054e-38 -1.6714927e-37 -4.9259896e-37
000040 fe 8d a2 82 5a 56 66 02 6f bb b0 83 2c 87 99 03
       -2.388526e-37 1.6922513e-37 -1.0387383e-36 9.023566e-37
000050 b6 cd a8 02 14 da 9e 83 2c 93 7e 83 db 15 fd 82
       2.4803454e-37 -9.336474e-37 -7.4812836e-37 -3.7187553e-37
000060 ea 52 92 83 d0 7e ea 82 c4 4f 48 03 71 f1 88 81
       -8.600145e-37 -3.4455997e-37 5.8866284e-37 -5.030496e-38
000070 7b 66 12 83 a4 a6 0a 03 c1 60 8c 03 36 3e b9 83
       -4.3023186e-37 4.074585e-37 8.250674e-37 -1.0887606e-36
000080 9d d0 34 82 11 1f 74 83 e6 72 de 02 22 67 2e 83
       -1.328418e-37 -7.174082e-37 3.2685917e-37 -5.1252395e-37
000090 ef 62 0f 83 54 1b b5 02 5a 40 b0 82 69 17 04 03
       -4.2137493e-37 2.6611245e-37 -2.5897812e-37 3.8818187e-37
0000a0 ea 2e f7 02 b6 40 a6 82 43 d1 22 03 40 89 9b 83
       3.6320315e-37 -2.442865e-37 4.784774e-37 -9.141592e-37
0000b0 f8 44 8d 83 2c 60 3f 82 6d ac 87 83 d0 8b 85 01
       -8.30307e-37 -1.4060064e-37 -7.974174e-37 4.9057105e-38
0000c0 38 15 5b 82 a4 30 e3 01 b6 7b 99 82 e6 3f 7c 82
       -1.6095668e-37 8.3456426e-38 -2.2552336e-37 -1.8532374e-37
0000d0 16 af ff 02 da ca b1 03 40 ba 0c 83 e7 fa 4f 03
       3.7569377e-37 1.0449697e-36 -4.1356107e-37 6.1119854e-37
0000e0 54 cc 4b 03 09 21 43 81 0e 74 9e 83 23 c9 cc 02
       5.9890895e-37 -3.5839545e-38 -9.31305e-37 3.0090553e-37
0000f0 95 27 87 02 34 da ac 82 e9 9e 1b 83 50 65 dc 02
       1.9859186e-37 -2.539837e-37 -4.5732826e-37 3.2384245e-37
000100 56 b6 b6 82 52 8e b6 02 fe 87 57 82 05 51 a0 03
       -2.6847152e-37 2.6824184e-37 -1.5834733e-37 9.422556e-37
000110 97 23 b7 83 ba fd a5 82 00 26 42 03 44 71 0e 83
       -1.0763944e-36 -2.4390203e-37 5.70551e-37 -4.186007e-37
000120 4f ff 45 83 fe 9f 30 83 6c aa 2c 82 fa b6 42 03
       -5.8186177e-37 -5.1905413e-37 -1.2685473e-37 5.7221523e-37
000130 ea d5 ab 02 4c 4a 1f 01 76 99 29 83 06 e8 a2 82
       2.5248972e-37 2.9256993e-38 -4.98408e-37 -2.3936936e-37
000140 ec 6d 0b 83 5c 00 cb 02 e0 8d 78 03 0d b0 9b 03
       -4.0974613e-37 2.9828375e-37 7.3043514e-37 9.1505005e-37
000150 7b 0c b3 02 48 f9 f8 82 92 fd 79 03 93 30 95 83
       2.630885e-37 -3.6583405e-37 7.346561e-37 -8.768585e-37
000160 82 4e b1 03 03 f0 0c 83 94 0b 4e 02 c3 bd 90 83
       1.04211495e-36 -4.141782e-37 1.5137813e-37 -8.5071265e-37
000170 8a cd 8c 02 f4 16 58 02 c4 bc e6 02 7a 9a 9c 82
       2.0689125e-37 1.5875761e-37 3.3903809e-37 -2.3010805e-37
000180 e9 86 4a 03 fb a8 76 83 f9 80 d7 82 63 7b fc 02
       5.9517334e-37 -7.2486883e-37 -3.1665437e-37 3.7098893e-37
000190 07 7b 13 83 75 7b 9b 02 23 48 86 03 e0 7c 80 01
       -4.3340646e-37 2.2846064e-37 7.892374e-37 4.719896e-38
0001a0 a2 d0 0a 02 64 0b c1 02 56 94 fa 02 a5 41 17 83
       1.0198513e-37 2.836534e-37 3.681934e-37 -4.445027e-37
0001b0 42 cc f6 82 3e 72 b4 02 3a 26 3c 81 b0 cb b7 83
       -3.626369e-37 2.6514195e-37 -3.4557573e-38 -1.0802538e-36
0001c0 16 6c 81 81 47 a1 2e 03 51 c6 3c 83 5c 9e 64 82
       -4.754221e-38 5.131914e-37 -5.547589e-37 -1.6796241e-37
0001d0 2c 5f 11 03 16 58 02 03 71 96 0e 83 40 b1 4c 03
       4.272092e-37 3.8304684e-37 -4.1902748e-37 6.0153685e-37
0001e0 0f 81 38 03 ba 1c 1b 81 ec f7 c1 83 d0 a8 04 83
       5.422089e-37 -2.8489614e-38 -1.1400441e-36 -3.89851e-37
0001f0 1c 52 b6 83 82 ff a3 82 e1 2b c2 03 7a 63 c2 02
       -1.071585e-36 -2.4097352e-37 1.1412369e-36 2.8562835e-37
000200 44 a7 bb 03 9c e0 1e 83 97 e9 b4 03 dd 3a 52 03
       1.10292745e-36 -4.6689866e-37 1.0633079e-36 6.1781025e-37
000210 d5 13 82 03 54 20 78 82 eb cc bf 02 3c e7 4b 82
       7.6452665e-37 -1.822944e-37 2.8182545e-37 -1.4980446e-37
000220 f7 9c 30 83 a2 ca ab 03 1f 06 97 03 87 5b 08 02
       -5.190194e-37 1.0096999e-36 8.876388e-37 1.0017969e-37
000230 2d 31 2d 03 56 14 85 01 eb da b8 83 82 de ad 02
       5.089658e-37 4.8885665e-38 -1.0864809e-36 2.5547779e-37
000240 04 96 90 82 ca ea 9a 01 36 6d 5a 03 88 2b cc 01
       -2.1245003e-37 5.690757e-38 6.418981e-37 7.500023e-38
000250 2c 78 bd 02 d8 53 06 03 0d df 35 83 49 20 64 83
       2.784003e-37 3.947531e-37 -5.344717e-37 -6.704024e-37
000260 7e d2 6a 03 5d 18 17 83 5f c3 2c 03 1c f8 fd 80
       6.9008053e-37 -4.440288e-37 5.077053e-37 -2.3323385e-38
000270 a7 99 b6 03 04 0c 8b 83 7c 16 38 83 c6 a7 18 03
       1.0732275e-36 -8.172444e-37 -5.409855e-37 4.486138e-37
000280 1b 0f 39 03 99 22 77 83 89 65 7f 03 1c b1 c3 03
       5.4383954e-37 -7.2626492e-37 7.505432e-37 1.1501732e-36
000290 f3 f1 60 83 bc 7b e9 02 6b eb 81 83 92 91 8f 81
       -6.6105428e-37 3.4307293e-37 -7.635988e-37 -5.2738787e-38
0002a0 2a 58 e2 82 51 5d a3 03 7c 7d 47 03 c7 ca 20 80
       -3.325832e-37 9.601703e-37 5.8624893e-37 -3.011479e-39
0002b0 6a b1 bd 02 1a 0a 2f 83 a2 dc 16 03 98 ca 29 83
       2.7872885e-37 -5.1439474e-37 4.433431e-37 -4.9897203e-37
0002c0 0a e7 40 01 95 4b b8 03 e8 1c 1a 03 66 d1 fe 81
       3.5430593e-38 1.0831901e-36 4.5289715e-37 -9.3605336e-38
0002d0 47 cd 0e 03 0d 2b 38 03 e8 f0 02 83 00 d7 5c 03
       4.1965696e-37 5.412216e-37 -3.8480113e-37 6.4898997e-37
0002e0 ce 68 4b 82 f8 cd 38 02 b7 97 91 83 34 84 7c 83
       -1.4944162e-37 1.3577295e-37 -8.557166e-37 -7.4207906e-37
0002f0 1c bc 0c 83 3a 3b 31 83 31 b0 1b 03 c3 bb 5c 01
       -4.135824e-37 -5.2083614e-37 4.5752664e-37 4.054233e-38
000300 f2 3b f3 02 d6 10 c2 83 9c a5 00 03 31 1f d6 01
       3.5740048e-37 -1.14061605e-36 3.780593e-37 7.865594e-38
000310 8e a1 b0 83 4c 7f c3 82 a2 22 a7 83 ea bb 65 83
       -1.0381441e-36 -2.872574e-37 -9.823329e-37 -6.7512766e-37
000320 7d 7c ac 80 24 a6 d4 02 de 6e 28 83 a2 47 a0 82
       -1.5840363e-38 3.124596e-37 -4.949803e-37 -2.3551002e-37
000330 56 67 5f 00 6f 44 74 83 99 cc c6 03 44 00 c3 03
       8.761442e-39 -7.1783713e-37 1.1684367e-36 1.1461131e-36
000340 58 ba 75 81 10 78 ca 82 8f 3e 87 83 0d 5a 43 03
       -4.5133088e-38 -2.9750145e-37 -7.94895e-37 5.7408723e-37
000350 a2 09 c6 03 34 6a 3e 03 d4 7e a6 83 e5 69 4e 03
       1.1639606e-36 5.5957897e-37 -9.785721e-37 6.065952e-37
000360 64 2b e4 82 4a ce 5e 03 79 33 80 03 36 35 84 03
       -3.3526494e-37 6.5476745e-37 7.534981e-37 7.770479e-37
000370 7a 6e 03 02 37 bb ae 80 cd 96 82 83 ef 3a 32 02
       9.656065e-38 -1.6046536e-38 -7.675335e-37 1.3094288e-37
000380 7e 6a f9 82 f9 01 1a 03 fc a2 85 81 99 1f 3c 83
       -3.6648385e-37 4.5258797e-37 -4.9090355e-38 -5.5284507e-37
000390 88 37 6b 83 25 80 92 03 b6 89 a2 83 51 c0 32 83
       -6.912404e-37 8.610529e-37 -9.553121e-37 -5.2530267e-37
0003a0 36 d4 61 83 66 f8 f4 02 90 58 c6 82 64 38 e5 02
       -6.6365163e-37 3.5995151e-37 -2.9144318e-37 3.3680892e-37
0003b0 81 3a e8 82 f4 e7 51 83 ce 0b a6 02 11 8d 9d 03
       -3.4122916e-37 -6.168585e-37 2.4398283e-37 9.260018e-37
0003c0 12 84 bb 03 fb a0 8f 83 74 83 bb 02 83 22 61 83
       1.1021194e-36 -8.441744e-37 2.755263e-37 -6.6161175e-37
0003d0 b0 1d 2d 83 d6 03 8d 03 a0 fa 56 03 73 5e 0a 03
       -5.087421e-37 8.288116e-37 6.317665e-37 4.0662977e-37
0003e0 7a 31 29 03 bd 85 f4 02 a2 fe 4b 83 da a0 09 03
       4.9721433e-37 3.592934e-37 -5.9948642e-37 4.044533e-37
0003f0 33 84 19 82 28 6c 2e 03 6c c6 89 03 89 c2 8f 03
       -1.1278604e-37 5.125816e-37 8.097692e-37 8.449448e-37

sequential_10/conv1d_27/Conv1D f4 [64, 1, 3, 64]
000000 d9 4f ec 01 07 79 07 82 41 c8 35 03 2a 04 28 03
       8.6807284e-38 -9.952967e-38 5.3421e-37 4.9375543e-37
000010 3a be 97 82 ec 56 9d 03 5a f1 10 83 de 7c 64 03
       -2.229664e-37 9.247587e-37 -4.2594855e-37 6.714652e-37
000020 45 bf d1 81 fe 8a 06 83 fb a0 97 02 ce a9 50 02
       -7.7048933e-38 -3.9538616e-37 2.2279854e-37 1.5330158e-37
000030 f2 51 16 83 cc ec 29 03 1a 1a 84 83 21 af 26 03
       -4.4175107e-37 4.9936466e-37 -7.764255e-37 4.8984054e-37
000040 c3 3d 08 03 56 4f b3 83 28 df 43 82 58 79 ea 82
       4.0037707e-37 -1.0538889e-36 -1.439038e-37 -3.4452858e-37
000050 88 a3 69 83 3a 3b 51 83 b9 d4 b3 03 e1 ce 7a 83
       -6.866027e-37 -6.148757e-37 1.0569513e-36 -7.3705882e-37
000060 24 4c ff 82 61 de 9b 83 92 b5 9a 83 c2 48 a1 02
       -3.7512585e-37 -9.161137e-37 -9.092993e-37 2.3698585e-37
000070 d1 de e8 01 56 cd 97 03 47 7f b9 81 bd 12 09 03
       8.5543066e-38 8.922125e-37 -6.81409e-38 4.028219e-37
000080 be 00 8d 83 15 32 8c 83 e6 49 ca 82 f0 07 3d 83
       -8.287406e-37 -8.239959e-37 -2.9723648e-37 -5.555122e-37
000090 82 0f 90 03 38 b7 43 83 81 67 8a 83 36 2a 37 82
       8.46712e-37 -5.7515674e-37 -8.134674e-37 -1.3456831e-37
0000a0 ea ea 23 03 07 1a bd 83 b0 5d 80 82 2c a5 2f 03
       4.8171063e-37 -1.1114397e-36 -1.8861684e-37 5.1617486e-37
0000b0 a0 29 64 83 bc fd 9f 83 cb 0d 19 83 4b 4d 5a 03
       -6.705096e-37 -9.403435e-37 -4.4978492e-37 6.415317e-37
0000c0 e7 f2 c3 83 6e d2 13 03 4c b5 10 82 0e fc fe 82
       -1.1516838e-36 4.344098e-37 -1.0631479e-37 -3.7466618e-37
0000d0 d9 f3 c1 03 5a c1 49 02 73 9d 22 82 00 5d 44 00
       1.1399505e-36 1.4822637e-37 -1.1947066e-37 6.278176e-39
0000e0 46 97 52 01 a1 f0 a4 83 90 bc 06 82 3e 64 7d 83
       3.8679442e-38 -9.694299e-37 -9.89888e-38 -7.446509e-37
0000f0 c7 0c 4a 03 e9 52 9c 83 fa 26 31 03 aa c2 c0 83
       5.9377132e-37 -9.187891e-37 5.206037e-37 -1.1329438e-36
000100 25 8d ab 82 08 f9 69 83 df b3 89 81 94 13 81 01
       -2.5207205e-37 -6.875842e-37 -5.0583954e-38 4.741521e-38
000110 9b 78 3c 83 94 db 88 03 26 d6 a0 01 bd 5b 60 83
       -5.5386683e-37 8.043774e-37 5.9082005e-38 -6.5932994e-37
000120 16 3f 7d 03 40 ee 46 03 6b c4 28 83 78 74 bf 02
       7.4422437e-37 5.846047e-37 -4.959624e-37 2.8131777e-37
000130 05 6f 01 83 38 fc 56 03 81 60 f7 82 b5 8c 00 03
       -3.8037137e-37 6.317848e-37 -3.6348779e-37 3.7777343e-37
000140 cf 8d 1b 83 6a 81 7b 83 ca 59 21 83 fe 89 86 03
       -4.5713194e-37 -7.391083e-37 -4.741672e-37 7.907494e-37
000150 e7 37 41 83 47 5c 3b 83 ae 7d 6f 83 8e 30 a5 83
       -5.6781775e-37 -5.506029e-37 -7.038006e-37 -9.708976e-37
000160 82 a5 c1 83 2f b0 d0 02 de b3 41 83 81 93 5b 03
       -1.1381519e-36 3.0663978e-37 -5.692408e-37 6.452764e-37
000170 b3 2f 83 83 48 cb 54 81 d2 e9 a0 83 17 2c 10 02
       -7.710439e-37 -3.9084098e-38 -9.457637e-37 1.0592102e-37
000180 a4 d5 60 83 9e e2 c8 01 f2 4c b2 02 e8 05 4c 83
       -6.607293e-37 7.3793577e-38 2.6198914e-37 -5.995699e-37
000190 67 dd 7c 03 10 bf 67 83 26 ec 40 03 77 cc ed 00
       7.43103e-37 -6.8104128e-37 5.6694814e-37 2.1838361e-38
0001a0 14 49 4c 83 12 63 45 83 3a d2 de 82 13 8c 41 82
       -6.00341e-37 -5.8006824e-37 -3.2740632e-37 -1.42196e-37
0001b0 e0 a3 57 83 e7 4a 4c 03 4f 89 29 03 3d 10 95 03
       -6.337094e-37 6.0036196e-37 4.982226e-37 8.761161e-37
0001c0 47 f7 7c 83 8a 36 5d 02 6c be b9 02 2a b2 a1 01
       -7.4340005e-37 1.6252168e-37 2.7292604e-37 5.939771e-38
0001d0 56 de 5b 83 d4 6e c1 82 cd 83 44 83 4e 48 9f 83
       -6.4613545e-37 -2.8422413e-37 -5.7750523e-37 -9.36178e-37
0001e0 37 87 cc 02 94 13 9b 83 5a 16 5c 03 90 20 ad 03
       3.0052715e-37 -9.114576e-37 6.4677848e-37 1.0175502e-36
0001f0 cf 88 e6 02 ea 34 90 83 28 a9 b6 03 4a 18 a1 83
       3.3873987e-37 -8.475708e-37 1.0735835e-36 -9.468306e-37
000200 68 74 fa 02 35 28 9c 02 c1 77 15 82 46 3c 5b 83
       3.6801012e-37 2.2945218e-37 -1.0981159e-37 -6.4427506e-37
000210 30 49 48 83 c3 48 6a 03 25 0a 6f 03 28 d2 58 83
       -5.8858733e-37 6.8849946e-37 7.0247433e-37 -6.3717942e-37
000220 dd 82 b0 03 08 f1 a4 02 e8 d3 45 82 f1 1d a0 83
       1.0374395e-36 2.423598e-37 -1.4534088e-37 -9.410829e-37
000230 f8 f8 22 83 64 29 5d 03 fe ae 97 83 ad 70 8e 02
       -4.7893323e-37 6.4993577e-37 -8.915159e-37 2.0929697e-37
000240 06 71 4c 80 f8 98 c4 83 50 e1 0e 83 c1 6a 6a 83
       -7.020043e-39 -1.15549645e-36 -4.1988696e-37 -6.8888967e-37
000250 c6 a5 3f 83 6e a8 27 83 42 a3 2b 03 95 db a9 02
       -5.6320154e-37 -4.9270237e-37 5.0439794e-37 2.4958352e-37
000260 ce 71 8d 83 46 18 9a 02 df e6 b2 03 d8 6c c3 83
       -8.313363e-37 2.2642199e-37 1.0514905e-36 -1.1486059e-36
000270 f9 17 3b 83 8a 7f 71 80 fc 0b 44 82 37 ef a7 03
       -5.498188e-37 -1.0423163e-38 -1.4403245e-37 9.870299e-37
000280 7c 24 4a 83 e5 e5 3a 03 90 66 10 03 71 24 bf 83
       -5.9404347e-37 5.4924393e-37 4.2435533e-37 -1.1234338e-36
000290 36 db 2d 03 f0 bd a6 02 24 a7 8f 03 ff 66 0f 80
       5.1091772e-37 2.4500527e-37 8.443158e-37 -1.41448e-39
0002a0 ba 34 ba 83 9b 65 9f 83 5d 70 d7 01 c5 88 91 83
       -1.0944203e-36 -9.368508e-37 7.913976e-38 -8.553735e-37
0002b0 fc 1b 55 83 e9 fb 1a 83 f0 71 49 03 ea e8 52 03
       -6.26272e-37 -4.554571e-37 5.9199385e-37 6.1980826e-37
0002c0 b9 cc a3 83 2c 28 5a 02 a4 bf 7d 03 b9 f3 ba 82
       -9.627281e-37 1.6027639e-37 7.457001e-37 -2.7470134e-37
0002d0 65 3f 07 83 1b b2 d6 82 fd 9f d5 02 2c 08 77 83
       -3.9745708e-37 -3.1546701e-37 3.1389366e-37 -7.2596157e-37
0002e0 36 80 e0 02 7c ce 96 83 84 f6 2d 03 f6 b9 ae 03
       3.2987431e-37 -8.863614e-37 5.1123117e-37 1.0269495e-36
0002f0 8b db 1a 03 93 b6 9e 83 5f 84 57 81 f2 a0 a1 83
       4.5508555e-37 -9.328322e-37 -3.9584235e-38 -9.499681e-37
000300 28 af 1a 03 ec ac 01 02 97 67 00 80 5d 75 0e 83
       4.54576e-37 9.527049e-38 -3.7161e-41 -4.1864776e-37
000310 6b d3 f6 02 78 89 b3 02 ca d5 ba 82 9b 36 3d 03
       3.62678e-37 2.638059e-37 -2.7452953e-37 5.560479e-37
000320 18 73 f2 81 04 49 ce 81 c6 58 9f 83 9a aa 10 03
       -8.906191e-38 -7.577722e-38 -9.3655615e-37 4.2513638e-37
000330 b5 d6 50 02 fd 63 e5 82 dc 41 17 83 7f 6a ab 03
       1.5343044e-37 -3.3705916e-37 -4.4450515e-37 1.0074927e-36
000340 ca 6b 7f 01 b4 0b 39 83 51 af 6e 83 f6 4f a4 82
       4.6913438e-38 -5.438005e-37 -7.0143167e-37 -2.414353e-37
000350 80 bb 38 83 18 f2 06 03 23 5c 81 83 06 be 3e 83
       -5.428798e-37 3.965697e-37 -7.603092e-37 -5.605412e-37
000360 89 31 2c 03 cc a1 08 83 fe cb 4b 03 85 b2 31 03
       5.060312e-37 -4.015254e-37 5.989051e-37 5.2220555e-37
000370 14 40 9b 02 67 06 4f 03 eb 62 e6 02 e2 a8 00 03
       2.2811982e-37 6.083918e-37 3.3852239e-37 3.7809687e-37
000380 9c dd 47 83 8a cc a7 03 f9 de c5 00 17 58 fe 81
       -5.873524e-37 9.862338e-37 1.817158e-38 -9.3431267e-38
000390 c8 c3 b4 83 b2 0e 8c 02 f0 16 17 03 18 c5 19 03
       -1.0624398e-36 2.0579586e-37 4.4401243e-37 4.518891e-37
0003a0 23 4a 24 83 50 49 5f 03 5b 69 4b 83 96 89 96 00
       -4.8280373e-37 6.561797e-37 -5.977728e-37 1.3824681e-38
0003b0 6b 6f 8d 83 ee 84 f0 02 f6 07 a2 82 be 68 99 83
       -8.3128155e-37 3.5341128e-37 -2.380833e-37 -9.016579e-37
0003c0 8c cd ad 82 bf b5 23 83 8f f5 7a 83 d6 2b 4e 83
       -2.5538043e-37 -4.811003e-37 -7.3750284e-37 -6.058828e-37
0003d0 e0 e1 9b 83 6f 9c f2 02 9b 17 44 03 ee 24 2b 83
       -9.16194e-37 3.5648493e-37 5.762632e-37 -5.0294777e-37
0003e0 a2 f7 c1 83 6f 2c dc 02 ae 5b 7b 03 9c 49 18 83
       -1.1400374e-36 3.2351598e-37 7.3867514e-37 -4.4753285e-37
0003f0 d3 cb 2e 03 5d fa fb 02 16 29 2e 02 3d b9 82 83
       5.1367983e-37 3.7024837e-37 1.2795292e-37 -7.683242e-37

sequential_10/dense_16/BiasAdd/ReadVariableOp f4 [20]
000000 05 be 4d bd 21 c3 33 3e a1 60 f6 3d 7a 6a 0b 3d
       -0.050230045 0.17554905 0.12030149 0.03403709
000010 f0 b6 56 3e 6d 41 a1 bc f7 54 50 3e 29 7f 0f bd
       0.20968223 -0.019684518 0.20344912 -0.03503338
000020 43 8f 12 bd 91 ce 8f bb 0b 95 04 bd 64 55 3a be
       -0.035781156 -0.0043886383 -0.0323687 -0.18196636
000030 70 dc 9a bc 91 0b 24 3d f3 fb 18 3d 83 25 57 be
       -0.01890394 0.040050093 0.037349652 -0.21010403
000040 7e 91 49 3c 82 11 49 be 5e ee 9a bd aa 61 f2 3d
       0.012302754 -0.19635585 -0.07564996 0.11835034

sequential_10/dense_15/BiasAdd/ReadVariableOp f4 [32]
000000 b7 d0 e2 3d 7f 58 ff bc c0 e6 1a bd 94 50 b5 3d
       0.110749654 -0.031170128 -0.037817717 0.0885326
000010 ab b5 b1 3c f1 d5 d7 bb b3 09 d0 bc 67 83 f9 3d
       0.021693071 -0.006586783 -0.02539525 0.12183266
000020 dd d5 23 3e 6c c3 05 bd 85 74 7d 3d b0 a5 d1 bb
       0.15999551 -0.032657072 0.0618787 -0.0063979253
000030 bd 90 9b 3c c7 c7 54 bd 86 92 da 3d 5d bb 95 bc
       0.018989915 -0.051948335 0.106724784 -0.018277818
000040 14 29 dc bd 33 72 e9 bc 41 04 e8 bc 49 44 b3 bc
       -0.107500225 -0.028496837 -0.02832234 -0.021883147
000050 4f 8d ad bc 79 eb 27 bd 3f 12 03 bd 5f 41 06 bc
       -0.021185545 -0.04099605 -0.031999823 -0.008194297
000060 b8 04 07 3e b0 09 96 3e 52 4d 00 3e 04 ad 89 3c
       0.13185394 0.29304266 0.12529495 0.016806133
000070 bc b5 78 bd 86 d2 28 bc 2c a7 91 bd 2c e0 e0 3d
       -0.06072019 -0.010304099 -0.07111964 0.109802574

sequential_10/dense_15/MatMul f4 [32, 2816]
000000 f8 37 07 bd 9d 16 99 ba ff ea dd 3c 83 fe 85 3d
       -0.03301236 -0.0011679713 0.027089594 0.06542685
000010 62 fe b9 3d 78 74 01 bc 87 4c 1d bd 20 8c 03 be
       0.09081723 -0.0079013035 -0.03840306 -0.12846422
000020 e7 30 0e 3d c9 a5 81 3d 76 41 30 3d 02 07 24 bc
       0.034714606 0.06330449 0.04303118 -0.010011436
000030 85 c2 32 be 61 35 06 bd cf 59 4b 3e c8 66 4a 3e
       -0.17457016 -0.03276575 0.19858478 0.1976577
000040 2c e0 16 3c 5c 7e 2d 3b d9 ef 4f bc c9 91 16 3e
       0.00920872 0.002647302 -0.0126914615 0.1470405
000050 5b 69 85 3e ca 57 41 bd 14 4a 05 3a a5 88 c7 bb
       0.26056942 -0.047202863 0.0005084586 -0.0060892873
000060 7d bb 4c 3d c2 70 8f bd f6 11 33 3e 64 3e 03 3e
       0.04998349 -0.07003929 0.1748732 0.12816769
000070 4e 5e dc 3c 89 0e 2e 3c c9 af 79 bc b4 87 c2 bc
       0.026900437 0.010623583 -0.015239664 -0.023746349
000080 7a 01 44 3d cd 12 c3 bc 1a 5f 48 be f1 32 40 be
       0.04785297 -0.023812676 -0.19567528 -0.18769433
000090 94 e6 98 be df 92 d8 bc 84 c7 23 bf 69 21 52 3e
       -0.29863417 -0.026437221 -0.6397631 0.20520557
0000a0 ae d3 aa 3d fe 63 59 be 7a 90 1d 3e b7 7e 34 bd
       0.08341156 -0.2122955 0.15387145 -0.044066157
0000b0 fe 0a f1 bc 1b 12 5a bc ed fd aa 3d 1f 7a 0d 3e
       -0.029424187 -0.013309981 0.08349214 0.13816117
0000c0 24 31 8c 3d d7 69 59 3c d9 59 4d 3b 47 2b 8e 3d
       0.0684531 0.013269863 0.003133407 0.06941848
0000d0 53 e6 ae 3c 6c a1 ad bd 75 a9 f3 bd 2a 6c 71 bb
       0.021350062 -0.084780544 -0.11897556 -0.0036838152
0000e0 c6 db 33 bc c7 ce c8 be 82 d7 4d 3e bf 26 14 bc
       -0.010977691 -0.3922026 0.20101741 -0.009042441
0000f0 ea 05 28 3e 18 e0 87 bd b6 fb 91 3a 1a 48 5e 3e
       0.16408506 -0.06634539 0.0011137638 0.21707192
000100 30 4d be bb f0 bf cc 3b 67 66 d1 3c bc d4 c6 3d
       -0.0058075413 0.0062484667 0.025561525 0.097085446
000110 bc 95 d2 3c 20 15 07 3d 0a 9f c1 3d 13 c8 fc bd
       0.025706165 0.03297913 0.094541624 -0.12342849
000120 0a a8 52 b9 fe 7c 83 bc 80 19 e4 3c b8 be 21 3d
       -0.0002008976 -0.016050812 0.02784419 0.039488524
000130 49 fb 31 be a7 6b d0 3b 30 c4 fb 3d 27 76 6d 3e
       -0.17381014 0.0063604894 0.12293279 0.23189603
000140 64 58 42 3d 39 37 e2 bc 7a 71 cc bc 68 e6 d0 3b
       0.047447577 -0.027614223 -0.024956454 0.006375123
000150 4d 66 2f 3e 0b aa aa bd 5d 68 15 bd 63 db 63 3d
       0.17128868 -0.08333214 -0.03647648 0.055629145
000160 9f cd e7 3b a4 5c 07 3d ec b2 1c 3e eb 4f 1e 3e
       0.0070740725 0.033047333 0.15302628 0.15460174
000170 8e 04 d6 bc c8 f1 09 bd 83 10 64 bd df 8e e3 3c
       -0.026125219 -0.033677846 -0.05567981 0.027778087
000180 ca 4e 28 3c 0a 6f 30 bb 82 d8 01 be 0b 46 00 be
       0.010272691 -0.0026921653 -0.12680247 -0.1252672
000190 19 62 cd 3c 8f 70 cb bc 99 00 1a bf bf d5 28 3e
       0.02507119 -0.024833946 -0.6015716 0.16487788
0001a0 f9 83 8e bc 73 67 2a be d9 8a 88 3d 8d ce 3b bd
       -0.017396914 -0.16641025 0.06667108 -0.04585128
0001b0 5e 59 22 be 2f c7 6e bc fc 1b a5 bd 1d 9d 62 3e
       -0.15854403 -0.014573856 -0.08061978 0.22130246
0001c0 da a9 3f 3d 14 55 54 3c b7 1c c2 bc 11 c4 f2 3d
       0.046792842 0.012959737 -0.023695333 0.11853803
0001d0 99 69 8b 3d 9d 58 86 bd 02 fe 69 3c f8 90 18 3b
       0.068072505 -0.065598704 0.014281752 0.0023279767
0001e0 c2 4e ff 3d 5f a3 9d be f7 ce 29 3c 31 18 50 bd
       0.12466194 -0.30788705 0.010364286 -0.05080432
0001f0 bc 21 c3 3c 0e 0c 5e be 86 7b 09 3d 10 31 27 3e
       0.023819797 -0.21684286 0.033565067 0.1632731
000200 32 ec 8c 3c dc 8e 24 3c ba ed e3 3c f0 82 13 3e
       0.01720247 0.010043826 0.027823318 0.14405417
000210 42 18 9e bd 83 53 a1 bb 4a 92 f8 3d 70 95 5f b8
       -0.077194706 -0.0049232855 0.121372774 -5.3306518e-05
000220 cb 76 77 3d 7d 9a 1e 3a 86 0c ea bc 92 ba 24 3c
       0.060416024 0.0006050242 -0.028570425 0.010054247
000230 23 9b 98 bd 33 60 53 3d 06 a2 90 3b 78 fe 5c 3e
       -0.07451465 0.051605415 0.004413846 0.21581447
000240 60 fe 91 3b 28 8e 2d bd d7 4b a9 3d 2c d9 39 3c
       0.0044553727 -0.0423719 0.082664184 0.011343282
000250 28 8c 60 3e 57 a7 03 bd 81 f7 19 be e1 24 87 3d
       0.21928465 -0.03214201 -0.15035821 0.06598831
000260 e5 88 fa bc 8b ab 0f 3d cc 23 b9 bc ca 53 bc ba
       -0.030582855 0.035075705 -0.022600077 -0.0014368233
000270 ad 22 00 bd cf e9 48 bd e0 46 26 3d f4 da 2e 3d
       -0.03128307 -0.049051102 0.040594935 0.04268928
000280 95 82 c9 3c 06 5d ee bc 85 08 2c be 78 3e ad 3c
       0.0245984 -0.029097091 -0.16800125 0.021147951
000290 e8 1f bc bd e6 cf 8d 3c 5f 48 0d bf fa 7a 05 3e
       -0.09185773 0.017311048 -0.55188555 0.13035193
0002a0 32 34 22 bd c1 20 de bd e8 d5 c0 3d 34 89 dd 3c
       -0.03960056 -0.10846091 0.094157994 0.027042963
0002b0 88 bd dd bc fd 90 92 bc d7 fd 93 3c 90 51 22 3e
       -0.027067915 -0.017891401 0.018065376 0.15851426
0002c0 c5 36 19 3d f1 13 97 3c 0e b1 bc 3c 4c 27 62 3d
       0.037405748 0.018442126 0.023033645 0.055213258
0002d0 70 9b 92 3c a0 db 6a bd 45 c8 9f 3c 7a 57 14 3d
       0.017896384 -0.057338357 0.019504676 0.036216237
0002e0 73 2f 97 bd 68 12 86 be a0 44 6c bd 77 6b bf bc
       -0.07382097 -0.26185918 -0.057682633 -0.023366673
0002f0 2b d6 90 3d d9 8f 18 be 25 b0 14 bd d0 ea 2d 3e
       0.07072099 -0.14898624 -0.036300797 0.16984105
000300 55 d4 46 bd ad 6c 1c bc cb 5a 51 3c 10 72 52 3e
       -0.04854234 -0.009547395 0.012777994 0.20551324
000310 6c e2 19 bd 1d 3f 35 3d f9 01 9c 3d b5 a9 bd bc
       -0.03756945 0.044249643 0.07617564 -0.023152212
000320 be 32 41 3d e4 c3 46 3d 05 cf 75 3d 13 66 36 3c
       0.047167532 0.04852666 0.060011882 0.011132735
000330 f1 99 4c bd 42 99 2a bd 28 67 bb ba de c6 63 3e
       -0.049951497 -0.041650064 -0.0014297711 0.2224383
000340 b6 d5 cd bc 0f c8 06 bd fb 34 a9 3d 6d 8c 2c 3e
       -0.02512632 -0.032905634 0.08262058 0.16850443
000350 fa 5f 1a 3e b5 6e 96 bd 8d 71 bd bd 98 3b ac 3c
       0.15075675 -0.073453344 -0.09250174 0.02102451
000360 e0 e0 70 bd 31 c6 4f 3c 19 ad d6 3d 53 63 c2 3d
       -0.058808208 0.01268153 0.104822345 0.09491601
000370 dc bf be bd af 39 c6 bc c3 d2 36 3e a2 a4 67 3d
       -0.09313938 -0.024197428 0.17853837 0.05655349
000380 65 f2 95 bd f0 ad 2c 3d 7d 07 06 be 16 bf 49 bd
       -0.07321624 0.042158067 -0.13088794 -0.0492545
000390 bc 6d 26 bd 3c e0 10 bc 57 6a 1d bf fa f6 4d 3e
       -0.040631995 -0.008842524 -0.61490387 0.20113745
0003a0 87 6f d5 bd c8 08 1c be 14 e4 2f 3e eb 3c 2f 3e
       -0.10421663 -0.15237725 0.17176849 0.17113082
0003b0 a9 61 03 3c 3d 73 c1 3c 0e bb 8a 3c 48 56 3c 3e
       0.008018889 0.02361452 0.016934898 0.18392289
0003c0 60 19 a0 3d d5 7f 5b bd 30 98 31 bd 65 9c c9 3d
       0.0781734 -0.053588707 -0.043358028 0.09844283
0003d0 e9 cb 8c 3d 30 23 58 3c 9d 04 b7 bc 5d f2 38 bb
       0.0687483 0.013191983 -0.022341067 -0.0028220632
0003e0 b0 8b d4 bd c4 91 81 be 08 ab 4a 3d 1d 9f 98 3c
       -0.10378206 -0.25306523 0.049479514 0.018630559
0003f0 7f 8a d5 bc 07 e4 46 bd e9 8b 8f bb 21 5c 72 3e
       -0.026067017 -0.048557308 -0.0043806923 0.23667957

sequential_10/dense_16/MatMul f4 [20, 32]
000000 f3 b1 ff be 3c b4 98 be ed 77 df bc ab f5 2a 3e
       -0.49940452 -0.29825008 -0.027278865 0.16695277
000010 fb 4c 7a 3d 7a 00 91 be cf 10 82 3e 6a 38 9c bf
       0.06110857 -0.28320676 0.2540345 -1.2204716
000020 02 51 09 c0 e0 76 0f 3e e1 c9 8a 3e 54 f4 00 3e
       -2.1455693 0.14010191 0.27107146 0.12593204
000030 25 f3 06 bf 44 1e b6 3c 3d 08 1e be 4e 9c 58 3e
       -0.5271476 0.022231229 -0.1543283 0.21153376
000040 01 6a 89 3e f3 eb 5b 3e 04 54 02 be 95 a3 29 be
       0.26838687 0.21476726 -0.12727362 -0.16566308
000050 a0 69 db bd ad 30 95 be 5e ac 06 be f2 ce 24 bd
       -0.10713506 -0.291387 -0.1315169 -0.04023642
000060 ff 59 f9 bf c5 ea ac bf d7 ec 08 bd e1 1d 8d bd
       -1.948059 -1.3509146 -0.033428993 -0.068904646
000070 f5 38 1c be 52 3f 3f 3e 33 00 53 3e da 0a 64 bd
       -0.15256102 0.18676499 0.20605545 -0.05567441
000080 7c 8b 0f 3e 18 b4 55 3e 12 eb 66 3d 4a 31 6a 3d
       0.14018053 0.20869482 0.056376524 0.057175912
000090 e7 f0 2c be c1 56 df bc df e5 8b 3e 30 1c 49 bc
       -0.16888772 -0.027263047 0.27323815 -0.012274787
0000a0 c7 7e d2 bf 6e 4f 99 be 72 ba 2e bf 77 1c 4c 3e
       -1.6444939 -0.29943413 -0.6825324 0.19932733
0000b0 ba 5a 17 be 7a ac ee bc 22 16 01 3f d5 be f7 bd
       -0.14780703 -0.029134978 0.50424397 -0.12096945
0000c0 9f e2 bd be 07 74 43 3e ca 43 70 be 18 42 a8 bd
       -0.3708696 0.1908723 -0.2346336 -0.082157314
0000d0 57 9e 77 be 18 8c 95 be 1a d9 76 3b 11 6c 2c be
       -0.24181496 -0.29208446 0.0037666024 -0.16838099
0000e0 ab db a0 be d6 d4 86 bf 10 42 dc be a1 4a 35 3e
       -0.31417593 -1.0533702 -0.43019152 0.1770425
0000f0 42 a8 05 be f9 3d b5 3c e1 84 22 be 35 5c 53 bf
       -0.13052467 0.022124277 -0.15871002 -0.8256257
000100 9b e7 85 be b7 18 b4 bd 4a ab 9a 3e a2 82 e2 3d
       -0.26153263 -0.087937765 0.30208808 0.110600725
000110 4b 0f 72 be 97 fd 3a 3d 94 b2 f5 3d eb 9e 82 be
       -0.23638646 0.045652 0.11996952 -0.2551187
000120 32 73 9d be e4 db c0 3c 1e 19 05 be bc ee e9 bd
       -0.3075195 0.023542352 -0.12997863 -0.11422488
000130 c5 29 0c bf 06 0c 42 3d 80 8e c0 3e 94 92 80 3e
       -0.54751235 0.047374748 0.3760872 0.2511183
000140 a6 10 85 be 3f 8f 92 be b3 f8 83 be 8d c4 36 3e
       -0.25989264 -0.28624913 -0.2577568 0.17848416
000150 f3 98 41 3e ba 0a 91 be 4d 01 84 3e 33 b9 a2 3d
       0.18906002 -0.28328496 0.25782242 0.0794548
000160 31 44 03 3e d0 ae 5f bf e7 2d b4 3c d5 d3 13 be
       0.12818982 -0.8737612 0.021994544 -0.14436276
000170 5c 4d cd 3d 17 d7 73 3e a7 4f 3d be 07 f3 97 3d
       0.10024521 0.23812519 -0.18487416 0.07419401
000180 da 3c c8 bb 6a 57 1f be d2 bb 9e 3e cf a7 cc bb
       -0.0061107697 -0.1556069 0.3100267 -0.0062455903
000190 aa 55 09 be 95 fd a9 3d 47 4b 3c bb cd 14 63 be
       -0.13411584 0.0830032 -0.0028731392 -0.22175904
0001a0 39 97 06 3b 4b 16 86 3e 5d 87 88 bc 2c cd 80 3e
       0.0020536913 0.26188883 -0.016666109 0.25156534
0001b0 88 bf 5b be e2 4a 01 3e 3f f5 c1 3e 26 90 33 3e
       -0.21459782 0.12626222 0.3788242 0.17535457
0001c0 0a fd 66 3e 32 40 2d 3b 5f 4e 8a be 4b 7f 1c be
       0.22557464 0.0026435968 -0.27012917 -0.15282933
0001d0 eb 95 b4 be 1f 93 2b be 2f 4f 54 be ce c0 75 3e
       -0.35270628 -0.16755341 -0.20733331 0.2399933
0001e0 3d 19 b3 be a4 5a 5e bf 8b ed 17 ba c7 d5 8a bd
       -0.34980193 -0.86857057 -0.00057955895 -0.06779056
0001f0 fe 68 3e 3e 11 83 6c 3e 95 7c 84 be 0a e9 dc be
       0.18594739 0.23096873 -0.258763 -0.43146545
000200 94 ca 92 3e 96 13 29 3d 2e dd 9b 3d 1f b1 6d 3e
       0.2867018 0.041278444 0.07610546 0.23212098
000210 99 0c 02 c0 b7 d3 2f be 00 79 8c 3e 53 e7 19 bf
       -2.032019 -0.17170607 0.27436066 -0.601186
000220 b2 fa bd 3d 96 92 0a b9 97 7b 7d 3e a7 61 d2 bd
       0.09276332 -0.00013215313 0.24754177 -0.10272532
000230 5a 0a 95 be 46 0e 5f 3e 2f 81 ea be d6 08 99 3c
       -0.2910946 0.21782789 -0.45801684 0.018680971
000240 c2 6d 42 be df c9 47 3b 8a 90 69 be c3 7c e5 bd
       -0.18987182 0.0030485315 -0.22809044 -0.11205437
000250 6f e9 a2 be ba d7 ed bd 9d e1 40 be e3 45 ce 3d
       -0.3181872 -0.11613412 -0.18836065 0.100719236
000260 6e 0c d7 bf c8 84 35 be ab e8 a9 3d 0a c6 1e bd
       -1.6800668 -0.17726433 0.08296331 -0.038763084
000270 45 cd 5f be 8c 60 a8 3e 36 b4 3f 3d d5 43 a0 3e
       -0.21855648 0.3288616 0.046802722 0.31301752
000280 b9 c0 0f be 95 2a 21 3d 80 97 87 3e 14 c9 1f 3d
       -0.14038362 0.03934725 0.26482773 0.039010122
000290 63 aa 82 bf c2 83 a3 3e a1 86 ed bb 25 fc fa bc
       -1.0208248 0.3193646 -0.007248715 -0.03063781
0002a0 90 d9 89 3e 9f ff 98 be 88 a0 a7 bf 5f c5 25 3e
       0.269238 -0.29882523 -1.3095865 0.16188572
0002b0 a2 67 d1 3e dc a3 8e bd 4b 2b 14 3e a9 d9 40 3e
       0.40899378 -0.069648474 0.1446964 0.18833031
0002c0 7e 45 1e bf b7 4f 1b be 4d e0 ae bd 7e a1 a0 be
       -0.61824787 -0.15167128 -0.08538876 -0.3137321
0002d0 9d ff 0a 3e f7 71 91 3c ae de 92 3e d3 d1 48 3d
       0.13574071 0.017754538 0.28685516 0.04902823
0002e0 24 07 d5 be e4 dd 6f 3e 43 99 80 be dc 10 de 3b
       -0.4160701 0.23424488 -0.2511693 0.006776912
0002f0 85 48 df bd 3c 60 78 3e b9 4c b6 3e bb 73 76 bf
       -0.10902504 0.2425546 0.3560541 -0.9627034
000300 29 d2 d7 bd 76 06 65 bd 58 d4 0b 3e ff c0 e9 3c
       -0.10538132 -0.055914365 0.13655221 0.02853441
000310 f7 80 05 bf 35 f5 95 3e 7c f9 9e 3e a4 c7 69 3e
       -0.5214991 0.2928864 0.31049716 0.22830063
000320 88 1c 77 bf be 66 1f 3e 03 75 25 bf 9c a0 a1 bd
       -0.9652791 0.15566537 -0.6463167 -0.07891962
000330 d0 54 82 bd 37 f4 61 be 32 8f 5f be c5 5b 7d 3d
       -0.06363833 -0.22065817 -0.21831968 0.061855096
000340 84 36 c1 be 94 de ad bd 9d 2d 35 be a5 10 e1 bd
       -0.37736905 -0.08489719 -0.17693181 -0.10989503
000350 a8 85 88 be e5 d9 c8 be c6 00 89 3e a6 02 38 3e
       -0.26664472 -0.3922874 0.26758403 0.1796976
000360 03 50 59 bc dc c6 a7 3e a9 dd b7 be fb 34 1c be
       -0.013263705 0.32768905 -0.359113 -0.15254585
000370 3f 0d 59 3d 96 57 a6 bc a3 dd 94 be 3d 51 6d 3e
       0.052991148 -0.020305436 -0.29075345 0.23175521
000380 40 42 02 be d6 28 27 3e 54 d5 d6 bd 8b 4e 3f 3e
       -0.12720585 0.16324171 -0.10489908 0.18682306
000390 66 83 ab be e0 e7 6e be d7 bc 3f 3d 1a 5c d0 bb
       -0.33498687 -0.23330641 0.04681095 -0.0063586356
0003a0 02 36 a3 bf dd 59 91 3e 31 57 be be 96 29 66 be
       -1.2750857 0.28388873 -0.37175897 -0.22476801
0003b0 1f f1 90 3e 9b 6c cf 3d 83 f0 a2 be 75 f9 9e be
       0.2830896 0.10128137 -0.3182412 -0.31049696
0003c0 30 75 44 be c7 2c a1 be 24 72 a0 3e 36 82 81 bd
       -0.19185328 -0.31479475 0.31337082 -0.06323664
0003d0 27 05 52 be 4e 53 cd bc 76 f7 9e bc d6 5c 99 be
       -0.20509778 -0.025064137 -0.019405108 -0.2995364
0003e0 f5 8d 3f bf 1c 94 27 3d 54 83 aa 3e 1b e0 e3 3d
       -0.74825984 0.040912732 0.3330332 0.11126729
0003f0 1f fe 16 3e 20 7a 84 be 95 d1 13 3e ae 91 2c be
       0.14745377 -0.25874424 0.14435418 -0.16852447
