frontend/pdiot_app/assets/models/model_online_4CNN_3dense_4class_79 (1).tflite (tflite, 823468 bytes, 14 tensors)

sequential_2/conv1d_6/BiasAdd/ReadVariableOp f4 [64]
00000000: 18e8 9bbe fdcb afbd 879f c9be 8003 74be
00000010: af77 1ebf 86ba cdbe 3286 06be 7af8 93be
00000020: 3a82 05bf 6f92 eebd 7f21 91be ba37 28bd
00000030: df4a 6dbd 2d4f 08bd ad51 93bd 5d19 0bbf
00000040: 3fa0 81bd a4ec b3be c836 08be acb4 71bd
00000050: b718 b4bd 007f 74be 666a d93b 4d18 00bc
00000060: 14df 18be db65 50bd 860d 5ebd 397a 643d
00000070: 405a d93c 05e9 30be a487 1abe c482 83be
00000080: a002 4cbe 4e50 5ebc 2fd0 393d d710 56be
00000090: 1b86 0ebf 612c 9cbe 2301 02bf 6982 12be
000000a0: 40be 1bbe 1d2e 59be 6854 a3be d7ca 123c
000000b0: 5d37 61be bfc0 4ebe 9b5b 57be 6beb 4ebe
000000c0: 825f d93c a517 97bd de70 6abe e791 5dbd
000000d0: 7a37 aabe 7d36 75bd 2935 43be 0463 05bd
000000e0: 8859 36bd 5be2 1abd addf 40be 5559 dabc
000000f0: ac4a 04be 32f5 2dbe 2c5d 78be 5d5d 20be
-0.3045051 -0.085838296 -0.39379522 -0.2382946 -0.6190137 -0.4018137 -0.13137129 -0.2890051
-0.52151835 -0.11649024 -0.28345868 -0.04106877 -0.05793273 -0.033278633 -0.07193313 -0.54335576
-0.06329393 -0.3514148 -0.13302147 -0.059010193 -0.087937765 -0.23876572 0.006634998 -0.007818294
-0.14928848 -0.050878387 -0.054212116 0.055780623 0.026532292 -0.1727639 -0.15090805 -0.25685704
-0.19922876 -0.013568951 0.045364555 -0.20904861 -0.5567338 -0.30502608 -0.50782984 -0.1430756
-0.15209293 -0.21208997 -0.31900334 0.008959494 -0.21993776 -0.20190714 -0.21031038 -0.20206992
0.0265348 -0.07377557 -0.22894618 -0.05409422 -0.3324545 -0.059866417 -0.19063248 -0.03256513
-0.044518977 -0.037813526 -0.18835326 -0.026653925 -0.1291911 -0.16988066 -0.24254292 -0.15660615

sequential_2/conv1d_7/BiasAdd/ReadVariableOp f4 [64]
00000000: 8b8a cebb ef5b 3bba c18c e6bc 8596 f0bb
00000010: 8cd6 0c3e 72df e3bc b945 15b5 855a 2fbb
00000020: b255 bbbd 1c55 d3bc fd99 61ba 7de5 8cbc
00000030: ae7b f6bb 01eb 41bb e7b1 9a3c 1d93 34bc
00000040: f501 833c d5a3 f0bc 8362 e0b8 aaa5 4e3d
00000050: 7191 3abc 2496 18bd 0862 25bd 0f24 86ba
00000060: 962b ae39 45a4 23bd bb8b bbb7 a430 fb3c
00000070: b7b5 cebb 1b0e 6abc 3382 02b8 500b f7bc
00000080: 77c7 4bbe 3cb8 1ab9 3651 c5bb efcd 2cbc
00000090: 2f49 a1ba 8208 cdb7 840c a4bc 6b1a 23bd
000000a0: 70c0 f2bd eafe 23bb 8769 2eb9 f8bc 93bb
000000b0: 0709 c0be 49bb d7ba 1354 4dbc c617 0cbb
000000c0: 58a6 d5be 3abc 3eb5 5891 55b8 2b42 61bc
000000d0: 24cc 9cbe 036a 8ebb ace2 2cb8 72c1 1ebe
000000e0: d22e 08b8 c2cc c03c 5801 8abb de62 e1b8
000000f0: 73b0 9dbb e3b3 a9bc 7c32 14b8 87c0 39bd
-0.0063031367 -0.0007147183 -0.028143289 -0.007342162 0.13753718 -0.027816508 -5.5608285e-07 -0.0026756835
-0.091472045 -0.02579742 -0.0008606015 -0.017199272 -0.007522068 -0.0029589536 0.018883659 -0.011021403
0.015992144 -0.029374996 -0.000106995016 0.05045096 -0.011387215 -0.03725256 -0.040376693 -0.0010234135
0.0003322034 -0.03995158 -2.2357204e-05 0.030662842 -0.006308283 -0.01428559 -3.1115673e-05 -0.030156761
-0.19900309 -0.00014755217 -0.006021644 -0.010547145 -0.0012305136 -2.4441866e-05 -0.0200255 -0.039820116
-0.11853111 -0.0025023767 -0.00016633245 -0.004508611 -0.37506887 -0.0016459014 -0.012532252 -0.0021376475
-0.41728473 -7.105442e-07 -5.091852e-05 -0.013748686 -0.30624497 -0.0043461337 -4.12191e-05 -0.15503481
-3.246853e-05 0.023535136 -0.004211586 -0.000107472515 -0.004812294 -0.02071566 -3.5332967e-05 -0.045349624

sequential_2/conv1d_8/BiasAdd/ReadVariableOp f4 [64]
00000000: b48f acbc bac2 7fbb 7a5e f7bc 9751 c9bb
00000010: 2f8d 49bd 0bfa fcbb 6eb1 f8ba ef1c e6bb
00000020: c69f bcb1 9a9b d1ba d761 e33d 292b 0abc
00000030: 069e 51bf 2357 80b7 a9d6 49be cfc1 c2b6
00000040: e6b4 7eba ecb8 08bd 79c0 a2bc a718 b0bc
00000050: c15e e6bc 8f34 633c 431f 013c acdc fcbb
00000060: aa02 b1be c7b1 26bc f927 58bb 2a20 48bd
00000070: fa7a 003d d846 46bc d670 41bb 1741 1bbd
00000080: 418c 40b6 b333 3ab9 af98 abbc 7b09 feba
00000090: 9bc4 89bb 0ec4 5ebc 1fa5 6fbc 000a 56bc
000000a0: 0869 4bbc 8726 debb a15e 96b9 3e93 d2bc
000000b0: c712 05bc c8ff a53d eedd d6b4 033c 00ba
000000c0: 0ecb bdbb 5792 8abe 06e2 70bb 2468 c2bc
000000d0: d2c0 a53d 001a d0b9 9ad7 adbb f09f ba3d
000000e0: 1d6d 93bc 1a90 0abc 4b46 92bc fee2 15be
000000f0: 9c02 c3bd b0cc ecbb 93da 31bd f006 b8b8
-0.021064617 -0.0039025978 -0.030196417 -0.0061437595 -0.04920691 -0.007720237 -0.0018973777 -0.007022492
-5.4896843e-09 -0.0015991807 0.11102646 -0.008433142 -0.8188175 -1.5299365e-05 -0.19710793 -5.804213e-06
-0.0009716287 -0.03337948 -0.019867169 -0.02149613 -0.028121354 0.013867511 0.0078809885 -0.007716736
-0.34572345 -0.010174221 -0.003298281 -0.0488588 0.03136728 -0.012101851 -0.0029516718 -0.03790387
-2.8691868e-06 -0.00017757602 -0.020946829 -0.0019381488 -0.0042043454 -0.013596548 -0.01462677 -0.013063908
-0.012415178 -0.006779495 -0.00028680734 -0.025704976 -0.008122153 0.08105427 -4.002208e-07 -0.0004891755
-0.0057920283 -0.27064773 -0.0036755814 -0.023731299 0.08093418 -0.00039692223 -0.0053052427 0.09112537
-0.017996365 -0.008457208 -0.017855784 -0.14637372 -0.09521982 -0.007226549 -0.04342134 -8.775096e-05

sequential_2/conv1d_9/BiasAdd/ReadVariableOp f4 [64]
00000000: 3e6a 73bb 8a3e 3dbb 021f a5bc d945 9dbc
00000010: 8c3c b1bc 67e1 64bc a4c4 6b3c 1aff ba3d
00000020: ba80 1cbc 674c f0ba 8550 353d 7f85 003d
00000030: c63d c5bd f969 05bc d655 d9bb 575b 43ba
00000040: 6133 f5bc 07a5 cc3c 1966 cbbc 7fe3 41bc
00000050: 24f6 b1bc 2b66 f5bc c1b1 fdbb f2e4 e1bc
00000060: ff24 c3bd c541 8dbc 50e9 2abc 530f 4ebb
00000070: 0f89 a2bb 183c 93bd 8284 06bc e1d9 7f3c
00000080: 61f9 6f3d 187a 82bc 2e94 1ebc 647e ccbb
00000090: 7c5e b8bc d4a4 c5bc 3b44 8c3d cfa8 89bb
000000a0: f045 933d 9f4d 39bd 02cf a23c c94f 1cbc
000000b0: 49a3 a83d 378b 083d b2fd 50bb 8637 39bb
000000c0: da95 383d e2f8 1a3d 92b1 b43c 95cc 33bc
000000d0: e5a3 013c 8672 00bc 16ea 193d dcf8 25be
000000e0: b3bc 14bc c670 e43c c03d 81bc 2a77 cfbc
000000f0: ce2b 93bb e971 5cbb 4d53 5cbd 9c45 d0bd
-0.0037142183 -0.0028876388 -0.020156387 -0.019198345 -0.021635316 -0.013969756 0.0143901445 0.09130688
-0.009552175 -0.0018333317 0.044266243 0.03137731 -0.09630923 -0.008142942 -0.006632547 -0.00074522704
-0.029931726 0.024981035 -0.024828957 -0.011834024 -0.021723814 -0.029955944 -0.007742137 -0.02757499
-0.09528541 -0.017243275 -0.010431603 -0.003144224 -0.0049601863 -0.07189196 -0.008210303 0.015615911
0.058587436 -0.01592736 -0.0096788835 -0.006240653 -0.022505991 -0.024126448 0.068489514 -0.0042010318
0.07191074 -0.04524004 0.0198741 -0.009540507 0.08234269 0.03333589 -0.0031889495 -0.0028261854
0.045064785 0.03783501 0.022057328 -0.010974069 0.007912611 -0.0078398045 0.037576757 -0.16208214
-0.0090781925 0.027885806 -0.015776515 -0.025325377 -0.004491306 -0.0033637232 -0.05379038 -0.10169527

sequential_2/conv1d_6/Conv1D f4 [64, 1, 5, 3]
00000000: 3df6 e7bd e778 323b ee87 433d c5e4 133c
00000010: 99cd b4bb a420 753d c109 efbc d2c6 eebc
00000020: 6024 b53d b084 b8bd 2438 ffbc 0d94 ed3d
00000030: e2e9 96bd e362 bebc cf77 053e 25dd 1dbc
00000040: a295 c63b 7b4b 473d 5f6f 51bd 2bd1 e93c
00000050: a16e 1e3c 8dac 91bc d4f3 793d f84f fdbc
00000060: 2e90 7c3d 385b 2dbd 53b5 4f3c 4369 9b3d
00000070: 3beb 1abe 0f93 993c eb9f 4c3b 157b c63c
00000080: 0c5c a939 ea52 1fbc 1a5e 0d3c d625 2fbc
00000090: 40f4 a5ba 7386 993a 4e6b a9bb b93b 203a
000000a0: aee2 c93b 184d 0cbb 1bfd f3bb 486c e73c
000000b0: 0f2d 85bb 62f0 4283 f3dd 6283 e8f7 4201
000000c0: 123f 1a03 0ead 1d83 e46c 7883 5922 2303
000000d0: 1d7b 4283 0245 8e01 4035 1703 2f10 4683
000000e0: aec2 df82 447d a782 989c 1683 f721 d202
000000f0: a78d a0bd e597 d03d 8d64 73bd b8fa 7bbd
00000100: 1611 3e3d 1ed6 19bd 1434 4bbd 004c 243c
00000110: 1cf4 163c 3be8 e5bc 87b7 1e3d 16e2 7dbc
00000120: 7c93 ddbd d85b da3d 19d9 4ebd 008d e23c
00000130: d8d4 c0bc 02f0 c3bd 6e31 5a3d bd7c f5bc
00000140: c969 c9bd 64aa a13d fd8e 1c3d 7570 d6bd
00000150: e556 d23c c406 99b8 e30c bdbd 1eed a23c
00000160: 4682 c6bc 4746 9dbd a838 f682 47d1 3203
00000170: 69ff f380 7247 2403 9be2 6103 9773 9682
00000180: a594 5083 5c25 8b83 4856 d282 62d5 2a83
00000190: ec32 5d83 34e4 aa83 bd57 3583 df77 2f03
000001a0: 707f a583 e290 72bd 0799 9bbd 5ae2 28bd
000001b0: a80f a8bd 1402 72bc 6d16 3abd d86e b0bd
000001c0: f23e 86bc 21bb 83bd 0d61 eebc b584 34ba
000001d0: 2909 90bd d8c7 ddbd 8e37 afbb b796 82bd
000001e0: d3ed 7c3d b359 efbd ccee 83bd df85 093d
000001f0: 89e0 89bd 7fa0 83bc 6fce 2bbc 5774 f8bb
00000200: df7a 41bc e03d 843c 7be3 75bd 897a b83b
00000210: 2486 883d a339 23be 79e9 02bc 32cc 7d3c
00000220: 4ad4 203d bd86 73bc 7177 933d f991 083d
00000230: 0cc8 f3bc fcfe 843d 5dd4 8abd cfe4 533d
00000240: b2ac 65bd c424 2fbd fa8b 0f3d e464 e4bd
00000250: dd06 5f3d 2f3c 4dbd db2f 633d 92ee 74bb
00000260: c45c 283d 6ba2 91bc 3757 923d eeda 663d
00000270: 5237 21bd c6e7 2c3d 6fe6 a13b 3ed4 44bd
00000280: 9855 60bd 21ed 82bd ec20 613c 7f95 b0bd
00000290: 919a 89bc 612c c73b cb94 903c 09da ff3c
000002a0: 6d97 c4bc 6506 f9bc 9c3b e5bd e08f 053c
000002b0: 5070 34bd d2aa 10b9 33e7 d03c 7f8d 42bd
000002c0: a2a6 eebd 6ce1 1cbd 84c9 083e bc7b 8f3e
000002d0: 0ffd 4fbd 69c4 dabd 1d9d 3c3d 953c 853d
000002e0: 1296 7d3e c945 b5bc 8555 1cbd 0302 91be
000002f0: e944 313a 4c7b 85bc 30a5 043e bbd6 253d
00000300: a4d2 093d 3bcb 41bc e4a8 c6bc 1654 b7bc
00000310: 9799 583d a718 6d3c eede 9dbd 95b8 0cbd
00000320: b881 71bb a485 9fbc 15bd 03be 7716 3cbc
00000330: b2c3 943d fb79 43bc 9f9d 64bc 4dc6 ba3d
00000340: ed16 1e3e d17b 9d3d 5e39 233d 2b15 2d3d
00000350: 25f1 a9bd bf68 553c eff7 85bc 8f27 7abd
00000360: d650 7abd 4c70 a8bd b61b 953c 1868 7cbd
00000370: 8a93 323d ff6a 263e 560e 95bc a93b d23d
00000380: e505 b73d 56ff d882 3299 1a83 42da 0483
00000390: ac35 1803 d21b 5d83 54f2 9e83 f2c7 e702
000003a0: dbd9 1303 06db 9583 b053 bb02 36b9 f202
000003b0: 6abc 9b83 1525 9982 53ce f382 e4a9 2283
000003c0: f59b a0bd c49a 423b ba9e 5e3d a998 4d3e
000003d0: 34b4 a23a 99f6 7cbd 7e21 83be deed 1abd
000003e0: 360b 473c 310b 153e 7403 a13c a3aa 713c
000003f0: 2652 d3bc a5d7 11bc 0cc0 4dbc 4498 1e03
-0.11326263 0.0027232708 0.047737055 0.009026711 -0.005517673 0.05984558 -0.029179456 -0.02914754
0.088448286 -0.09009683 -0.0311547 0.11600504 -0.07368828 -0.023240512 0.13033985 -0.0096352445
0.006060318 0.04865597 -0.051131602 0.028542122 0.009669931 -0.017782474 0.06102355 -0.030921921
0.061660938 -0.04232332 0.012677508 0.075884365 -0.15128796 0.01874688 0.0031223248 0.024228612
0.00032302772 -0.009724358 0.008628393 -0.010690173 -0.0012661293 0.0011713043 -0.0051702624 0.0006112415
0.0061610555 -0.0021408256 -0.007445944 0.028249875 -0.0040642093 -5.728742e-37 -6.6670216e-37 3.5810037e-38
4.5328934e-37 -4.633681e-37 -7.300565e-37 4.7940824e-37 -5.7152803e-37 5.2261583e-38 4.443604e-37 -5.820555e-37
-3.2878646e-37 -2.4610344e-37 -4.42608e-37 3.0876222e-37 -0.07839518 0.101852216 -0.059422065 -0.0615184
0.046403013 -0.037557714 -0.049610212 0.010027885 0.009213474 -0.028064838 0.038749244 -0.015495798
-0.10819146 0.10662049 -0.05050001 0.027655125 -0.023538992 -0.09567262 0.053269796 -0.029966706
-0.0983463 0.078938276 0.0382223 -0.10470668 0.0256762 -7.296869e-05 -0.092309736 0.019888457
-0.024232041 -0.0767942 -3.617897e-37 5.2549737e-37 -2.240765e-38 4.8277284e-37 6.6381688e-37 -2.2106864e-37
-6.129634e-37 -8.178263e-37 -3.090625e-37 -5.020346e-37 -6.500452e-37 -1.0044095e-36 -5.329184e-37 5.1565483e-37
-9.727087e-37 -0.059220202 -0.07597547 -0.04123149 -0.08206111 -0.014771003 -0.045431543 -0.08614892
-0.016387437 -0.064321764 -0.029099012 -0.000688623 -0.07032997 -0.10829133 -0.005347199 -0.06376403
0.061750244 -0.11687031 -0.06442031 0.033574935 -0.0673228 -0.016067741 -0.010486229 -0.007582228
-0.01180908 0.016142786 -0.060031395 0.0056298417 0.0666621 -0.15939955 -0.0079902345 0.0154905785
0.039264955 -0.014863667 0.07200516 0.033342335 -0.029758476 0.06493947 -0.06778786 0.05173188
-0.0560729 -0.04275967 0.0350456 -0.11152056 0.054449905 -0.050106224 0.05546556 -0.0037373644
0.041104093 -0.017777642 0.07145541 0.05636113 -0.0393594 0.042213224 0.0049408 -0.048053972
-0.05476913 -0.06392885 0.013740759 -0.08622264 -0.016797336 0.0060782884 0.017649075 0.031231897
-0.023997987 -0.030398557 -0.1119301 0.008151978 -0.044052422 -0.00013796546 0.02550087 -0.047498222
-0.116528764 -0.038300917 0.13358122 0.2802409 -0.050778445 -0.106819935 0.046048272 0.06505696
0.24764279 -0.022128003 -0.038167495 -0.28321847 0.00067622826 -0.016294144 0.12953639 0.040487986
0.03364815 -0.011828239 -0.024250455 -0.022378962 0.05288085 0.01447121 -0.07708536 -0.03435572
-0.0036851 -0.019472905 -0.12865098 -0.011479965 0.072638884 -0.011930938 -0.013953595 0.09119854
0.15438433 0.07689632 0.03984963 0.042256515 -0.08297948 0.013025462 -0.016353576 -0.061072882
-0.061112247 -0.08224544 0.01820169 -0.06162271 0.043597735 0.16251753 -0.018195312 0.102652855
0.08936671 -3.1884903e-37 -4.543239e-37 -3.904186e-37 4.4730398e-37 -6.4978e-37 -9.342041e-37 3.4057162e-37
4.3449503e-37 -8.807718e-37 2.7525215e-37 3.566501e-37 -9.153339e-37 -2.2502614e-37 -3.5824065e-37 -4.7802546e-37
-0.078422464 0.0029694298 0.054350592 0.20077766 0.0012413324 -0.06175861 -0.2561149 -0.037824504
0.012148669 0.1455505 0.019654967 0.014750156 -0.025796007 -0.008901511 -0.012557995 4.660682e-37

sequential_2/conv1d_7/Conv1D f4 [64, 1, 5, 64]
00000000: ea2c 8283 3875 4f03 2cfb 4c03 431e b703
00000010: 2240 1883 9409 7802 6162 8303 c82c 2f03
00000020: 2242 1682 614e b901 57a2 0683 88c1 0c83
00000030: 5350 af82 75e3 d382 3c66 8903 4c9f 0203
00000040: 9cb2 2e83 a069 7c83 2872 cc82 e806 8881
00000050: 4b55 1b83 f4dd 8483 5e7c 6d03 4254 bb01
00000060: 36f8 6882 71e9 7382 da65 a603 2f67 c303
00000070: 1ea1 c603 a99f a403 243f 7a81 2a0f 4383
00000080: c112 bb03 518c ac03 ea0b 1603 9264 2c83
00000090: b7dd 3302 238e be83 16ea 6883 e621 d101
000000a0: a75d d182 83c2 fe02 eb78 4003 ecfe 4c83
000000b0: f0a7 9383 8272 8883 66c8 3c03 d40a 9983
000000c0: 63f4 0901 78cc 0980 a66d 1082 2a6c 6f03
000000d0: 0b66 6802 bf50 6883 d651 4682 672f 4383
000000e0: ca68 5e03 abdd c303 12c4 ec82 4301 6b01
000000f0: fd77 2502 7f48 cf82 e3f1 4e83 88e0 0903
00000100: 01df 1c80 8718 cb82 d8ee ee02 cb68 6e83
00000110: e1e4 6983 8497 7f83 37e9 4a03 50c3 ac03
00000120: ebe8 bf03 532f 8e83 c565 d902 3259 2902
00000130: c0b6 9a00 6e4c 6583 3691 0d02 fb4b c302
00000140: f407 2582 cb54 bd02 f7a4 8d83 c34f ac03
00000150: 870e 3800 765c fc02 30b7 5883 fb27 d282
00000160: 27c2 9883 ab77 1602 6d87 3303 07a3 9f01
00000170: 4f69 4783 92a6 bb82 2696 ad03 98a7 3283
00000180: 1739 fb02 3538 5883 b605 a003 fb4b a381
00000190: 0383 a982 9be8 c082 c4e2 df82 9abb 3603
000001a0: 128c 0f03 5f77 0d03 589f 0b83 93fe 0103
000001b0: 2e86 1983 bd01 5482 9a88 4f83 cf7c 3783
000001c0: 8d69 1082 734f 6c83 11cf 0983 0d2f af83
000001d0: 6003 7902 ca03 bb82 8eae 4803 ecba 4403
000001e0: ac06 9703 c450 f901 8e92 8103 8417 cd82
000001f0: 3082 4b01 3f65 5400 4b52 c902 f8ea 6e03
00000200: bde2 b402 9462 7702 f62d a482 ca41 fc02
00000210: a281 e602 b660 ec02 f693 4583 2cb9 3d83
00000220: 3aa0 3e81 71fb de01 5dca 3f83 5010 4b83
00000230: bbc5 b383 8c04 3783 68bd 4b03 7003 a803
00000240: 2a39 9c83 42b1 b603 8903 3d03 8a5b 7e03
00000250: 0c80 b181 361e ab83 5528 0402 54a5 1303
00000260: 596a 1803 1767 6883 1389 2383 9740 8283
00000270: 574e 7483 6953 8282 3cd8 ad82 4887 c202
00000280: 44c7 1a03 6ddc 6c03 ed18 7383 d2d9 ad03
00000290: 56ff ed82 61be 6b02 02c7 5703 d46b 8503
000002a0: 7474 4602 da9b fc02 9f01 9903 829d 8b03
000002b0: ed4a 5003 fed1 4982 720e 9901 02ef 3d03
000002c0: 9372 b002 694c 2003 0413 4b83 e134 1a03
000002d0: 50dd 1502 6209 5880 bc89 e702 912a b503
000002e0: 7acc 3e03 22b4 c382 d054 6883 7b90 a603
000002f0: 2584 8582 c850 8d03 9e99 a303 d7f8 0c83
00000300: d8d0 4983 026e 9b01 0ce6 3003 846b 1f83
00000310: 26ad 1903 5e73 b402 79c4 7183 d4bb 4203
00000320: b58b 3783 e87d c401 566a 1b82 a56a aa83
00000330: a369 c882 e8d3 6083 607f 8e83 c687 2a83
00000340: 6867 0203 aac3 5881 6322 6603 5419 c882
00000350: d666 3403 4663 9383 5670 2e83 1d62 4503
00000360: ef71 8703 5be6 3902 889e 3e02 9913 6982
00000370: 97a5 9382 1fcc bf03 eec9 3583 0025 1083
00000380: 0c8c f802 b9d3 b883 ba0b 6283 9a20 0003
00000390: 9bb4 1f83 680b 6183 a306 9403 afe8 5903
000003a0: 876d 1a03 94f6 7903 9706 8c03 966f 0a03
000003b0: 5e87 bd83 3c3f 6903 820a 6303 4d6b e381
000003c0: b266 1283 2212 0c03 868d 2b03 74bc b883
000003d0: 7276 9983 a9e2 aa03 708a aa82 2a67 2f02
000003e0: fb83 6e02 bf6b 2d01 35fe 4083 d097 1103
000003f0: ebb6 f402 eec3 2682 96be 0283 4a83 5203
-7.651025e-37 6.0966393e-37 6.0238543e-37 1.0762721e-36 -4.4742406e-37 1.8222911e-37 7.722075e-37 5.1479284e-37
-1.1039239e-37 6.8070735e-38 -3.9565418e-37 -4.1364465e-37 -2.5760043e-37 -3.1134217e-37 8.075608e-37 3.838643e-37
-5.133904e-37 -7.4177396e-37 -3.0040628e-37 -4.996842e-38 -4.5648318e-37 -7.809221e-37 6.9790807e-37 6.8813855e-38
-1.7115901e-37 -1.7919815e-37 9.779987e-37 1.148476e-36 1.1674385e-36 9.67571e-37 -4.596305e-38 -5.7322757e-37
1.0995178e-36 1.01414665e-36 4.4094715e-37 -5.0661706e-37 1.3214472e-37 -1.1199829e-36 -6.844739e-37 7.6823117e-38
-3.0763544e-37 3.743359e-37 5.6562536e-37 -6.024285e-37 -8.67844e-37 -8.019651e-37 5.547828e-37 -8.995018e-37
2.5338265e-38 -8.99869e-40 -1.0610917e-37 7.0359954e-37 1.7073953e-37 -6.8271364e-37 -1.4570228e-37 -5.7359765e-37
6.536023e-37 1.1511962e-36 -3.4789622e-37 4.3163588e-38 1.215672e-37 -3.0457527e-37 -6.081563e-37 4.051843e-37
-2.651393e-39 -2.9842247e-37 3.5108047e-37 -7.006221e-37 -6.8735286e-37 -7.5111696e-37 5.963018e-37 1.0154093e-36
1.1279446e-36 -8.356875e-37 3.1943697e-37 1.2441757e-37 1.4208225e-38 -6.738479e-37 1.0400717e-37 2.8696285e-37
-1.2124568e-37 2.7819723e-37 -8.325109e-37 1.0127564e-36 5.147999e-39 3.7081142e-37 -6.3686984e-37 -3.0879674e-37
-8.978332e-37 1.1054603e-37 5.2758833e-37 5.864131e-38 -5.8601732e-37 -2.7572787e-37 1.02024985e-36 -5.2501887e-37
3.6913903e-37 -6.3541217e-37 9.405266e-37 -5.998577e-38 -2.4907515e-37 -2.8345373e-37 -3.2897062e-37 5.370035e-37
4.2184716e-37 4.1573207e-37 -4.1031346e-37 3.820193e-37 -4.511669e-37 -1.5575799e-37 -6.0988644e-37 -5.392214e-37
-1.0609741e-37 -6.944537e-37 -4.049838e-37 -1.0296378e-36 1.8294599e-37 -2.7479355e-37 5.8975096e-37 5.78138e-37
8.876514e-37 9.1584047e-38 7.615586e-37 -3.013554e-37 3.7378616e-38 7.750502e-39 2.958153e-37 7.0211645e-37
2.6578764e-37 1.8174985e-37 -2.4124014e-37 3.7065833e-37 3.3869868e-37 3.4732593e-37 -5.8062948e-37 -5.5754675e-37
-3.5012445e-38 8.191072e-38 -5.6362157e-37 -5.9675064e-37 -1.0566071e-36 -5.3784086e-37 5.9873766e-37 9.874942e-37
-9.18198e-37 1.0737695e-36 5.5546166e-37 7.4748973e-37 -6.520327e-38 -1.0057413e-36 9.709403e-38 4.3389205e-37
4.4790866e-37 -6.8297014e-37 -4.805875e-37 -7.655542e-37 -7.1795085e-37 -1.9149658e-37 -2.5544178e-37 2.8583386e-37
4.548528e-37 6.9607203e-37 -7.1439895e-37 1.0218035e-36 -3.4970576e-37 1.7319709e-37 6.341127e-37 7.841794e-37
1.4580163e-37 3.7117526e-37 8.992904e-37 8.205848e-37 6.1211717e-37 -1.4827413e-37 5.622405e-38 5.5816476e-37
2.5926638e-37 4.710749e-37 -5.9678167e-37 4.5317235e-37 1.1010305e-37 -8.08489e-39 3.4021455e-37 1.0647997e-36
5.607071e-37 -2.8756066e-37 -6.8276032e-37 9.789774e-37 -1.961844e-37 8.305782e-37 9.615548e-37 -4.1427956e-37
-5.930833e-37 5.709586e-38 5.1985832e-37 -4.6849322e-37 4.5161424e-37 2.651484e-37 -7.1049074e-37 5.722709e-37
-5.3939242e-37 7.2179696e-38 -1.1418118e-37 -1.0016186e-36 -2.9447991e-37 -6.607094e-37 -8.375254e-37 -5.011437e-37
3.832227e-37 -3.9813316e-38 6.76304e-37 -2.9401896e-37 5.3015296e-37 -8.6626755e-37 -5.126296e-37 5.8005725e-37
7.960745e-37 1.3657762e-37 1.4004492e-37 -1.7123761e-37 -2.1694753e-37 1.1272835e-36 -5.3422923e-37 -4.236027e-37
3.6520708e-37 -1.0863157e-36 -6.6428892e-37 3.7653244e-37 -4.6933225e-37 -6.613465e-37 8.700182e-37 6.4037676e-37
4.5382264e-37 7.345758e-37 8.229973e-37 4.068265e-37 -1.11395e-36 6.8545135e-37 6.6721367e-37 -8.35406e-38
-4.3023432e-37 4.1163118e-37 5.0414844e-37 -1.0857815e-36 -9.0197255e-37 1.0043741e-36 -2.5058714e-37 1.2886576e-37
1.7523355e-37 3.1852386e-38 -5.6715544e-37 4.2785942e-37 3.5957567e-37 -1.2251983e-37 -3.842235e-37 6.1864166e-37

sequential_2/conv1d_8/Conv1D f4 [64, 1, 3, 64]
00000000: 3f58 6a82 7b78 9501 15b9 d801 4e18 b883
00000010: d9db e402 aa49 8982 52c1 8703 9855 6d03
00000020: 3e6d ae83 cd35 9b03 ab36 8083 b71c 6983
00000030: b82e 8003 3044 0782 22be 1003 322c 0100
00000040: 37b5 a983 6a90 8f81 78f9 2d02 f049 5703
00000050: 7caa 8183 de47 c482 6117 8283 497d a902
00000060: 1189 6303 46fc b783 1394 c401 fcbf f482
00000070: 1e28 6e83 2a6c 3f03 ec46 a101 15b4 8683
00000080: 9da5 ec00 1c40 2583 3d44 bb83 ea5f 5603
00000090: 8ae0 fb82 f01e c882 3b86 cc82 ee0b 3903
000000a0: 2e59 4f83 a2a6 ac01 6b66 8903 503c 0b02
000000b0: f408 5b83 6498 2f03 1209 e602 1676 b783
000000c0: 490b 3002 dda8 6383 ee35 a201 72da 6b02
000000d0: b2bd 1882 3608 f102 5227 2003 97dc 0c03
000000e0: 4667 9703 6f72 1402 324f d082 b7fe e802
000000f0: 52e8 0303 d60e 1182 dc9b 2203 16d5 7f03
00000100: 29a4 9802 4a4a 3903 1ae8 7882 7564 8482
00000110: ff95 2a03 6cb8 4c83 655f 5a03 24fe a582
00000120: 42aa 9783 d75f a702 7af1 bb03 dee8 8182
00000130: 7baf 4b81 b4c7 4882 35f9 bb83 2f73 7d83
00000140: a785 d602 19f3 6383 b7e3 1203 aae4 fc81
00000150: 48b1 3f03 12f9 9082 9ef5 2c83 1e89 7503
00000160: cc3f 0183 dd3d 9b83 2f5a 0602 b67b 2d83
00000170: 1b9b cd81 c656 a283 6a62 b802 e626 ad83
00000180: eaca 1e83 0afc 1d03 f085 3781 b6ab d382
00000190: 8fde bc82 73d9 0282 3dd4 7a02 3a56 d502
000001a0: a6db 8f82 f752 5183 f088 6202 f526 8203
000001b0: bdfa 2883 0598 4282 0b7e 8802 13fc 6b02
000001c0: 7d41 fa82 4853 4402 96ed 8483 88f9 b982
000001d0: 4088 1703 bac5 1982 f78b 3582 646f 8b82
000001e0: 7fd0 4703 ce5a 6203 6c71 2901 3c88 5f03
000001f0: 0684 2083 76d1 4103 95d5 1403 11cb ae82
00000200: eeea fd82 bbc2 5503 8c5c 9703 f880 4e82
00000210: f41e 5783 25ac d581 d0e7 fe02 bb2a e581
00000220: fe1d 9783 669f b383 cd7b 0483 1e5d 2683
00000230: 8dbd b503 1679 4b82 8e33 d582 9f30 c303
00000240: 7676 0003 dc14 3e83 279e a502 f86c 9403
00000250: 1728 8583 246a 6c82 d6c5 8182 bb0e b483
00000260: 2c2f 6603 622f 3a83 c2c9 1f83 b65e 1103
00000270: 43b0 9282 d518 7a83 b01d cf02 a3fa 4903
00000280: 2e66 2f83 c04f 9f83 52f5 e382 a413 b703
00000290: 5e2a 2203 5e70 a803 ad62 2b02 8648 c302
000002a0: 09c0 ef01 73e5 7803 bd6c 8382 ee94 8d03
000002b0: 513a a983 e625 e802 850c 2702 e326 a303
000002c0: 7175 d982 12a9 6a02 61ae 9c01 e3f0 a683
000002d0: c2dc 1203 e2cc a702 c527 4483 e321 8b00
000002e0: f473 8003 4490 af02 c2a3 2583 4f8e 2203
000002f0: 9e8d 5a03 ec30 3083 0821 8583 da3c 8082
00000300: 2486 ab82 e051 9183 b584 1003 1eb8 c783
00000310: 4529 e302 9c43 c480 22d0 6782 c843 9f03
00000320: 0293 8302 71eb 0c83 f2db 5483 62ba 9a03
00000330: d0da 9a03 a312 a003 f883 bd83 3974 ae83
00000340: 2cd3 3c01 3b3f 3183 ae4b 3803 ed32 da02
00000350: 74ae 6b03 b36b 7f02 0663 8703 7b69 4003
00000360: ac79 ac03 c367 0883 6a08 d181 5aef 3a83
00000370: 7285 fc01 b55d f902 3040 8083 d2a5 1f83
00000380: afb1 5403 461e 8a02 409f 6103 d46b d081
00000390: 97b8 c103 d6af 4703 7b45 5c83 11e2 3783
000003a0: 9eef 0583 b5f1 3703 7d05 8a03 c8d5 5583
000003b0: 52bb 4902 34f2 8c03 821d 0903 68c6 1183
000003c0: 60e9 1883 eb49 2282 fdda d080 c0d0 9003
000003d0: 1d23 7583 0fa2 5880 4e74 1c03 e970 8682
000003e0: a7e2 8603 9704 5f03 10c7 4a03 fd44 2f02
000003f0: bb07 1583 50fc b183 8053 a303 2c36 7783
-1.721693e-37 5.4906837e-38 7.961145e-38 -1.0820128e-36 3.3627775e-37 -2.0172622e-37 7.978971e-37 6.9746297e-37
-1.0251882e-36 9.122433e-37 -7.535715e-37 -6.850551e-37 7.53389e-37 -9.937802e-38 4.253606e-37 1.0769e-40
-9.974532e-37 -5.273713e-38 1.2781627e-37 6.3267697e-37 -7.62108e-37 -2.8840861e-37 -7.646081e-37 2.4904228e-37
6.686665e-37 -1.08136925e-36 7.2211505e-38 -3.5962771e-37 -6.9987966e-37 5.625402e-37 5.924383e-38 -7.917157e-37
2.1732588e-38 -4.8562736e-37 -1.1006539e-36 6.299905e-37 -3.7010014e-37 -2.9405116e-37 -3.005215e-37 5.438031e-37
-6.0934206e-37 6.342193e-38 8.07565e-37 1.0229416e-37 -6.4368593e-37 5.1602814e-37 3.3800669e-37 -1.07828845e-36
1.2933677e-37 -6.690315e-37 5.9586787e-38 1.7327764e-37 -1.1221636e-37 3.541648e-37 4.706491e-37 4.1395527e-37
8.898693e-37 1.0906164e-37 -3.060831e-37 3.4235535e-37 3.876413e-37 -1.0657175e-37 4.778644e-37 7.5182376e-37
2.2428616e-37 5.4451893e-37 -1.8286772e-37 -1.9453316e-37 5.0130697e-37 -6.016192e-37 6.417395e-37 -2.439044e-37
-8.914072e-37 2.4593454e-37 1.10463125e-36 -1.9088506e-37 -3.7411113e-38 -1.4750991e-37 -1.1048087e-36 -7.448224e-37
3.1521187e-37 -6.6988367e-37 4.3166948e-37 -9.2898297e-38 5.6333364e-37 -2.1301858e-37 -5.082821e-37 7.215643e-37
-3.798293e-37 -9.124284e-37 9.870647e-38 -5.0982144e-37 -7.552767e-38 -9.541426e-37 2.7092857e-37 -1.0176957e-36
-4.666496e-37 4.642748e-37 -3.3707887e-38 -3.110222e-37 -2.775186e-37 -9.613296e-38 1.8428009e-37 3.1347029e-37
-2.1138034e-37 -6.151482e-37 1.6643157e-37 7.649657e-37 -4.9658596e-37 -1.4296496e-37 2.005575e-37 1.7337415e-37
-3.6771787e-37 1.4423706e-37 -7.81281e-37 -2.732653e-37 4.453132e-37 -1.129741e-37 -1.3337948e-37 -2.048815e-37
5.8720186e-37 6.651967e-37 3.1121774e-38 6.56902e-37 -4.717133e-37 5.695805e-37 4.373847e-37 -2.5683557e-37
-3.7309852e-37 6.2818614e-37 8.89623e-37 -1.5171502e-37 -6.3218354e-37 -7.849086e-38 3.7455e-37 -8.418263e-38
-8.881868e-37 -1.05572705e-36 -3.893343e-37 -4.888991e-37 1.0681743e-36 -1.4948835e-37 -3.1327128e-37 1.1472233e-36
3.7751806e-37 -5.5859927e-37 2.4335346e-37 8.723676e-37 -7.826242e-37 -1.7369003e-37 -1.9068399e-37 -1.0582831e-36
6.7645076e-37 -5.471488e-37 -4.6957507e-37 4.2720393e-37 -2.1553941e-37 -7.3496903e-37 3.0432956e-37 5.935631e-37
-5.1545174e-37 -9.36349e-37 -3.349546e-37 1.0760283e-36 4.7656156e-37 9.899951e-37 1.2591414e-37 2.8694301e-37
8.807029e-38 7.3144045e-37 -1.9311133e-37 8.321428e-37 -9.946316e-37 3.4111089e-37 1.2272815e-37 9.589207e-37
-3.1952692e-37 1.7240126e-37 5.755557e-38 -9.811908e-37 4.315896e-37 2.4656042e-37 -5.7644876e-37 1.277729e-38
7.549785e-37 2.5796743e-37 -4.8677127e-37 4.7770883e-37 6.422701e-37 -5.177791e-37 -7.824621e-37 -1.8842837e-37
-2.5203185e-37 -8.541132e-37 4.2470137e-37 -1.173844e-36 3.337834e-37 -1.8024011e-38 -1.7030931e-37 9.360742e-37
1.9333098e-37 -4.1412576e-37 -6.2553685e-37 9.094098e-37 9.101543e-37 9.408234e-37 -1.113872e-36 -1.0253484e-36
3.4681655e-38 -5.208821e-37 5.4159616e-37 3.206145e-37 6.9260555e-37 1.8765349e-37 7.9573215e-37 5.6544814e-37
1.0137186e-36 -4.008592e-37 -7.678655e-38 -5.493525e-37 9.2761665e-38 3.6641047e-37 -7.537901e-37 -4.6916253e-37
6.250517e-37 2.0294654e-37 6.6304367e-37 -7.656186e-38 1.13859e-36 5.8682694e-37 -6.473195e-37 -5.403838e-37
-3.9360254e-37 5.4056333e-37 8.112171e-37 -6.2840483e-37 1.4820906e-37 8.284068e-37 4.0294555e-37 -4.283943e-37
-4.4936687e-37 -1.1923094e-37 -1.9180341e-38 8.511486e-37 -7.2039337e-37 -8.13966e-39 4.597779e-37 -1.9754338e-37
7.927849e-37 6.553908e-37 5.9590977e-37 1.2876768e-37 -4.379604e-37 -1.0461053e-36 9.59945e-37 -7.2648962e-37

sequential_2/conv1d_9/Conv1D f4 [64, 1, 3, 64]
00000000: bd44 4883 77a0 df02 c366 c782 d44f 8a80
00000010: e421 8782 a721 9203 a7db b683 be54 b881
00000020: be1d 8d02 47ec b803 7a85 4f83 15f5 c482
00000030: 5739 8a03 f87a 1081 0ed1 f881 e738 0381
00000040: 2c71 cc82 a68a a483 8ba6 7c83 a621 9901
00000050: f40e 9d01 f859 6083 0bb8 0783 820a e402
00000060: 22c6 7883 29bb b603 d76d 9902 a102 c301
00000070: 4294 8e83 3292 3f83 64e7 9302 766a 3f83
00000080: 13cb a883 0dea bf83 a988 8483 77fe 3902
00000090: c448 3303 927d ea01 b082 b683 a40d 6483
000000a0: 8529 2483 2316 8c83 f708 5582 b73f 9b83
000000b0: 5c4f 6103 451f 8283 bf5e 7483 0a6a df82
000000c0: a3c2 9f83 10f8 d402 210d 7803 1317 2702
000000d0: f585 1f02 9ed6 bd03 7dbd 9582 57d9 2d83
000000e0: 0549 8c82 829d 1d03 e8f9 9f02 c6a3 8c01
000000f0: fed0 9c83 cbb9 6a03 096b 8503 e2dd 4501
00000100: 30b4 4703 e055 4a03 ed2f f982 f03d 5383
00000110: bf43 7182 8229 7882 7df1 5803 2676 b183
00000120: 0054 0802 b89d 8983 d4e0 7c03 4feb 9202
00000130: d387 4303 d856 bb01 1693 6003 b986 3d82
00000140: faf1 1803 ace3 ef82 2e71 4903 51f0 3503
00000150: ef7d 0003 708f 9482 c101 ab82 2875 e882
00000160: 4ac4 c303 e366 b503 4a02 3803 2c27 e102
00000170: 382a 6c83 9766 6c03 fffb 7c03 a942 0d83
00000180: 368b 5282 fc5e 7902 960b 7383 7252 0483
00000190: 87dc 4983 e1d6 6003 d847 3f83 3792 2902
000001a0: 4d9f 7a83 0955 7583 a176 f602 95e9 6482
000001b0: e875 4d03 d672 cc81 3744 af83 b3a3 c203
000001c0: be23 9d83 f23d 5903 179a b303 3614 b883
000001d0: 098e de82 fc9c 7783 eabe 8581 ed4f 2983
000001e0: 7e29 8a83 3f8f b182 30b1 4d03 9641 bf03
000001f0: 0aca b603 436c 8a83 c7ab 8983 f8db 5b03
00000200: b8c4 8581 49d3 0903 0857 9083 eb9c 4483
00000210: 6ab5 9b02 54bf 9182 01e0 7c02 0f2a b703
00000220: bb4e bd83 0b15 f682 8892 1083 941e 2a82
00000230: 6de2 b403 8e73 e302 86f4 d202 1874 1583
00000240: efca 8b02 473a 4703 c2b7 5983 01d5 8502
00000250: e7bb ab83 b354 3602 1865 8682 16b4 7080
00000260: c6a9 7e00 e179 3383 5a29 e982 0e18 aa81
00000270: e0da 7283 2b16 6682 d341 e702 0aa7 2d83
00000280: 3c4f d502 fe77 a803 3a89 8983 ae5d 8f81
00000290: 395d c182 8b77 7302 62ca 9c03 ba6e 6e02
000002a0: 68f5 8283 a73b 1c83 739c 9a83 c85a 9b03
000002b0: 98c4 5783 7f30 ac83 4660 3b83 930c 6703
000002c0: 24b2 1983 5819 ed02 963d fb82 4a23 1783
000002d0: 92f9 a382 a13d 7683 6bf7 9803 8033 7883
000002e0: 627f 3402 9be4 0d03 ab13 f402 1601 bb82
000002f0: e8c0 8f82 dba4 af83 f921 5103 61bf a683
00000300: 9ac4 7203 4c10 9c82 3679 f302 7fc3 8803
00000310: b7c3 5a02 d10d e502 7e38 ce82 e557 ed01
00000320: bb17 c083 5116 af83 6e87 2783 70c5 db02
00000330: 2471 3b03 b4bf 9682 8be5 9f82 2004 d482
00000340: 7fbc d702 a894 2b83 34bb 9003 aff1 4002
00000350: 4db1 0a02 dece 8203 dbd2 6603 8c64 5783
00000360: dd33 7782 86dc 5703 e998 6482 6316 8803
00000370: bba4 7302 45a1 2283 9345 ae03 a338 9d02
00000380: 5bb8 9002 549a 6483 0d32 7081 1f3c 1283
00000390: 14ce 4d03 147e 2d03 850c 7383 d2ac 2f03
000003a0: 8253 5103 3e7f d501 da2c 8482 f0f4 6403
000003b0: 5305 9083 55b7 da01 f00e 1d83 f56d 5403
000003c0: 8d06 1882 36ed d001 76fa 9c03 f55b d302
000003d0: a5ee 1103 d436 8502 704f 7b82 f85b 9483
000003e0: 077d 0483 f218 5e03 dc6e 0f83 8492 5680
000003f0: ec81 c502 019f 7003 15f1 cd82 bd20 da02
-5.8853625e-37 3.2859007e-37 -2.9299404e-37 -1.2701935e-38 -1.985592e-37 8.588835e-37 -1.0747428e-36 -6.7712524e-38
2.073516e-37 1.0868795e-36 -6.0985056e-37 -2.8940282e-37 8.124076e-37 -2.653685e-38 -9.140079e-38 -2.4101725e-38
-3.0040063e-37 -9.670886e-37 -7.4247326e-37 5.6251607e-38 5.769415e-38 -6.5930963e-37 -3.9884205e-37 3.350762e-37
-7.3108095e-37 1.07399685e-36 2.2544374e-37 7.163546e-38 -8.380048e-37 -5.629768e-37 2.173252e-37 -5.6252066e-37
-9.920776e-37 -1.12797065e-36 -7.789638e-37 1.3664681e-37 5.2686903e-37 8.613821e-38 -1.0727003e-36 -6.7018837e-37
-4.824293e-37 -8.233543e-37 -1.5651341e-37 -9.124709e-37 6.6212657e-37 -7.647892e-37 -7.181392e-37 -3.2827768e-37
-9.3898665e-37 3.1292981e-37 7.289572e-37 1.2275844e-37 1.1719919e-37 1.1157695e-36 -2.2002343e-37 -5.1089625e-37
-2.0613062e-37 4.6318963e-37 2.350639e-37 5.166288e-38 -9.216838e-37 6.89797e-37 7.8416115e-37 3.6342379e-38
5.868769e-37 5.9461044e-37 -3.661477e-37 -6.207843e-37 -1.7725326e-37 -1.8232075e-37 6.375391e-37 -1.0430251e-36
1.0015809e-37 -8.088347e-37 7.4314234e-37 2.1587832e-37 5.746127e-37 6.8817566e-38 6.599653e-37 -1.392419e-37
4.494656e-37 -3.524857e-37 5.9198515e-37 5.346699e-37 3.7760384e-37 -2.1828975e-37 -2.5127198e-37 -3.415658e-37
1.1506136e-36 1.06618455e-36 5.407537e-37 3.3083262e-37 -6.940263e-37 6.9471934e-37 7.434542e-37 -4.15127e-37
-1.5468315e-37 1.832089e-37 -7.142458e-37 -3.8885956e-37 -5.9321744e-37 6.6074353e-37 -5.621233e-37 1.2458121e-37
-7.3651265e-37 -7.2096645e-37 3.621454e-37 -1.6817829e-37 6.0379435e-37 -7.5102546e-38 -1.0301237e-36 1.1439879e-36
-9.235837e-37 6.384168e-37 1.0556052e-36 -1.0819188e-36 -3.2701492e-37 -7.2766985e-37 -4.913043e-38 -4.9756387e-37
-8.120437e-37 -2.6090032e-37 6.0447487e-37 1.1241029e-36 1.07433845e-36 -8.135767e-37 -8.091574e-37 6.4610827e-37
-4.913876e-38 4.0503225e-37 -8.483541e-37 -5.7779356e-37 2.287933e-37 -2.1415652e-37 1.8578322e-37 1.07654295e-36
-1.1126497e-36 -3.615853e-37 -4.2486006e-37 -1.2498403e-37 1.0631434e-36 3.3420977e-37 3.0997076e-37 -4.3920434e-37
2.0540693e-37 5.8547743e-37 -6.398151e-37 1.9664852e-37 -1.0093617e-36 1.3395556e-37 -1.9747555e-37 -1.0350178e-38
1.1632176e-38 -5.2743282e-37 -3.4260008e-37 -6.2482654e-38 -7.1368664e-37 -1.6904093e-37 3.398018e-37 -5.103188e-37
3.1343015e-37 9.901701e-37 -8.083642e-37 -5.266433e-38 -2.8412308e-37 1.7887128e-37 9.215321e-37 1.7517255e-37
-7.697056e-37 -4.5912757e-37 -9.0872255e-37 9.130924e-37 -6.34085e-37 -1.0120386e-36 -5.5064877e-37 6.7899233e-37
-4.5167154e-37 3.4838567e-37 -3.6916484e-37 -4.441542e-37 -2.4093944e-37 -7.236365e-37 8.990561e-37 -7.293977e-37
1.3260869e-37 4.16986e-37 3.5863867e-37 -2.7477804e-37 -2.1122684e-37 -1.03234245e-36 6.145858e-37 -9.800542e-37
7.1343096e-37 -2.2931494e-37 3.5775213e-37 8.038245e-37 1.6072278e-37 3.3656456e-37 -3.0301404e-37 8.7186173e-38
-1.1290194e-36 -1.0290699e-36 -4.9232355e-37 3.2292481e-37 5.508424e-37 -2.2150551e-37 -2.3494701e-37 -3.1152968e-37
3.1699602e-37 -5.0423033e-37 8.506539e-37 1.4175292e-37 1.0189522e-37 7.688208e-37 6.7832975e-37 -6.3298244e-37
-1.8161578e-37 6.343597e-37 -1.6794678e-37 7.998501e-37 1.7900096e-37 -4.779265e-37 1.0242774e-36 2.3101585e-37
2.1264713e-37 -6.718034e-37 -4.4116948e-38 -4.297456e-37 6.048065e-37 5.098486e-37 -7.1425654e-37 5.1626266e-37
6.151544e-37 7.8426426e-38 -1.94214e-37 6.7284352e-37 -8.464782e-37 8.034362e-38 -4.61553e-37 6.2427425e-37
-1.1169076e-37 7.6747514e-38 9.226359e-37 3.1056444e-37 4.288562e-37 1.9574063e-37 -1.8463365e-37 -8.719773e-37
-3.893484e-37 6.5268572e-37 -4.2151183e-37 -7.950413e-39 2.902112e-37 7.071219e-37 -3.0260417e-37 3.2051012e-37

sequential_2/dense_6/BiasAdd/ReadVariableOp f4 [4]
00000000: ab24 b73b a98e ac3d e896 75bd 47f7 713a
0.005589088 0.08425648 -0.05995837 0.00092302676

sequential_2/dense_5/BiasAdd/ReadVariableOp f4 [32]
00000000: f35c 823e 06a6 f5bd 0e85 dcbd faf7 ca3e
00000010: d114 b73e c25a f0be b984 883b 1db8 733e
00000020: 0fe0 a03e ffa6 c63d 0948 2fbd ba0e 953e
00000030: 3f28 263d 87e8 743c c77d 83be 924d 5d3e
00000040: 1646 ce3d e77d a33d 40e3 fc3d 3caa 93bd
00000050: 2de9 d83e f8c6 10be b02f aeba 1e36 523e
00000060: 62af 183d b36a b73d 5d1b 063e 5665 983e
00000070: 8ead 8b3c 2ce4 e03c ce44 803e 62ac 4e3d
0.2546154 -0.11994557 -0.10767566 0.39642316 0.3575807 -0.46944243 0.0041662124 0.23800702
0.31420943 0.09699821 -0.042793307 0.29112798 0.040565725 0.014948017 -0.25681898 0.21611622
0.100719616 0.07982998 0.12348032 -0.07210204 0.423654 -0.141384 -0.0013289358 0.20528457
0.037276633 0.08955898 0.13096376 0.29764813 0.01705053 0.02745255 0.25052494 0.050457366

sequential_2/dense_4/BiasAdd/ReadVariableOp f4 [64]
00000000: 375f 46bc 2d33 48bd 312c f4bd 5515 9d3e
00000010: 0884 a73e 86ea 0fbd 3d4e c5bc 740f 07bc
00000020: b273 513e 4718 c0bc 2331 2cbd 359e 903e
00000030: 3edf ecbc a15f 91bc 0b2c c5bd dfbf e7bb
00000040: 1ff5 93bd 8dab ba3d a49c 0bbd 12dd 423e
00000050: a319 18be edda bf3d 48dc aebc 270c 94bd
00000060: 2e28 d2bc 72ef 53bd 7f3f b73e 6189 08bd
00000070: 140e ffbb f1fd fabc fa9a 0ebd 4fd5 78bb
00000080: dd98 c5bd 5303 5b3e d225 cc3d af0a ccbd
00000090: 8d5f 54bd 1a5a 20bd 7cb8 b5bc 084d 11bd
000000a0: d9db ec3e 2c96 b4bd 02ea 3bbd 2b7c 1abd
000000b0: a6fe 30bd 6d16 25bd 09c6 98bd 2100 453e
000000c0: bb05 96bc 2e40 ecbc afd1 ecbc 9abc 99be
000000d0: 8025 4cbd 61c6 053e 0ae1 81bc f9a9 543d
000000e0: 1f2b 073e f6df 953c 4200 3d3e 9e42 a53d
000000f0: b5e2 0ebd 65a8 25bd 197e b73e 4a3a cabd
-0.012107662 -0.04887693 -0.11922491 0.30680338 0.3271792 -0.03513577 -0.024085158 -0.00824343
0.2045429 -0.023449076 -0.042039048 0.28245702 -0.028915044 -0.017745795 -0.09627541 -0.0070724334
-0.072244875 0.09114752 -0.03408493 0.19029644 -0.1485353 0.09367929 -0.021345273 -0.072288804
-0.025653925 -0.051742025 0.3579063 -0.03333414 -0.0077836607 -0.030638667 -0.034815766 -0.0037968939
-0.09648297 0.21387987 0.09968151 -0.09962975 -0.051848937 -0.039148428 -0.022182696 -0.035473853
0.4626148 -0.088177055 -0.045877464 -0.037716072 -0.0432116 -0.04030459 -0.07459647 0.1923833
-0.01831328 -0.028839197 -0.028908579 -0.30026704 -0.04984045 0.13063957 -0.015854377 0.05191991
0.13200043 0.01829527 0.1845713 0.08069347 -0.034884173 -0.040443797 0.35838392 -0.09874399

sequential_2/dense_4/MatMul f4 [64, 2432]
00000000: 63e6 543e fc7b 53bd 3435 f93d 2735 7bbc
00000010: 2779 9b3b 73e0 a7ba a106 85be 7f1f a23e
00000020: 275c 7bbe 15f4 6b3e 1f07 d8be dc6f 803e
00000030: f0b3 eb3c dd1e 36bd 71c7 27bd 2ec3 c0bc
00000040: 232c 673d 2911 893f f1ab 07bd 6c92 d9bd
00000050: a36b 2438 2b73 5e3d e93d 71bc a7cf cebd
00000060: f073 2a3c 35a4 323d 1b55 ac3b 9b92 383e
00000070: a510 57be f54b 46bd af8b 263f e415 9f3e
00000080: 044f c3bd e6ef 94bc 106e bdbd 8720 323e
00000090: 7a34 0fbd 5f3c d1bc a9ca 6d3f 8010 303c
000000a0: 7643 4b3e 184b 5a3d a6fe 673f 954d ea3b
000000b0: 2c6a 813f 8358 413f f06e e3bc d24f 423d
000000c0: 0137 c9be fef6 95be 9d42 d1be 338d 8e3d
000000d0: 2281 533e e859 94bd fb0f 6e3f 96a2 73be
000000e0: 52e4 50be 616b 523f bc80 01be 11ba 4b3d
000000f0: 755e 8ebc 5f75 3cbd a086 95bc 2f25 323c
00000100: 098e d03d 73f0 0a3d a1cc 46bd 4b97 b639
00000110: 3714 893b 6be8 d1bc bd3a 29bd 4980 263e
00000120: c79f f73b 0d19 993d a587 90be face 96bd
00000130: 0f06 9abb edd9 94bc 83fa 913c b4b4 72bd
00000140: 2673 70bd 52fa de3e 6f37 90bc aef7 45bb
00000150: 1bd1 943d 8418 9d3b 65ab 15bd 5e08 3d3d
00000160: 80c2 1fbd d568 76bc 2119 183d 0031 ac3d
00000170: 1ec0 503c 88a1 463e 085b 8b3e ea14 a63d
00000180: ec11 73be c19d 713d bd83 0bbd 84b1 dd3d
00000190: 9b23 d13c 9958 273d a4fc 193f 4c19 7c3c
000001a0: 8618 2abc 1d18 c13c ab43 023f 1ef2 403d
000001b0: df5e f23e efd6 7a3e c58c 17bd 7960 78bb
000001c0: bcac bcbd 9b24 66bd 5f85 2dbe b686 aabc
000001d0: b7bc 56bc 16d7 3fbc e48b a63e 486f 8bbe
000001e0: f976 10be b58f b83e 6589 1dbe ebf7 87bc
000001f0: 63a0 8abc 1ee9 1abc 6191 453c 423b 7dbc
00000200: 500b 473c a397 ceb9 cd27 07bd 73c4 da3c
00000210: 2ac0 d5bc b99b fe3c 021e 6f3d 934c fa3c
00000220: 7156 e13b 82ad ad3d cae8 56be fff3 43be
00000230: 4952 63bd b1cb 163c d438 f0bb 03ec 1cbd
00000240: efdf afbc c8a6 713e 3952 7ebc 57f9 4e3c
00000250: 7693 8c3d 733e 93bc 640a 633c 0130 453e
00000260: b5e0 6f3c 0059 2e3d 8a24 8e3a 7aca 963d
00000270: 469f f3bd daa7 a73d c08f b73d c217 3d3e
00000280: 757a 00be e134 ec3d 0fe9 d9bd d263 04bd
00000290: 9204 d63d 35d2 043d b025 cf3e 7060 6238
000002a0: 1c07 383e a277 86bb 681a a13e 1bef 2c3d
000002b0: 2bc5 953e 0589 c63d fd43 a3bc 2c0a 933c
000002c0: f7d8 aebd 750f 303d 1fb8 2cbe 249a ae3c
000002d0: 8c8a dc3c 1176 453d ee4b fa3d cadf debd
000002e0: 838a 9f3c 55a3 6f3e b61c 1cbd 0e2f ae3c
000002f0: 8bd0 483d ec62 823b 049f 7cbd 9d4f 163d
00000300: f17a 34b9 8da5 733c 4c50 823d 58bf 293c
00000310: fff5 823c 5f11 013d 0dc9 0dbd 2dcf ec3d
00000320: e950 0fbd d0fd 0ebc 4490 aabe b649 85bd
00000330: a048 b9bb 5b7f 40bc 3f8d 183d ba20 5cbd
00000340: e13c a3bb 42f2 5e3e 8ae0 10bd f413 37bd
00000350: a133 953d a1e0 b03c 7bd6 9c3c 4ba6 783d
00000360: 511f a43c efe7 b8bc 7c8e 8ebb 0356 cf3d
00000370: 43f8 6dbe 64b6 3ebd 4c72 bf3d 3278 3f3e
00000380: 45ca a0bd 154e e53d 2907 24bd edd0 3f3d
00000390: 2cd2 9d3d 2137 87bc 9110 943e 3424 3cbb
000003a0: e4bf 263e 0988 9cbc d5ae 733e 2193 ea3d
000003b0: 28ac 4c3e 92db 653e 2ef2 8cbb 1416 ae3c
000003c0: 73e3 7bbe c517 cd3a cf53 03be b081 0a3d
000003d0: 247b 3b3e 7bf1 423b d3f2 893e 679e 0fbe
000003e0: 394f a03c e005 df3d d69f 123e adc8 913c
000003f0: 8053 953c f5ff bebc dfe3 40bd 25f7 813b
0.2079101 -0.051631913 0.12168351 -0.015332497 0.004744667 -0.001280798 -0.2598162 0.31664655
-0.24546872 0.23042329 -0.42192933 0.25085342 0.028772324 -0.044463027 -0.040961687 -0.023530569
0.056438576 1.0708362 -0.03312296 -0.10623631 3.920089e-05 0.05430905 -0.014724233 -0.100982
0.010403618 0.04361363 0.005259169 0.18024676 -0.21002443 -0.048412282 0.6505689 0.3107139
-0.095365554 -0.018180799 -0.092495084 0.1739522 -0.034962155 -0.025541482 0.9288736 0.010746121
0.19849953 0.05329427 0.9062294 0.007150362 1.0110526 0.75525683 -0.02776286 0.047439404
-0.39299777 -0.29290003 -0.40871134 0.06960525 0.20654729 -0.07243711 0.92993134 -0.2379249
-0.20399597 0.821951 -0.12646765 0.049737994 -0.017379025 -0.04601037 -0.01825267 0.010873123
0.10183341 0.033920716 -0.048534993 0.00034826467 0.004183318 -0.02562352 -0.041315783 0.16259874
0.0075568887 0.07475481 -0.2822849 -0.073636964 -0.0047004293 -0.018170321 0.017819649 -0.059254363
-0.058703564 0.43550354 -0.017604558 -0.0030207443 0.07266446 0.0047941823 -0.036540408 0.046150558
-0.03900385 -0.015039642 0.03713334 0.084077835 0.012741117 0.19397557 0.2721789 0.08109458
-0.23737305 0.058988336 -0.034061182 0.10824874 0.025529673 0.040855978 0.60151124 0.015386891
-0.010381823 0.023571068 0.50884503 0.0471059 0.47338006 0.24496053 -0.036999483 -0.00378993
-0.09212634 -0.056187253 -0.16945408 -0.020816188 -0.013106517 -0.011708995 0.32528603 -0.27233338
-0.14107884 0.3604714 -0.15384443 -0.016597709 -0.016922181 -0.0094549935 0.012058587 -0.015456023
0.012148693 -0.0003940436 -0.03299694 0.026705002 -0.026092608 0.031080114 0.058378227 0.030554092
0.0068767597 0.084803596 -0.2098724 -0.19136046 -0.055498395 0.009203837 -0.007330993 -0.038311016
-0.021469085 0.23598778 -0.015522533 0.012632689 0.068640634 -0.017974114 0.013857458 0.19256593
0.014640977 0.042565346 0.001084463 0.07362838 -0.11895613 0.08186312 0.08962965 0.18466094
-0.12546714 0.11533523 -0.106401555 -0.03232176 0.104500905 0.03242703 0.4045844 5.3972413e-05
0.17971462 -0.004103617 0.3146546 0.042220216 0.2925199 0.09694103 -0.01992988 0.017949186
-0.085374765 0.04298349 -0.16867112 0.021313734 0.026921533 0.0482083 0.12221514 -0.10882528
0.019475227 0.2340215 -0.03811332 0.021262672 0.049027007 0.0039790776 -0.061675087 0.03669702
-0.00017211937 0.014871013 0.06362972 0.010360561 0.01598644 0.031510707 -0.034615565 0.11562953
-0.03498927 -0.008727506 -0.3331319 -0.065082 -0.0056544095 -0.011749114 0.037244078 -0.053742148
-0.0049816226 0.21772102 -0.035370387 -0.044696763 0.07285238 0.021591486 0.019145241 0.060705464
0.020034464 -0.022571532 -0.0043504816 0.10123827 -0.23239236 -0.04656066 0.09347972 0.18698195
-0.0785108 0.111965336 -0.04004589 0.046830107 0.07706103 -0.01650578 0.2891889 -0.0028708102
0.16284138 -0.019107835 0.23797162 0.11453844 0.19987547 0.2244704 -0.004301331 0.021250762
-0.24598484 0.0015647343 -0.12824939 0.033815086 0.18308693 0.0029745984 0.26943073 -0.1402527
0.019569026 0.108897924 0.14318785 0.017795885 0.018228292 -0.02331541 -0.047092315 0.0039662295

sequential_2/dense_5/MatMul f4 [32, 64]
00000000: 396d 88be 8c81 e2be d56b c0be 4011 793d
00000010: 5c9e c83d dc50 5abe 48e4 96bd 5123 adbe
00000020: 8479 293e dcbe 2d3e a402 5ebd bc14 523e
00000030: 1e24 1ebe 34ed 273e 0e05 82bd a3b6 16bf
00000040: 29ea 19be f2ab 43bd 70a0 7fbe 357d 843e
00000050: 0fc9 ffbe 365f 69bd f462 8c3d dca2 073e
00000060: 4f42 2d3e 3cdf 5b3e 25c7 693e d397 643e
00000070: 2154 66be b9b2 49be d9e5 a5bd 5106 febe
00000080: 8ec2 973e 00fc 883d 3e92 c03e ffcc 2f3e
00000090: fe32 95bc 2b39 073e 7483 353e 620f 57be
000000a0: 7b0c 5a3e f9ab a0be ad76 87bd dc5d e2bb
000000b0: 51a1 353e 24cc f23c 5c19 37bf 7ca6 203e
000000c0: 51a0 bd3c 2594 9f3d 04fe 3a3e 7fb2 efbd
000000d0: 0d28 30be 5af2 1d3e a9bc 67be 1690 7e3d
000000e0: f908 c3be 4c47 4dbd 453c 2bbe 07a8 00be
000000f0: fa5f 883d 4771 c3be ffee 573e 4d5a cbbe
00000100: 1ec6 2f3d 2db5 723d 44d0 233c bae9 2abe
00000110: b535 99be f853 983d d810 22be 81f3 d6bd
00000120: c037 95be 64ea 43be 686c 54be 2728 fcbc
00000130: 56a7 6dbe a940 9a3d 1908 d0be 99af 413e
00000140: 9fd3 db3d 4bab 6fbe 806f 36be 74a0 9f3e
00000150: e675 39be a933 293d dbca 0d3e f822 b3be
00000160: 8b07 d6bd f661 02bd 4882 423e 604f 5cbe
00000170: 321c 4b3e 5e6b 42bd ed52 5e3e 3164 99be
00000180: f082 d83e a78d 983d 907e 89bc 6f64 52bc
00000190: 18c7 adbd 47e0 ca3d 081f 4abd e72e f5bd
000001a0: 7947 edbb 5509 72be 6486 fab9 db2e 0f3e
000001b0: b361 b9bd 3a93 ab3d 2417 53bd 556f 4abe
000001c0: 1377 523c d863 14be 18cf 353e a8f5 9cbd
000001d0: 586b aebd 1d04 1ebe e65e 6cbd ece6 5cbd
000001e0: f6b5 8cbb 3611 12be 4cb9 f2bd bced d1be
000001f0: 3176 14be f618 7ebe 9000 4bbb 5166 93bd
00000200: 92df 53be 7fd1 6e3d 8093 4d3e 415f cfbe
00000210: 94e9 55bc 987d 69be f804 45be c20f fd3d
00000220: 78c2 c3be a0ef 853d 307b 1f3e ac2e 873d
00000230: 87b2 ce3e 154a fdbd 07a6 31be 5f61 d23d
00000240: f34e 153c 58e1 63be 7ca7 0f3e 1e52 21bd
00000250: b857 8ebd d3aa d6bd c0a8 2e3e 0c76 03be
00000260: f405 f7ba de41 0f3e 1b58 9a3d 009f d43d
00000270: 1067 0fbe 0681 73be b244 253e 64d3 eebd
00000280: ea4a 433e 5132 9abd eac6 d2be 7436 b9bd
00000290: 3fe8 553e 08ad 013e 9bed 55be 1e01 0abe
000002a0: 3635 63bd 8e23 9abe 77f7 883e 5c10 633e
000002b0: 56d6 04be 1c8e 123e 56f3 48be d62b 8cbe
000002c0: 6680 9dbd 9d9d e9bb 5504 1cbe 0976 dcbe
000002d0: f841 423e 89be 1b3e 7714 783e 4bea 363e
000002e0: 36cc 4a3e 7125 24bf 5a14 853e 4a88 0abf
000002f0: 437f 9ebd 6a7c ac3e dde3 1abe f0ad b33b
00000300: 11bf 1bbe 90e0 95be 2ba5 d1bd 3fc0 423e
00000310: c0a3 f43e 08f1 90bd d11c 89bc ad6a eabd
00000320: 309b 433d 55c3 173e 1d40 d3bd 6087 3fbd
00000330: b32d 1bbf d722 58be e21e 69bd fa43 c8be
00000340: cccf 84bd 330a 953e 8fc1 3d3e 323c a3be
00000350: 7929 6b3d a36e 2c3d 57b4 7b3e 2c2d 853e
00000360: 8629 e13e 7dc9 33bd 7644 82be 1f38 a3bd
00000370: 7b36 443d 69b5 43bd 5faf 473e 6d41 623e
00000380: 6512 c43d c499 33be 8b99 97bd 85e7 143c
00000390: 01a6 7abc b99f e3bd 47b6 143e 6b55 51be
000003a0: c3ff 0fbe 3bc0 013e 9e34 c23d 83c4 2fbe
000003b0: 79d4 bdbd 40a8 b8bd 8acb debd a54f 1fbd
000003c0: 021d 7b3e 7075 0b3e 1cb9 13bc 1abf d7be
000003d0: 8fff c5bc 0b32 0c3e a423 d73c f2b6 a13e
000003e0: e0bf d0be f834 683e 2f01 2abf 9955 e2be
000003f0: c8ed f33d d4a8 143e f067 c23e 4ede 6ebe
-0.2664583 -0.4423946 -0.3758227 0.060807467 0.0979583 -0.21319908 -0.0736776 -0.33816007
0.16550261 0.16967338 -0.054201737 0.20515722 -0.15443465 0.1639908 -0.0634862 -0.5887243
-0.15030731 -0.0477714 -0.24963546 0.25876775 -0.49958083 -0.056975566 0.06854811 0.1324572
0.16919826 0.21471876 0.22829874 0.22323541 -0.2249303 -0.19697084 -0.081004806 -0.49614194
0.2964062 0.0668869 0.37611574 0.17168044 -0.018212792 0.13205402 0.17725927 -0.21001962
0.21293823 -0.31381205 -0.066144325 -0.0069081616 0.17737319 0.029638357 -0.7152307 0.15688509
0.023147734 0.07791928 0.18260962 -0.11703967 -0.17202778 0.15424481 -0.22630562 0.06214913
-0.38092783 -0.050116822 -0.1672221 -0.12564097 0.06658931 -0.3817236 0.21087264 -0.39717332
0.04291355 0.059254814 0.009998385 -0.16690722 -0.29923788 0.07437891 -0.15826738 -0.104956634
-0.29144096 -0.19132382 -0.20744479 -0.030780865 -0.23208365 0.07531864 -0.40631178 0.18914641
0.10733723 -0.23405187 -0.17815971 0.31177104 -0.18111381 0.041309033 0.13846914 -0.34987617
-0.104506575 -0.031831704 0.18995011 -0.21514654 0.19834974 -0.047465675 0.21711321 -0.29959252
0.42287397 0.07448893 -0.016783983 -0.012841328 -0.0848524 0.09906059 -0.049346 -0.119718365
-0.007241186 -0.23636372 -0.00047783845 0.13982718 -0.09051838 0.083776906 -0.05153574 -0.19769032
0.012845772 -0.14491212 0.17754781 -0.07664043 -0.08516568 -0.15431257 -0.05770769 -0.05393116
-0.0042941524 -0.14264378 -0.11851749 -0.4100169 -0.14498211 -0.2481421 -0.0030975677 -0.0719725
-0.20690754 0.05830526 0.20075798 -0.4050236 -0.013056178 -0.22801816 -0.19240177 0.12356521
-0.38234305 0.065398455 0.15574336 0.06600699 0.4037058 -0.12367646 -0.1734849 0.10272478
0.009113061 -0.2225393 0.14028734 -0.039384954 -0.06950325 -0.10481801 0.1705656 -0.12838
-0.0018846379 0.1398997 0.07536336 0.10381889 -0.14004159 -0.23779687 0.16139486 -0.11661413
0.19071546 -0.07529128 -0.41167384 -0.09043589 0.20889376 0.12663662 -0.2089142 -0.13476989
-0.055470668 -0.3010525 0.267513 0.2217421 -0.12972388 0.14312023 -0.19624075 -0.27377194
-0.07690506 -0.0071293847 -0.15236028 -0.43058804 0.18970478 0.15209402 0.24226557 0.17862813
0.19804463 -0.6411963 0.2599209 -0.5411421 -0.07739117 0.3368867 -0.15125985 0.0054833815
-0.15209605 -0.2927289 -0.102365814 0.19018649 0.4778118 -0.07077223 -0.016737374 -0.11446128
0.04775542 0.14820607 -0.10314963 -0.046759963 -0.60616606 -0.2110704 -0.056914218 -0.39114362
-0.064849466 0.29109344 0.18530868 -0.31881863 0.0574126 0.0420977 0.24580513 0.26011026
0.43976992 -0.043893326 -0.25442857 -0.079696886 0.04790352 -0.047780428 0.19500493 0.2209527
0.09573821 -0.17539126 -0.07402333 0.009088402 -0.0152983675 -0.11114449 0.14522658 -0.2044274
-0.14062409 0.12670986 0.09482692 -0.17164807 -0.092690416 -0.09016466 -0.10878666 -0.038894314
0.24522784 0.13619018 -0.0090163015 -0.42137986 -0.024169711 0.13690965 0.026262112 0.3158489
-0.4077139 0.22676456 -0.66408056 -0.4420593 0.119105875 0.14517528 0.37969923 -0.2332699
