frontend/pdiot_app/assets/models/model_online_4CNN.tflite (tflite, 830300 bytes, 14 tensors)

sequential_4/conv1d_16/BiasAdd/ReadVariableOp f4 [64]
00000000: c25d b8be f75a 69bf ae93 6fbf ad4e 02bf
00000010: 2505 18be 24fd afbe cf33 49bf d9e6 8fbe
00000020: 9af3 0cbf 62cc d6bf 3fd2 88be f176 a0bd
00000030: d1d5 9bbf d1c1 e2be d4ff eabe c6f7 dbbe
00000040: 508f 67be f9b6 37be b09c e8be 7c55 cebd
00000050: 5e08 1dbd 1cdb 03be 7fd6 31bf 7b43 9ebe
00000060: 6ec4 f5be 9ef4 56bf bc10 f2be 4a38 6dbe
00000070: 090c 11be a68a 67be f204 3ebe 39ad fbbe
00000080: 1169 dfbe 37c7 96be 150b 54bf 5388 8bbe
00000090: b8d5 2cbe 6b79 82be 5618 83bd 8669 02be
000000a0: 5a04 7fbd 7bfa 86be bf89 5abe ad3d f03d
000000b0: e334 16be f212 05be 85a8 d1bd c44f 5abe
000000c0: d0c1 75be 0c8d 98be c0ee 58be 502b 8bbe
000000d0: d72f 11bf 9f78 06be 4638 9fbf 66fd d1be
000000e0: caed a4be c3ab 7bbe a287 d5bd 3c6a 96be
000000f0: d428 1fbf 98d4 8dbe 4f63 33bf a3fa d4bf
-0.36009032 -0.91154426 -0.93584716 -0.509013 -0.14845712 -0.34372818 -0.7859468 -0.2810581
-0.55059206 -1.6781123 -0.26722905 -0.07835186 -1.2174627 -0.44288495 -0.45898306 -0.42962474
-0.22613263 -0.17940892 -0.45432043 -0.100748986 -0.038338058 -0.12876552 -0.6946792 -0.3091086
-0.48001426 -0.83967006 -0.47278392 -0.23166004 -0.14164747 -0.22611484 -0.18556574 -0.49155596
-0.43634847 -0.29448864 -0.8282941 -0.27252445 -0.16878402 -0.2548326 -0.06401126 -0.12735566
-0.06226001 -0.26362976 -0.21341608 0.11730514 -0.14668612 -0.12995508 -0.10237221 -0.2131949
-0.23999715 -0.2979511 -0.21184826 -0.27181482 -0.5671362 -0.13131951 -1.2439048 -0.4101364
-0.3221267 -0.2457724 -0.104262605 -0.29377925 -0.62171674 -0.2770126 -0.7007341 -1.6638988

sequential_4/conv1d_17/BiasAdd/ReadVariableOp f4 [64]
00000000: e7ab cbbb 01b3 75bc 976c 1eb9 75aa 8f3c
00000010: 4ef7 3bbd 5b6f c3bc 5b07 41bd 1000 8cbc
00000020: 65d2 50bf 2ba6 cbbd 28ce 12bd 45f2 18bd
00000030: 61fd a6b9 6400 84bd ef85 c83b 4102 6ebd
00000040: 770a 62be bc27 fdbb e1f5 66bd af2e 4abd
00000050: f043 c2bc 41b4 e53d f4d4 bb3d 45e6 40bd
00000060: 8920 07bb 97b7 19ba f868 34bd 7e38 5bbc
00000070: a7d0 8a3d 5d52 3ebd 4510 41ba d32e 0bbe
00000080: 5012 973d 9580 2cbe e5e0 123e eb7b d5bc
00000090: 10fc 0fbd 3712 963d 2b99 54bb 7565 1bbf
000000a0: 3543 d3bd d6e5 86bd bce4 6bbe 4310 98bd
000000b0: 27de ecbc 2f35 68be 3c16 0dbf 664d 56bd
000000c0: 48b1 c6be 599d dbbe 5c57 79bd f3d8 573d
000000d0: 6de6 8cbe e223 23bd 1ead 323d eaf2 b9bd
000000e0: 184a dbbc c15a 8abc 1b45 aaba f3ba 503d
000000f0: 97a9 59be 62b5 bcbd 2091 303d 0bc2 9cba
-0.0062155607 -0.014996291 -0.00015108507 0.017537335 -0.045890145 -0.02385681 -0.047126155 -0.017089874
-0.81571037 -0.099438034 -0.035841137 -0.03734042 -0.0003185077 -0.06445387 0.0061194818 -0.05810762
-0.22074305 -0.007725684 -0.056386832 -0.049360927 -0.023714036 0.11216021 0.09171477 -0.047094602
-0.0020618758 -0.0005863844 -0.04404542 -0.013380168 0.067780785 -0.046465266 -0.000736479 -0.13592081
0.0737654 -0.16845925 0.14343603 -0.026060065 -0.035152495 0.07327693 -0.0032439928 -0.60701686
-0.10315553 -0.065868065 -0.23036474 -0.07424977 -0.028914524 -0.22676538 -0.5511205 -0.052319907
-0.3880713 -0.42893484 -0.060874328 0.052697133 -0.2751955 -0.039829142 0.04362213 -0.09079535
-0.02676873 -0.016888978 -0.0012990566 0.05095954 -0.212561 -0.092142835 0.043107152 -0.0011959685

sequential_4/conv1d_18/BiasAdd/ReadVariableOp f4 [64]
00000000: 23e1 41bd 37b7 9cbd c2a9 10b9 e60d 66bc
00000010: 848d 4fbf 4604 d6bc 31a1 52b9 52bb 4abc
00000020: 8f6c 29bd a8e7 2cbc 1d51 69bd 16f2 38b5
00000030: eee1 99bc b52b 153b a392 443d 8f14 71bd
00000040: 488d 95ba 9049 0fbd 1b08 09b5 79d3 f33c
00000050: b4ce a5be 5be0 42bd cbce 6cbd 2fb4 16bd
00000060: 990b 4e3d e354 62bb 8730 223d 2240 9c3c
00000070: aa9e d2bd 736a c0bc 6446 b1bd 61c6 a83d
00000080: 2070 52be 60ff 553d 6935 413d 17ec e9b6
00000090: 2991 d73c dc4f 1ab3 c6ae b73d 1ec1 c5bc
000000a0: f72e eabb 8b47 48b6 63bc 08bd 718c 80be
000000b0: 0bd4 e9b7 92e7 75bd bcb6 11bb 37ce 0fb4
000000c0: e14d aeba 9499 beba 8995 3ab8 d8f8 c7bd
000000d0: 7d12 50bd b140 11be 46a0 4fbb 0ccb 4eb7
000000e0: 8c4f 1cb8 34a2 deb6 597f 0dbe 8258 deb6
000000f0: 5e98 443d 8e8f 97b4 f24c 86bc 7b5e 91be
-0.047333848 -0.07652133 -0.0001379615 -0.0140414 -0.8107531 -0.026125085 -0.00020087209 -0.012373762
-0.041363295 -0.010553278 -0.05696212 -6.8897623e-07 -0.01878449 0.0022761647 0.047991406 -0.058857497
-0.0011409903 -0.034982264 -5.104827e-07 0.029763924 -0.32384264 -0.047577243 -0.0578144 -0.03679293
0.05030403 -0.003453546 0.03959706 0.01907355 -0.10284169 -0.023488259 -0.08656004 0.08240963
-0.20550585 0.052245498 0.047170077 -6.9714256e-06 0.026314335 -3.592855e-08 0.08968882 -0.024139937
-0.007146712 -2.9843966e-06 -0.033382785 -0.25107148 -2.7874505e-05 -0.060035296 -0.0022234162 -1.3392933e-07
-0.0013298356 -0.001454162 -4.448512e-05 -0.0976426 -0.05079888 -0.14184834 -0.0031681224 -1.2325832e-05
-3.7267382e-05 -6.6349985e-06 -0.1381811 -6.6264192e-06 0.04799687 -2.8230392e-07 -0.016394112 -0.28392395

sequential_4/conv1d_19/BiasAdd/ReadVariableOp f4 [64]
00000000: 05d9 cfbd 3a70 25bc 1aef 7cbd 782f 303d
00000010: b7a8 40bd 361e b1bd 1b66 7ebd 38e4 d0bd
00000020: c7ee c0bc d187 81be 0050 c13d e34a debe
00000030: e647 21be aee9 693d a213 18bc 922c 1cbd
00000040: d8f9 02bd 4a88 c23c 43f5 5ebc 9cf3 363d
00000050: 3f2b 98bc 29ae 923c 976b 52be d7a1 af3d
00000060: 910a 28bd 9cd6 c3bb 54f8 5f3d feaa b6bd
00000070: c753 00bc 3b91 813d 17ce 72bb f602 15be
00000080: 810b 08bc 5eaf e5bd ac8a f3bc c0f7 d4bc
00000090: c50e 30bc ce86 ffbc a436 12bc c951 15be
000000a0: 0d56 00bc 6de7 8bbb 866b 9bbc f02d 70bd
000000b0: 053e 84bc e64d aa3d dbc4 a63d 6bc4 d2bc
000000c0: 28e3 dfbc 39c1 843c de02 6dbd 4deb f7bc
000000d0: d445 20bd 7ca8 2ebd 7dec ce3d 1d93 0dbc
000000e0: ccc5 a4bb afd7 09bc 6b23 5abb 4325 44be
000000f0: 5a10 ef3d e54d 783d 577a c83d fdd0 ccbc
-0.10148815 -0.010097558 -0.061751463 0.04301402 -0.0470359 -0.086483404 -0.062109094 -0.10199779
-0.023551358 -0.25298932 0.09439087 -0.4341651 -0.15750083 0.05710762 -0.009282025 -0.038128443
-0.03197655 0.023746628 -0.01360828 0.044665918 -0.018575309 0.017905312 -0.20548855 0.085757904
-0.041025702 -0.005976511 0.054680184 -0.08919333 -0.007832474 0.06326529 -0.0037049109 -0.14551911
-0.008303524 -0.11215089 -0.02972921 -0.025997043 -0.010745709 -0.03119221 -0.00892416 -0.1458198
-0.007833016 -0.0042695315 -0.01897217 -0.05863756 -0.016142854 0.08315639 0.08143016 -0.025728425
-0.027329996 0.016205417 -0.057864062 -0.030263567 -0.039129093 -0.042641148 0.101037 -0.008641032
-0.005028462 -0.008413239 -0.003328527 -0.19154839 0.11673041 0.06062116 0.097889595 -0.025001997

sequential_4/conv1d_16/Conv1D f4 [64, 1, 5, 6]
00000000: 5f06 c33c 68e8 7a3a 05a5 debb f82b 92bc
00000010: 78ad a4bd 97c4 b83d 3a4f c63c 55e7 c63b
00000020: 517b e0bb 269b c5bc 7101 41bd 8db8 593d
00000030: abcd cc3c edb8 4e3c 0881 03bc 25c8 ecbb
00000040: 6e74 33bd d6a7 123d c766 d13c ed65 3a3c
00000050: c32a fcbb f5c6 b5bc 6c04 3fbd eea4 233b
00000060: 8848 f43c 6da9 1c3c f224 9fbb c993 0bbd
00000070: 0e55 c2bd e464 ae3d d405 8abc 982a c4bc
00000080: 707c fa3c c333 07bd 6c8d aabd b467 23bd
00000090: 154a 61bc e067 01bd fa2b da3c f1da 3f3d
000000a0: ef72 973d dde3 593b ab01 49bc 147e 17bd
000000b0: 00e6 c13c 63c1 9abc fa2f 8abd de2c d63c
000000c0: 641f 80bc 5771 08bd edd6 bb3c da9f cd3c
000000d0: 1cfe 10bd 590c 2bbd 7529 43bc bbd5 a8bc
000000e0: c98d bb3c ce30 003d dda1 f83d d458 e0bc
000000f0: 6fd8 aabd 573f 91bd 7586 063e edfa 703b
00000100: 294c abb9 0e4b 73bb d8d9 69bd 44ae a2be
00000110: e7ea cb3d 07c2 5aba 70f1 803b 16e4 933b
00000120: 6351 d7bc 31c8 e9be 544e 653d dc10 11bc
00000130: adcb acbb bde5 80bb d655 c33a 2df6 e7be
00000140: 0a17 58ba eab6 cc3b b0ff b43b 328e 18bc
00000150: 63eb 213d 7bab a4be 9f92 8fbd 8ff2 afba
00000160: cb12 2c3b 7122 d5bb 6f79 bbbb 0fb1 1abd
00000170: 86c0 883c e307 60bc cb19 713d 954d 4f3d
00000180: 800e c9bb fa9c 2bbd ac4f 483c a979 babc
00000190: 99cb a73c 4104 4e3c 6dae 47bb e9c3 3fbd
000001a0: 8381 633c c6b2 2ebb 9442 0c3d 05f7 463d
000001b0: 0820 67bb b8ea 42bd 6a62 a93c f72e 96bc
000001c0: fd5d 413d 4924 8c3d 9357 05bc a9e0 22bd
000001d0: d069 d53c caec d7bc d4a4 c93d 801d a13d
000001e0: 5b98 3f00 0442 4003 38ac 8a03 ecba 7d03
000001f0: 58e4 7c83 d703 3603 8255 1b83 7bf6 af83
00000200: 769c 5e83 8bbc 7983 801c 9103 4a66 6b03
00000210: 53f5 7d02 b635 8903 b278 3a03 b3b8 8303
00000220: 4e0f 5883 a41c 0803 aa19 b081 9781 bc03
00000230: 92fb 8802 89bd e702 3cf8 4803 a857 4603
00000240: 2679 3b83 12b1 ca82 249a 1203 dc3a 5183
00000250: a7d7 7203 fe7b 2183 e93c 96bc d9e4 acbc
00000260: 5fac 79bd 78d1 86bc 65fe f33d ceeb d8bd
00000270: d2f6 57bc 7abc aabc 90ce 89bd f221 f33c
00000280: c956 cd3b 1b19 0f3c 4d95 2dbc d416 91bc
00000290: 1246 8bbd 2a02 42bb 0feb df3b 2205 fbbc
000002a0: 876d a8bb 29b3 97bc a72a 93bd 56ce 563c
000002b0: 852a a4bb c945 94bc 033e ff3a 5248 b8bc
000002c0: 654f 8cbd ae9b 293d ec0c dbbd 49c3 023e
000002d0: fadc 873d 7347 1abd 1599 03be d7d3 883d
000002e0: 191f 473c 4629 e43c f9f3 753d b825 55bd
000002f0: 227b 04be c419 f3bc 5b9a a7bc ca40 8fbd
00000300: bf8e 5a3d d71f 73bd bf57 05be cac5 a8bd
00000310: 2125 89bd 1eb3 00bd 0607 5e3d e6a0 20bd
00000320: 9062 05be 6a9a 133d 704f 3c3d c78c 8f3d
00000330: d183 533d cddc 53bc 0944 08be 0079 b53c
00000340: 83ae 5e3d 598e 72bd 576e 6a83 6481 0203
00000350: 7d78 3b03 afe8 6683 c719 5b83 ec7d 2b83
00000360: 173b 7c83 6c10 ba80 44a7 f702 ca65 6283
00000370: 69fb 3c03 9785 0683 4ab5 b183 16ef 4700
00000380: b2f6 1103 3095 6d83 d305 4c83 2c1a 4683
00000390: 5201 8103 5a4f 2883 4a93 3a03 f444 6383
000003a0: ba84 ed82 f72e 1d83 9b28 9d03 7aad a082
000003b0: af4d ba82 8b2e 5783 e1af 6603 fb68 5803
000003c0: 905f 46bc 4741 a53c 49bd d1bc 2e49 c03c
000003d0: 6737 cfbd 0331 93bd 029e 5dbc 65fd 383c
000003e0: c0d7 e1bc b655 683d 9e64 12bd f074 cebc
000003f0: 0e2c 64bc 8fe0 303c 789d 04bd 1841 163d
0.023806749 0.00095713744 -0.006794574 -0.017843232 -0.08040899 0.090218715 0.0242077 0.0060700574
-0.006850638 -0.024121832 -0.047120515 0.053154517 0.025000414 0.012617332 -0.008026369 -0.0072260075
-0.043812208 0.035804592 0.025561703 0.01137684 -0.0076955273 -0.022189597 -0.046635076 0.0024970132
0.029819742 0.009561879 -0.004856699 -0.034076486 -0.09488879 0.08515337 -0.016848482 -0.023946092
0.030576915 -0.03300835 -0.08327755 -0.03989382 -0.013750573 -0.031593204 0.026632298 0.04683966
0.07394969 0.003324739 -0.012268464 -0.03698547 0.023669243 -0.018891042 -0.06747432 0.026144441
-0.015639968 -0.033311214 0.022929633 0.025100637 -0.035398588 -0.041759823 -0.01191174 -0.020609727
0.022894757 0.031296544 0.12140248 -0.027386107 -0.08342063 -0.07092159 0.13137229 0.0036770657
-0.00032672405 -0.0037123594 -0.057092518 -0.3177358 0.099569134 -0.00083449524 0.0039350316 0.004513274
-0.026283925 -0.45660546 0.055982903 -0.008854117 -0.0052733035 -0.003933637 0.00149029 -0.45305005
-0.0008243179 0.006247391 0.0055236444 -0.009311246 0.039531123 -0.3216208 -0.07010388 -0.0013423729
0.0026256319 -0.00650435 -0.005721263 -0.037766512 0.016693365 -0.013673755 0.05886249 0.050611097
-0.0061357617 -0.04189775 0.0122260265 -0.02276309 0.020482825 0.012574256 -0.0030468956 -0.046817694
0.0138858585 -0.002665685 0.03424318 0.04857542 -0.0035266895 -0.047587126 0.02067681 -0.018332941
0.047208775 0.06842858 -0.008138555 -0.039765034 0.026051432 -0.026358027 0.098458916 0.07866955
5.840291e-39 5.649951e-37 8.1504505e-37 7.4564593e-37 -7.431827e-37 5.34894e-37 -4.5648564e-37 -1.0342165e-36
-6.5419545e-37 -7.339096e-37 8.528877e-37 6.9177715e-37 1.8657909e-37 8.064468e-37 5.479904e-37 7.741893e-37
-6.3494264e-37 3.9999686e-37 -6.4689015e-38 1.1079399e-36 2.0127798e-37 3.4051187e-37 5.9059677e-37 5.8287595e-37
-5.5093432e-37 -2.9782866e-37 4.308249e-37 -6.1487147e-37 7.1364965e-37 -4.7455984e-37 -0.018339591 -0.021105217
-0.0609554 -0.016457304 0.11913756 -0.10591851 -0.013181405 -0.020841826 -0.06728852 0.029679272
0.006266449 0.008734013 -0.010594678 -0.01771108 -0.06800474 -0.002960334 0.006833441 -0.030642096
-0.00514001 -0.018518047 -0.0718587 0.013110718 -0.0050099515 -0.018099682 0.0019473437 -0.022495423
-0.06851081 0.041408233 -0.10695824 0.12769808 0.06633945 -0.037665796 -0.12851365 0.0668103
0.01215341 0.027851712 0.060047124 -0.052037925 -0.12937596 -0.029675372 -0.020459345 -0.069947794
0.05335879 -0.059356537 -0.13021754 -0.0824085 -0.06696535 -0.03142082 0.054205917 -0.039215945
-0.1302588 0.036035933 0.045974195 0.07009273 0.05163938 -0.012931061 -0.13307203 0.022152424
0.054365646 -0.059217785 -6.8893083e-37 3.83521e-37 5.5092675e-37 -6.7858033e-37 -6.4387907e-37 -5.0396935e-37
-7.4123976e-37 -1.7087293e-38 3.6389394e-37 -6.653228e-37 5.553684e-37 -3.9532414e-37 -1.0444747e-36 6.606088e-39
4.2894863e-37 -6.98193e-37 -5.99569e-37 -5.8217014e-37 7.582242e-37 -4.9461854e-37 5.4829567e-37 -6.678846e-37
-3.4900201e-37 -4.6192066e-37 9.236953e-37 -2.3609458e-37 -2.7374832e-37 -6.323625e-37 6.7792824e-37 6.3597207e-37
-0.012107745 0.020172728 -0.025602954 0.023472395 -0.10117989 -0.071870826 -0.0135264415 0.011290883
-0.027568698 0.056722365 -0.035740487 -0.025202245 -0.013926519 0.010795726 -0.032376736 0.036683172

sequential_4/conv1d_17/Conv1D f4 [64, 1, 5, 64]
00000000: 01e3 3183 b6ab 7403 cc45 5183 64d8 3e03
00000010: a674 1083 3363 d182 d707 0602 b496 c383
00000020: 941c 8803 df48 7683 5a54 2483 ccf6 7983
00000030: d8c3 de02 0d7b 8983 0124 ac82 a0ba 2803
00000040: 22cc 8683 a809 9582 6316 bf83 f548 2c82
00000050: a735 ef82 886a 7102 eef7 4d03 1f32 9683
00000060: 68b6 ab03 292e 8903 4faa bc01 6a1e 4f03
00000070: 674b 7e03 be40 5b03 79b9 2803 04c7 af82
00000080: 55d0 4d82 a77d 4c83 4325 b983 1ede 3283
00000090: b61c 2c01 04eb 0183 c9bc 2603 9cf6 8602
000000a0: 0e78 8e83 fbb4 0703 2dfa c382 48b8 4103
000000b0: f7c2 c303 e80f 8501 b8a3 8f02 4fd0 2883
000000c0: 1643 b602 b4e3 7502 9d73 5e81 0c31 7203
000000d0: 024d 5402 ac3c b983 e258 a702 1ee0 cd02
000000e0: c0ce 0302 9c54 e482 b5eb 9b83 c606 eb02
000000f0: 314b 0503 b3de 2f83 67b6 3502 4a11 9f83
00000100: 2d7e 4f83 2948 be83 fa14 b383 ba55 9683
00000110: da41 3a81 0ecf b083 141b 2081 c039 af82
00000120: e702 7d83 4472 0503 5688 d602 1a7e 1c83
00000130: a4b7 5c03 dbe5 d302 248b 7d83 a8e9 a080
00000140: 51f4 1383 cbc3 b602 4e1a ab03 f2ae 6a83
00000150: 50f5 1883 06af 8082 0248 6f82 5085 bc03
00000160: 4a82 ed01 3629 cc82 53c8 0e03 6f4e 4402
00000170: 0aed 2001 63a3 c183 5422 5081 a1aa 0002
00000180: 757e 4a83 c014 1982 8cfd 0f03 b470 eb01
00000190: f93d 0283 34a1 2483 103d fc02 18de 7983
000001a0: 61e6 4103 d671 6c02 6c65 6783 6e4f 0f02
000001b0: 0493 b603 caf0 8902 da86 b183 a821 7683
000001c0: 078c a903 b998 2903 136b 8283 f931 6282
000001d0: f4be 3003 cb02 6f02 a00a d301 f679 1803
000001e0: c469 0983 9365 b383 9cc6 8b03 87c1 3e00
000001f0: a32d 5783 63e3 db81 039e cb02 62c4 2503
00000200: 8ae1 cf01 2174 1202 07d1 8803 6c18 9601
00000210: 962c 5583 e812 3883 e634 d682 5641 f602
00000220: 1097 5b03 84d1 3903 a072 e582 1c40 b901
00000230: b093 0883 a81c 3282 5516 2f03 8a36 c503
00000240: 5bdf 1983 5da6 7382 9419 4183 f936 5001
00000250: f934 9082 f2b6 4f03 d52d 9e03 4b1a db02
00000260: 5fb5 3f82 a995 dc02 12a5 db02 ca1a 9103
00000270: bed6 1383 4175 3d03 83ba c083 7491 5c83
00000280: fa4f fa82 321e a003 e1cc 3603 e182 5683
00000290: 543b 4383 d99f 5403 ad3f cb82 3799 7a83
000002a0: 48d1 8b02 eb81 3603 d706 a882 bbe5 dc81
000002b0: c3d3 e802 0f44 dd02 d37f 7982 90d9 e002
000002c0: ce1f f002 f0a7 8b03 24b4 f302 85e0 be82
000002d0: 1b47 bd81 86e0 ae03 7448 c882 5f6f b103
000002e0: 8e30 6503 1b32 8b83 10d1 5603 9641 7281
000002f0: ff5f 6d83 73bc f882 1624 1403 9ed5 ad81
00000300: 5baa 3f01 d771 a602 4190 be81 191f e402
00000310: 4e24 0583 2f92 7e03 f072 7603 c89f 9800
00000320: 786e 1183 58f2 b802 7d5f 5503 88ab 8c82
00000330: ff80 e782 81e0 4783 afd3 9f83 a6db 0881
00000340: 4479 cd02 d355 4103 d0a2 7002 57f2 ff82
00000350: da2f 6783 ee34 1f03 5e21 9982 368a c782
00000360: 4270 c103 8e2f 3a02 077c bc83 1b5f 9782
00000370: a6db 4203 ef12 7c03 cf2c 8983 abf3 f102
00000380: 91eb 9483 50bc c183 3441 8903 2139 8582
00000390: 1672 7d01 6671 8c83 8fd3 b801 42e8 c503
000003a0: e92b 8583 59f8 af83 9465 0b03 bfd4 2601
000003b0: 2404 1e83 2c7e a303 f464 8b03 59a0 e380
000003c0: 1e26 5b03 3b72 2b83 96f4 9b03 3d52 4903
000003d0: ced6 5c03 d224 a882 48c4 f582 2efc da02
000003e0: b870 4e03 4c58 3382 ccee 0481 9afa c201
000003f0: b018 8383 d8f6 8283 1cfc 8a03 763e 5283
-5.2276213e-37 7.190227e-37 -6.1499703e-37 5.6084386e-37 -4.2451702e-37 -3.0766727e-37 9.847015e-38 -1.149567e-36
7.999923e-37 -7.2376554e-37 -4.82921e-37 -7.3457832e-37 3.2732377e-37 -8.080387e-37 -2.5293794e-37 4.9584998e-37
-7.922679e-37 -2.1899125e-37 -1.1231111e-36 -1.2657502e-37 -3.5148689e-37 1.7736457e-37 6.0528695e-37 -8.827715e-37
1.0092355e-36 8.062734e-37 6.9304674e-38 6.0866746e-37 7.473045e-37 6.4432636e-37 4.9583675e-37 -2.5828168e-37
-1.512081e-37 -6.0094454e-37 -1.0881878e-36 -5.2564477e-37 3.161201e-38 -3.8179478e-37 4.899973e-37 1.9831077e-37
-8.373573e-37 3.988069e-37 -2.8796269e-37 5.6929147e-37 1.1505832e-36 4.887931e-38 2.1105931e-37 -4.960989e-37
2.6781002e-37 1.8065105e-37 -4.085791e-38 7.117371e-37 1.55974e-37 -1.0887252e-36 2.458946e-37 3.025068e-37
9.683694e-38 -3.3550152e-37 -9.164197e-37 3.4534034e-37 3.9171503e-37 -5.1683524e-37 1.3350127e-37 -9.3491495e-37
-6.0976675e-37 -1.11837635e-36 -1.052549e-36 -8.8358895e-37 -3.421005e-38 -1.0391888e-36 -2.9406786e-38 -2.5747086e-37
-7.435335e-37 3.9216358e-37 3.1522727e-37 -4.5989037e-37 6.4863e-37 3.1135594e-37 -7.4509743e-37 -1.47775e-38
-4.347988e-37 2.6854876e-37 1.0056516e-36 -6.8967247e-37 -4.495039e-37 -1.8908368e-37 -1.7579612e-37 1.1080254e-36
8.7247006e-38 -2.999876e-37 4.196001e-37 1.4422315e-37 2.9557426e-38 -1.1381032e-36 -3.8228196e-38 9.452923e-38
-5.950763e-37 -1.124662e-37 4.231498e-37 8.648709e-38 -3.8274708e-37 -4.838032e-37 3.706312e-37 -7.3429474e-37
5.6982064e-37 1.7371211e-37 -6.8001225e-37 1.0528776e-37 1.0730752e-36 2.0268547e-37 -1.0434085e-36 -7.233154e-37
9.965076e-37 4.9839953e-37 -7.665296e-37 -1.6618199e-37 5.1940955e-37 1.7559748e-37 7.7524405e-38 4.480879e-37
-4.0382094e-37 -1.0543995e-36 8.215284e-37 5.763225e-39 -6.323521e-37 -8.077418e-38 2.9918863e-37 4.871458e-37
7.6363424e-38 1.0759713e-37 8.041352e-37 5.513634e-38 -6.2646256e-37 -5.4094443e-37 -3.1474836e-37 3.6183952e-37
6.4531727e-37 5.4607126e-37 -3.3714317e-37 6.805026e-38 -4.0136345e-37 -1.3085599e-37 5.1453514e-37 1.1591141e-36
-4.521906e-37 -1.7900564e-37 -5.6746965e-37 3.8243007e-38 -2.1189303e-37 6.1041844e-37 9.296928e-37 3.219425e-37
-1.4084515e-37 3.2411995e-37 3.2273904e-37 8.5284845e-37 -4.344593e-37 5.567671e-37 -1.1327567e-36 -6.481916e-37
-3.6780103e-37 9.410887e-37 5.3720182e-37 -6.303919e-37 -5.7373455e-37 6.2484697e-37 -2.9864717e-37 -7.364428e-37
2.0544336e-37 5.363413e-37 -2.4689307e-37 -8.1144884e-38 3.4210881e-37 3.2512095e-37 -1.8330315e-37 3.3038717e-37
3.5283086e-37 8.208242e-37 3.5809037e-37 -2.8046859e-37 -6.9529666e-38 1.0278349e-36 -2.9428945e-37 1.0428695e-36
6.735279e-37 -8.181189e-37 6.312894e-37 -4.4495436e-38 -6.975824e-37 -3.654849e-37 4.3534716e-37 -6.385669e-38
3.5203384e-38 2.4456849e-37 -7.000197e-38 3.3519438e-37 -3.9126863e-37 7.48117e-37 7.2424844e-37 1.4016314e-38
-4.273848e-37 2.7175469e-37 6.270469e-37 -2.0669605e-37 -3.401644e-37 -5.873856e-37 -9.39378e-37 -2.5136845e-38
3.0191646e-37 5.6816124e-37 1.767914e-37 -3.7607979e-37 -6.793973e-37 4.678666e-37 -2.2500481e-37 -2.9319751e-37
1.1369294e-36 1.3678769e-37 -1.1078122e-36 -2.2242044e-37 5.726362e-37 7.407788e-37 -8.062424e-37 3.5551626e-37
-8.752742e-37 -1.1386755e-36 8.067106e-37 -1.9575384e-37 4.6550614e-38 -8.2544955e-37 6.7894497e-38 1.1631943e-36
-7.827119e-37 -1.0342593e-36 4.0965035e-37 3.0642023e-38 -4.643678e-37 9.609247e-37 8.192863e-37 -2.090418e-38
6.440207e-37 -5.0383514e-37 9.166235e-37 5.9162996e-37 6.4898773e-37 -2.4706515e-37 -3.6112174e-37 3.2176965e-37
6.0667354e-37 -1.3176183e-37 -2.44159e-38 7.162394e-38 -7.705156e-37 -7.697386e-37 8.1687925e-37 -6.1785155e-37

sequential_4/conv1d_18/Conv1D f4 [64, 1, 3, 64]
00000000: 3674 e081 6d9d ac03 fced 1b01 457c 9c02
00000010: 9fcf 4583 f08b 6c83 c628 3182 ffa4 3003
00000020: 72ac 9203 6d1c 7b03 95ee ed82 6052 7483
00000030: 6312 0503 07be e682 fbe8 0403 820b 3583
00000040: 6660 1783 50a6 2f03 f4fc 2e81 4534 0183
00000050: d818 ea82 63d4 1a02 abda 3482 5ae9 5603
00000060: 4c48 9a83 fb72 4a03 c0d8 c982 313a 8a03
00000070: 4463 5f80 cef6 f902 0582 1283 791d 8781
00000080: bed0 4502 afb8 3e03 0c98 1e83 6f8b ba02
00000090: 6b06 6d03 f244 1d03 d7f8 8503 5d71 2503
000000a0: e69f 3503 d35f f480 3307 c503 9fe7 a803
000000b0: b368 de81 58e1 9282 ab29 1d83 9262 3602
000000c0: f467 5483 29aa 6101 4d5e 1503 2ec1 ae02
000000d0: 8ecb 5a03 e45d c081 79ac c202 1d50 5003
000000e0: 1269 7583 8602 3e03 c912 4f03 ddf6 5a83
000000f0: 2948 dd81 f038 5f83 2044 9182 8675 3303
00000100: dc88 9b03 2c33 8302 aaa4 0502 5169 2902
00000110: 10f5 6502 5a7e 6d02 5532 4183 6878 8603
00000120: d95a 8083 6815 cd02 3a0a 4783 085a 3801
00000130: 9ad9 1803 76da 1883 aa8c 0c03 93eb 4583
00000140: df75 5583 37e6 ae03 8c82 5683 66d7 3503
00000150: 9c7f 8402 8a5e ab83 9477 fe02 358c 7b03
00000160: 0d07 8703 f659 7c83 63c6 8a00 e8f6 e782
00000170: 3e4d 2582 a173 6981 625c 0983 9bca 0b83
00000180: cab8 4a02 a111 0603 40d8 ce82 dd56 6d03
00000190: 6363 6683 1139 d902 4d04 4603 368a 2303
000001a0: 323f 9800 7cb6 3e81 09b5 8303 1595 1b03
000001b0: 907f 4903 6ee8 ca82 c0c6 8502 d5e3 3803
000001c0: d14f 3883 f22d 8c02 7284 1c83 fe42 e481
000001d0: 8e72 8a03 1267 9283 11a1 da82 9550 8283
000001e0: 7b43 7603 f2d9 0e83 3e90 1e83 296e 3903
000001f0: b02d db82 f4e1 8903 52b4 8402 4ece f201
00000200: fe07 f902 8c0b 8b02 37f4 0703 3208 eb82
00000210: f159 b682 e9d7 b383 f975 9983 ace2 bf82
00000220: 80d9 8083 861a 6382 833e a983 4275 0b03
00000230: fd43 3b83 01f1 0e03 187d 4003 34b1 9382
00000240: c92a 1583 9226 dd82 900b 0d81 e5d8 b203
00000250: 10bd 2a83 4571 bb83 e15d e302 fb5c 1f83
00000260: df03 1b03 48ed 3303 d0fe da02 a2c1 7803
00000270: ec7d 8880 b05a 8183 c04a f582 cb40 2003
00000280: 82e5 a601 9849 d982 98a6 2183 fbe1 3f03
00000290: 540c 9103 fe74 5882 39b3 1503 4b58 7c03
000002a0: 96f8 da02 8302 2883 1a0e a103 21c7 7703
000002b0: 4644 9283 d69a 2903 00c4 2283 408c 3380
000002c0: 0ecb 1f83 789f 6002 0fce 3503 6c27 1901
000002d0: c645 8403 2a4b f001 b737 1f83 9e9f 1403
000002e0: f998 7a03 8489 1f03 0cef 8d03 2a34 a683
000002f0: 53c2 3d02 2d26 5303 0212 b682 35f3 1783
00000300: 0437 9f81 dd6a 6e03 3325 ae83 9ad9 f702
00000310: 2e7c f402 6c6f 9102 ce3f f202 6db6 8903
00000320: 03d5 1303 a628 9b03 0ecc 7801 98e0 8803
00000330: 033f 4083 346e 9502 078a 5c83 e9a9 8b03
00000340: 1ba9 e002 083b 0e03 fa21 1f03 7cf6 3f82
00000350: eac4 5183 63d2 8b83 1912 5a02 0b21 ca82
00000360: a5ee 3503 1900 ff82 e721 3d83 dc00 0a03
00000370: e911 9103 f1ae 7c00 ae64 2f03 1230 2e02
00000380: c6a3 1b03 0005 4f83 d7a3 2603 3d92 5b83
00000390: 39fd 0201 f5f8 5103 22e5 3e83 9420 5983
000003a0: 226a 9883 ff5f 5d80 b3f0 4503 cc2a 5983
000003b0: c635 c583 d05e 3983 6413 3c83 b8b3 a402
000003c0: 0ee7 3103 8f90 6383 943b ef02 d8a0 9b82
000003d0: be5e 6703 0060 bb02 a815 3a03 5211 b382
000003e0: d8e8 0303 4071 8e83 2ce4 7f03 aacd be83
000003f0: 15b2 ad01 8fca 7d83 a814 6183 cdb9 4683
-8.245136e-38 1.0145395e-36 2.863975e-38 2.2993467e-37 -5.8131434e-37 -6.9514807e-37 -1.3015608e-37 5.1911158e-37
8.6207e-37 7.37949e-37 -3.496096e-37 -7.1799717e-37 3.9106294e-37 -3.3904533e-37 3.905876e-37 -5.320433e-37
-4.448557e-37 5.1618795e-37 -3.2140238e-38 -3.7969695e-37 -3.439747e-37 1.1375085e-37 -1.3287066e-37 6.315682e-37
-9.067905e-37 5.9494456e-37 -2.9658704e-37 8.124271e-37 -8.759982e-39 3.672892e-37 -4.30548e-37 -4.963346e-38
1.453318e-37 5.604799e-37 -4.660657e-37 2.7410275e-37 6.9655408e-37 4.62173e-37 7.874168e-37 4.8619277e-37
5.3374674e-37 -2.2442236e-38 1.1580272e-36 9.92733e-37 -8.1700157e-38 -2.1582113e-37 -4.6185986e-37 1.3399537e-37
-6.2420533e-37 4.1448057e-38 4.3895417e-37 2.5677882e-37 6.429811e-37 -7.066439e-38 2.8604732e-37 6.121767e-37
-7.2119644e-37 5.583888e-37 6.0853397e-37 -6.4347827e-37 -8.1286123e-38 -6.559917e-37 -2.1344937e-37 5.2738282e-37
9.141503e-37 1.9278091e-37 9.818553e-38 1.2446383e-37 1.6894592e-37 1.7448271e-37 -5.677538e-37 7.903456e-37
-7.544021e-37 3.013433e-37 -5.8492583e-37 3.3860057e-38 4.491858e-37 -4.4919566e-37 4.1303777e-37 -5.8163523e-37
-6.2730384e-37 1.0279656e-36 -6.303881e-37 5.3438385e-37 1.94689e-37 -1.0072182e-36 3.739058e-37 7.392322e-37
7.936206e-37 -7.4159414e-37 1.2744466e-38 -3.4084117e-37 -1.2144453e-37 -4.28783e-38 -4.036673e-37 -4.108101e-37
1.4893648e-37 3.9399298e-37 -3.03931e-37 6.9747754e-37 -6.7705016e-37 3.1918039e-37 5.8191907e-37 4.8060053e-37
1.3981666e-38 -3.5028415e-38 7.741052e-37 4.5721544e-37 5.9215026e-37 -2.981464e-37 1.965667e-37 5.433428e-37
-5.4164365e-37 2.0597522e-37 -4.599632e-37 -8.38501e-38 8.1372115e-37 -8.6047725e-37 -3.2124669e-37 -7.659214e-37
7.2370366e-37 -4.198024e-37 -4.659761e-37 5.449307e-37 -3.2205381e-37 8.104013e-37 1.9499156e-37 8.9192793e-38
3.659185e-37 2.0430842e-37 3.995328e-37 -3.453485e-37 -2.679412e-37 -1.0570245e-36 -9.019617e-37 -2.819503e-37
-7.573099e-37 -1.6684938e-37 -9.947279e-37 4.0983034e-37 -5.5032408e-37 4.200671e-37 5.656733e-37 -2.1701418e-37
-4.383628e-37 -3.249517e-37 -2.5905906e-38 1.0511696e-36 -5.0175543e-37 -1.1016878e-36 3.3408536e-37 -4.6832637e-37
4.555485e-37 5.2875758e-37 3.2178476e-37 7.310293e-37 -1.25348e-38 -7.602759e-37 -3.604242e-37 4.7094153e-37
6.1308097e-38 -3.1927525e-37 -4.750489e-37 5.638927e-37 8.525164e-37 -1.5902749e-37 4.39929e-37 7.41575e-37
3.2174902e-37 -4.9373646e-37 9.465967e-37 7.2815365e-37 -8.596784e-37 4.984238e-37 -4.783252e-37 -4.733923e-39
-4.6958996e-37 1.6502686e-37 5.3427663e-37 2.8129946e-38 7.774282e-37 8.826993e-38 -4.678986e-37 4.3676523e-37
7.3644e-37 4.688376e-37 8.342118e-37 -9.768579e-37 1.3941295e-37 6.205115e-37 -2.6752832e-37 -4.46541e-37
-5.848632e-38 7.0064587e-37 -1.0235341e-36 3.6418285e-37 3.5923853e-37 2.1369788e-37 3.5595326e-37 8.094019e-37
4.3443943e-37 9.119414e-37 4.5696808e-38 8.044926e-37 -5.6496063e-37 2.1956836e-37 -6.4810637e-37 8.208695e-37
3.3010904e-37 4.1797814e-37 4.6764904e-37 -1.4103201e-37 -6.1645626e-37 -8.217988e-37 1.6021304e-37 -2.9700198e-37
5.346507e-37 -3.7468938e-37 -5.5581026e-37 4.055554e-37 8.526446e-37 1.1450359e-38 5.1543452e-37 1.2797297e-37
4.573841e-37 -6.0837572e-37 4.8971094e-37 -6.452619e-37 2.4058907e-38 6.170537e-37 -5.6099013e-37 -6.3807966e-37
-8.958124e-37 -8.575138e-39 5.8169406e-37 -6.3819697e-37 -1.1590965e-36 -5.4475453e-37 -5.5270494e-37 2.4200788e-37
5.2280863e-37 -6.687525e-37 3.515209e-37 -2.2867523e-37 6.7993557e-37 2.7532282e-37 5.4685347e-37 -2.6311627e-37
3.876473e-37 -8.372011e-37 7.5199693e-37 -1.12144145e-36 6.38057e-38 -7.4582544e-37 -6.614527e-37 -5.840026e-37

sequential_4/conv1d_19/Conv1D f4 [64, 1, 3, 64]
00000000: f3a6 5a01 78a8 f482 e596 a883 8188 4f83
00000010: 6a12 1603 4eee 0b82 18fc 1902 9a86 8781
00000020: 22ea 4e02 c6d6 fb82 af5b a380 f980 4603
00000030: 02c2 5383 38d5 1f83 648f fb02 7441 b502
00000040: 524f 1583 b6a8 b482 b15f 5383 ffa9 7583
00000050: 8659 8203 0ee6 0e03 2a62 8481 7c6a d702
00000060: 52cd 2203 f51c f002 cd72 4583 b384 c902
00000070: 32ac c780 82a8 4583 381b ad83 bae8 4d83
00000080: b1ea c302 4e9e 2d01 487b 7983 df17 5002
00000090: 0d59 4b03 a0c7 6f83 0a8e 2983 3675 4a03
000000a0: 3480 8883 12f7 2481 f5db b882 e47b 3b82
000000b0: ea8a 5582 c602 0502 4201 b903 6471 0980
000000c0: dad4 9a82 1169 0d83 6cbb 0282 cc9c 6683
000000d0: c835 2983 ba7f 8482 c7b3 2b03 748f b283
000000e0: ba57 8303 037a 8783 b5e8 ff02 1559 2282
000000f0: 5b2e cb02 d052 6403 beb7 2a83 d816 7383
00000100: cf9d 4a03 f271 ec81 449d 6c83 108c 4d83
00000110: 3fa6 1a03 c101 8303 ffa8 1103 85a0 9e02
00000120: 4873 e282 d939 5203 21d5 d801 6e18 7103
00000130: 5a09 7283 fcc1 4283 b672 ba82 ea9d 4503
00000140: d5ae 4b83 4ea4 2a83 d628 3283 32d1 5583
00000150: e9c9 1583 3c35 3003 507a 0503 e24b ef01
00000160: 703b 7a02 2295 1303 e2cf 5901 fa3b 9a02
00000170: e1d2 7c00 3983 7383 0218 c483 faf2 7783
00000180: f5e0 0182 bcc9 5183 2d58 1403 9fd0 8d83
00000190: 0e11 4e03 2177 5803 9536 7583 ec17 3583
000001a0: 7919 a103 e616 2d03 6017 1c83 8a28 e881
000001b0: 6f3c a583 d923 4f03 222d 9283 4e1b a102
000001c0: f3ca bb03 ee33 8802 9896 3d83 887b de82
000001d0: 67b4 1382 8c35 4182 fee3 6102 6ff9 3383
000001e0: f051 a403 f169 6483 2c99 e601 6fcc b982
000001f0: 7984 8003 2df1 8403 a458 7703 bee2 9382
00000200: 1390 2883 ae86 1003 d24b e302 56e2 4203
00000210: 8c78 8b83 eb4b 3a83 f622 d102 456a 0403
00000220: 9227 a302 9d89 f600 77df c681 0b75 ad83
00000230: 0c6a 4383 06c1 1683 4597 be03 60e0 2603
00000240: c45e 9283 cf87 7d03 e850 9483 447c 1583
00000250: cf57 a582 1f9d 1f80 6087 8e03 1a09 3803
00000260: 30e9 f201 9669 1903 a2ba f300 4a4a 9401
00000270: e6b3 cf01 1bd1 0683 e222 4e80 1f17 6a83
00000280: 56b0 c482 ceda 8782 967c b103 31bb 1d03
00000290: 85c6 6203 857f 6503 ba43 7e83 18b8 b382
000002a0: 46a7 6103 639b 2983 6f3e bd02 bc72 ca81
000002b0: 49b9 a282 debc 2203 723f 0382 c190 ae83
000002c0: 7c4e 7003 9692 8282 920b e082 7487 fb02
000002d0: 20b5 7b02 695c 1603 5e41 0503 1e93 1b80
000002e0: 6a8b 6883 15f0 3182 f7f5 1181 6ddf 0183
000002f0: 95b7 1203 16c3 1903 eb2a 5a03 ccf6 a282
00000300: e313 5880 3207 7002 c0d9 0a83 2a35 7c03
00000310: 0e76 8483 8072 ba83 ded3 a682 315b ee02
00000320: ba9b 8803 0182 4403 0f1f 1a82 32f2 9983
00000330: cb30 8502 4dc2 9103 3a02 4c82 6cd5 8a81
00000340: 2230 8d82 f2ff 5182 f499 7f83 39ae 2182
00000350: cdb8 fe01 6083 8c83 8aa1 b582 ed7b 5883
00000360: 8ebf 2082 9b2a 6a03 2011 4783 027d e182
00000370: 853c fc81 358d 4882 60a4 6d81 0fa7 fb82
00000380: 8628 8883 3480 fa81 f024 6f81 4d55 7c02
00000390: b6e6 d102 1b22 f802 58cd 1883 9222 8b02
000003a0: 5373 1883 1842 a583 0fe7 2783 e440 c383
000003b0: a7b6 7183 6307 7f02 7bb6 de82 b7aa 7603
000003c0: 42a5 af02 6ab2 2983 c6f3 1703 9f27 2d83
000003d0: 03aa 2703 1a9f aa83 5f06 0c03 82b4 ec02
000003e0: 4c10 8202 17dd 0a03 8a5e a702 c618 7a83
000003f0: f536 3603 84fe a282 3fcc 6803 9c95 c982
4.0160057e-38 -3.5949274e-37 -9.908796e-37 -6.098853e-37 4.4102176e-37 -1.0280497e-37 1.1313012e-37 -4.978431e-38
1.5201683e-37 -3.700441e-37 -1.5002076e-38 5.8335024e-37 -6.2230037e-37 -4.6970664e-37 3.6963437e-37 2.6633128e-37
-4.387822e-37 -2.6545458e-37 -6.2117175e-37 -7.2194175e-37 7.661267e-37 4.199414e-37 -4.863e-38 3.165253e-37
4.7843217e-37 3.528145e-37 -5.802488e-37 2.9610461e-37 -1.8337036e-38 -5.8086534e-37 -1.0174275e-36 -6.0511242e-37
2.878738e-37 3.188866e-38 -7.3316043e-37 1.5288277e-37 5.9758564e-37 -7.0464946e-37 -4.982769e-37 5.9497016e-37
-8.022796e-37 -3.0299307e-38 -2.716262e-37 -1.3774145e-37 -1.5688635e-37 9.772093e-38 1.08736115e-36 -8.67196e-40
-2.2750437e-37 -4.1556786e-37 -9.604679e-38 -6.777092e-37 -4.9726374e-37 -1.9468968e-37 5.045876e-37 -1.0494835e-36
7.719629e-37 -7.962599e-37 3.760245e-37 -1.1927446e-37 2.9854776e-37 6.709824e-37 -5.0169436e-37 -7.1437505e-37
5.954362e-37 -8.685621e-38 -6.95347e-37 -6.040487e-37 4.5447374e-37 7.699891e-37 4.280567e-37 2.3308147e-37
-3.3273884e-37 6.177986e-37 7.9651694e-38 7.085158e-37 -7.1128143e-37 -5.723416e-37 -2.7396085e-37 5.8074373e-37
-5.9857036e-37 -5.0147122e-37 -5.2356376e-37 -6.283522e-37 -4.4018946e-37 5.178286e-37 3.9225595e-37 8.790362e-38
1.8384157e-37 4.3370613e-37 4.0005754e-38 2.266269e-37 1.146325e-38 -7.156192e-37 -1.1525357e-36 -7.28657e-37
-9.541983e-38 -6.165116e-37 4.359451e-37 -8.335132e-37 6.0557537e-37 6.361345e-37 -7.2061686e-37 -5.321858e-37
9.468578e-37 5.0866417e-37 -4.5871113e-37 -8.528151e-38 -9.711703e-37 6.0872984e-37 -8.591471e-37 2.3672496e-37
1.1037467e-36 2.001321e-37 -5.571498e-37 -3.2690872e-37 -1.0851627e-37 -1.4194768e-37 1.659582e-37 -5.288971e-37
9.657866e-37 -6.7124793e-37 8.470845e-38 -2.7300646e-37 7.553578e-37 7.813634e-37 7.268853e-37 -2.1729852e-37
-4.953615e-37 4.24724e-37 3.339817e-37 5.7271297e-37 -8.197362e-37 -5.4747637e-37 3.0729857e-37 3.8913305e-37
2.397341e-37 2.2640898e-38 -7.305437e-38 -1.0194898e-36 -5.7427085e-37 -4.430262e-37 1.1201926e-36 4.9040585e-37
-8.602866e-37 7.450592e-37 -8.717233e-37 -4.3929815e-37 -2.429497e-37 -2.903265e-39 8.3770905e-37 5.408319e-37
8.923137e-38 4.5083866e-37 2.2382977e-38 5.4473213e-38 7.629793e-38 -3.96191e-37 -7.175682e-39 -6.879296e-37
-2.8900823e-37 -1.9962055e-37 1.04317285e-36 4.635304e-37 6.664332e-37 6.7443437e-37 -7.4721638e-37 -2.640735e-37
6.6313578e-37 -4.984301e-37 2.780689e-37 -7.4367717e-38 -2.391011e-37 4.782433e-37 -9.642568e-38 -1.0260035e-36
7.0619757e-37 -1.918592e-37 -3.2920483e-37 3.6958882e-37 1.8492548e-37 4.418712e-37 3.9160225e-37 -2.532334e-39
-6.833871e-37 -1.3072806e-37 -2.6808765e-38 -3.8166173e-37 4.3116286e-37 4.5186607e-37 6.411371e-37 -2.3945415e-37
-8.088658e-39 1.763448e-37 -4.080452e-37 7.4117173e-37 -7.785367e-37 -1.0958385e-36 -2.4513114e-37 3.5023298e-37
8.029115e-37 5.774846e-37 -1.1323047e-37 -9.048137e-37 1.95706e-37 8.566943e-37 -1.4988192e-37 -5.099944e-38
-2.0745715e-37 -1.5428348e-37 -7.5114494e-37 -1.1878411e-37 9.357004e-38 -8.258623e-37 -2.6688279e-37 -6.3618955e-37
-1.1809917e-37 6.881533e-37 -5.8500502e-37 -3.313253e-37 -9.265702e-38 -1.4734204e-37 -4.3647958e-38 -3.6977022e-37
-8.002665e-37 -9.201946e-38 -4.3923869e-38 1.8538516e-37 3.0842211e-37 3.64599e-37 -4.490451e-37 2.0444057e-37
-4.480117e-37 -9.713003e-37 -4.934213e-37 -1.1475968e-36 -7.103321e-37 1.8736561e-37 -3.2724707e-37 7.2488874e-37
2.5808792e-37 -4.9869446e-37 4.465475e-37 -5.0885613e-37 4.9272053e-37 -1.002823e-36 4.1149616e-37 3.478069e-37
1.9111137e-37 4.0808354e-37 2.4592707e-37 -7.3496835e-37 5.354808e-37 -2.3949845e-37 6.8413135e-37 -2.9620167e-37

sequential_4/dense_14/BiasAdd/ReadVariableOp f4 [26]
00000000: 5bc9 203f 014c 203f e5ee b4be 5f40 a63c
00000010: 8b93 c23d 09ac 0dbe 0365 07be a85a 14bd
00000020: 04cd 1dbe dbec 4d3e 61f5 423d c015 573b
00000030: 032b 44be 5f4b be3e 16d2 90be fc62 393d
00000040: ab0b c73e 80c1 293e 0dbb f9be 90f4 023e
00000050: ec93 88bf 4f28 40be 6680 dbbe a2ed 0cbf
00000060: 51d9 ebbe 8689 3b3f
0.62807244 0.6261597 -0.35338512 0.020294366 0.09500798 -0.13835157 -0.13222127 -0.03621927
-0.15410239 0.20109884 0.047597293 0.003281936 -0.19157033 0.3716688 -0.28285283 0.045260414
0.3887609 0.1657772 -0.4877552 0.12788606 -1.0670142 -0.18765377 -0.42871398 -0.550501
-0.46064237 0.7325672

sequential_4/dense_13/BiasAdd/ReadVariableOp f4 [32]
00000000: 5935 c5bd 018b 3a3e 8656 9dbe 0243 0b3f
00000010: 09dc a7bd d47e 003e 7d19 053d ccee 323f
00000020: 9404 2b3e 2bb2 a63e 2481 5a3f af24 b13e
00000030: f442 f83e 56e0 ab3e 8569 683f cbf3 11be
00000040: 05e5 13be 1e38 dfbd 8306 d2bd 7186 aa3e
00000050: 7be4 af3e 01cd cc3e ca59 473e d4b9 b6bd
00000060: 4b27 693e f003 e93e 8633 523c 1dfb 23be
00000070: d5ad b33e 40b2 d6bd d6db fbbc d37c 153d
-0.09629316 0.18217088 -0.30730075 0.5439912 -0.08196265 0.12548381 0.03249501 0.69895625
0.16700965 0.32557806 0.853533 0.345983 0.4848858 0.33569592 0.9078601 -0.14253156
-0.14442833 -0.108993754 -0.10255148 0.33305696 0.34354004 0.40000156 0.19467846 -0.08922163
0.22768895 0.45510817 0.012829667 -0.16013761 0.3509356 -0.10483217 -0.030744474 0.036495995

sequential_4/dense_12/BiasAdd/ReadVariableOp f4 [64]
00000000: e1ff 71bd d694 b83e 3887 75bf a92e 7b3e
00000010: df6a 8ebd 3fe9 223e 0bea a3bd e3c7 08bd
00000020: 2a29 a3bd 6f70 a0bc 2bf8 25bc 6bb9 ef3d
00000030: 1b4a a2bd 5ab7 b9bd 3edf 84bc a53d a5bd
00000040: e6e7 44bd 1b6a 8abd 1a1b 15bd 897b 0a3e
00000050: 18d2 63be 2223 1b3d 0e3d 3dbe 40ad 2fbd
00000060: 7010 4a3e d708 a53e 39d9 19bd 374f 8d3e
00000070: ffd4 303e 6445 f8bd 4eff 243d 5139 a4bd
00000080: 849a 38bd 1b64 cd3d beaa 6bbe 30f3 5bbd
00000090: 6020 8cbd 6c4c 17bd 9173 00bd 2caf 8dbd
000000a0: 303e e03e 91a2 88bd 4b0a 07bd 6390 cfbc
000000b0: a84c 13bd dc32 2bbd fd3f 6e3d 1dd8 823f
000000c0: dc96 bb3e 037f 00bd bd08 36be 470a 103e
000000d0: df4b 49bd 08f1 13bd 995a 653d 0b98 b0be
000000e0: ffd7 a63d f78f cd3e a74a fdbc 2af9 56bd
000000f0: cf32 6bbd 677d 42bd 8ff7 453e f4c2 38be
-0.059081916 0.36051053 -0.9590945 0.24529518 -0.06953978 0.15909289 -0.080036245 -0.03339375
-0.07966836 -0.019584863 -0.010129969 0.117052875 -0.07924291 -0.09068175 -0.016219731 -0.080683984
-0.048072718 -0.06758519 -0.0364028 0.13523687 -0.22248113 0.037875302 -0.18480322 -0.042889833
0.19732833 0.32233307 -0.037560675 0.275995 0.17268752 -0.1212261 0.04028254 -0.08018745
-0.045069233 0.10028859 -0.23014352 -0.05369872 -0.068421125 -0.036938116 -0.031360213 -0.06918177
0.43797445 -0.06671632 -0.0329688 -0.025337404 -0.035961777 -0.04179655 0.058166493 1.0222203
0.36638534 -0.031371128 -0.17776771 0.1406642 -0.049144622 -0.036118537 0.055994604 -0.34491
0.08146667 0.401489 -0.030919386 -0.052483715 -0.0574215 -0.047482874 0.19332717 -0.18043119

sequential_4/dense_12/MatMul f4 [64, 2432]
00000000: b8b7 1a3d 9020 90bb 8883 b33c d2b6 5f3c
00000010: a828 24bd aece 6ebd 4e18 6bbc 4085 ac3c
00000020: eed1 30bd 9437 ebbc a432 a9bd 065a 5abd
00000030: 3d2d 63bd bedf 62bd a2d8 0abc 5cd7 5fbd
00000040: 548d 9abc 3cb3 433d 6ee5 01bc eac9 df3a
00000050: ce75 15bd 37fa 19bd 2580 b6bd 5634 96bd
00000060: 889b 19bd e831 53bd 8536 a8bd 856b 80bb
00000070: c707 31bd 1fd1 9abd ae1c c33c 3d58 37bd
00000080: db84 413d dbd0 40bd 0892 b6bc a450 83bb
00000090: 8106 abbb f2d2 32bb bf80 a7bb f5ec ecbc
000000a0: f734 23bd cd11 003d 9e6d 293d 055e a33c
000000b0: a175 c63b 71a9 6dbd 6711 63bd 3a8d 25bd
000000c0: eb6e 95bd bf97 1dbd 45e5 3dbd bdfb b3bc
000000d0: b301 e63c 4673 3dbd be47 46bb 7e32 afbb
000000e0: 02a2 2dbc 21a7 ca3c ea94 e1bd c720 9ebb
000000f0: cb26 86bd e75a 873c 92db 66bd b7dc 233d
00000100: 4642 50bb 448b 17bd 9af2 d13c ae4a 20bd
00000110: 7da6 2b3d 580e 0d3b 2f5c 20bd 34bd babc
00000120: cc46 cdbb b467 fe3c 3015 a03a 86b6 02bd
00000130: cf3b ccbc b3ac 0fbd 13e0 21bc fff1 2fbd
00000140: f36d 6abc 9de1 9cbd b88f 91bc 85b7 df3c
00000150: 531c 073d a050 8abd 2e98 92bd 4cb3 45bd
00000160: 41eb 243d 09ac 10bd 5037 80bb bed1 d3bc
00000170: c93d 783c 6056 7b3b 94d9 0abd 3d9e e4bc
00000180: 7b34 3cbd 18ce bb3c c06e bcbc 8a23 f73c
00000190: f1bd 8cbc 5fc2 2bbd 9a70 24bd 8211 61bb
000001a0: 4815 ef3c 0037 c4bc a557 8e3b 241f 86bc
000001b0: c7f9 02bd 5775 85bd a42c 10bd 6dbc 1b3d
000001c0: 6142 aabc 425a a9bc a3da 293d 5e96 1739
000001d0: 8c42 553d 6d76 4c3c 1fb0 503d 81cd 203d
000001e0: 9a54 bbbc 72ba 913c 6ab6 d8bc 69db 4f3d
000001f0: 2ee2 79bd b777 053d 2528 99bc 8c17 a3bc
00000200: 003f 60bd d42d c73b ac43 1b3d 1dc3 c7bc
00000210: f64a 1e3d 26d2 93bd f204 793c 4b5a b83c
00000220: fb49 8b3d d07a 963c 2092 153b 692b 533d
00000230: f445 6cbc c952 4abd 0ae3 59b9 77f4 d73c
00000240: 5240 853c 2da7 78bd cb7e e6bc 28ed 08bd
00000250: 3064 35ba c494 a1bd ea41 69bd ab7f 88bd
00000260: 94e0 6f3c 5f6e 71bc b954 a93b 8779 813c
00000270: 0216 683c be68 9abd b6a1 e9bc aaa7 5dbd
00000280: e8fd 65bc bbee 32bc 79e1 f6bb 9e55 0e3d
00000290: 7c71 c13c 0d03 373b 456b ddbc e68b 48bd
000002a0: 15a8 ef3c d687 c23c 5e7e 0c3c c296 9fbb
000002b0: ae7e bfbc 5776 15bd 0806 70bd 721b 1e3c
000002c0: 9f11 46bd 2508 00bd bca8 cbbc efb8 283d
000002d0: 8433 b9bc 3686 29bc 00f9 8c3c 02fc 26bc
000002e0: 421c c8bc 5f19 0ebd cbb6 d2bc 8bc6 91bc
000002f0: 1265 9bbd 03b2 af3d c379 00bc 9089 003d
00000300: a596 403c 1298 683a 3134 eb3c adc7 5c3b
00000310: a4e1 423d 05ff 52bd a7d4 c83b aad6 40bc
00000320: 7a03 53bc 6bcc 37bd 5401 7e3c 331f 02bb
00000330: 14f5 96bc b521 b6bd b9b9 163c f771 85bd
00000340: 0dbf 293d 650c 8fbd f492 e63c a488 05bd
00000350: 03aa 1a38 2874 10bd 233c 45bd f60a 71bd
00000360: f07b 8ebb b157 103d 6ba6 d63b fea2 9fba
00000370: 5593 09bd e46a 933b 04c2 93bc 9bc2 093c
00000380: 9b9e 193d c60b 90bb b43f 8a3b fc16 42bd
00000390: 9982 83bd c047 163d 4e6e a63c 7bf2 16bd
000003a0: 51af 153c 393a afbc 5e71 e8bc 1b43 1f3d
000003b0: 3413 6fbc f022 ffbc ac50 05bd be60 1e3d
000003c0: 699d 9bbd cdc9 a73c 8404 3e3d 1eb1 0c3c
000003d0: b146 403c 56ef d9bc 410c 2bbd 65fa 62bc
000003e0: 388f 8abc 2bb8 2abd 5b07 b3bd 747a 123d
000003f0: bd61 5ebd 0f0f a2bc 8986 38bd 1274 063d
0.037772864 -0.004398413 0.021913305 0.013654428 -0.040077835 -0.058302574 -0.014349056 0.021059632
-0.043168955 -0.028713025 -0.08261612 -0.05330851 -0.055463064 -0.05538916 -0.008474501 -0.054648742
-0.018866219 0.047778353 -0.007928235 0.0017073725 -0.0364893 -0.03759214 -0.089111604 -0.07334201
-0.03750184 -0.051561266 -0.08213524 -0.0039190673 -0.043220308 -0.07559418 0.023817386 -0.044761885
0.04724584 -0.04707418 -0.02228643 -0.004007416 -0.005219281 -0.0027286378 -0.0051117833 -0.028921584
-0.039845433 0.031266976 0.041364305 0.019942293 0.006056503 -0.05802292 -0.055436518 -0.040417887
-0.072965465 -0.038474794 -0.046361227 -0.021970624 0.028076982 -0.04625251 -0.0030255164 -0.0053465953
-0.010597708 0.024737896 -0.11014731 -0.0048256847 -0.06550368 0.016522838 -0.056361742 0.040005412
-0.0031777783 -0.03699805 0.025628377 -0.03913372 0.041906822 0.0021523442 -0.039150413 -0.022795297
-0.006264543 0.031055309 0.0012213346 -0.03191235 -0.024930863 -0.03507681 -0.009880084 -0.042955395
-0.0143084405 -0.0766022 -0.017768726 0.027309189 0.032985996 -0.06753659 -0.07157932 -0.048266694
0.040263418 -0.035320316 -0.0039128438 -0.025856849 0.0151514495 0.0038351044 -0.033898905 -0.027907485
-0.045948487 0.022925422 -0.023002028 0.030168314 -0.017180415 -0.041933414 -0.040146448 -0.003434271
0.029184952 -0.023952007 0.004343944 -0.01637227 -0.031976487 -0.065165214 -0.035198823 0.038021494
-0.020783605 -0.020672921 0.041468274 0.00014456498 0.052065417 0.012479407 0.050949212 0.039258484
-0.02286749 0.0177891 -0.02645417 0.050746355 -0.061006717 0.032584872 -0.0186959 -0.019908689
-0.05474758 0.006078461 0.037906334 -0.02438503 0.038645707 -0.07217817 0.015198933 0.022503993
0.0680122 0.018369108 0.0022822693 0.05155507 -0.014420975 -0.049395356 -0.00020779311 0.026361687
0.016266022 -0.060706306 -0.028136631 -0.033429295 -0.0006919531 -0.07889703 -0.056947626 -0.06664976
0.014640946 -0.014735787 0.0051675704 0.015805019 0.014165403 -0.07539509 -0.028519493 -0.054114975
-0.014037587 -0.010921176 -0.0075342027 0.03474962 0.023613684 0.0027925402 -0.02702869 -0.048961543
0.029254952 0.023746412 0.00857505 -0.0048702667 -0.023375835 -0.03648981 -0.0585995 0.009650098
-0.04835665 -0.031257767 -0.024860732 0.04119199 -0.022607572 -0.01034694 0.017208576 -0.010191919
-0.024427537 -0.034692165 -0.025721928 -0.017794868 -0.07587637 0.08578875 -0.00784153 0.03138119
0.011754666 0.0008872758 0.02871141 0.0033688352 0.04757847 -0.051512737 0.0061288658 -0.01176993
-0.012879247 -0.044872683 0.015503246 -0.0019855022 -0.01842741 -0.08893148 0.009199553 -0.06515878
0.041441966 -0.06984786 0.028146245 -0.032601014 3.6874797e-05 -0.035267025 -0.048153054 -0.058848344
-0.0043482706 0.03523988 0.0065506003 -0.0012179313 -0.033587772 0.0044988263 -0.01803685 0.008408214
0.037504774 -0.0043959348 0.00421902 -0.0473852 -0.06421394 0.03668952 0.02031627 -0.03685234
0.009136037 -0.021390067 -0.02837437 0.038882356 -0.014591981 -0.03114459 -0.032547638 0.03866648
-0.07598383 0.020481968 0.046391025 0.00858715 0.011735604 -0.026603382 -0.041759733 -0.013853644
-0.016913995 -0.041679543 -0.08741637 0.03576131 -0.05429243 -0.019782571 -0.045050178 0.032825537

sequential_4/dense_13/MatMul f4 [32, 64]
00000000: 92c3 e53c b498 22be e69e 7a3d 39f7 dfbd
00000010: fef9 6ebe 271d 45bd 53e2 1cbd d1c2 563e
00000020: d6ed 42be 5fd3 ab3d 6e59 7b3d 17c5 d4bd
00000030: 9488 e83d 99a5 31be 1330 13be bdf3 ab3d
00000040: ad18 5e3e 9425 243b 58d8 c0bd 5845 403e
00000050: 406e 91bd 4f15 323e b80e f4bd 3b30 5c3d
00000060: 2e30 0e3e 2097 ae3b 3290 6a3d 91b9 51be
00000070: 36c5 5bbe 87c6 13be ce65 20bd aa6c cbbd
00000080: 936c bd3c 76d7 24bd bbf8 5bbe 71c1 4e3e
00000090: aca6 6dbd b402 0c3e 0646 dfbc e317 783e
000000a0: b38b 2fbe 5fc7 693e 0255 af3b 5e12 c4bc
000000b0: 4938 253e 00f1 563e b129 18bd b12d 843b
000000c0: 89ae c63d 37d5 22bc 20cd 9f3d c4f2 f8bd
000000d0: 184a 9bbd 21eb 463e 7e38 383e b176 05be
000000e0: 6da4 87bd c43f 503c 800a 113e 979b 0a3e
000000f0: 8ac3 b53d d9bc 513e 6c4e df3d 3a5c 7fbb
00000100: e0f0 34be b411 b33e 50bb 24bf 70c4 01be
00000110: 341d df3c 5520 fcbd 4ed3 413e e07e 22bd
00000120: 90d9 58bd 6ca6 093f e502 973d f6aa 99bd
00000130: ed75 883d c724 e9bd 76c9 1cbe 9e4c 97bd
00000140: 5e89 e6bd 7807 153e a5a0 38be 50fa 363e
00000150: c5f6 d23d 3a8f cfbc fe08 ec3c 4b79 e8bd
00000160: ca71 6e3e 2596 9bbd 00bc e53a 61b1 003f
00000170: a96a d5bd eab7 aebd 00e6 c03c b059 27be
00000180: 58db 2cbe 6ca1 bf3e 9e5a 613e 09ad 91bd
00000190: c017 933d 37f6 31be 2996 f93d 538f 42be
000001a0: 73cc 14bf b045 0f3e 5ad1 bf3d 0358 56bd
000001b0: 7b76 66be 609e 183d 3bb1 1dbe 396c 59be
000001c0: a6b6 c13d 4008 11be af16 a9bc 5210 463e
000001d0: 15ba a8bd c009 09bc 19bc 1e3e e8e7 163d
000001e0: bd4c 19bf ad71 3fbd 852c 2fbe 6760 3fbe
000001f0: 2cf9 44be 7e98 df3d 04d3 55be 5412 15be
00000200: b4da 023b 1c0b 19bf c7ff 8cbe 7508 b23d
00000210: 1176 103e 3b88 3abf 9f52 0dbe 149f 343e
00000220: 0105 dc3c 2fb0 783c 7fb4 6abe 7484 fcbe
00000230: 4290 d6bd 7798 103f a299 f23e 18e0 5dbd
00000240: 8675 ed3d e554 1abe c41f 6e3e fa45 55be
00000250: 941f c13e ee18 393e 7568 143c f69c 89be
00000260: dcc5 20bf 10a2 f4bd caf3 b9bd aeaa 08be
00000270: 3570 083e 5b07 ba3e 7e1a 63bd 9079 57be
00000280: 80c9 9b3e 9d5a 45bf 68bd 303e f61c 2ebe
00000290: b856 cbbd 267e 703e 7022 3fbe 0969 8a39
000002a0: 4fe2 b1bd a14e 3fbd bf94 603d 5377 083d
000002b0: fe3a 0d3e 83b8 ac3d 486c be3d 05e9 0bbe
000002c0: 0635 5abe 91a1 8d3d 8dd8 fdbd cebb 1c3e
000002d0: af8c c33d c549 b6bd 00d6 1abe 5211 cb3e
000002e0: 9a89 003f fb30 97be b0ec ec3c 901e 683c
000002f0: 9a00 3c3c 1849 6a3c 31b9 24be f743 543f
00000300: 09a2 8cbd c7f7 db3e 6eca f0bd 04ea 9b3d
00000310: 3f18 ca3c b347 e4be 4f90 913c 0865 74be
00000320: 66ff 9c3d ae10 743e 7d3e 20be 5f6b 70be
00000330: afd2 3abe f92c b4be 285c cd3e 3ac0 2abe
00000340: 0dfb 893d 3069 2b3e b090 0dbd f0ef ea3e
00000350: a8e2 60bf dbda 213e 378e 2a3e a909 353d
00000360: 3116 d7be 3c8e d23d db5e 1f3e 82a7 013e
00000370: 3622 ef3c 3d64 a93e 5f1d af3e 53f5 193c
00000380: 83be b9bd 06df dfbc 8b9c b53e 0929 76bd
00000390: 6be6 103e d691 97bd 2934 66bd c6b6 23be
000003a0: 71b2 bbbe d464 6ebc 7988 433e 4800 563d
000003b0: ddd2 be3d c5ea b83d f1bf ae3e 0a3c eb3c
000003c0: 6a51 a1be 4186 3b3e 2006 f23d d824 e13d
000003d0: e72a af3d 7a68 f1bc 189a 52bc fc5a 733e
000003e0: 343c 8b3e 33dc a5be 0540 b3bc 404e 843e
000003f0: 492e 7d3e de3b 2abe 57a5 0d3b 7683 583e
0.028047357 -0.15878564 0.061186694 -0.10935826 -0.23337552 -0.048123505 -0.038301777 0.20972754
-0.1903604 0.08389925 0.061364584 -0.103891544 0.11354175 -0.17348327 -0.14373808 0.08396099
0.216891 0.0025046812 -0.09416264 0.18776453 -0.07101107 0.17390941 -0.1191687 0.053756934
0.13885567 0.005328074 0.05726642 -0.20480944 -0.21461949 -0.14431201 -0.03915959 -0.099328354
0.023123061 -0.040244542 -0.21481602 0.2019098 -0.05802028 0.13672906 -0.02725507 0.24227862
-0.17143135 0.2282996 0.00535071 -0.02393454 0.16134752 0.20990372 -0.037149135 0.004033767
0.09701259 -0.00993853 0.07802796 -0.12155679 -0.07582492 0.19425632 0.179903 -0.13033558
-0.066231586 0.012710515 0.14164162 0.13535915 0.08875187 0.20482196 0.1090363 -0.0038964883
-0.17670012 0.34974444 -0.64348316 -0.12672591 0.027235605 -0.12310854 0.18928263 -0.03967178
-0.05294186 0.53769565 0.07373599 -0.07503311 0.066631176 -0.11383968 -0.15311226 -0.073876604
-0.112566695 0.1455363 -0.18030031 0.17868924 0.10300974 -0.02533685 0.028812882 -0.1135126
0.23285595 -0.07596997 0.0017527342 0.5027066 -0.104207344 -0.085311726 0.023547173 -0.16342807
-0.16880548 0.37427843 0.22007224 -0.07113082 0.07182264 -0.1737908 0.12186844 -0.18999986
-0.58124465 0.13991427 0.093661025 -0.05233003 -0.22506134 0.037260413 -0.1539964 -0.2123269
0.094586655 -0.14163303 -0.0206407 0.19342163 -0.08238617 -0.008364141 0.15501441 0.036842257
-0.5988272 -0.04673927 -0.17106827 -0.18689118 -0.19235677 0.109177575 -0.20881277 -0.14557773
0.0019966783 -0.59782577 -0.27538893 0.08693019 0.14107539 -0.7286412 -0.13801049 0.17638808
0.026857855 0.015178724 -0.22920416 -0.49319804 -0.10476734 0.5648264 0.47382838 -0.05416879
0.115946814 -0.15071447 0.23254305 -0.20827475 0.37719405 0.18075916 0.009058108 -0.26877564
-0.6280191 -0.119449735 -0.09079702 -0.13346359 0.13324054 0.36333737 -0.055445187 -0.21042466
0.3042717 -0.7709139 0.17259753 -0.17003235 -0.0992865 0.23485622 -0.1866548 0.00026399668
-0.08685743 -0.046705846 0.054829355 0.03331692 0.13792035 0.0843363 0.09297997 -0.13663109
-0.2130929 0.06915582 -0.123948194 0.15306017 0.09548318 -0.08900789 -0.15120697 0.39661652
0.50209963 -0.29529557 0.028921455 0.014167443 0.011474753 0.0142996535 -0.1608627 0.82916206
-0.06866843 0.42962477 -0.117573604 0.07612994 0.024669765 -0.44585952 0.017769007 -0.23866665
0.07665901 0.23834488 -0.15648837 -0.23478459 -0.18244432 -0.3519056 0.40109372 -0.16674891
0.06737337 0.16739345 -0.034561813 0.45886183 -0.8784585 0.15806143 0.16655813 0.044198666
-0.42009118 0.10281035 0.15563528 0.12661555 0.029191118 0.33084288 0.34202096 0.009396869
-0.0906954 -0.027328026 0.35470995 -0.060097728 0.14150397 -0.07400863 -0.056202088 -0.15987691
-0.36659577 -0.0145504065 0.19095029 0.052246362 0.09317563 0.09029154 0.34130815 0.028715152
-0.31507427 0.18312933 0.118175745 0.109933555 0.08553105 -0.029468764 -0.012854122 0.23765177
0.2719437 -0.3239456 -0.021881113 0.2584095 0.24724688 -0.166244 0.0021613443 0.21143898
