frontend/pdiot_app/assets/models/model_cnn_gru.tflite (tflite, 949928 bytes, 28 tensors)

sequential_7/conv1d_28/BiasAdd/ReadVariableOp f4 [64]
-0.24430743 0.027080413 0.07699677 -0.31774756 -0.15459406 0.09920381 -0.11286927 0.025998328
-0.3894504 0.38827413 -0.0011852678 -0.32987073 0.433886 -0.10649281 -0.19933248 -0.36395758
-0.107369214 -0.1308951 0.020214988 0.20274983 -0.08343589 0.04716981 -0.48086855 0.23343827
0.35181692 0.027391022 -0.18596429 -0.16851087 -0.33020234 -0.06701244 -0.022624865 -0.13457218
-0.24043152 -0.12123991 -0.07957172 -0.46639943 0.11767257 -0.44418097 -0.13423482 0.35610196
-0.017611794 0.11427191 0.114888385 -0.046843257 -0.13379398 -0.20687234 0.102538176 0.0778379
-0.10609524 -0.08126432 -0.41625896 0.3626105 0.42109457 -0.34757593 -0.16819681 0.306274
0.15437138 0.099314205 -0.39404204 -0.16036387 0.15663749 0.20133395 -0.2612934 -0.4765089
00000000: ba2b 7abe bed7 dd3c 7cb0 9d3d cfaf a2be
00000010: e84d 1ebe 5e2b cb3d 0128 e7bd 72fa d43c
00000020: 0b66 c7be decb c63e fd5a 9bba d1e4 a8be
00000030: 4e26 de3e e718 dabd d01d 4cbe a658 babe
00000040: 64e4 dbbd 5d09 06be e799 a53c a79d 4f3e
00000050: 70e0 aabd 2135 413d 6734 f6be 710a 6f3e
00000060: 5921 b43e 2363 e03c 6c6d 3ebe 1d8e 2cbe
00000070: 4810 a9be d13d 89bd c857 b9bc 4acd 09be
00000080: ae33 76be a14c f8bd 7ff6 a2bd e8cb eebe
00000090: 51fe f03d b06b e3be da74 09be ff52 b63e
000000a0: 9c46 90bc 6407 ea3d 9a4a eb3d b7de 3fbd
000000b0: 4a01 09be 58d6 53be 89ff d13d 7a69 9f3d
000000c0: 7648 d9bd e86d a6bd e51f d5be 15a8 b93e
000000d0: b599 d73e 79f5 b1be c93b 2cbe f2cf 9c3e
000000e0: 8813 1e3e 3f65 cb3d e1bf c9be 6d36 24be
000000f0: 9465 203e 7d2a 4e3e 40c8 85be f9f8 f3be

sequential_7/conv1d_29/BiasAdd/ReadVariableOp f4 [64]
-0.05309919 -0.038402636 0.2503633 -0.067483954 -0.054253697 -0.31961587 -0.016559914 -0.021906257
-0.044929747 -0.2636782 -0.21172643 0.02447817 -0.0496241 -0.08611815 -0.36518043 0.09921064
-0.112102404 -0.068089 -0.0010728082 -0.11598327 0.07874409 -0.02645307 -0.18803625 -0.06125712
-0.09124266 0.017923249 -0.16931823 -0.037203897 0.2322652 -0.031336237 -0.12965967 -0.26190457
0.12149552 0.12771867 0.0041070003 -0.15082389 0.016370593 -0.04844716 -0.011951867 -0.075184934
-0.031072015 -0.07403892 -0.0077723 0.104551755 0.21242376 -0.006211353 -0.09398734 0.018852036
-0.0625892 0.044596877 -0.0540903 -0.06515955 0.15567318 -0.11753733 -0.025435597 0.13577671
-0.09296511 -0.16233754 -0.100717 -0.27539077 0.023840219 -0.056035146 -0.1695458 -0.037221882
00000000: 897e 59bd 154c 1dbd 9e2f 803e 0735 8abd
00000010: 2039 5ebd b1a4 a3be a8a8 87bc c074 b3bc
00000020: 4108 38bd d400 87be d0ce 58be 7186 c83c
00000030: a442 4bbd b65e b0bd eef8 babe f32e cb3d
00000040: f295 e5bd 3f72 8bbd 789d 8cba a388 edbd
00000050: 9544 a13d 1cb4 d8bc 938c 40be bfe8 7abd
00000060: 6fdd babd c7d3 923c c261 2dbe 1d63 18bd
00000070: eed6 6d3e 6d5a 00bd 81c5 04be 5b18 86be
00000080: a5d2 f83d afc8 023e 0494 863b 9471 1abe
00000090: 9f1b 863c 8770 46bd c3d1 43bc 8ffa 99bd
000000a0: bd8a febc b8a1 97bd c7ae febb 3b1f d63d
000000b0: 9d85 593e 9b88 cbbb 6f7c c0bd 966f 9a3c
000000c0: c42e 80bd 37ab 363d ca8d 5dbd 5f72 85bd
000000d0: ca68 1f3e 69b7 f0bd 505e d0bc 0d09 0b3e
000000e0: 7e64 bebd d03b 26be b744 cebd 0500 8dbe
000000f0: 904c c33c 1c85 65bd 6a9d 2dbe f975 18bd

sequential_7/conv1d_30/BiasAdd/ReadVariableOp f4 [128]
-0.014016189 -0.09380986 0.005055295 0.007657517 -0.078887895 -0.038244274 -0.038840927 -0.06668271
0.2730821 -0.027790833 -0.1414565 0.009261403 -0.011848948 -0.013012372 0.0108927535 0.009630801
0.07929966 -0.1048299 -0.0481334 0.049675148 -0.07328347 0.04038457 0.026907928 -0.03675898
-0.025022406 -0.0066491943 -0.0018269288 -0.044929937 -0.022981092 -0.09380719 -0.054469317 -0.13543093
-0.09438673 -0.06605077 -0.07770165 0.018018095 0.008254501 0.011078583 0.0060350513 -0.05351436
0.23342061 0.10327923 -0.06231067 -0.046573292 -0.042036753 -0.044509776 -0.0012989637 -0.13489284
-0.061820652 -0.027374819 0.0067541157 0.019025011 -0.08997357 0.07292058 0.009334782 0.057586294
-0.04299534 -0.06547752 0.047025137 -0.0038895416 -0.00632065 -0.061023217 0.025182497 0.04212125
-0.05752531 -0.03484725 -0.10806385 -0.011119836 -0.06539744 0.031581305 -0.050020672 -0.0151105495
-0.15271455 0.115030326 0.035426214 0.007198722 -0.05102372 -0.008129685 0.0013273127 0.023367483
-0.04766726 0.046560816 -0.010486331 -0.08452379 0.01752749 0.057326924 -0.16698259 -0.091663755
-0.07107317 -0.033319205 -0.026456745 -0.0047399667 -0.10949734 -0.097758345 -0.055774417 0.011839199
0.067483276 -0.036776878 -0.075565144 -0.11805184 -0.048430417 0.010156 -0.173501 -0.066889
-0.06440184 -0.035250004 -0.024998033 -0.043267496 0.0025912449 -0.05346598 0.0022065898 -0.009548935
-0.103032455 -0.028478617 -0.02073406 0.0057778307 -0.029458262 -0.042037506 -0.041352127 0.021797663
-0.03555434 -0.06648153 0.028585006 -0.09496423 -0.05200061 -0.017307075 -0.04690627 -0.07574191
00000000: 28a4 65bc 621f c0bd e3a6 a53b e9eb fa3b
00000010: fa8f a1bd 07a6 1cbd aa17 1fbd f290 88bd
00000020: 6bd1 8b3e 9aa9 e3bc f9d9 10be 24bd 173c
00000030: 1722 42bc d831 55bc 8577 323c 82ca 1d3c
00000040: dc67 a23d 0fb1 d6bd 8727 45bd 2b78 4b3d
00000050: a515 96bd 4a6a 253d 046e dc3c 9690 16bd
00000060: cafb ccbc 7ce1 d9bb 8f75 efba 7408 38bd
00000070: d842 bcbc fc1d c0bd 381b 5fbd 68ae 0abe
00000080: d44d c1bd a045 87bd 0b22 9fbd af9a 933c
00000090: e33d 073c f282 353c aec1 c53b e031 5bbd
000000a0: d005 6f3e 1084 d33d 7939 7fbd a3c3 3ebd
000000b0: bb2e 2cbd e24f 36bd fd41 aaba 5921 0abe
000000c0: a737 7dbd 2841 e0bc a151 dd3b 57da 9b3c
000000d0: 1044 b8bd 6357 953d eaf0 183c 9bdf 6b3d
000000e0: e21b 30bd 1419 86bd 6e9d 403d aee7 7ebb
000000f0: 751d cfbb 7bf3 79bd 864b ce3c 5587 2c3d
00000100: a99f 6bbd fdbb 0ebd 9450 ddbd f92f 36bc
00000110: 18ef 85bd 665b 013d 7ae2 4cbd 3d92 77bc
00000120: 3461 1cbe 0595 eb3d 141b 113d 42e3 eb3b
00000130: 40fe 50bd 5f32 05bc 39f9 ad3a 2a6d bf3c
00000140: bf3e 43bd 8eb6 3e3d dcce 2bbc cf1a adbd
00000150: d095 8f3c a3cf 6a3d 7cfd 2abe 35ba bbbd
00000160: cf8e 91bd b879 08bd d1bb d8bc b951 9bbb
00000170: 2440 e0bd 8735 c8bd b773 64bd 33f9 413c
00000180: ac34 8a3d 5aa3 16bd e6c1 9abd 2ac5 f1bd
00000190: f95e 46bd 5a65 263c 3faa 31be 1afd 88bd
000001a0: 1de5 83bd 4f62 10bd adc8 ccbc 4239 31bd
000001b0: e0d1 293b 25ff 5abd 6f9c 103b 2373 1cbc
000001c0: ae02 d3bd fd4b e9bc 7ada a9bc f553 bd3b
000001d0: 7452 f1bc 852f 2cbd d960 29bd 0391 b23c
000001e0: 6da1 11bd 7827 88bd 1a2b ea3c 9b7c c2bd
000001f0: 97fe 54bd 91c7 8dbc ca20 40bd 931e 9bbd

sequential_7/conv1d_31/BiasAdd/ReadVariableOp f4 [128]
0.0048767906 -0.09455197 0.0075651202 -0.02828777 0.04596779 0.056886967 -0.015502426 0.010599587
0.049885202 0.031106105 -0.0012462697 -0.011608721 -0.01671098 -0.045014586 -0.004963501 0.039760478
0.07170365 -0.018681355 -0.014579781 0.1159211 -0.02205131 0.057638302 -0.044802766 -0.023008103
-0.06166133 -0.07853629 0.11269195 -0.15850337 0.14253847 0.06032356 0.005008779 0.051229704
-0.07067193 -0.009611329 -0.010541212 -0.024691688 -0.053397108 -0.007905617 0.022326555 -0.012535901
0.03212536 -0.10469434 0.014642285 0.06600818 0.09160604 0.023142971 0.057049006 0.050071172
-0.10507494 -0.05380926 0.12093719 -0.010889655 0.09658114 0.14455827 -0.27986184 -0.034749236
0.002267518 -0.05485494 0.046343967 -0.035415728 -0.010547554 -0.0038178815 0.09955593 -0.0020764694
-0.1943163 -0.01569176 -0.10714836 -0.020866608 0.06869556 0.044905253 -0.012483546 0.12545243
-0.071068354 0.03633061 -0.05852779 -0.015817469 -0.124326766 0.16899948 0.031167103 -0.054566693
0.00443531 0.041719366 -0.046935685 0.030084146 -0.0010260851 0.06352915 -0.09741446 0.1072345
-0.078266144 -0.07557511 0.018526081 0.060386464 -0.024328845 -0.11013008 0.13993551 -0.017087573
-0.010095875 -0.006382881 0.059985366 -0.03262112 -0.00902907 0.020160181 0.11214052 0.045892503
0.020681141 -0.047338158 -0.0122829685 -0.11611937 0.035816625 0.13164428 -0.018533941 0.045371138
0.01503877 -0.07340245 -0.06199533 0.006746202 -0.0011982216 -0.015084919 -0.01025205 0.027446225
-0.0053764046 -0.040831123 -0.025463881 -0.0064620376 -0.0064850766 -0.05873757 -0.04049514 -0.059820537
00000000: 7ccd 9f3b 77a4 c1bd d4e4 f73b c1bb e7bc
00000010: b948 3c3d 4f02 693d e3fd 7dbc e4a9 2d3c
00000020: 6d54 4c3d 3bd2 fe3c df59 a3ba 8132 3ebc
00000030: 77e5 88bc 3761 38bd dda4 a2bb e2db 223d
00000040: 5dd9 923d a409 99bc 09e0 6ebc 0b68 ed3d
00000050: f3a4 b4bc 2416 6c3d 1b83 37bd 7d7b bcbc
00000060: 9790 7cbd a2d7 a0bd 09cb e63d b54e 22be
00000070: 9bf5 113e d615 773d af20 a43b 3dd6 513d
00000080: 72bc 90bd d678 1dbc 0cb5 2cbc 3946 cabc
00000090: edb6 5abd 9086 01bc 2ee6 b63c 6163 4dbc
000000a0: e295 033d fc69 d6bd 32e6 6f3c 4c2f 873d
000000b0: f39b bb3d 5496 bd3c 38ac 693d 6e17 4d3d
000000c0: 8831 d7bd 1967 5cbd ebad f73d 866a 32bc
000000d0: 55cc c53d 1507 143e 0d4a 8fbe 3755 0ebd
000000e0: a49a 143b 93af 60bd 2cd3 3d3d 1510 11bd
000000f0: a6cf 2cbc 6c35 7abb fbe3 cb3d 6015 08bb
00000100: dafa 46be 028c 80bc 9970 dbbd 73f0 aabc
00000110: 42b0 8c3d 92ee 373d c987 4cbc 9a76 003e
00000120: 498c 91bd 68cf 143d d6ba 6fbd a393 81bc
00000130: 089f febd 330e 2d3e 2752 ff3c 5381 5fbd
00000140: 1456 913b ede1 2a3d a23f 40bd 0773 f63c
00000150: b47d 86ba 921b 823d 3b81 c7bd c39d db3d
00000160: 004a a0bd 20c7 9abd 02c4 973c cc57 773d
00000170: 494d c7bc e18b e1bd 414b 0f3e 3dfb 8bbc
00000180: 2b69 25bc 7d27 d1bb 37b3 753d b99d 05bd
00000190: aaee 13bc f726 a53c eea9 e53d c7f9 3b3d
000001a0: 7f6b a93c a8e5 41bd 813e 49bc fecf edbd
000001b0: 74b4 123d c2cd 063e 7ed4 97bc 16d7 393d
000001c0: 2c65 763c 0654 96bd d1ee 7dbd 3e0f dd3b
000001d0: a50d 9dba bc26 77bc 37f8 27bc e8d6 e03c
000001e0: 8d2c b0bb 893e 27bd a199 d0bc 80bf d3bb
000001f0: c480 d4bb ce96 70bd 3bde 25bd 6106 75bd

sequential_7/dense_21/MatMul;sequential_7/dense_21/Relu;sequential_7/dense_21/BiasAdd f4 [64]
-0.3892397 0.05746763 0.30492026 -0.65345436 -0.3687838 -0.24474147 -0.28817624 -0.6074207
0.3309908 -0.10052267 0.09189661 0.20121649 0.06653357 -0.43812442 -0.32043284 0.016175017
-0.32915348 -0.30490983 -0.1389732 0.4945395 0.16175146 -0.8122937 0.06520337 -0.112437405
-0.7460552 0.15863502 -0.29956043 -0.16657613 -0.26584986 -0.78826654 -0.49630982 0.09140225
-0.47746417 0.0805084 -0.25138912 -0.1758744 -0.16914096 -0.6196973 0.048508 -0.032210983
-0.2637784 -0.32258362 -0.028551435 0.017112536 0.09548351 -0.51100785 0.08559472 0.13933107
0.5394612 -0.13957036 -0.08190195 -0.37157658 0.23659377 -0.54324543 -0.10559913 0.08023645
-0.21126974 0.3833468 0.22236928 0.3292328 -0.25888616 -0.39371657 0.18044694 0.3459049
00000000: 6d4a c7be 2d63 6b3d 821e 9c3e c948 27bf
00000010: 3bd1 bcbe 829d 7abe d68b 93be ec7f 1bbf
00000020: a077 a93e d4de cdbd 4a34 bc3d b20b 4e3e
00000030: c142 883d d851 e0be c60f a4be 7881 843c
00000040: ce86 a8be 241d 9cbe fe4e 0ebe 4834 fd3e
00000050: 2da2 253e 7bf2 4fbf 5889 853d 9545 e6bd
00000060: 79fd 3ebf 3871 223e fc5f 99be ef92 2abe
00000070: 791d 88be d6cb 49bf 521c febe 1a31 bb3d
00000080: 2f76 f4be 97e1 a43d 13b6 80be 6b18 34be
00000090: 4a33 2dbe 7ba4 1ebf 53b0 463d aaef 03bd
000000a0: f60d 87be ae29 a5be b3e4 e9bc 972f 8c3c
000000b0: dc8c c33d 69d1 02bf 494c af3d ceac 0e3e
000000c0: 211a 0a3f 88eb 0ebe 36bc a7bd 493f bebe
000000d0: a345 723e 2212 0bbf 5b44 d8bd 0253 a43d
000000e0: 1857 58be 0846 c43e c6b4 633e 3491 a83e
000000f0: ba8c 84be 3895 c9be 15c7 383e 721a b13e

sequential_7/batch_normalization_13/batchnorm/mul_1;sequential_7/batch_normalization_13/batchnorm/add_1;sequential_7/dense_21/MatMul;sequential_7/dense_21/Relu;sequential_7/dense_21/BiasAdd f4 [64, 64]
0.06102511 -0.29308316 0.089541905 0.31194288 -0.30763364 -0.16075757 0.013914636 0.1015102
-0.31976768 -0.09745608 0.05107801 -0.13287371 -0.08876512 0.22183119 -0.054943312 -0.16756524
0.03163961 -0.18638 -0.09718499 0.27170166 0.2615285 0.052407824 0.33485702 0.13658898
-0.0064880545 -0.1043744 0.0697954 -0.17104101 0.0060438556 0.20902184 -0.041105546 0.083886445
0.20182003 0.14308113 -0.22255348 0.05821103 -0.0997694 0.09372051 0.09757874 0.10217076
-0.08115216 0.0011955254 -0.023168227 -0.1236007 0.03920657 -0.372669 0.39650714 0.102711655
0.19839498 -0.1300584 -0.21897286 0.22955513 0.053719886 -0.016474834 -0.13209565 0.052421767
0.2030566 -0.11946839 0.2822957 -0.08148877 0.13461508 0.23713934 -0.07325968 0.168893
0.056298755 -0.010476355 0.013087076 -0.18188258 -0.081649184 0.27760887 0.11642349 -0.10266018
-0.10095519 -0.122004166 -0.09405409 0.09404363 0.12025132 -0.25371915 -0.11216719 0.043693885
0.046157226 0.12086245 -0.05274618 0.16773167 -0.349863 -0.0025301918 -0.010833271 -0.17760363
-0.24278885 -0.16660634 0.21436928 0.0028475502 0.038521342 -0.007115176 -0.2170812 0.050780907
0.06000426 0.01216503 -0.19267575 -0.1638332 -0.12740617 0.19951518 -0.14858386 -0.13678399
-0.13918023 0.15149462 -0.012922833 -0.20565234 0.21425855 -0.10445441 -0.11993599 -0.0587924
-0.19985336 0.20522313 -0.09377949 0.17292322 0.3402818 -0.21896437 -0.077554725 -0.15081409
0.29744497 -0.42857245 0.24459669 -0.028482348 0.22951882 -0.19292204 0.10289029 -0.07109044
-0.2459722 0.27448058 -0.23074172 0.11226674 -0.122955285 0.28440666 0.46668822 0.14372693
0.40164873 0.11642624 0.1349972 0.043449543 -0.23401861 0.036630057 -0.3534607 0.10099583
0.2272761 0.36918932 -0.372711 -0.18262632 0.3422568 0.24850246 -0.11638853 0.14953814
-0.116753116 0.22272617 0.16794518 0.04558642 0.003423133 0.098670036 -0.11694736 -0.3783464
-0.2267361 -0.08706238 -0.118323304 -0.03396457 0.19738819 -0.032172907 -0.2111176 -0.15926647
-0.18981236 -0.2000436 0.21680784 -0.48977938 0.0914941 0.20385301 -0.5108415 -0.06320063
-0.15839295 0.11803776 0.28917742 -0.07424776 0.058719784 0.31316537 0.09783715 -0.23126072
0.10478223 0.09843848 0.053079557 -0.3148455 -0.0005933267 -0.35534683 0.0337103 0.04834247
0.17141138 -0.16931975 0.2988056 -0.122514166 -0.23068379 0.054835428 -0.44982836 -0.24315268
-0.07610655 -0.018752508 0.10746075 -0.1910547 0.2670477 -0.28072712 0.2494689 -0.2063653
0.2711384 -0.21513018 0.37159762 0.31400776 0.06081298 -0.10955656 0.34052044 -0.28086185
-0.35969728 -0.23547325 0.08797453 -0.3488547 -0.03822475 -0.119138636 0.068096265 0.33937764
-0.07575726 -0.122608595 -0.00077986706 -0.16036433 -0.110381186 -0.061812844 0.26742917 -0.4375133
-0.07137814 -0.066645935 -0.13575755 -0.13813423 -0.04788333 -0.021356525 -0.04108165 -0.015705446
-0.3921524 0.16512577 -0.09802031 -0.30689195 -0.042499956 -0.31477007 0.038133413 -0.3359467
0.3009944 -0.47640723 0.18351056 -0.061157215 -0.071134426 0.29521197 0.42892483 0.19993153
00000000: 77f5 793d ff0e 96be bf61 b73d fab6 9f3e
00000010: 2882 9dbe a29d 24be 37fa 633c 94e4 cf3d
00000020: 97b8 a3be 0e97 c7bd 2d37 513d 0c10 08be
00000030: 7dca b5bd b727 633e 3d0c 61bd 3996 2bbe
00000040: 8998 013d 66da 3ebe ed08 c7bd 7b1c 8b3e
00000050: 10e7 853e 96a9 563d 6172 ab3e fbdd 0b3e
00000060: bf99 d4bb 3fc2 d5bd e4f0 8e3d 6025 2fbe
00000070: 890b c63b d209 563e 4a5e 28bd a8cc ab3d
00000080: e9a9 4e3e dc83 123e 0fe5 63be b06e 6e3d
00000090: e653 ccbd 8af0 bf3d 5dd7 c73d e73e d13d
000000a0: 1b33 a6bd 2db3 9c3a 4bcb bdbc 5d22 fdbd
000000b0: 1197 203d 79ce bebe fc02 cb3e 7d5a d23d
000000c0: 0e28 4b3e 072e 05be 6c3a 60be 8010 6b3e
000000d0: 6209 5c3d 3bf6 86bc 1544 07be 35b8 563d
000000e0: 12ee 4f3e d8ab f4bd 1089 903e 96e3 a6bd
000000f0: 89d8 093e a8d4 723e 2c09 96bd 49f2 2c3e
00000100: 8699 663d 05a5 2bbc 2d6b 563c 6d3f 3abe
00000110: b037 a7bd c022 8e3e 706f ee3d 803f d2bd
00000120: 98c1 cebd 52dd f9bd 6e9f c0bd f299 c03d
00000130: 5346 f63d 7ae7 81be e9b7 e5bd 5cf8 323d
00000140: 5c0f 3d3d bb86 f73d 610c 58bd dac1 2b3e
00000150: 3e21 b3be 93d1 25bb 087e 31bc badd 35be
00000160: a49d 78be da9a 2abe 9f83 5b3e f79d 3a3b
00000170: 8ec8 1d3d 6c26 e9bb 894a 5ebe a4ff 4f3d
00000180: 07c7 753d d64f 473c cb4c 45be e4c3 27be
00000190: c376 02be b54d 4c3e 5e26 18be 1a11 0cbe
000001a0: 4385 0ebe 6821 1b3e 4aba 53bc 8796 52be
000001b0: 9866 5b3e 32ec d5bd 00a1 f5bd 4dd0 70bd
000001c0: 5ca6 4cbe 0326 523e 760f c0bd c912 313e
000001d0: 6b39 ae3e 3238 60be 03d5 9ebd 026f 1abe
000001e0: b54a 983e d96d dbbe 8e77 7a3e d053 e9bc
000001f0: fb06 6b3e 5b8d 45be 25b8 d23d dd97 91bd
00000200: 23e0 7bbe b888 8c3e 8f47 6cbe 1bec e53d
00000210: fbcf fbbd c09d 913e c2f1 ee3e 272d 133e
00000220: e7a4 cd3e e170 ee3d b53c 0a3e 26f8 313d
00000230: 93a2 6fbe 6609 163d cdf8 b4be e7d6 ce3d
00000240: 11bb 683e 6206 bd3e fad3 bebe 6502 3bbe
00000250: 493c af3e 6e77 7e3e 1c5d eebd 8720 193e
00000260: 421c efbd 5412 643e d2f9 2b3e d3b8 3a3d
00000270: a456 603b 8413 ca3d 1982 efbd 9fb6 c1be
00000280: 822d 68be c34d b2bd 7d53 f2bd 6f1e 0bbd
00000290: 2120 4a3e bdc7 03bd 362f 58be c016 23be
000002a0: 2c5e 42be 3bd8 4cbe e002 5e3e 5dc4 fabe
000002b0: 4261 bb3d d8be 503e 82c6 02bf 556f 81bd
000002c0: c331 22be c8bd f13d 100f 943e 360f 98bd
000002d0: 2884 703d 3657 a03e d85e c83d 9ccf 6cbe
000002e0: 1198 d63d 1d9a c93d f369 593d 6e33 a1be
000002f0: 7b89 1bba 05f0 b5be d013 0a3d c102 463d
00000300: 7786 2f3e 2862 2dbe 0cfd 983e b5e8 fabd
00000310: 5f38 6cbe 1d9b 603d e74f e6be 04fd 78be
00000320: c0dd 9bbd dc9e 99bc 6214 dc3d d8a3 43be
00000330: 7aba 883e 77bb 8fbe c674 7f3e 6d51 53be
00000340: a7d2 8a3e 164b 5cbe 0b42 be3e a0c5 a03e
00000350: 0817 793d 315f e0bd b258 ae3e 20cd 8fbe
00000360: 3e2a b8be e61f 71be fe2b b43d 159d b2be
00000370: 8e91 1cbd f5fe f3bd 0e76 8b3d e8c2 ad3e
00000380: 9f26 9bbd 371a fbbd fe6f 4cba 8c36 24be
00000390: 880f e2bd 772f 7dbd 7aec 883e be01 e0be
000003a0: b42e 92bd aa7d 88bd 0704 0bbe 0f73 0dbe
000003b0: 5021 44bd e1f3 aebc 3b45 28bd b5a8 80bc
000003c0: 33c8 c8be bb16 293e dfbe c8bd f120 9dbe
000003d0: 6f14 2ebd 8b29 a1be c831 1c3d 3501 acbe
000003e0: f01b 9a3e a6eb f3be 31ea 3b3e fd7f 7abd
000003f0: edae 91bd 0626 973e 099c db3e daba 4c3e

sequential_7/conv1d_28/Conv1D f4 [64, 1, 3, 3]
-0.056025017 -0.011963305 0.3519735 0.04806483 0.18567267 0.2784133 -0.042904295 -0.1029232
0.15409705 -0.0886531 0.56897175 -0.075883046 -0.03454199 0.5223132 0.07557794 0.17419827
0.5078081 0.09825797 5.162545e-05 0.19705041 -0.006844856 -0.16756213 0.23995508 -0.05872941
-0.030583465 -0.3295399 0.009787313 0.15065049 0.1648497 -0.06700021 0.044586357 -0.056104496
0.13886772 -0.181029 -0.13425745 -0.12325379 0.11950693 -0.19103396 0.0875199 -0.27831033
0.006201179 -0.014100048 -0.16919795 -0.24612775 -0.07617784 -0.092925675 -0.1555706 0.08479688
0.036728133 0.029077763 -0.17883474 -0.15710299 0.3577794 0.015238715 -0.16295062 0.22201908
-0.0004619721 -0.09989418 0.12652346 -0.109926865 0.20216492 -0.28857648 0.0736924 -0.20840223
-0.030109033 0.07283735 -0.054788157 -0.09839863 0.00078057445 -0.19315322 -0.21041536 -0.17859088
0.12398268 -0.13825718 -0.16272785 0.029374767 -0.17751226 -0.0868125 -0.006741542 0.13416833
0.110824645 -0.3385539 0.35968643 -0.044887558 -0.04734857 0.30004936 -0.08836791 -0.33401072
-0.008207675 -0.12623435 0.04238502 0.16770107 -0.011455533 -0.16332789 0.24079439 -0.23229408
0.03364744 0.243146 -0.3080834 0.1797689 -0.14502056 -0.062358327 0.09362004 0.18067494
-0.04651153 -0.10458375 0.07844904 0.083670594 -0.28141055 -0.1546374 0.12368717 0.04898103
0.05796167 -0.15748622 0.10627814 0.35516256 -0.015101324 -0.04798378 -0.13947807 -0.03568746
-0.17361775 -0.071861714 0.010839045 -0.120699316 -0.07473285 0.0024710374 -0.1938368 -0.1851361
-0.058519676 -0.19242929 -0.22661594 0.116675586 -0.02220408 -0.1297322 0.17245291 0.12155535
-0.1395563 0.12557137 0.16593775 0.19770323 -0.116338074 0.12923497 0.2091713 -0.18559085
0.012066048 -0.08880725 -0.10620293 0.06728997 -0.037528023 -0.19131446 0.07471919 -0.070079386
-0.19432499 -0.1426852 -0.1447875 -0.14794162 0.024874996 -0.016555734 -0.05869166 0.119168855
0.20278832 0.14220849 -0.17131859 0.039396543 0.16905849 -0.14277531 0.16723691 0.05224925
-0.25532034 -0.038901668 0.1069599 -0.22188944 0.27703404 -0.092877366 -0.16187222 0.28249916
0.1167931 -0.0042485045 0.050591037 -0.09996184 0.05186409 0.15121065 -0.13737719 -0.13803557
0.012381287 -0.006834416 -0.12255855 -0.15460919 0.08510045 -0.2789745 -0.17153159 -0.121749416
0.1425384 0.22317195 -0.11174245 0.09800289 -0.08379683 0.2601476 0.16509598 -0.18149012
0.10921809 -0.014773554 -0.26592532 0.11185084 0.084453315 -0.05995761 -0.1910244 -0.23125201
0.12025068 -0.15751158 -0.12333652 -0.026172258 0.086946495 -0.3545954 -0.014610376 -0.15073739
-0.30147094 0.09277973 -0.12365818 -0.36438957 -0.05301494 -0.12305281 -0.29057884 0.07234947
-0.16197795 -0.26161596 -0.20768538 0.059819095 0.18127893 0.10976107 0.06022467 -0.02084478
0.072425775 -0.16058673 -0.17878047 0.0029163214 0.055865698 -0.18385069 -0.20036934 0.05352356
0.04394733 0.22110134 0.12312106 0.014151188 -0.052290183 0.10351296 -0.16340902 0.059683893
-0.18937254 -0.087673016 -0.035972334 -0.15359609 -0.13756284 0.071106926 0.13197482 0.097587176
00000000: 7d7a 65bd bd01 44bc df35 b43e a1df 443d
00000010: fa20 3e3e 308c 8e3e 6abc 2fbd 66c9 d2bd
00000020: 9ecb 1d3e c28f b5bd 22a8 113f 9268 9bbd
00000030: e77b 0dbd 51b6 053f 9bc8 9a3d 0861 323e
00000040: b6ff 013f 793b c93d 6888 5838 95c7 493e
00000050: d04a e0bb 6895 2bbe c9b6 753e 408e 70bd
00000060: 2d8a fabc 74b9 a8be f75a 203c 1f44 1a3e
00000070: 5cce 283e 6837 89bd 2fa0 363d d4cd 65bd
00000080: 5733 0e3e ab5f 39be c97a 09be 7c6c fcbd
00000090: 0dc0 f43d 689e 43be a23d b33d b17e 8ebe
000000a0: 4333 cb3b e303 67bc 3a42 2dbe ea08 7cbe
000000b0: 2103 9cbd d14f bebd e64d 1fbe fda9 ad3d
000000c0: 3d70 163d 7d34 ee3c 7420 37be 9bdf 20be
000000d0: dd2e b73e ceab 793c 87dc 26be f858 633e
000000e0: d834 f2b9 5295 ccbd 5e8f 013e 5621 e1bd
000000f0: 5204 4f3e 4cc0 93be 0aec 963d 6567 55be
00000100: 38a7 f6bc c02b 953d 8c69 60bd 3985 c9bd
00000110: 779f 4c3a f5c9 45be 2077 57be 87e0 36be
00000120: a2ea fd3d 4a93 0dbe 21a2 26be 5aa3 f03c
00000130: c6c5 35be c1ca b1bd 27e8 dcbb 6c63 093e
00000140: 08f8 e23d f056 adbe d228 b83e 04dc 37bd
00000150: 93f0 41bd 12a0 993e 3cfa b4bd 7403 abbe
00000160: 7c79 06bc 9443 01be ea9b 2d3d d4b9 2b3e
00000170: fdaf 3bbc 6d3f 27be ce92 763e 80de 6dbe
00000180: e6d1 093d 44fb 783e 1bbd 9dbe 5715 383e
00000190: 4580 14be 726b 7fbd ddbb bf3d da02 393e
000001a0: e082 3ebd 0130 d6bd e4a9 a03d 7d5b ab3d
000001b0: 0b15 90be 4459 1ebe b34f fd3d 55a0 483d
000001c0: 3769 6d3d 1144 21be 5aa8 d93d ded7 b53e
000001d0: 8b6b 77bc a48a 44bd 57d3 0ebe 042d 12bd
000001e0: dac8 31be 3c2c 93bd 4096 313c 3431 f7bd
000001f0: 890d 99bd 21f1 213b 277d 46be 5194 3dbe
00000200: 54b2 6fbd 2f0c 45be 020e 68be 9cf3 ee3d
00000210: 55e5 b5bc 85d8 04be 7f97 303e 03f2 f83d
00000220: d9e7 0ebe c895 003e 96eb 293e b772 4a3e
00000230: a842 eebd 2c56 043e 0031 563e 870b 3ebe
00000240: acb0 453c 93e0 b5bd ec80 d9bd 53cf 893d
00000250: fcb6 19bd f0e7 43be 6006 993d c885 8fbd
00000260: 21fd 46be 121c 12be 2d43 14be 027e 17be
00000270: a6c6 cb3c e49f 87bc ab66 70bd cd0e f43d
00000280: bea7 4f3e 1a9f 113e 246e 2fbe 455e 213d
00000290: ab1d 2d3e b133 12be 2740 2b3e 4f03 563d
000002a0: 59b9 82be 5b57 1fbd cb0d db3d fc36 63be
000002b0: 68d7 8d3e 7d36 bebd d5c1 25be bba3 903e
000002c0: 3931 ef3d 0a37 8bbb 8c38 4f3d cbb8 ccbd
000002d0: 716f 543d f7d6 1a3e 9bac 0cbe 3259 0dbe
000002e0: e2da 4a3c 3df3 dfbb faff fabd df51 1ebe
000002f0: 2549 ae3d bfd5 8ebe faa5 2fbe c257 f9bd
00000300: 96f5 113e 3087 643e 3ad9 e4bd bdb5 c83d
00000310: ac9d abbd 1132 853e ec0e 293e 8cd8 39be
00000320: bcad df3d c70c 72bc 5d27 88be 0e12 e53d
00000330: dcf5 ac3d 1c96 75bd e69b 43be 54cd 6cbe
00000340: fd45 f63d b74a 21be db97 fcbd 3467 d6bc
00000350: 0111 b23d 878d b5be 5c60 6fbc e75a 1abe
00000360: 665a 9abe 4d03 be3d 8040 fdbd 4591 babe
00000370: 3226 59bd 1d03 fcbd c0c6 94be f52b 943d
00000380: 8cdd 25be 87f2 85be 7aab 54be de04 753d
00000390: 2fa1 393e 69ca e03d 25ae 763d acc2 aabc
000003a0: f753 943d d970 24be 3a12 37be c11f 3f3b
000003b0: 6ed3 643d 5b43 3cbe 9f2d 4dbe 853b 5b3d
000003c0: 1e02 343d 6468 623e e526 fc3d 62da 673c
000003d0: 3b2e 56bd 9afe d33d b254 27be 1977 743d
000003e0: e0ea 41be e98d b3bd ba57 13bd 4b48 1dbe
000003f0: 46dd 0cbe 82a0 913d 6824 073e c9db c73d

sequential_7/conv1d_29/Conv1D f4 [64, 1, 3, 64]
-0.011989881 -0.30353424 -0.2820542 -0.08360709 -0.029563596 0.12943697 -0.37318957 0.08730559
-0.09930988 -0.07618571 -0.07877952 0.015669711 0.021178925 0.039962128 0.018458562 -0.12036525
-0.09674925 -0.03355986 0.18795122 0.029899264 -0.042476267 -0.082416095 -0.043745834 -0.3070156
-0.22201903 0.04977676 -0.10517265 0.00034897288 0.05986627 0.021403333 -0.7669133 0.010279341
0.1220912 -0.089605175 -0.26934963 -0.013052219 -0.07766675 -0.14127196 -0.2713601 -0.105918296
0.096673936 -0.056532066 0.029322654 0.11644508 -0.21453981 -0.11860898 -0.47710803 -0.21488522
-0.072375126 -0.049210027 -0.04751754 -0.20478764 -0.035028704 -0.118263334 -0.26483932 -0.089474
0.06440583 -0.020396557 -0.11798856 -0.14508127 0.0043076617 -0.15718533 0.08767906 0.118127406
0.02096831 -0.08785489 -0.29503074 -0.066807605 0.122177936 -0.013120159 -0.13676077 0.031812042
-0.026701195 0.018041536 0.11873745 -0.164263 0.0043624053 0.11886177 -0.009135383 -0.15902649
0.058155693 -0.0894003 -0.12987302 0.03834017 0.024433622 -0.061187968 -0.051382415 -0.18225981
-0.0031002911 0.018072447 -0.2998281 0.109490216 0.003065174 -0.08426549 -0.7862323 0.040063094
0.13445728 -0.028065855 -0.16935188 -0.06619198 -0.20118617 0.020188693 -0.291404 -0.12263686
0.070148155 -0.054203805 0.07507055 0.015172684 -0.12462349 -0.071445026 -0.3508686 -0.17137884
-0.08545983 -0.072061226 0.02757884 -0.13369255 0.1958292 0.048806675 -0.14003459 -0.39523777
-0.102123395 0.04219344 -0.033032935 -0.13953966 -0.10757892 0.0052248384 0.09640721 -0.0399034
0.0156023735 0.10244393 -0.00025916426 0.13912079 0.026497638 -0.09356883 -0.012184485 0.10704873
0.01605234 0.060613614 0.08146368 -0.12934856 -0.110798605 0.027150376 0.048845734 -0.010741518
0.000101050435 0.0005209616 0.008523357 0.002483443 -0.11203313 -0.096268505 0.22630678 -0.10158641
-0.093727805 -0.11024914 -0.3266044 0.0931397 -0.0064833164 0.19358705 -0.89566886 0.19738926
0.051860858 0.09596186 -0.1635801 0.10068487 -0.038591146 -0.04891208 -0.17803939 0.06698326
-0.07581581 0.11106013 -0.058535278 -0.15721975 -0.038092364 -0.067944854 -0.2923728 -0.019534817
0.05870079 -0.16564575 0.11666564 0.052692816 0.07240848 -0.011584704 -0.25464132 -0.3116422
-0.031617742 -0.06196861 0.044187143 -0.25360522 0.07601771 -0.008724878 0.005497046 0.020140847
0.032742947 0.12274912 0.057124898 0.18774848 0.048347294 -0.20113751 0.09709558 -0.06699495
0.052796904 0.46138263 -0.34313625 0.1885378 -0.034290228 -0.07277412 -0.16722235 -0.10869623
0.026160715 -0.27852732 -0.21618584 0.001409643 0.018810097 -0.2946839 -0.09727676 0.04162898
0.26316294 -0.07730024 -0.10318022 -0.089610845 -0.046428356 -0.30076948 0.073120534 0.0867199
-0.06874631 -0.34048367 -0.19949201 -0.1507192 0.23742507 0.011035501 0.08911791 0.16753222
-0.08954249 0.026478732 0.30077928 -0.16953807 0.21008743 -0.12163038 0.19588096 0.0638301
-0.00015691813 -0.34200785 -0.14555146 0.30847305 0.0022729132 0.1698994 0.049838062 -0.141893
-0.31337604 0.085629135 -0.055668507 -0.09337479 0.1728999 0.19449697 0.0503726 0.07406341
00000000: 3571 44bc d768 9bbe 6869 90be 323a abbd
00000010: 5b2f f2bc 208b 043e b412 bfbe 46cd b23d
00000020: fa62 cbbd 4107 9cbd 2857 a1bd c45d 803c
00000030: 6d7f ad3c 54af 233d 6936 973c 0e82 f6bd
00000040: 7924 c6bd 1076 09bd 4976 403e 4def f43c
00000050: 98fb 2dbd c5c9 a8bd d52e 33bd 2631 9dbe
00000060: f558 63be b7e2 4b3d c264 d7bd 59f6 b639
00000070: 5536 753d 0b56 af3c 6e54 44bf ae6a 283c
00000080: f30a fa3d eb82 b7bd 32e8 89be f9d8 55bc
00000090: bf0f 9fbd 99a9 10be b6ef 8abe b1eb d8bd
000000a0: fcfc c53d 2b8e 67bd 1036 f03c c27a ee3d
000000b0: 53b0 5bbe 44e9 f2bd 8147 f4be df0a 5cbe
000000c0: 6939 94bd 7490 49bd c1a1 42bd dab3 51be
000000d0: 427a 0fbd 0c34 f2bd 0599 87be 253e b7bd
000000e0: 34e7 833d ae16 a7bc fca3 f1bd 2f90 14be
000000f0: 4927 8d3b 31f5 20be 1491 b33d c8ec f13d
00000100: bcc5 ab3c 44ed b3bd 450e 97be 6dd2 88bd
00000110: 6d38 fa3d eff5 56bc 040b 0cbe 584d 023d
00000120: 77bc dabc d8cb 933c 9f2c f33d 8f34 28be
00000130: 82f2 8e3b cd6d f33d 93ac 15bc d7d7 22be
00000140: aa34 6e3d 8117 b7bd 6ffd 04be 950a 1d3d
00000150: 0529 c83c 3ca0 7abd 5e76 52bd 51a2 3abe
00000160: 412e 4bbb ab0c 943c 1283 99be 683c e03d
00000170: 16e1 483b 6393 acbd 8546 49bf 3319 243d
00000180: 2baf 093e 5dea e5bc 946a 2dbe a98f 87bd
00000190: bf03 4ebe c262 a53c e832 95be 0929 fbbd
000001a0: d6a9 8f3d cf04 5ebd 97be 993d d996 783c
000001b0: 9a3a ffbd c551 92bd 0da5 b3be ef7d 2fbe
000001c0: 9005 afbd d694 93bd 05ed e13c b3e6 08be
000001d0: 7387 483e 82e9 473d 3a65 0fbe 9b5c cabe
000001e0: 1226 d1bd 07d3 2c3d 8b4d 07bd 7ce3 0ebe
000001f0: 5652 dcbd 1f35 ab3b 2571 c53d bf71 23bd
00000200: 19a1 7f3c 20ce d13d 70e0 87b9 ae75 0e3e
00000210: 9311 d93c 04a1 bfbd 6fa1 47bc 5d3c db3d
00000220: 3280 833c fb45 783d 6ed6 a63d f373 04be
00000230: 61ea e2bd 776a de3c 7712 483d 31fd 2fbc
00000240: 0aeb d338 2491 083a 8da5 0b3c 42c1 223b
00000250: a071 e5bd 6c28 c5bd f7bc 673e 890c d0bd
00000260: 5df4 bfbd 4dca e1bd b138 a7be 07c0 be3d
00000270: 0072 d4bb af3b 463e 8e4a 65bf 6920 4a3e
00000280: 0d6c 543d a787 c43d 8b81 27be de33 ce3d
00000290: c011 1ebd 0858 48bd f54f 36be 852e 893d
000002a0: 5245 9bbd 7e73 e33d b0c2 6fbd 37fe 20be
000002b0: bd06 1cbd ac26 8bbd e3b1 95be 7b07 a0bc
000002c0: 3d70 703d 0a9f 29be 65ee ee3d 6cd4 573d
000002d0: e64a 943d c5cd 3dbc 5960 82be 918f 9fbe
000002e0: 9b81 01bd ccd2 7dbd 94fd 343d 8bd8 81be
000002f0: 2caf 9b3d caf2 0ebc 9020 b43b 6bfe a43c
00000300: 781d 063d e463 fb3d ccfb 693d 2341 403e
00000310: d007 463d fef6 4dbe 0cda c63d a634 89bd
00000320: 9141 583d 583a ec3e 8eaf afbe 0e10 413e
00000330: e973 0cbd 990a 95bd 563c 2bbe 219c debd
00000340: ff4e d63c 229b 8ebe d25f 5dbe c5c3 b83a
00000350: a217 9a3c cfe0 96be 0a39 c7bd 2683 2a3d
00000360: 4bbd 863e 974f 9ebd 2750 d3bd e485 b7bd
00000370: a92b 3ebd 75fe 99be 38c0 953d 349a b13d
00000380: deca 8cbd e053 aebe a247 4cbe 2256 1abe
00000390: 8f1f 733e 3fce 343c 7383 b63d 918d 2b3e
000003a0: 0e62 b7bd ede9 d83c beff 993e 639b 2dbe
000003b0: 2921 573e 5919 f9bd 0595 483e 5bb9 823d
000003c0: 648a 24b9 a71b afbe 710b 15be 2ef0 9d3e
000003d0: 28f5 143b 1cfa 2d3e ff22 4c3d 664c 11be
000003e0: d372 a0be 545e af3d a904 64bd 483b bfbd
000003f0: ac0c 313e 372a 473e 8053 4e3d 8fae 973d

sequential_7/conv1d_30/Conv1D f4 [128, 1, 3, 64]
-0.08845681 0.07854901 -0.0663625 0.06802869 -0.17946658 0.05362437 0.24629723 0.057352856
-0.110865325 0.12544726 0.08095665 0.051032446 -0.0035199116 0.05408641 0.10352747 0.04711131
-0.023492532 -0.09959815 -0.121800095 -0.056256853 0.072305135 0.0372487 0.06477048 0.11603089
0.02554446 0.013177168 0.08918938 0.060327966 0.0005224707 0.021776207 -0.09298977 0.1403674
0.09218215 0.22058734 0.08114117 0.16335712 -0.09807756 -0.15160003 -0.096941255 -0.08455438
0.11919049 -0.072098866 0.012939991 0.28416488 0.06161763 0.0044857734 -0.14286594 -0.07749934
-0.015076559 -0.076632984 -0.0867489 -0.003599925 -0.08984902 0.04396878 0.019795498 -0.018265942
0.08554873 0.018124541 -0.03233505 0.09667495 0.0840201 0.040183716 0.13494971 0.044249773
2.7440838e-05 -0.122408204 -0.16704692 -0.08432399 -0.016391195 0.012314504 -0.07736678 0.16043736
0.1665942 0.08439194 0.08937697 -0.054597195 0.15526497 0.028591903 0.0010465225 -0.01065238
-0.05428133 -0.1132615 -0.0724796 -0.11055138 -0.0076669296 0.013170655 0.17644298 0.12231644
0.0075754905 -0.01606336 -0.026593557 0.14714234 -0.04844324 0.0250364 -0.11443584 0.045644484
0.14754498 0.1948266 0.07182158 0.114131324 -0.14864656 -0.14023279 -0.010389759 0.03678872
0.018026987 -0.11676724 -0.052411675 0.21429223 -0.008869624 -0.047946736 0.11366817 -0.17483163
0.05965653 -0.20447572 -0.036201507 0.16287696 0.089313656 -0.1361553 -0.056559004 0.18256018
0.21225418 0.10974223 -0.025627308 -0.08054943 -0.1232545 -0.11962626 0.006567117 -0.01948758
-0.015702335 -0.1866921 -0.18486695 0.10164295 -0.09556255 -0.027337626 0.04280432 0.20041102
0.31456065 -0.026442416 -0.120124675 0.12668777 -0.14954813 0.026768807 -0.03475371 0.00017597502
-0.05058082 -0.4731662 0.028505022 -0.012962333 0.18881865 0.056232005 0.03616329 -0.076185584
-0.08484648 -0.1092548 -0.12376614 0.07216498 -0.16722846 -0.08567705 -0.19021548 0.07127549
0.1998288 0.18089466 0.118970394 0.11038373 -0.102510735 -0.1623266 0.12984996 0.09940705
-0.07962913 -0.010086504 -0.07850632 0.004484494 -0.048504297 -0.12009048 0.1350827 -0.13051754
-0.014068644 -0.12759535 -0.07506537 0.0008680015 -0.11926197 -0.06879404 -0.00072695117 0.027108138
0.15518355 0.067158185 -0.1579271 0.010934015 0.047662027 -0.07789269 -0.09534815 -0.09351848
-0.072939515 0.20376217 0.08498583 0.13648851 0.0904794 0.09169218 0.040373836 -0.054025456
0.091263115 0.05688508 -0.2644131 -0.07020174 0.017006934 -0.052091524 -0.07465239 -0.027644152
0.14472252 -0.16526903 -0.023828635 0.1398278 0.13610607 0.027029354 -0.11435495 -0.10598835
0.02477731 0.09720436 0.20864673 0.12370611 0.027741084 -0.17600337 -0.038890094 0.032508716
-0.16736072 0.07989859 0.018918332 0.042203702 0.11835046 -0.050045457 -0.040152214 0.084498145
-0.12841813 -0.14913948 0.013168285 -0.09579026 0.2102806 0.08315707 -0.062058315 -0.07051649
-0.041853223 -0.46410853 -0.076206006 -0.086611256 0.10245751 0.03425531 -0.19403733 0.12247697
-0.0058154785 -0.10637887 0.0021719495 0.12500484 -0.051371682 0.07075765 -0.02289735 -0.11999164
00000000: d828 b5bd 4ede a03d 10e9 87bd a052 8b3d
00000010: 16c6 37be 3aa5 5b3d 5735 7c3e d4ea 6a3d
00000020: 5c0d e3bd 3f75 003e 9acc a53d 6607 513d
00000030: 51ae 66bb b689 5d3d 3606 d43d caf7 403d
00000040: 6973 c0bc 1dfa cbbd 5472 f9bd 966d 66bd
00000050: b714 943d 1892 183d 63a6 843d 9aa1 ed3d
00000060: 9e42 d13c 0ce5 573c eca8 b63d 751a 773d
00000070: 6af6 083a 0464 b23c 6c71 bebd 79bc 0f3e
00000080: ffc9 bc3d a6e1 613e 572d a63d 1747 273e
00000090: e3dc c8bd 0a3d 1bbe 2389 c6bd d92a adbd
000000a0: 251a f43d 92a8 93bd 4202 543c 0f7e 913e
000000b0: c562 7c3d 65fd 923b 734b 12be f9b7 9ebd
000000c0: ac03 77bc c1f1 9cbd 68a9 b1bd b8ec 6bbb
000000d0: c302 b8bd 9c18 343d 2b2a a23c 75a2 95bc
000000e0: 2c34 af3d eb79 943c c271 04bd 84fd c53d
000000f0: bb12 ac3d ae97 243d 4230 0a3e 403f 353d
00000100: c030 e637 27b1 fabd 590e 2bbe 0eb2 acbd
00000110: d446 86bc c6c2 493c 7972 9ebd b149 243e
00000120: ac97 2a3e aed5 ac3d 460b b73d 4fa1 5fbd
00000130: c8fd 1e3e 9139 ea3c 782b 893a 5287 2ebc
00000140: 1a56 5ebd a5f5 e7bd 2f70 94bd c368 e2bd
00000150: de3a fbbb bbc9 573c 78ad 343e 0b81 fa3d
00000160: d23b f83b 4f97 83bc bbda d9bc 7bac 163e
00000170: 6b6c 46bd 2319 cd3c 565d eabd b6f5 3a3d
00000180: 0816 173e a080 473e 3117 933d afbd e93d
00000190: ce36 18be 2f99 0fbe cf39 2abc c5af 163d
000001a0: 55ad 933c aa23 efbd a0ad 56bd 6c6f 5b3e
000001b0: e651 11bc cc63 44bd dcca e83d 1007 33be
000001c0: 685a 743d 1562 51be 0848 14bd 38c9 263e
000001d0: 14ea b63d 4c6c 0bbe 6aaa 67bd 0ef1 3a3e
000001e0: 2959 593e 89c0 e03d 5cf0 d1bc 19f7 a4bd
000001f0: db6c fcbd 9dfe f4bd f830 d73b 6ba4 9fbc
00000200: 2fa2 80bc 372c 3fbe c34d 3dbe 2e2a d03d
00000210: 4cb6 c3bd 28f3 dfbc 9553 2f3d 8c38 4d3e
00000220: 180e a13e c49d d8bc ed03 f6bd 70ba 013e
00000230: 2523 19be 424a db3c e859 0ebd ef85 3839
00000240: d52d 4fbd d742 f2be 5d83 e93c f75f 54bc
00000250: ad59 413e 8853 663d f51f 143d 3007 9cbd
00000260: fec3 adbd fbc0 dfbd 1a79 fdbd 3ccb 933d
00000270: f03d 2bbe 7377 afbd d9c7 42be e2f8 913d
00000280: ec9f 4c3e 733c 393e c0a6 f33d dd10 e23d
00000290: 26f1 d1bd f238 26be 63f7 043e ec95 cb3d
000002a0: 9914 a3bd dd41 25bc ecc7 a0bd aaf2 923b
000002b0: 71ac 46bd fff1 f5bd 1f53 0a3e 64a6 05be
000002c0: 2b80 66bc 5ba8 02be dfbb 99bd 988a 633a
000002d0: 9f3f f4bd e4e3 8cbd de90 3eba e311 de3c
000002e0: 70e8 1e3e 3b8a 893d a4b7 21be 9524 333c
000002f0: 4239 433d 3486 9fbd e445 c3bd 9e86 bfbd
00000300: 5061 95bd 08a7 503e 0d0d ae3d a5c3 0b3e
00000310: 434d b93d 1cc9 bb3d 095f 253d cc49 5dbd
00000320: 28e8 ba3d 5400 693d 2761 87be eec5 8fbd
00000330: 2052 8b3c ec5d 55bd 5ae3 98bd fd75 e2bc
00000340: 2432 143e 493c 29be 4534 c3bc 052f 0f3e
00000350: 645f 0b3e aa6c dd3c ee32 eabd 6c10 d9bd
00000360: c9f9 ca3c 1413 c73d 7da7 553e a159 fd3d
00000370: 4541 e33c 3a3a 34be 384b 1fbd dc27 053d
00000380: 9c60 2bbe dfa1 a33d 9efa 9a3c cadd 2c3d
00000390: ba61 f23d 77fc 4cbd a676 24bd 5d0d ad3d
000003a0: 0b80 03be 05b8 18be cabf 573c af2d c4bd
000003b0: cc53 573e 414e aa3d dc30 7ebd f36a 90bd
000003c0: 496e 2bbd a29f edbe e511 9cbd 3e61 b1bd
000003d0: 3ed5 d13d 4c4f 0c3d b9b1 46be 35d5 fa3d
000003e0: c58f bebb 2add d9bd 4457 0e3b 4501 003e
000003f0: 1d6b 52bd 63e9 903d 3993 bbbc 2dbe f5bd

sequential_7/conv1d_31/Conv1D f4 [128, 1, 3, 128]
-0.05423848 -0.08881229 0.072476104 -0.07509229 -0.055041738 -0.0639568 -0.031713665 -0.029456003
-0.00026645945 0.09406301 -0.092717715 -0.08145783 -0.008765338 0.056845434 -0.016010392 0.041688107
-0.019831266 0.0024525363 -0.030267745 -0.06679002 0.048806604 -0.039894484 0.03845666 0.015885718
0.026361752 -0.032849506 0.065740824 0.0004013233 -0.08296032 0.07301793 0.009297902 -0.046303447
0.008165858 -0.007379082 -0.07872182 -0.074350104 0.019759499 -0.026508316 -0.028445674 0.053891573
0.08004411 0.028284341 0.03157208 -0.059089474 -0.026938315 0.03673292 -0.014624303 -0.015990688
0.049913146 0.016708603 -0.025281847 -0.019896347 -0.0932773 -0.024983523 -0.10881583 -0.060545642
0.070026904 0.059521917 0.038354892 -0.059754968 0.046374112 0.037374232 -0.046020884 -0.07925524
0.030798467 0.0409819 -0.043503217 0.008535971 0.080708966 -0.056659304 -0.0238812 -0.08750867
-0.09736479 0.04554007 -0.01144291 -0.058031682 -0.082554735 0.042028684 0.06839466 -0.108474255
0.0049417703 0.0635778 -0.024461063 -0.065081164 0.004519121 0.06500793 -0.08174693 -0.021341583
0.052333247 0.04184366 -0.024668857 0.04910043 -0.036971208 -0.08609874 0.007174681 0.059533857
0.031196496 0.042601418 -0.024144592 -0.02279932 -0.07215503 0.05262793 -0.05355041 -0.079572804
0.07074306 -0.059617367 0.08915047 0.07166087 0.01854546 0.074733034 0.04910603 0.058184408
-0.01909497 -0.0896006 0.03703528 -0.07531973 -0.011863142 -0.05289214 0.051749013 -0.017628348
-0.05955814 0.03134133 0.022870399 0.02609201 -0.012133629 -0.065141246 0.01631981 -0.026353525
0.04939011 -0.05329833 -0.085869804 -0.07426046 -0.07364796 0.042374354 0.028978495 -0.04872404
0.06534873 0.06587921 -0.07721023 -0.001102707 0.0138754705 0.03940543 0.040449526 0.021713106
-0.08249805 0.035029497 0.07482542 0.038641132 -0.061369665 -0.068111904 -0.016250625 0.06929226
0.036409166 -0.09062991 0.06712239 0.042833336 0.031484798 0.026439592 -0.027638733 0.023961695
-0.056264725 -0.06472581 0.05989125 0.012926596 0.029379692 -0.05737801 0.074711055 -0.06629125
-0.052641835 0.031354576 0.0078265555 -0.012508135 -0.08746977 -0.047458682 0.030367201 -0.009999867
0.057243947 0.038532075 -0.01619943 0.027312402 0.01853193 -0.019751612 -0.055697024 0.052423153
0.0012479759 -0.01550611 0.027795462 -0.068265125 -0.07197114 0.062089637 -0.019328617 0.07557399
0.04101236 -0.095112614 -0.0627943 0.10265014 0.041616056 -0.036815424 0.07196995 -0.06448516
-0.076556616 -0.03837237 0.01800091 0.030955693 0.07735545 -0.058945518 -0.018922573 -0.08385229
-0.06888188 0.06321657 -0.027761694 -0.031355552 0.067843474 -0.07835701 -0.037397522 -0.09839302
-0.054971013 0.0008941914 -0.08996968 -0.10548199 0.052707445 -0.093717776 0.055237655 -0.010107251
-0.012432762 -0.0108906 -0.083330326 -0.09215341 -0.019190902 -0.091351025 0.041895922 0.04752323
0.032071482 0.037258536 0.09216094 -4.0613653e-05 -0.004926236 -0.07150558 0.064163394 -0.06428881
-0.053422384 -0.0007741621 -0.06794148 -0.015831605 -0.03724484 0.063508555 0.08592607 0.028253982
0.03327414 0.008879067 0.050984893 -0.084164694 -0.07067949 0.023744194 0.020483626 -0.043294575
00000000: 2b29 5ebd 38e3 b5bd 5a6e 943d fdc9 99bd
00000010: 7273 61bd c8fb 82bd 30e6 01bd b74d f1bc
00000020: 95b3 8bb9 1ba4 c03d c9e2 bdbd 5dd3 a6bd
00000030: 7e9c 0fbc c2d6 683d 3a28 83bc 26c1 2a3d
00000040: 2e75 a2bc bbba 203b 10f4 f7bc 35c9 88bd
00000050: 6fe9 473d 6668 23bd bb84 1d3d c422 823c
00000060: 9af4 d73c 348d 06bd 20a3 863d b468 d239
00000070: 1ae7 a9bd 6d8a 953d 3a56 183c afa8 3dbd
00000080: 17ca 053c 3acc f1bb e838 a1bd de44 98bd
00000090: acde a13c f827 d9bc e706 e9bc 69bd 5c3d
000000a0: 2bee a33d 90b4 e73c ba51 013d ce07 72bd
000000b0: bead dcbc 4275 163d c69a 6fbc e7fe 82bc
000000c0: ba71 4c3d 7be0 883c e01b cfbc aafd a2bc
000000d0: 2b08 bfbd 3faa ccbc d5da debd b5fe 77bd
000000e0: 446a 8f3d 41cd 733d 051a 1d3d a0c1 74bd
000000f0: c8f2 3d3d b915 193d 6580 3cbd 9250 a2bd
00000100: 114d fc3c a3dc 273d 6e30 32bd 75da 0b3c
00000110: be4a a53d 9613 68bd 82a2 c3bc bf37 b3bd
00000120: 3167 c7bd 3988 3a3d 0b7b 3bbc a1b2 6dbd
00000130: 7512 a9bd 4526 2c3d 8012 8c3d c027 debd
00000140: 93ee a13b 1435 823d 9162 c8bc 4649 85bd
00000150: 2215 943b e122 853d ef6a a7bd 8bd4 aebc
00000160: 635b 563d 4264 2b3d 5816 cabc 881d 493d
00000170: 1f6f 17bd 8954 b0bd 9619 eb3b c6d9 733d
00000180: cb8f ff3c d37e 2e3d e1ca c5bc a4c5 babc
00000190: 04c6 93bd 6290 573d ad57 5bbd 11f7 a2bd
000001a0: bde1 903d 5731 74bd 8694 b63d efc2 923d
000001b0: a6ec 973c a20d 993d 6823 493d c652 6e3d
000001c0: 0e6d 9cbc 8580 b7bd 4eb2 173d 3b41 9abd
000001d0: a05d 42bc 6ea5 58bd c6f6 533d 5369 90bc
000001e0: 3cf3 73bd c45f 003d b45a bb3c e9be d53c
000001f0: 21cc 46bc c668 85bd 1fb1 853c 59e3 d7bc
00000200: 494d 4a3d 5a4f 5abd 82dc afbd de15 98bd
00000210: bed4 96bd bb90 2d3d 4f64 ed3c dc92 47bd
00000220: 8ed5 853d aeeb 863d 6620 9ebd b588 90ba
00000230: f155 633c 9767 213d 67ae 253d afdf b13c
00000240: bdf4 a8bd 177b 0f3d 123e 993d 2a46 1e3d
00000250: c25e 7bbd 417e 8bbd 0820 85bc 1ae9 8d3d
00000260: c721 153d 2d9c b9bd 7777 893d 0272 2f3d
00000270: 34f6 003d d897 d83c a06a e2bc 514b c43c
00000280: d775 66bd f78e 84bd 8750 753d 13ca 533c
00000290: aead f03c 3405 6bbd 1c02 993d b5c3 87bd
000002a0: f79e 57bd a86d 003d f43a 003c ecee 4cbc
000002b0: 5a23 b3bd 0964 42bd a3c4 f83c 7bd6 23bc
000002c0: a178 6a3d cfd3 1d3d abb4 84bc 42be df3c
000002d0: 46d0 973c 22ce a1bc 9022 64bd a9b9 563d
000002e0: 1f93 a33a 570d 7ebc 4fb3 e33c 96ce 8bbd
000002f0: 9b65 93bd b451 7e3d 0c57 9ebc 89c6 9a3d
00000300: 94fc 273d 67ca c2bd 4c9a 80bd 3d3a d23d
00000310: 9975 2a3d c5cb 16bd fb64 933d cc10 84bd
00000320: b7c9 9cbd 592c 1dbd a576 933c cb96 fd3c
00000330: 896c 9e3d db70 71bd 8303 9bbc c0ba abbd
00000340: f111 8dbd b077 813d 7e6c e3bc ae6e 00bd
00000350: 85f1 8a3d a479 a0bd 252e 19bd 4882 c9bd
00000360: 4929 61bd 2b68 6a3a 0642 b8bd f106 d8bd
00000370: c3e3 573d 1bef bfbd e140 623d e298 25bc
00000380: c9b2 4bbc 7d6e 32bc 17a9 aabd edba bcbd
00000390: 3d36 9dbc 3f16 bbbd 0f9b 2b3d b8a7 423d
000003a0: 635d 033d 689c 183d e0be bc3d 9458 2ab8
000003b0: 436c a1bb 8471 92bd 1968 833d daa9 83bd
000003c0: 6ed1 5abd 24f1 4aba e724 8bbd 48b1 81bc
000003d0: 0c8e 18bd c610 823d 02fa af3d e574 e73c
000003e0: 774a 083d 8279 113c 89d5 503d 8a5e acbd
000003f0: 69c0 90bd 2f83 c23c 47cd a73c a755 31bd

sequential_7/batch_normalization_12/batchnorm/sub f4 [128]
-1.3105668e-05 0.0013010418 -0.7764201 -0.0006839961 -0.6782633 -0.25467497 0.005062521 -0.0009523159
-0.3656613 -2.4205601 0.0020599307 -4.3633747e-08 -1.072993 -3.3604063e-06 -0.97847754 -1.0641294
-1.8509247 -0.0046261344 0.0001649105 -2.4919503 0.001357359 -0.49650222 1.4255738e-05 -5.734326e-05
-3.3323176 0.0002693137 -1.2424057 1.0630408e-06 -2.264298 -0.44200546 -0.103041604 -0.5190054
0.024954394 0.00018851894 0.002617551 -1.6385789 0.0700004 0.0033753535 2.7321948e-07 0.0016218377
-0.8896502 -0.008210301 -1.1303799 -1.5778121 -0.51832473 -2.2746804 -1.7238413 -1.8901291
0.002422619 0.0010575006 -1.5247688 0.0002159177 -0.09809381 -2.478466 -1.7807773 0.0018092528
-1.0496333 -0.010699555 -1.6546412 -3.9733582 -0.8792054 0.0016209561 -3.0310583 -2.7195858e-07
-1.595752 -0.00075628416 -1.3332522 -1.1364042 -0.88204396 -2.6367288 -2.6147587 -1.820502
-0.0104983 -0.9883949 -0.13098556 -2.886778 -1.2345365 -0.9554867 -0.699051 0.039212193
-0.23291966 -1.9604297 -0.2441648 -0.39338982 0.001285996 -0.37459216 0.012800928 -1.2272769
-0.0047274455 -0.0637517 -0.5901262 -0.48402014 -0.08442213 0.06439592 -1.575397 -0.0001788175
6.500035e-05 4.248471e-05 -0.28853217 5.589882e-08 -0.00024884348 -0.18265389 -1.0319741 -0.8714245
0.01099322 -0.00043669486 0.0034084225 0.025138702 -3.8659198 -1.4342164 -0.44825798 -1.6433668
-2.1658106 -1.3716781 0.018413618 -0.4268813 -1.5005269 -0.05528763 0.00037869526 -0.84562457
-1.1220038e-06 0.00013441277 -0.00019122614 -1.114625e-06 0.00033639977 -0.06376403 0.0052696066 -3.1460886
00000000: 6ae0 5bb7 b887 aa3a 78c3 46bf 344e 33ba
00000010: aaa2 2dbf c264 82be 81e3 a53b d7a4 79ba
00000020: f537 bbbe 75ea 1ac0 e7ff 063b d067 3bb3
00000030: d657 89bf 5783 61b6 817d 7abf 6435 88bf
00000040: 1aeb ecbf d496 97bb d3eb 2c39 1d7c 1fc0
00000050: 69e9 b13a 8a35 febe ee2b 6f37 db83 70b8
00000060: b144 55c0 ac32 8d39 2607 9fbf cead 8e35
00000070: 42ea 10c0 8a4e e2be 7a07 d3bd 8add 04bf
00000080: 286d cc3c 2bad 4539 388b 2b3b f4bc d1bf
00000090: 5f5c 8f3d 0935 5d3b 00af 9234 d893 d43a
000000a0: 1ec0 63bf 8084 06bc 4ab0 90bf bff5 c9bf
000000b0: eeb0 04bf 5d94 11c0 d5a6 dcbf c0ef f1bf
000000c0: cdc4 1e3b d59b 8a3a a02b c3bf f767 6239
000000d0: 68e5 c8bd 309f 1ec0 83f0 e3bf 7324 ed3a
000000e0: 625a 86bf 304d 2fbc 48cb d3bf 804b 7ec0
000000f0: 9b13 61bf 4376 d43a dcfc 41c0 b401 92b4
00000100: 9a41 ccbf 5f41 46ba 02a8 aabf b175 91bf
00000110: a2cd 61bf 2ac0 28c0 3558 27c0 3606 e9bf
00000120: 1001 2cbc 7307 7dbf 1421 06be f9c0 38c0
00000130: 4b05 9ebf c79a 74bf 02f5 32bf f79c 203d
00000140: 7e82 6ebe 5cef fabf 5606 7abe 646a c9be
00000150: de8e a83a 8bca bfbe fcba 513c 6917 9dbf
00000160: b0e8 9abb 4090 82bd 8312 17bf 7dd1 f7be
00000170: 82e5 acbd 02e2 833d 9ca6 c9bf f580 3bb9
00000180: cc50 8838 9c31 3238 7dba 93be 6715 7033
00000190: 3577 82b9 9f09 3bbe ba17 84bf ad15 5fbf
000001a0: e81c 343c 31f4 e4b9 d75f 5f3b aeef cd3c
000001b0: 3b6b 77c0 6794 b7bf 1282 e5be d859 d2bf
000001c0: a49c 0ac0 2693 afbf 28d8 963c 3090 dabe
000001d0: 4411 c0bf 4875 62bd 9e8b c639 da7a 58bf
000001e0: c297 96b5 27f1 0c39 e083 48b9 399a 95b5
000001f0: d05e b039 b796 82bd aaac ac3b 8459 49c0

sequential_7/batch_normalization_12/batchnorm/mul f4 [128]
31.514536 30.830273 0.0017147553 31.546421 0.005719075 0.010426133 31.331627 31.473555
0.0034817606 0.0064125406 31.313932 31.260715 0.0053870617 32.614662 0.0069108773 0.004359767
0.004045049 30.924845 31.891191 0.0051230737 31.781572 0.001754918 23.899796 31.879107
0.004933414 32.155067 0.00986952 25.248947 0.0052035293 0.0018271303 0.0067425473 0.0020591842
0.050766617 31.631397 29.733124 0.0030505464 0.02544377 31.353624 -1.882982e-07 31.422533
0.0036692612 4.037885 0.004811052 0.0038967808 0.001497682 0.00650719 0.0052246433 0.0062159253
25.880215 33.02274 0.006022295 32.927864 0.0004699986 0.0074895904 0.0034763638 31.788063
0.0029588512 0.012450134 0.006150411 0.006746915 0.0035728572 30.842064 0.0048979195 30.168135
0.006184603 31.365595 0.004394615 0.0027193115 0.0019570298 0.004491692 0.004943221 0.0054929387
0.032221 0.0027508726 0.007070826 0.0033629215 0.0073729595 0.021064907 0.0017356729 32.743595
0.01615721 0.007499928 0.013097156 0.0013067838 31.856148 0.0010592989 33.914406 0.004755884
0.1863531 0.0071386215 0.0038247316 0.0011135334 0.0033817184 0.030607427 0.005148675 31.418715
31.01755 31.873116 0.0012516229 31.38538 31.383839 0.0012190627 0.0026100269 0.0028788052
0.021724217 29.248037 31.301567 0.3222179 0.0044849417 0.005852456 0.0073137796 0.0029310551
0.0026257767 0.003415571 6.00609 0.0012217691 0.00459013 0.0060198116 31.424726 0.002364527
31.224731 30.027721 29.581306 30.863157 31.242966 0.055303086 31.403368 0.0043832255
00000000: c51d fc41 66a4 f641 a4c1 e03a 125f fc41
00000010: 1467 bb3b 5fd2 2a3c 2ca7 fa41 d7c9 fb41
00000020: 402e 643b 4a20 d23b ef82 fa41 f215 fa41
00000030: f385 b03b 6a75 0242 a474 e23b 60dc 8e3b
00000040: 558c 843b 1566 f741 2921 ff41 75df a73b
00000050: a940 fe41 4705 e63a c832 bf41 6908 ff41
00000060: 7aa8 a13b ca9e 0042 c4b3 213c d8fd c941
00000070: 5e82 aa3b 527c ef3a 96f0 dc3b 61f3 063b
00000080: a8f0 4f3d 1a0d fd41 70dd ed41 adeb 473b
00000090: 746f d03c 39d4 fa41 042f 4ab4 5961 fb41
000000a0: fd77 703b 5b36 8140 07a6 9d3b 2261 7f3b
000000b0: de4d c43a 443a d53b 7c33 ab3b f6ae cb3b
000000c0: ae0a cf41 4917 0442 ac56 c53b 22b6 0342
000000d0: 256a f639 3d6b f53b b5d3 633b f44d fe41
000000e0: 49e9 413b a6fb 4b3c 6389 c93b 3a15 dd3b
000000f0: 9926 6a3b 8cbc f641 ba7e a03b 5758 f141
00000100: 36a8 ca3b bdec fa41 b400 903b 7a36 323b
00000110: 8341 003b 0b2f 933b befa a13b 1cfe b33b
00000120: 2bfa 033d fc47 343b 63b2 e73b 7664 5c3b
00000130: de98 f13b 5090 ac3c 857f e33a 71f9 0242
00000140: 205c 843c f5c1 f53b 7495 563c 6348 ab3a
00000150: 64d9 fe41 2cd8 8a3a 5aa8 0742 3fd7 9b3b
00000160: 59d3 3e3e 19eb e93b 59a8 7a3b fbf3 913a
00000170: d29f 5d3b 6dbc fa3c 37b6 a83b 8759 fb41
00000180: f123 f841 24fc fe41 7f0d a43a 4215 fb41
00000190: 1a12 fb41 f5c8 9f3a fc0c 2b3b 56aa 3c3b
000001a0: fcf6 b13c fbfb e941 9c69 fa41 bff9 a43e
000001b0: 6bf6 923b f6c5 bf3b 6ea8 ef3b f216 403b
000001c0: 3915 2c3b c6d7 5f3b e431 c040 c523 a03a
000001d0: cd68 963b d741 c53b d765 fb41 2ef6 1a3b
000001e0: 40cc f941 c638 f041 84a6 ec41 bfe7 f641
000001f0: 98f1 f941 7d85 623d 193a fb41 29a1 8f3b

sequential_7/dense_23/BiasAdd/ReadVariableOp f4 [12]
-0.081644535 -0.01588866 -0.027831327 0.11946187 0.0714904 -0.2459106 -0.08698267 -0.046059802
0.00790665 -0.0033110143 0.10188037 0.06952523
00000000: 4035 a7bd ef28 82bc 86fe e3bc 6da8 f43d
00000010: 8f69 923d fdcf 7bbe f823 b2bd 34a9 3cbd
00000020: e58a 013c 9afd 58bb a8a6 d03d 3e63 8e3d

sequential_7/dense_22/BiasAdd/ReadVariableOp f4 [32]
0.10654097 0.045848228 0.057930518 0.25377795 0.1677303 0.07572774 0.13081191 0.07336887
0.13780048 -0.157629 0.061953954 0.27600473 0.11306446 0.39085215 -0.09741229 0.236157
0.3244571 -0.10788798 0.19679742 0.16048354 0.36703423 0.2606084 0.08004928 0.14147061
-0.083250254 0.008951069 0.0885175 0.05647081 0.34571558 0.12687641 -0.003343472 0.17221445
00000000: 2732 da3d 5acb 3b3d 8d48 6d3d 2fef 813e
00000010: 7ec1 2b3e 2517 9b3d 8ff3 053e 6b42 963d
00000020: 921b 0d3e 7f69 21be 6ec3 7d3d 7e50 8d3e
00000030: 578e e73d c61d c83e 1880 c7bd 24d3 713e
00000040: 3e1f a63e 60f4 dcbd 4385 493e cc55 243e
00000050: e9eb bb3e 776e 853e e0f0 a33d acdd 103e
00000060: 1c7f aabd 81a7 123c aa48 b53d f04d 673d
00000070: a201 b13e e4eb 013e 271e 5bbb fc58 303e
