frontend/pdiot_app/assets/models/model_online_4CNN_3dense_77.tflite (tflite, 829564 bytes, 14 tensors)

sequential_11/conv1d_28/BiasAdd/ReadVariableOp f4 [64]
000000 be 7d d6 bd e1 5b 13 be e4 94 10 be 24 32 7e be
       -0.10473202 -0.14390518 -0.14119297 -0.24823815
000010 2b cf 4b 3e 8b d6 2f be 04 f4 ec be a7 99 89 be
       0.19903247 -0.17171685 -0.4627992 -0.2687504
000020 22 8c 9b bd ba 02 50 be fc 88 08 be 99 65 b0 bd
       -0.075950876 -0.2031354 -0.13333505 -0.08613128
000030 ef f5 35 be fc 18 c0 be 43 aa 13 be e2 8d 0c be
       -0.17769597 -0.37519062 -0.14420418 -0.13725999
000040 79 94 e2 be db 59 5f be 85 38 04 bf 16 33 d2 be
       -0.442539 -0.21811621 -0.5164874 -0.410546
000050 42 ca 2b be 0a 57 87 be e3 df c8 be 42 70 6d 3e
       -0.16776374 -0.26433593 -0.39233312 0.23187354
000060 bc d8 36 be 43 06 8a be f5 89 c9 be e0 20 39 be
       -0.17856115 -0.26957902 -0.39363065 -0.18078947
000070 4d 55 ac bd 9e 68 1d bf 16 84 d7 bd e9 0a ab be
       -0.08414707 -0.6148776 -0.1052324 -0.3340676
000080 41 ff 80 be 7a 05 3b be d3 f8 51 be 1b b5 65 bd
       -0.25194743 -0.18263808 -0.20505075 -0.05608092
000090 aa 8c 14 be 57 38 8f be 6b dc 9c be bb 79 8d bd
       -0.14506784 -0.2797267 -0.30636916 -0.06907984
0000a0 54 5a 03 bf 64 f7 45 be 65 d1 f7 bd 12 24 55 be
       -0.51309705 -0.19332653 -0.12100486 -0.20814541
0000b0 8a ab 33 bf e4 dd 3f be c0 18 f6 be c4 1c 8c be
       -0.7018362 -0.18736988 -0.48065758 -0.27365696
0000c0 c0 85 95 bd e2 24 53 be c7 aa a8 be f3 ad 5e bd
       -0.073009014 -0.20619538 -0.32942793 -0.05436511
0000d0 96 39 33 be 76 a0 81 be 05 37 dc be e1 7a 0f be
       -0.17502436 -0.25317734 -0.43010727 -0.14011718
0000e0 42 57 65 be 5a 53 38 bf dd 67 5e be 91 3d 8c be
       -0.22396567 -0.72002184 -0.21719308 -0.2739072
0000f0 71 cb 77 be fb 15 6f be fc c0 c1 be 19 09 18 be
       -0.241987 -0.23348229 -0.37842548 -0.1484722

sequential_11/conv1d_29/BiasAdd/ReadVariableOp f4 [64]
000000 a0 f1 b4 3d e0 3b 30 b7 a5 12 f3 b7 0f f1 a5 bc
       0.08835149 -1.0504358e-05 -2.897654e-05 -0.020256547
000010 a6 01 26 3d 09 aa 28 be d3 20 0c bd fb 6c 34 b8
       0.040528916 -0.16471113 -0.03421099 -4.301684e-05
000020 7e ab 03 bc eb c3 ed bc 08 db 04 b4 99 1f cd bc
       -0.008036492 -0.029024085 -1.2373141e-07 -0.025039481
000030 e1 1e ce bc cb bf 0e bd e8 43 af ba 2e 17 42 bd
       -0.025161209 -0.034850877 -0.0013371678 -0.047385387
000040 db c3 bc 3d ac b1 9f bc ef 0a 1d bb dd 44 c8 bc
       0.09217044 -0.0194939 -0.0023962816 -0.0244469
000050 1f 78 8c 3e cb ce b2 3d 10 27 e0 bc 5d b1 e7 bc
       0.27435395 0.08730849 -0.027362376 -0.028282816
000060 3e b2 db bc e4 c8 16 bc 5f 2a cb bc 52 d6 8b bb
       -0.026818391 -0.0092031695 -0.024800478 -0.0042674923
000070 bf e0 4a 3d 08 09 d9 bd a8 3a 49 bc 04 8c 3d be
       0.04953074 -0.10597426 -0.012282051 -0.18510443
000080 a4 d7 f3 3c 4a d7 2f b4 ca 98 8b bc 27 e4 99 bb
       0.029765911 -1.6376467e-07 -0.017040629 -0.0046963873
000090 40 e9 82 bb ab 0f 85 bc cb 54 83 b9 00 0e e3 ba
       -0.0039950907 -0.016242823 -0.00025049443 -0.0017322898
0000a0 5c 84 48 bc 33 19 df be f6 92 90 be e7 7b 48 bd
       -0.012238588 -0.43573913 -0.28237122 -0.048946287
0000b0 42 f4 e3 bc 86 37 9d bb 52 ac 30 bb 09 d6 3f bb
       -0.027826432 -0.0047978787 -0.002695818 -0.0029271862
0000c0 ad 31 8e bd 4d 3a a2 be 06 21 07 b8 bf 28 61 bc
       -0.06943069 -0.31685105 -3.2217264e-05 -0.013742625
0000d0 69 71 c6 b8 14 3c 89 b9 a1 57 d6 bd 33 6a 5c bc
       -9.4625e-05 -0.00026175438 -0.10465933 -0.013453054
0000e0 56 1b 56 3e 33 bf 79 bb c0 41 50 bd 7e ff cc bb
       0.20908865 -0.0038108348 -0.050843954 -0.006256043
0000f0 67 f3 b5 bb 4e 1d 70 3e f3 70 1d bb 1e 4b dc bc
       -0.0055526975 0.23448679 -0.0024023622 -0.026891287

sequential_11/conv1d_30/BiasAdd/ReadVariableOp f4 [64]
000000 8b 3e 4e bd bd e8 a9 bb 51 cf 6d 3d 17 dd 8e bc
       -0.050352614 -0.0051852153 0.05805904 -0.017439408
000010 3a 3d c1 b9 00 4d 8e bc 2a 26 c7 b8 ec ea ed bc
       -0.00036857446 -0.0173707 -9.496168e-05 -0.029042684
000020 43 d7 5a bc b9 d9 c3 bc 82 55 9a 3d 31 17 b3 ba
       -0.013356986 -0.02390753 0.075358406 -0.0013663528
000030 a6 a4 87 bc b5 c3 f1 bb 38 c0 3f bc 75 35 0f bd
       -0.016558003 -0.0073780664 -0.011703543 -0.03496309
000040 8c fb 10 bc a5 de 60 3d ad 0c a0 bb bc 2a 52 ba
       -0.008849036 0.05489983 -0.0048843236 -0.0008017232
000050 6e 0d 18 3d 01 99 4a 3c 30 64 1c bc e8 cb b7 bc
       0.037122183 0.012365581 -0.009545371 -0.022436097
000060 fe bb 78 bc 4d 65 c8 3c f3 db 5c ba 06 24 6e bc
       -0.01518154 0.024462366 -0.0008425109 -0.014534956
000070 fe 60 8a bd 48 d3 3c ba ab db df bb 31 6e 0d b9
       -0.06756781 -0.0007203114 -0.0068316064 -0.00013487857
000080 49 c4 2b bb d3 95 37 bc 1c 0b 9f bc 00 90 24 bb
       -0.0026209524 -0.0112051545 -0.019414477 -0.0025110245
000090 8f f6 e4 bc 86 4a e7 bb 25 8e 81 bc 8d ac c1 bc
       -0.0279496 -0.0070584444 -0.01581485 -0.023641849
0000a0 9f 01 7b ba b0 c0 e2 bc 9c 75 43 b7 f9 2c 04 3e
       -0.00095751317 -0.027679771 -1.1650289e-05 0.1290778
0000b0 22 66 22 b8 32 67 89 b8 77 77 8c bb 36 f5 0f b5
       -3.871893e-05 -6.551891e-05 -0.0042867023 -5.362848e-07
0000c0 ea 9d d4 ba 7f 1b 0a bb 18 aa a3 bc a2 98 02 b8
       -0.0016221378 -0.0021073518 -0.019978568 -3.1136566e-05
0000d0 2f 17 2c bd 09 09 74 bb 41 b6 f2 bc 40 48 c0 bc
       -0.042014297 -0.003723683 -0.029627921 -0.023471951
0000e0 6c 74 5e bc a0 41 54 bb 0e bc 5e bb 81 c2 79 bd
       -0.013577562 -0.0032387748 -0.00339866 -0.06097651
0000f0 b6 9c b2 3d e0 26 c8 b8 21 33 ce bc b6 96 f2 3c
       0.087212965 -9.543984e-05 -0.025170865 0.02961288

sequential_11/conv1d_31/BiasAdd/ReadVariableOp f4 [64]
000000 04 51 e7 3d 83 3c 09 3d ee 98 42 bd 96 ae 8b 3d
       0.112947494 0.033504974 -0.047509126 0.06820409
000010 fd ef e8 3c ac 12 33 bb 54 b1 0f bd b6 13 47 3d
       0.028434748 -0.0027324362 -0.035081223 0.048602782
000020 94 39 03 bd 87 1e 91 ba 6d c0 dc b9 eb 2c 48 bb
       -0.032037333 -0.001107172 -0.00042105038 -0.0030544351
000030 d0 30 7b bd f3 bd fb bc d8 c1 39 bc 76 fb 9d bc
       -0.061325848 -0.030730223 -0.01133772 -0.019284945
000040 b5 03 6a 3d 6b d1 30 bc 84 2e ba 3c 57 fe 48 bc
       0.05713244 -0.010792117 0.022727259 -0.012267671
000050 79 99 94 bb 96 2a 9e bc 7d b7 3a 3d 72 a7 26 bd
       -0.004534897 -0.019307416 0.045585144 -0.040687032
000060 a4 21 0c 3d e2 05 99 3d 7b 97 6a 3d a2 61 76 bc
       0.03421177 0.07471825 0.05727337 -0.015037926
000070 d8 e5 e5 bb 75 bc 24 bc e2 af 64 bd 31 9d 6f ba
       -0.007015925 -0.010054697 -0.055831797 -0.000914055
000080 69 e8 1a 3c 35 8e e4 bc 2e bb 52 bb 69 77 85 3d
       0.009454825 -0.02789984 -0.0032155025 0.06516916
000090 98 20 eb bb 0c 8d b6 bc 33 e9 53 3d 81 00 e5 bc
       -0.0071755163 -0.022284053 0.051736068 -0.027954342
0000a0 3c 7f 81 3c af 87 fa ba 15 20 46 bc 33 57 cc ba
       0.01580774 -0.0019113923 -0.01209261 -0.0015589952
0000b0 ca c6 b0 bc 76 c0 99 bc 7e 7c 53 b9 34 cc 3e ba
       -0.021579165 -0.01876853 -0.00020168905 -0.00072783534
0000c0 de ed be bb 99 55 41 bd 15 74 8a ba 79 4b d1 bc
       -0.005826696 -0.047200773 -0.001056316 -0.025548683
0000d0 a2 11 f3 bb 34 37 87 bc ee 37 02 bd 09 f0 b9 3d
       -0.0074178735 -0.016505815 -0.03179162 0.09078986
0000e0 84 9f c6 ba b9 6c b1 bc bf 6f 6e bd d5 9a 27 3d
       -0.001515374 -0.021658288 -0.058212038 0.040919144
0000f0 4e fe cd 3d f2 08 36 bd 46 1c f1 bb c6 22 9d bc
       0.100582704 -0.044442125 -0.007358107 -0.01918162

sequential_11/conv1d_28/Conv1D f4 [64, 1, 5, 6]
000000 5f 78 91 bc 86 b0 8d 3d 72 27 64 bc 95 85 d9 bb
       -0.017757593 0.06918435 -0.01392542 -0.0066382387
000010 c7 e0 f8 3c ca 72 78 bd 50 86 07 bd a7 12 7f 3d
       0.03038062 -0.060656346 -0.033087075 0.062273648
000020 f1 6b 25 bc aa bf 68 3c ef e3 8e bd 59 de 3c 3e
       -0.010096536 0.0142058525 -0.06977069 0.18444194
000030 e4 55 a7 bc a5 f1 8a 3d 9a 08 d8 ba b1 e6 13 bd
       -0.020426698 0.06784371 -0.0016482056 -0.036108676
000040 d6 47 8a 3d e1 ab 7f be 65 c6 29 bd 94 fb 5f 3d
       0.06751983 -0.2496791 -0.04144897 0.054683283
000050 a0 4f d2 3b 33 e0 38 3d 75 3a 7f bd ab 36 7f 3e
       0.0064181834 0.045135688 -0.06231161 0.24923198
000060 28 9d 03 bd 06 e0 70 3d 5b 22 f1 3a 01 8b c6 bb
       -0.032132298 0.058807395 0.001839708 -0.006059051
000070 30 8c 2e 3d 1b 16 15 be 0c aa 5c 03 8c 89 bb 02
       0.042614162 -0.14559214 6.4847394e-37 2.7556128e-37
000080 c5 35 a1 03 a6 a3 29 03 70 ed 90 83 1a 8b 71 02
       9.475074e-37 4.9852496e-37 -8.518072e-37 1.7745804e-37
000090 9e 6c 86 82 5f b4 36 03 c0 77 7c 03 e4 96 28 83
       -1.9751874e-37 5.369205e-37 7.419361e-37 -4.9543977e-37
0000a0 21 1a 21 83 e6 52 31 03 ac 91 40 03 d5 91 a3 02
       -4.734364e-37 5.211079e-37 5.659095e-37 2.40344e-37
0000b0 7c bd 60 03 d6 63 1c 03 65 7c a2 83 0b d1 94 03
       6.60452e-37 4.5958886e-37 -9.550064e-37 8.746652e-37
0000c0 1c 97 17 03 7d ba 85 02 50 a3 6a 03 92 56 1d 83
       4.4548377e-37 1.9649633e-37 6.8953893e-37 -4.623753e-37
0000d0 3a f9 2a 83 ab 8b 57 83 88 f9 0a 83 13 dc 84 01
       -5.024461e-37 -6.3343152e-37 -4.0841003e-37 4.8804933e-38
0000e0 04 35 57 03 b6 38 5b 83 8d 03 00 03 7a c9 1e 83
       6.324368e-37 -6.4423417e-37 3.7619895e-37 -4.666331e-37
0000f0 55 01 c8 bd 51 c5 81 3d eb 4c 9d bd a6 87 64 ba
       -0.09765879 0.06336463 -0.076806866 -0.0008717723
000100 32 29 e5 bc 57 73 f5 3c 79 21 c8 bd ca 71 80 3d
       -0.027973745 0.029962225 -0.097720094 0.062717035
000110 b6 d2 9c bd 73 b2 85 bb 72 42 9f bb f1 77 4e 3c
       -0.076573774 -0.0040801107 -0.004860216 0.012601838
000120 9c 6f cb bd 44 28 81 3d 85 57 9d bd 71 d8 e3 3a
       -0.09933397 0.06306508 -0.07682709 0.001738323
000130 c7 4b 1c bc 9e a4 28 bc 1a 76 cb bd 43 82 80 3d
       -0.009539551 -0.010293154 -0.099346355 0.062748455
000140 ad 2d 9f bd c4 6b 03 bc cc 24 09 bb 69 fb d5 3b
       -0.07772384 -0.008021299 -0.0020926474 0.0065302146
000150 82 c9 c7 bd cc b7 7f 3d eb be a2 bd 22 f8 e9 bc
       -0.097552314 0.06243114 -0.07946571 -0.028560702
000160 ac a8 28 bc 95 da 09 3d b2 22 ca 81 24 f8 4f 03
       -0.010294121 0.03365572 -7.4252866e-38 6.1116684e-37
000170 ae 11 6d 03 8c bb 06 83 7b b3 70 03 2c 1b c7 02
       6.9668336e-37 -3.9594354e-37 7.0735695e-37 2.9256018e-37
000180 7c 42 7c 81 2a a8 3f 03 34 b9 94 83 00 e4 48 03
       -4.633279e-38 5.63229e-37 -8.741179e-37 5.903645e-37
000190 3b 87 51 83 7b 68 0a 02 b8 2f 83 02 1a 4c 50 03
       -6.1574817e-37 1.0168623e-37 1.927611e-37 6.1213067e-37
0001a0 33 cb 5b 83 2c 31 dc 82 fa bf 2f 83 da aa a1 02
       -6.4591577e-37 -3.2354318e-37 -5.1648256e-37 2.3754888e-37
0001b0 82 e9 86 03 b3 ac 55 03 57 41 37 03 06 29 23 83
       7.929423e-37 6.2793323e-37 5.3853873e-37 -4.7948487e-37
0001c0 4f 5a 05 03 58 bf a7 82 04 7a bf 03 55 2d 57 03
       3.9188856e-37 -2.464827e-37 1.12539845e-36 6.323486e-37
0001d0 dd f4 3c 03 9f dc 2f 83 92 2a 20 83 a0 84 1f 03
       5.5529324e-37 -5.168114e-37 -4.7068642e-37 4.6878146e-37
0001e0 42 31 6c 3e 82 05 e3 3d 93 51 b8 bc 65 55 24 3c
       0.23065665 0.11085035 -0.022499835 0.010030125
0001f0 b0 dd 0e bc 19 db 96 3c ec b8 6b 3e 1f 8a e4 3d
       -0.008719847 0.01841502 0.23019761 0.11159157
000200 09 d0 1a bd d3 c6 38 3b 67 0d 1e bc c8 3f c9 3c
       -0.037796054 0.002819468 -0.00964675 0.024566546
000210 19 33 69 3e f9 b4 e2 3d 56 c4 de bc f5 5a b3 bb
       0.22773398 0.11069674 -0.02719323 -0.0054734894
000220 4d 0f 03 bb 75 3b 8b 3c d6 e2 69 3e 94 05 e1 3d
       -0.0019998134 0.016996125 0.22840437 0.10987392
000230 63 ee aa bc 2d f1 52 bc 16 56 59 3a de e9 fb 3b
       -0.020865625 -0.012874884 0.0008290721 0.0076877913
000240 fd 06 6a 3e 35 62 e2 3d dd f8 00 bd 80 b8 26 b9
       0.22854228 0.11053888 -0.031487335 -0.00015899725
000250 ea 31 5b bb 72 a0 a0 3c 45 29 20 83 86 92 dc 02
       -0.00334465 0.019607756 -4.706715e-37 3.2410195e-37
000260 74 47 e0 02 73 50 3f 03 53 e1 48 83 7f 5f 81 82
       3.2954854e-37 5.6222206e-37 -5.9033377e-37 -1.9009658e-37
000270 a4 d8 10 83 92 b2 ad 02 54 72 e3 02 2a 64 28 83
       -4.256649e-37 2.552256e-37 3.3420273e-37 -4.9485745e-37
000280 de aa 27 03 8c fe 92 02 08 8c 1e 83 11 93 89 02
       4.9273035e-37 2.1598875e-37 -4.6592775e-37 2.0214753e-37
000290 0e fe 2e 03 04 88 0d 83 4a a5 60 03 8a ff 53 82
       5.1425645e-37 -4.1592314e-37 6.6017426e-37 -1.5575168e-37
0002a0 7f b6 11 83 a4 6c b5 02 b4 fc 83 03 5a 0c 22 03
       -4.2821165e-37 2.6657916e-37 7.757506e-37 4.76217e-37
0002b0 62 5f 10 83 62 5b f8 81 46 dc 18 83 cd c2 19 03
       -4.242729e-37 -9.123194e-38 -4.4921647e-37 4.518628e-37
0002c0 9c f9 52 03 bd f7 0c 03 64 2c 2f 83 6a b8 e6 00
       6.199999e-37 4.142669e-37 -5.1478836e-37 2.118832e-38
0002d0 15 15 3b 8d be 2d 96 0d 25 b8 3c 8d e9 6e ff b8
       -5.76492e-31 9.255476e-31 -5.815363e-31 -0.00012180006
0002e0 fd 41 28 b9 f1 da 84 b4 2c cd 0e 0d a9 55 9b 0d
       -0.00016046311 -2.4746217e-07 4.4004095e-31 9.573234e-31
0002f0 4d b7 80 0d 96 75 22 38 95 9b 61 39 72 26 37 33
       7.932737e-31 3.873332e-05 0.00021515631 4.2642974e-08
000300 4d 44 95 0d 98 4d ef 0d 16 21 a7 0d 48 2a 13 38
       9.199277e-31 1.4748192e-30 1.0300135e-30 3.508691e-05
000310 c2 e5 62 b8 dd 1f 5e 35 a4 e4 c2 8c 5e 2b c4 0d
       -5.4096578e-05 8.274781e-07 -3.002804e-31 1.2089873e-30
000320 0e 2e db 8d 74 2b 8c 37 35 33 a4 39 5a 4f ce 34
       -1.3508004e-30 1.6709535e-05 0.0003131867 3.8428226e-07
000330 d4 d7 3a 8b fc 6c b8 0c e0 e2 ca 8d c2 0e 02 b7
       -3.5984668e-32 2.8415281e-31 -1.2503829e-30 -7.75204e-06
000340 0d c7 36 39 5d 4d b0 33 ef 5d 5e 83 83 1c 20 83
       0.00017431025 8.209711e-08 -6.5347767e-37 -4.7052504e-37
000350 53 1b 8f 83 fa 01 4a 83 7d 39 45 83 d0 73 2e 83
       -8.411058e-37 -5.9364734e-37 -5.795909e-37 -5.126695e-37
000360 cd a8 55 83 46 62 0b 83 d2 34 b0 82 de 5a 2c 83
       -6.278885e-37 -4.096124e-37 -2.5891193e-37 -5.0650568e-37
000370 19 69 4e 03 98 18 5c 02 96 a9 49 83 ab bb 3c 83
       6.0658605e-37 1.6170105e-37 -5.9263266e-37 -5.5463667e-37
000380 10 93 d8 02 82 a7 66 83 70 2e 15 03 72 de 76 82
       3.1822757e-37 -6.7783215e-37 4.384047e-37 -1.8137064e-37
000390 ed 21 6e 83 5b a9 c0 83 12 16 23 83 36 55 51 03
       -6.998086e-37 -1.1323628e-36 -4.792673e-37 6.1517397e-37
0003a0 ee c7 07 83 52 20 22 82 1d e8 69 83 6b 26 72 83
       -3.9902442e-37 -1.1911156e-37 -6.8739e-37 -7.116151e-37
0003b0 24 a9 04 83 4c 20 2e 03 36 6a 0f 03 04 3f 26 82
       -3.8985477e-37 5.117108e-37 4.2145847e-37 -1.2213838e-37
0003c0 e7 e3 c5 3d 84 e5 37 be f9 c5 b4 3c da 97 7f ba
       0.096626095 -0.17958647 0.022067057 -0.00097501057
0003d0 f4 de 1c bc 5f 8d 9f bc 9d 96 c7 3d a9 f5 37 be
       -0.009574641 -0.01947659 0.09745524 -0.17964806
0003e0 a4 0a 91 3c aa 21 b5 3b ca fc eb 3a 33 d6 e1 3a
       0.01770527 0.0055276947 0.0018004414 0.0017229974
0003f0 62 b5 ca 3d f4 e4 36 be 13 18 8e 3c 8b f1 33 3b
       0.09897877 -0.17860776 0.017345464 0.0027457203

sequential_11/conv1d_29/Conv1D f4 [64, 1, 5, 64]
000000 e0 db 5e bd 2c c3 fa 01 4f e3 44 3c 26 c1 85 83
       -0.054408908 9.2115554e-38 0.012017085 -7.861382e-37
000010 9e 85 2b 3c 68 9a 5c 03 5e ce 20 a3 4a fd ec 82
       0.010468869 6.482944e-37 -8.717317e-18 -3.4822464e-37
000020 ff 76 a0 3c c6 90 a9 83 48 f4 73 82 f9 03 8f bd
       0.019587992 -9.966166e-37 -1.7922926e-37 -0.069831796
000030 94 0c 0e 83 7d c9 c9 ba 59 13 3f 03 7b c5 8d bc
       -4.174449e-37 -0.0015395131 5.6152065e-37 -0.01730608
000040 a6 6f 4b b8 36 75 5d bd fd ba 02 bd ba 3b 43 3b
       -4.8502952e-05 -0.05406686 -0.031916607 0.0029790238
000050 8d 74 27 bd e4 8e 7a 03 d3 48 d5 3c d1 8e 2a 3b
       -0.040882636 7.3632427e-37 0.026035702 0.0026025067
000060 12 ec 9b bd 02 6b 35 bd 13 ae ca bc df 3f 1e 03
       -0.07613386 -0.044291504 -0.024741208 4.6505347e-37
000070 3e 9e 28 bc da db 1c bd 5e 98 56 bc 6c 9f 6c bd
       -0.010291634 -0.038295604 -0.013097851 -0.057769224
000080 bb ac 92 3d 54 9a c1 bd a8 4e 84 81 b2 49 81 3d
       0.07161852 -0.09453264 -4.860201e-38 0.063128844
000090 76 50 cb bc 3a 6d 72 03 b8 5e 94 bd 7b ef 81 3d
       -0.02481864 7.1242794e-37 -0.07244629 0.063445054
0000a0 79 6f 3b 3c 92 a7 1c 83 8d 66 87 02 b0 c0 73 03
       0.011440151 -4.603664e-37 1.9895328e-37 7.1632476e-37
0000b0 0f 28 cd bc f4 87 6e 03 90 a7 0f 3c 97 a0 a0 3d
       -0.025043515 7.009798e-37 0.008767977 0.0784313
0000c0 9e 72 27 bd db 63 aa 03 63 d7 af 3d e9 19 4b be
       -0.04088079 1.0014628e-36 0.08586004 -0.19834103
0000d0 54 0c 2f 83 18 d1 ad 83 5b a5 7e 01 3d c7 a4 3a
       -5.144203e-37 -1.0216032e-36 4.677107e-38 0.0012571585
0000e0 e5 eb fd 02 23 1d ec bc 15 82 0d 83 f4 8b 8c bd
       3.7310406e-37 -0.028822487 -4.1585503e-37 -0.068626314
0000f0 6b 52 bb bd c7 e3 b8 82 79 db 10 bd 18 f3 7b 83
       -0.09146579 -2.7167108e-37 -0.035365555 -7.404133e-37
000100 25 96 66 bd 58 c9 c4 83 a2 23 a5 3c 60 23 c5 03
       -0.056295533 -1.1566071e-36 0.020158593 1.1586741e-36
000110 73 ca f2 3a 8e 83 5a 83 14 43 4a 20 a4 c1 57 82
       0.0018523469 -6.421546e-37 1.713226e-19 -1.5851277e-37
000120 dd 91 30 3c b2 5c 76 81 59 23 83 83 07 ce 88 bd
       0.010776964 -4.524957e-38 -7.707603e-37 -0.066799216
000130 bd 18 1b 02 c8 87 61 bc 9a fc 5b 03 6a f5 75 bd
       1.1394701e-37 -0.013765283 6.464829e-37 -0.0600485
000140 22 f4 b8 36 46 18 4b bd f6 b0 01 bd d5 51 d2 bc
       5.512048e-06 -0.049583696 -0.031662904 -0.025673786
000150 26 18 3c bc 6c 12 0d 03 8d cc 61 bc 91 19 0b bb
       -0.011480367 4.1457323e-37 -0.013781679 -0.0021224956
000160 11 fc 90 bd d2 a3 1b bc f5 9c b2 bc a6 78 09 03
       -0.07079328 -0.009499507 -0.021803359 4.039918e-37
000170 11 d6 0d ba da ef 7d bd b1 cf 14 bc 55 ec 04 bd
       -0.00054106215 -0.06199632 -0.009082721 -0.032451946
000180 c9 d3 86 3b 68 86 2b ba 20 a9 d9 82 e4 42 e8 3c
       0.004114602 -0.00065431604 -3.1982357e-37 0.028352208
000190 de c3 ba bc 8e ba e8 82 00 9a 7a bd 40 da 25 3d
       -0.022798475 -3.4196413e-37 -0.061182022 0.040491343
0001a0 91 43 c8 bc c7 5a db 82 87 fe 47 83 21 e3 46 03
       -0.02444628 -3.2231261e-37 -5.8773027e-37 5.84477e-37
0001b0 d1 49 80 bb 16 27 0e 02 d5 ab 49 bc c9 fb 5a 3c
       -0.0039150496 1.044373e-37 -0.012309034 0.013365694
0001c0 88 a9 92 bd 14 1f 87 83 56 61 7b 3d 94 03 2e be
       -0.07161242 -7.941722e-37 0.061372124 -0.16993552
0001d0 36 8d a6 03 d4 53 2d 83 7e 58 ac 83 a0 83 05 bd
       9.789024e-37 -5.093636e-37 -1.0129568e-36 -0.03259623
0001e0 79 74 96 03 1f c6 85 bc bb 1f e4 82 14 ad 90 bd
       8.842948e-37 -0.016329823 -3.3519801e-37 -0.07064262
0001f0 98 83 f7 bd 15 13 98 02 35 65 89 bc 58 ac 94 80
       -0.120856464 2.2345345e-37 -0.016771892 -1.3653479e-38
000200 e1 3c 28 bd 1e d5 3a 83 da 4d 6d 3c 03 48 4a 03
       -0.041073684 -5.4905134e-37 0.014483893 5.944513e-37
000210 31 41 85 3b ce eb 54 83 9c dc b5 96 bc 09 83 03
       0.0040666093 -6.257189e-37 -2.938135e-25 7.701723e-37
000220 09 df 28 bb 06 1c bd 03 36 b8 41 83 1e a9 a3 bd
       -0.0025767705 1.11148555e-36 -5.6929066e-37 -0.07991241
000230 e7 0e 04 83 06 2f a6 bc 00 f8 5b 03 9c c2 bc bd
       -3.880842e-37 -0.020286094 6.4643006e-37 -0.09216806
000240 a3 d7 ad b8 05 44 81 bd da c0 44 bd 91 82 d1 bc
       -8.289448e-05 -0.06311802 -0.04803548 -0.025574954
000250 b6 a1 54 3d 22 dd d6 82 80 ee 99 bc b5 91 35 3c
       0.051912032 -3.1571398e-37 -0.018790483 0.011082103
000260 56 31 7c bd 10 93 19 bc 95 96 f6 bc 9a e0 b0 82
       -0.061570488 -0.009373441 -0.0301011 -2.598979e-37
000270 4d fb e0 3c b5 52 76 bd 49 22 81 bc 53 34 0b bd
       0.02746358 -0.06013747 -0.015763419 -0.033985447
000280 e6 fa f2 bc 08 f0 ee 3b dc c4 99 83 80 ab c0 3a
       -0.029660653 0.0072917975 -9.0377285e-37 0.0014699548
000290 a3 11 b0 bc 94 81 92 82 d4 48 e6 bc e4 51 df 3c
       -0.021492785 -2.1527146e-37 -0.028110899 0.027260728
0002a0 f3 cf ad 3b be 34 16 83 51 85 87 83 08 35 4e 03
       0.0053043305 -4.4141583e-37 -7.965195e-37 6.0598836e-37
0002b0 26 6b a0 3b 06 d1 71 82 62 7e a8 bc fb 3a 99 3b
       0.0048955856 -1.776587e-37 -0.020568077 0.0046762205
0002c0 1a 29 73 bd f8 69 40 82 31 41 cd 3c 39 38 0c be
       -0.05936537 -1.4136344e-37 0.0250555 -0.13693322
0002d0 da d1 9c 03 8e 48 6a 83 d4 a4 26 03 28 81 0a bc
       9.2170355e-37 -6.884971e-37 4.897223e-37 -0.008453645
0002e0 b3 a8 17 83 0e ed a3 bb c2 17 19 02 ae 6e 76 bd
       -4.456857e-37 -0.0050026244 1.1247483e-37 -0.060164146
0002f0 f4 40 e7 bd 18 c8 49 03 bd 90 3a bc c4 bd 8e 82
       -0.11291686 5.9298287e-37 -0.011387047 -2.0973945e-37
000300 30 60 32 bd 54 4d a3 81 37 f2 22 3c 94 d5 1c 83
       -0.043548763 -5.9987704e-38 0.009945444 -4.6089455e-37
000310 ef 3a cf 3b 41 33 70 00 cc 70 89 15 28 df 1f 03
       0.006324164 1.0303962e-38 5.551182e-26 4.698207e-37
000320 b6 59 c8 bc 3e a5 0a 82 41 20 10 03 29 b3 6c bd
       -0.02445684 -1.0186061e-37 4.2354822e-37 -0.057788048
000330 72 15 e7 02 e9 a7 4d bc 0f 9a 89 03 c3 a7 a4 bd
       3.3954708e-37 -0.01255224 8.087506e-37 -0.080398105
000340 60 66 7e ba 12 df 97 bd 94 6c 48 bd 4a 8c da bc
       -0.0009704586 -0.07415594 -0.048931673 -0.026678223
000350 8c 66 67 3d 43 7c 96 03 67 4a 0f bd 20 5a b7 3a
       0.05649428 8.844737e-37 -0.034983065 0.0013988651
000360 4d af d1 bd 3f de ac 3b b8 e4 ce bc 4e 8e 90 02
       -0.10238514 0.0052755172 -0.025255546 2.1240577e-37
000370 4b d0 cc 3a 0a 9a 47 bd 88 ad 71 bc 5e a2 cb bc
       0.0015626041 -0.048730887 -0.014750846 -0.024857696
000380 4f cf a2 3b 24 4b 1a 3c ac 84 40 82 5a 93 d6 bb
       0.0049685608 0.009417329 -1.4144007e-37 -0.0065483274
000390 99 3b 92 bc 6b 3d 8d 83 0c 3f 0f bc 8f 16 93 3c
       -0.017850684 -8.301336e-37 -0.008743059 0.017955093
0003a0 77 08 a2 3b d3 23 9b 82 5a 5e 27 03 a7 d3 62 01
       0.0049448567 -2.2795765e-37 4.91852e-37 4.1661497e-38
0003b0 eb 98 8d bc 84 02 dc 82 dd 24 8b bc 99 d4 96 3c
       -0.017284831 -3.2327539e-37 -0.016985351 0.018411921
0003c0 1a 60 81 bd 76 06 9c 02 61 56 53 ba f1 e0 16 be
       -0.06317158 2.2925848e-37 -0.00080618827 -0.14734246
0003d0 b8 77 91 83 d7 66 4a 02 ca c1 46 83 40 81 f7 3a
       -8.54982e-37 1.487013e-37 -5.840943e-37 0.0018883124
0003e0 d7 07 4b 83 d0 cb df bc 02 a8 c2 82 92 2f 33 bd
       -5.966534e-37 -0.027318865 -2.860217e-37 -0.04374654
0003f0 06 42 55 bd b2 98 b8 01 ae 71 34 bd ef ee 87 03
       -0.052064918 6.781003e-38 -0.044053726 7.989443e-37

sequential_11/conv1d_30/Conv1D f4 [64, 1, 3, 64]
000000 27 df 49 3c 20 2e 53 03 85 e3 dd 01 60 b8 2f 03
       0.01232127 6.2060276e-37 8.1509053e-38 5.163953e-37
000010 de 15 67 bd f1 f5 60 3d 14 66 1c 03 ec 4e 83 83
       -0.05641734 0.054922048 4.596146e-37 -7.717608e-37
000020 b6 35 23 03 b6 09 a8 02 3a 04 c5 82 16 12 01 03
       4.796305e-37 2.4690955e-37 -2.8948974e-37 3.7930454e-37
000030 e9 c3 24 81 2d 12 37 03 44 69 88 82 64 54 c4 82
       -3.02626e-38 5.379973e-37 -2.0043823e-37 -2.884805e-37
000040 b2 b6 ce bd 30 4b 85 81 d7 ff 04 82 5b 7b 56 83
       -0.1009344 -4.896437e-38 -9.771251e-38 -6.3030553e-37
000050 44 e4 37 bc ba 9f 36 3d 58 ad 1e 83 0a 9c 85 82
       -0.011223856 0.04458592 -4.6631016e-37 -1.9632156e-37
000060 36 f7 1f 82 71 30 82 83 63 db d6 bb 26 aa dd 02
       -1.1752421e-37 -7.651835e-37 -0.0065569147 3.2570692e-37
000070 8d 8e 84 bd bb 0d 32 3d 5a 0b 8c 02 bc 69 bc 3d
       -0.06472502 0.043470126 2.0577667e-37 0.09199855
000080 94 38 b8 bc 14 3e c9 82 5e 98 ea 82 84 31 a6 02
       -0.022487916 -2.9569927e-37 -3.4470664e-37 2.4419928e-37
000090 33 04 3e 81 d2 07 1e 83 70 8f d2 82 ff 87 92 03
       -3.49005e-38 -4.6441004e-37 -3.0939056e-37 8.612332e-37
0000a0 a5 50 75 03 5d 36 f9 3c e3 06 35 3b d5 df 43 03
       7.2091604e-37 0.03042143 0.0027622513 5.7562296e-37
0000b0 39 22 18 03 6a 86 37 03 fa 8e ad 83 9f 4d 8b 02
       4.470807e-37 5.3933166e-37 -1.0200852e-36 2.0468767e-37
0000c0 49 e6 46 3d 85 07 ef 3c fa b0 46 83 37 43 96 82
       0.04855946 0.02917839 -5.839013e-37 -2.2079099e-37
0000d0 2f 44 94 00 cf d7 84 83 58 34 a2 3c 25 09 bf 02
       1.3616113e-38 -7.80781e-37 0.01980035 2.8070176e-37
0000e0 6e df c9 bd 00 59 0e 81 fb 87 3f 3d ec 4f 84 83
       -0.09857069 -2.6145135e-38 0.04676054 -7.776612e-37
0000f0 ff 4d c2 82 00 c8 68 bc 3c 15 20 03 88 c9 8e 83
       -2.8550506e-37 -0.01420784 4.704415e-37 -8.392279e-37
000100 f8 a3 de 39 ee 8f 16 03 ef bf 19 81 c8 0c 2b 03
       0.00042465306 4.424626e-37 -2.8239367e-38 5.0267056e-37
000110 3c 29 27 bd 47 91 78 3d 7f 13 41 03 a1 ff 61 83
       -0.04081081 0.060685422 5.6739983e-37 -6.6415005e-37
000120 d9 a7 d2 02 99 f6 02 83 8b e0 9a 82 22 86 06 02
       3.0953067e-37 -3.8486647e-37 -2.2757148e-37 9.883259e-38
000130 3a d1 dc 81 91 fc b4 83 42 b7 fe 02 cf 20 6b 01
       -8.111546e-38 -1.0637436e-36 3.742713e-37 4.3186222e-38
000140 77 1e bf bd e2 4f 7e 01 f2 9f ad 82 a4 f8 91 83
       -0.093319826 4.6709745e-38 -2.551187e-37 -8.579419e-37
000150 c7 6a b3 3c 6d 4f 78 3d 21 60 fa 82 31 36 c4 82
       0.021901501 0.06062262 -3.6789374e-37 -2.8830716e-37
000160 b2 d3 c3 81 de cd 59 83 e2 54 03 bc 6a f6 27 83
       -7.1935455e-38 -6.4006892e-37 -0.008015843 -4.935976e-37
000170 0d 35 1e bd 7f 76 57 3d e6 90 a6 83 55 46 c3 3d
       -0.038624812 0.05260324 -9.78987e-37 0.09534899
000180 0e 47 00 bd 48 9a 26 02 d9 08 e3 82 a5 2a f9 02
       -0.031317763 1.224003e-37 -3.335973e-37 3.6611738e-37
000190 16 f2 9e 81 bb 08 9d 83 23 ba 1e 03 22 07 6a 83
       -5.838741e-38 -9.229635e-37 4.66457e-37 -6.8774608e-37
0001a0 0f 41 88 03 20 97 10 3c c8 97 0a 3b c5 f9 3f 03
       8.008298e-37 0.0088250935 0.0021147598 5.6416577e-37
0001b0 d9 27 0b 03 fb 0f 31 03 82 59 7a 83 ce 1e 7c 83
       4.089417e-37 5.203397e-37 -7.3571147e-37 -7.4091506e-37
0001c0 3c 70 e9 3c 68 6c 80 3d 39 30 3d 83 1c 9d 34 03
       0.0284959 0.06270677 -5.5597465e-37 5.30776e-37
0001d0 c1 f9 e5 80 0f 7c 87 83 b3 a8 42 3d e4 c6 ec 02
       -2.1119923e-38 -7.963069e-37 0.047524165 3.479124e-37
0001e0 e6 b3 60 bd 2c e4 b4 81 db 8d 9a 3d d0 3b 5c 83
       -0.054859065 -6.644897e-38 0.07546588 -6.472085e-37
0001f0 96 87 2a 83 82 65 fe 3b 15 9a 6b 02 22 44 4c 01
       -5.0114155e-37 0.0077635655 1.7309293e-37 3.7517765e-38
000200 80 55 57 3c ee 59 40 83 4e 35 30 82 f0 91 1f 03
       0.013142943 -5.6526963e-37 -1.2945736e-37 4.689343e-37
000210 1f a7 d5 bc 2f 22 24 3d e3 95 e3 82 be 10 56 83
       -0.026080666 0.040071663 -3.3440683e-37 -6.2908167e-37
000220 5e 7e b8 01 95 d2 9b 82 cc dd 0a 83 a5 ff 16 02
       6.7772253e-38 -2.2896071e-37 -4.0809165e-37 1.1093626e-37
000230 1c 0e c4 82 33 b2 1e 83 54 42 24 82 d5 de 8c 03
       -2.880771e-37 -4.663659e-37 -1.2067852e-37 8.27962e-37
000240 a8 39 98 bd 32 1a bd 81 5b 35 34 03 8c c3 ae 83
       -0.07432872 -6.9465224e-38 5.2958495e-37 -1.0271696e-36
000250 84 af 0f 3d 20 08 87 3d ef 8b bc 82 58 5e 97 02
       0.035079494 0.065933466 -2.7704435e-37 2.2241607e-37
000260 71 6b e7 80 9a 21 44 83 c8 98 d6 bc f5 51 bf 02
       -2.1252542e-38 -5.7637796e-37 -0.026195899 2.8111969e-37
000270 2d 2b 26 bd a0 0a 0d 3d 19 e5 4d 01 b1 7a 56 3d
       -0.04056852 0.03443396 3.7816923e-38 0.0523631
000280 9e 75 18 bd 8a d9 8d 80 ee c8 d7 82 50 b0 07 03
       -0.037221543 -1.3026843e-38 -3.1706739e-37 3.987533e-37
000290 6c 4a c1 81 9e 96 9e 02 fc 4b 3e 82 2c ba 37 83
       -7.1003793e-38 2.3302463e-37 -1.3980802e-37 -5.399258e-37
0002a0 62 ed a9 03 7e 1a f6 bc 00 f5 aa 38 d8 55 43 03
       9.987428e-37 -0.03004193 8.1518665e-05 5.7403893e-37
0002b0 cc a4 0c 03 9c f5 19 03 a1 be 59 03 c0 b3 8c 83
       4.133148e-37 4.5244605e-37 6.39894e-37 -8.269729e-37
0002c0 b7 46 54 3d 44 7d c1 3d 14 1d d6 81 7d 54 ae 82
       0.05182525 0.09447721 -7.865291e-38 -2.5615496e-37
0002d0 78 e9 43 82 37 3f 8b 83 79 e1 aa 3d d1 85 8d 02
       -1.439334e-37 -8.184199e-37 0.08343787 2.0794895e-37
0002e0 70 4c 30 bd 1e e2 95 81 e4 47 e9 3d 2f 3a 94 83
       -0.043041646 -5.505842e-38 0.11390665 -8.7120165e-37
0002f0 79 de 10 83 54 28 8c 3c 74 ce 23 83 39 ad c4 02
       -4.2573183e-37 0.017109074 -4.813839e-37 2.8899037e-37
000300 b4 8b 06 83 a9 9f e3 82 78 22 96 01 ba d5 2a 83
       -3.953943e-37 -3.3446293e-37 5.515076e-38 -5.0203856e-37
000310 a4 61 aa 03 cf 88 ba 03 a8 c3 e9 82 ac 68 64 03
       1.0014119e-36 1.0963507e-36 -3.4348574e-37 6.7123335e-37
000320 94 8b 23 03 1a 2b bb 03 97 f6 d8 02 f5 b9 49 83
       4.8061623e-37 1.1000768e-36 3.1879883e-37 -5.928206e-37
000330 ba 12 90 83 ce 7a a6 03 3e f7 f1 02 71 c5 8a 83
       -8.467859e-37 9.784798e-37 3.5553677e-37 -8.156241e-37
000340 9e 71 4f 02 09 19 c9 82 28 c1 1f 83 15 b1 5e 83
       1.5240565e-37 -2.9548665e-37 -4.6947633e-37 -6.5443217e-37
000350 72 9c a5 02 0f 7c eb 02 8a 5a 04 83 f7 a5 3c 81
       2.4334366e-37 3.4601353e-37 -3.8895247e-37 -3.464922e-38
000360 21 cb 92 03 39 cc 7c 02 37 7c 29 80 da b5 25 82
       8.627745e-37 1.8572645e-37 -3.809815e-39 -1.2174474e-37
000370 0e 57 b7 83 42 59 43 83 f4 2d 88 02 ca 40 8c 03
       -1.077576e-36 -5.7407813e-37 2.000978e-37 8.243335e-37
000380 b8 3f 16 83 c9 7c 3b 02 d5 b8 3e 03 16 8b a3 01
       -4.4154184e-37 1.3774402e-37 5.604816e-37 6.007632e-38
000390 67 b5 82 03 de 62 41 81 9e e6 af 82 aa ad 1b 83
       7.682361e-37 -3.5519435e-38 -2.5846307e-37 -4.5749763e-37
0003a0 b6 36 42 83 8f bd 1b 02 38 67 8d 83 28 bf 2b 83
       -5.707428e-37 1.1442002e-37 -8.310933e-37 -5.047182e-37
0003b0 55 23 d2 02 d7 82 75 03 96 b9 44 81 f5 d4 9e 03
       3.0877006e-37 7.2149226e-37 -3.6132666e-38 9.335298e-37
0003c0 77 8c 72 03 1e 49 5f 81 a5 91 15 03 bb 42 c1 83
       7.1278654e-37 -4.101109e-38 4.3954356e-37 -1.1358841e-36
0003d0 49 3b 8b 03 24 40 9a 03 e4 56 5e 83 7c 89 af 03
       8.183297e-37 9.0660325e-37 -6.533968e-37 1.031714e-36
0003e0 63 d9 1d 03 38 10 fe 02 d6 16 72 03 52 0a c6 01
       4.63877e-37 3.7331255e-37 7.1143623e-37 7.274852e-38
0003f0 17 bb e9 02 eb 63 c5 03 c1 a7 39 83 87 12 b4 83
       3.4343657e-37 1.1601559e-36 -5.4559186e-37 -1.0583703e-36

sequential_11/conv1d_31/Conv1D f4 [64, 1, 3, 64]
000000 ee 60 be bd 1d af 12 83 27 52 b7 bd 85 ff c0 82
       -0.092958316 -4.3106564e-37 -0.08951216 -2.8358525e-37
000010 77 f7 b7 83 ce 4c 1a 02 d5 2c 08 80 d0 86 50 83
       -1.08125885e-36 1.1336175e-37 -7.50767e-40 -6.1280463e-37
000020 4c f7 4e 03 ec 68 10 03 77 25 74 3a 04 05 9c 82
       6.082184e-37 4.243824e-37 0.0009313444 -2.2925019e-37
000030 37 cf 6a 83 11 46 88 03 5c dc 66 83 6b f1 b2 3d
       -6.900429e-37 8.009448e-37 -6.7843885e-37 0.08737453
000040 93 f5 34 03 ac c7 04 3e bb a2 ac 83 eb 6e b9 82
       5.317915e-37 0.12966794 -1.01466125e-36 -2.724697e-37
000050 ef 75 eb 3d 77 92 8a 3c 27 0f 6d 83 95 da 35 03
       0.114971034 0.016915543 -6.9665434e-37 5.344204e-37
000060 d2 54 b1 83 78 63 f1 bc 5a 57 c1 02 52 8c 01 03
       -1.0422599e-36 -0.029466376 2.8408939e-37 3.8070773e-37
000070 8a 90 b3 bd 06 1b b0 03 37 ac 22 03 28 cd 27 03
       -0.08767803 1.0350555e-36 4.7805214e-37 4.9312397e-37
000080 6c 66 d6 bb 0c 8e e2 82 dd d0 a0 03 21 d6 69 83
       -0.0065429714 -3.3289246e-37 9.4519075e-37 -6.8718354e-37
000090 c3 71 5a 83 c4 c0 c7 03 54 5e 94 03 f4 77 c2 02
       -6.4195034e-37 1.1740426e-36 8.720315e-37 2.8574588e-37
0000a0 94 54 24 83 2b d8 b7 83 e7 2f 13 03 7a ef d6 ba
       -4.829236e-37 -1.0805403e-36 4.3254407e-37 -0.0016398274
0000b0 bb 4c ac 03 1f 25 3d 03 81 f6 1b 82 da 25 70 83
       1.0126868e-36 5.558472e-37 -1.1458345e-37 -7.0573113e-37
0000c0 6b 7b 10 03 62 ef 01 03 9b a8 3b 03 12 5f dc 02
       4.2459474e-37 3.818449e-37 5.514791e-37 3.2380662e-37
0000d0 44 42 07 bc 0e 4f 97 83 9f aa 37 03 8c c0 5e bd
       -0.008255545 -8.893132e-37 5.397473e-37 -0.054382846
0000e0 1e f9 94 03 2a f3 b8 03 dc ec a4 83 03 89 0e 03
       8.755853e-37 1.0870376e-36 -9.693434e-37 4.188733e-37
0000f0 02 d4 0e be 38 f1 b6 83 08 13 f0 81 18 56 0b bd
       -0.13948062 -1.075238e-36 -8.8189385e-38 -0.034017652
000100 aa ab bc bd c2 e3 93 02 9b 95 63 bd 17 54 ec 82
       -0.0921243 2.1730435e-37 -0.055562597 -3.4725349e-37
000110 53 d8 94 83 72 3a 6c 02 d4 76 06 82 59 f4 84 83
       -8.748324e-37 1.7355315e-37 -9.878867e-38 -7.814362e-37
000120 77 0d a1 82 f2 f2 06 83 d2 61 c2 b9 b2 bc 64 03
       -2.3664552e-37 -3.965795e-37 -0.00037075445 6.721979e-37
000130 b0 53 b6 03 58 ad 99 03 76 18 55 03 e1 f6 86 3d
       1.0716212e-36 9.03233e-37 6.2623154e-37 0.06590057
000140 e9 05 c0 03 12 ce a9 3d 4d 16 b9 03 b5 b0 0a 83
       1.1286103e-36 0.08291258 1.0878443e-36 -4.0757405e-37
000150 5d fb b7 3d af 29 3a bc 64 07 ea 82 1c 01 94 02
       0.089834906 -0.011362477 -3.4387452e-37 2.1747282e-37
000160 73 c7 1d 03 2b 21 37 bd 80 4a d9 82 48 aa b7 83
       4.636711e-37 -0.044709366 -3.1928045e-37 -1.0794868e-36
000170 74 be ab bd 4b 0e 98 03 e2 8e 39 03 f8 61 22 03
       -0.083859354 8.937039e-37 5.4530635e-37 4.7719984e-37
000180 80 ba fc bb 60 a2 eb 82 21 ee 5a 82 df 9b 56 02
       -0.007712662 -3.4623345e-37 -1.608445e-37 1.576697e-37
000190 c9 4a 55 83 09 ad 59 83 d6 cd c3 03 27 2a da 02
       -6.2680923e-37 -6.3969203e-37 1.15083275e-36 3.2056415e-37
0001a0 ee b7 ee 82 b5 56 a4 83 06 6d 38 81 bb 3c 0e bc
       -3.5076527e-37 -9.658961e-37 -3.3873683e-38 -0.008681471
0001b0 18 03 46 03 1e da a0 03 59 38 0d 02 90 36 4f 83
       5.819052e-37 9.454032e-37 1.0375215e-37 -6.0894467e-37
0001c0 d8 35 e9 82 94 8f d7 82 4e 8f 41 03 ec 65 c6 02
       -3.4267178e-37 -3.167382e-37 5.688211e-37 2.9151985e-37
0001d0 5f 99 8c 3b eb e8 56 83 a6 29 de 01 24 0b 32 bd
       0.004290744 -6.3156324e-37 8.1609683e-38 -0.043467656
0001e0 99 8a 6a 03 11 81 cb 82 47 e7 a5 83 54 38 07 03
       6.892552e-37 -2.990225e-37 -9.750927e-37 3.9737596e-37
0001f0 42 d7 e3 bd 94 97 7e 83 39 2e 19 01 f8 22 11 bd
       -0.111250415 -7.4817894e-37 2.8134825e-38 -0.03543374
000200 eb 1e d7 bd f4 b1 cc 02 54 9c 94 bd 56 88 42 82
       -0.10503944 3.0077246e-37 -0.0725638 -1.4291995e-37
000210 0b f1 ad 02 5e 4d 98 02 11 31 43 02 b1 12 42 03
       2.5558417e-37 2.23788e-37 1.4340419e-37 5.7032933e-37
000220 91 f3 e5 02 ca cd 59 02 76 99 05 bc 03 b2 49 83
       3.3788326e-37 1.6001701e-37 -0.008154264 -5.927294e-37
000230 1e 93 aa 03 88 13 95 03 ba 23 94 00 ce 75 9d 3d
       1.0025478e-36 8.761917e-37 1.360447e-38 0.07688485
000240 cc 3f a6 03 98 dc a6 3d e2 b5 37 83 23 87 b7 82
       9.77125e-37 0.08147544 -5.398766e-37 -2.6966998e-37
000250 cc 13 ef 3d 7d 89 d9 bc 11 b3 a0 02 f9 c8 77 83
       0.11673698 -0.026554817 2.3612666e-37 -7.281748e-37
000260 57 1e d8 82 06 b3 95 bd 08 25 0f 82 2a b5 ab 03
       -3.1755762e-37 -0.07309537 -1.0516608e-37 1.009207e-36
000270 4c f2 bf bd 0f f3 28 02 68 37 38 03 1b 63 28 03
       -0.09372386 1.2412445e-37 5.4136343e-37 4.948453e-37
000280 31 cd 5c 3b c2 76 f0 82 9e 1b 05 83 8b 56 8c 83
       0.003369164 -3.5332994e-37 -3.911689e-37 -8.24833e-37
000290 fa 8a 76 83 b0 49 25 83 f8 d5 81 03 b0 0d 31 03
       -7.245244e-37 -4.857373e-37 7.631063e-37 5.2031338e-37
0002a0 13 03 30 83 c0 94 86 83 4f 0b 91 83 cc 70 46 bc
       -5.172528e-37 -7.9099635e-37 -8.52493e-37 -0.012111854
0002b0 f2 07 1f 03 1a c9 7f 03 10 95 08 01 04 80 cd 82
       4.673502e-37 7.516862e-37 2.5086202e-38 -3.019552e-37
0002c0 43 7d 8d 03 59 aa be 00 71 69 4b 03 22 d3 05 03
       8.315994e-37 1.7509853e-38 5.977738e-37 3.9327556e-37
0002d0 bb 53 be 3c 2b c5 4a 83 8e 16 8d 03 17 d9 75 bd
       0.023233285 -5.9588802e-37 8.2924135e-37 -0.060021486
0002e0 15 88 19 03 cf 11 d3 02 fc 66 a7 83 69 0a b3 03
       4.5118873e-37 3.1013885e-37 -9.839022e-37 1.05230645e-36
0002f0 5a b7 e6 bd c0 c9 1d 83 38 65 6c 81 12 d6 40 bd
       -0.1126544 -4.636975e-37 -4.3418975e-38 -0.047079153
000300 f4 c2 0c bd 90 3e 84 03 f5 68 93 bc 33 ab 7f 02
       -0.03436561 7.772626e-37 -0.017994383 1.8783573e-37
000310 88 65 3a 83 77 92 c7 03 38 52 32 03 14 e9 64 83
       -5.477704e-37 1.17297955e-36 5.240388e-37 -6.727074e-37
000320 d2 9d 09 03 4d 3a 97 03 ff a0 c2 3a c2 51 54 02
       4.044185e-37 8.888368e-37 0.0014849006 1.5598763e-37
000330 81 42 02 83 c1 30 91 03 20 8f be 81 32 9a f4 3b
       -3.827991e-37 8.533527e-37 -7.000035e-38 0.0074646706
000340 82 cf 1c 83 08 d9 53 3c 82 e9 a6 83 b7 b5 e0 82
       -4.6082487e-37 0.012930162 -9.810214e-37 -3.301814e-37
000350 15 7a fe 3c f3 ac ba bc 26 05 8f 02 42 04 54 82
       0.031064073 -0.022787547 2.1014917e-37 -1.5576522e-37
000360 a5 6b 5a 83 52 d9 a3 bc 75 9e 02 03 9a 56 49 83
       -6.418801e-37 -0.020001087 3.8385466e-37 -5.9168005e-37
000370 ef 46 1a bd a6 5b 1c 82 70 35 25 03 3c 8a b5 81
       -0.037665304 -1.1487372e-37 4.8550485e-37 -6.6687256e-38
000380 58 04 ce bc fc 19 31 82 c6 59 7f 83 c3 fa 23 83
       -0.025148556 -1.3011363e-37 -7.504082e-37 -4.8189255e-37
000390 a9 47 26 03 77 2f 84 03 5d 3a 68 83 61 01 58 81
       4.8865277e-37 7.76916e-37 -6.824567e-37 -3.9673924e-38
0003a0 66 a7 15 83 ea de 19 03 75 05 88 83 3c 5e 3d bb
       -4.397933e-37 4.521855e-37 -7.9946145e-37 -0.002889528
0003b0 5e 8b c4 03 00 c3 fc 81 c5 c0 4e 03 86 b2 2f 83
       1.1551842e-36 -9.284999e-38 6.0759248e-37 -5.1632813e-37
0003c0 35 c7 bb 83 40 94 b5 80 6d e6 19 03 8a 21 cd 82
       -1.1036608e-36 -1.6675407e-38 4.5227175e-37 -3.0141293e-37
0003d0 22 17 80 bc 4a 2e 98 03 72 be 9a 02 89 74 02 bd
       -0.01563603 8.9443845e-37 2.2737577e-37 -0.031849418
0003e0 90 af cc 82 0a cb 17 03 e9 df d6 82 63 d9 51 83
       -3.0075874e-37 4.460799e-37 -3.1572992e-37 -6.1669128e-37
0003f0 ca dd e2 bc 1b ac 8b 82 36 3b 1c 83 e0 41 08 bd
       -0.027693648 -2.0522998e-37 -4.591225e-37 -0.03326595

sequential_11/dense_19/BiasAdd/ReadVariableOp f4 [20]
000000 96 5e e3 bd d9 a9 fa bd 69 a1 8f 3d 28 cc 0b bd
       -0.11102025 -0.12239427 0.070132084 -0.034130245
000010 df 5e 26 3d 3f de 0d bc 33 ad 45 3e 10 2e d5 bd
       0.04061782 -0.008658945 0.19304352 -0.10409176
000020 1f cc c5 3c d2 a9 a9 bd 38 dd 73 bd 53 78 fb 3d
       0.024145184 -0.08284344 -0.059537143 0.122788094
000030 81 0f 86 bc 38 3f 15 be bc f6 18 3e 9d 62 24 3e
       -0.016364815 -0.14574897 0.14937872 0.16053243
000040 a6 fe 1f be 04 4e 4a be 5e 02 7f bd 00 63 28 3e
       -0.15624484 -0.19756323 -0.062258117 0.16444016

sequential_11/dense_18/BiasAdd/ReadVariableOp f4 [32]
000000 78 23 a0 3d 60 09 df 3d 84 76 39 bc 82 29 7c 3e
       0.07819265 0.1089046 -0.01131976 0.24625209
000010 14 10 b8 3d 91 41 ae 3c 6c 58 20 3e 85 4f 00 bc
       0.08987442 0.021271499 0.1565873 -0.007831459
000020 18 5e e8 3d ab fd 18 3e 91 35 60 bd ad e6 bf 3d
       0.11346072 0.14940517 -0.054738585 0.0937017
000030 3d 92 3e 3e c1 e2 42 3e ba c0 95 3d 7b da 18 3d
       0.18610473 0.19031812 0.0731215 0.037317734
000040 f0 61 31 bd e1 ee 35 bd 1a 42 03 be 8c e0 bb 3d
       -0.04330629 -0.044417266 -0.12818184 0.09173688
000050 c8 54 ee bc a4 ef fa 3d 38 9d 06 3e 91 69 36 bd
       -0.029093161 0.12252739 0.13145912 -0.04453427
000060 c6 ce 39 3d b6 7c 37 3e 87 a4 20 3e 76 d1 cb 3d
       0.04536321 0.17918667 0.15687762 0.09952061
000070 4a 00 1a bd 50 a9 8a bd 6c a4 66 3e 06 3a d7 bd
       -0.037597932 -0.06770575 0.2252366 -0.10509114

sequential_11/dense_17/BiasAdd/ReadVariableOp f4 [64]
000000 e1 d4 4e bd 0d ad 6b bc 48 26 09 bd 88 f4 0e 3d
       -0.050495986 -0.01438452 -0.033483773 0.034901172
000010 f4 d3 87 bd 88 d6 f7 bc 6f e7 d7 bc 9a 82 10 3d
       -0.06632224 -0.030253664 -0.026355473 0.0352808
000020 6b 97 48 bd ce ab cc bc 10 dc d9 bc a6 64 24 bd
       -0.04897253 -0.024984267 -0.026594192 -0.04013505
000030 78 4f 87 3e 6a 9a 69 3c 84 e3 20 3b ed ac 18 bd
       0.26427817 0.014258007 0.0024549672 -0.03727429
000040 7c 1f 2b 3e 73 37 21 bd 52 31 44 3e a9 33 c2 3c
       0.16711229 -0.03935952 0.19159439 0.023706274
000050 a6 80 1a bd a3 72 cd 3d ac 05 7f bc c2 ea 47 bc
       -0.037720345 0.10031631 -0.015565317 -0.012201967
000060 19 7c c8 3d 20 82 6e bd ce be 80 3d 49 ce 22 3d
       0.09789295 -0.058229566 0.06286393 0.03974751
000070 0a d5 11 3e dc 18 06 bd 12 9b 1c bd af 95 c8 3c
       0.14241424 -0.03273855 -0.038233824 0.024485437
000080 13 cb 99 3d 1d eb 0a 3c ba 17 4a 3e de 52 02 3e
       0.075094365 0.008478907 0.19735613 0.12726924
000090 23 44 fb bc b0 73 94 3e c3 f5 5d bd 5f 51 82 bc
       -0.030672139 0.28994513 -0.054189455 -0.015907941
0000a0 45 bb 93 bd fe f8 e8 bd fd d7 81 3d 3e e5 cd bc
       -0.07213453 -0.113756165 0.063400246 -0.025133725
0000b0 0d 97 cf bd 95 2b bf b9 ca a8 bd 3c b6 89 72 3c
       -0.101362325 -0.0003646283 0.023151774 0.014803341
0000c0 03 fa 1a bd 11 38 31 bd d9 80 27 bd 74 f3 d5 bc
       -0.037836086 -0.04326636 -0.040894363 -0.026117064
0000d0 4e e5 00 bd ba 7f 52 bd b6 b2 0a bd 25 1e 0c 3d
       -0.031468682 -0.05139134 -0.03386184 0.034208436
0000e0 62 fc ff bc 8b bd 09 3e ed dc e5 bc 61 92 08 bd
       -0.031248275 0.13451211 -0.028059447 -0.033342723
0000f0 e5 12 be 3d 46 b4 b4 bc b8 d8 02 bd 41 33 15 bd
       0.092809476 -0.022058617 -0.03194496 -0.036425833

sequential_11/dense_17/MatMul f4 [64, 2432]
000000 b8 56 da bd 69 1e 5d bc 3b b7 fa 3c 1e c7 8a bd
       -0.106610715 -0.01349602 0.03060495 -0.0677626
000010 fa 2f 70 bd 6f db 0e bd 61 34 c2 bd 4f 88 bb bd
       -0.058639504 -0.034877237 -0.09482647 -0.09156858
000020 7f e6 8a 3c 26 1c cd bc d7 c6 c7 3d 78 c0 0b 3d
       0.016955612 -0.025037836 0.097547226 0.0341191
000030 f5 02 bb 3d ae 96 d9 bc 71 15 4c bd b6 cc f2 bd
       0.091314234 -0.026561107 -0.049825136 -0.11855452
000040 11 df ff bd 0d 37 db 3c 4d dd b1 3c 98 df 37 3d
       -0.124937184 0.026759649 0.02171197 0.04489097
000050 a0 8f b0 bc f2 47 24 bd 38 a3 bb bd fc 42 98 3d
       -0.02155286 -0.040107675 -0.09161991 0.07434651
000060 fd 74 c9 bd 6b ab a7 bd 8f 6f 95 3c 95 13 63 bd
       -0.09836767 -0.08186992 0.018241672 -0.055438597
000070 78 5f a7 bc a6 52 8e 3d 41 28 3f bd 10 be 1d 3d
       -0.020431265 0.06949358 -0.04666925 0.038511336
000080 66 ef 51 3c 02 96 18 bd d7 d8 2d 3c d2 73 af bb
       0.012813425 -0.037252434 0.010610781 -0.005354383
000090 60 97 09 be de 09 22 bd 29 4c 39 3d 42 35 bc bc
       -0.13436651 -0.03956019 0.045238648 -0.022974614
0000a0 f3 cf 5f bd 40 79 41 bd 6d e9 2d 3d 50 9a f1 bc
       -0.054641675 -0.047234774 0.04245894 -0.029492527
0000b0 78 8f b1 3d 13 ff 98 bd 37 53 40 bd 81 f4 1f bd
       0.086699426 -0.074705265 -0.04695436 -0.039051536
0000c0 06 4f 2e bd ff 6a 91 3c 2d 61 56 3c bc ce c3 3d
       -0.04255583 0.017751215 0.013084692 0.09560916
0000d0 9f 64 0c bd 61 cb 5f bd ba 34 4c bb c3 c3 40 3d
       -0.034275647 -0.054637317 -0.0031159357 0.047061693
0000e0 30 e4 83 3c f0 03 a4 bd 7e 0a 8d 3c 62 98 d1 bd
       0.01610002 -0.080085635 0.017216917 -0.10234143
0000f0 9a 15 b6 bc e8 14 50 3a c0 96 91 bd 52 8c 30 3c
       -0.022227097 0.00079376856 -0.071088314 0.0107756425
000100 48 9a 7a bd 65 f7 3c 3d 98 4c 18 bd 58 37 94 bd
       -0.06118229 0.04613437 -0.03718242 -0.072371185
000110 61 75 67 3c b4 fa 4f 3d 31 b9 a9 bd 31 aa 8f bd
       0.014127106 0.0507762 -0.082872756 -0.07014883
000120 76 2c 15 3d 2c ca 81 bc b2 95 b2 3d 38 47 f1 3c
       0.036419354 -0.015843473 0.08719958 0.029452905
000130 16 b8 c1 3b a0 07 97 bc d2 99 10 3d ac 45 d2 bd
       0.0059118373 -0.018436253 0.035302944 -0.10267195
000140 53 6d c4 bd a7 4b 7a 3b 11 f6 19 3b a5 14 05 bc
       -0.095911644 0.0038192065 0.0023492614 -0.008122598
000150 8e fd b4 3c 2b 8d 2b bd bc 80 22 bd 3a b3 8e 3d
       0.02209356 -0.041882675 -0.039673552 0.069677785
000160 90 27 7e bc 5c 6e d6 bd 79 08 88 bb d6 65 54 bd
       -0.015512362 -0.10470268 -0.0041514006 -0.05185493
000170 7a 65 f0 3c 42 4f 93 3d bf b3 7b bd fb 64 35 3c
       0.029345263 0.071928516 -0.061450716 0.011071439
000180 ad 11 ba bc 63 7e d2 bc 6e 05 0d 3d de 1a ce 3c
       -0.022713507 -0.025695032 0.034429006 0.025159296
000190 de 53 ac bd 21 56 67 bc 15 a5 bd ba e9 e5 9c 3c
       -0.08414434 -0.014119656 -0.0014468754 0.019152598
0001a0 3d 97 dc bc cb 33 3c bd 92 ce 19 3d ad cd 46 bc
       -0.026927585 -0.04594783 0.037550516 -0.012133998
0001b0 e6 22 de bb 61 3d ca bd f3 00 3f bd 2d 41 11 3d
       -0.0067790626 -0.09874988 -0.046631765 0.035462547
0001c0 88 5b e6 3c f7 15 4b bb 90 2e b6 bc 5b 4f 8a 3d
       0.028119817 -0.0030988434 -0.022239 0.06753417
0001d0 8e 51 15 bd f4 22 42 3c 5c 45 3c bd 50 de 9e 3c
       -0.03645473 0.011849154 -0.045964584 0.019393116
0001e0 81 bf 3d 3c 3b ce 8b bc 6d f1 c5 3c cf 40 e7 bd
       0.011581303 -0.017066112 0.024162972 -0.11291658
0001f0 cd ea 06 3d 01 58 6b 3c df ad d9 bd a1 68 1a bb
       0.032938767 0.0143642435 -0.106288664 -0.00235609
000200 1a 3e a0 bd 3e 9c 16 3c ad 18 64 3b d6 3f ce bd
       -0.07824345 0.0091925245 0.0034804747 -0.100707695
000210 03 3f 41 bd dc 80 e4 bc 08 07 0b be cd b1 a3 bd
       -0.047179233 -0.027893476 -0.13576901 -0.07992897
000220 a6 34 f8 bc e3 dc 4c bd 29 1a 31 3b cd 25 cd 3c
       -0.030298542 -0.05001534 0.002702365 0.025042439
000230 74 aa 76 bc 4b 5d 21 bc b7 a7 21 bd 18 9e ce bd
       -0.015055288 -0.009848903 -0.039466586 -0.10088748
000240 cd e0 f2 bc 1c 8f 38 bd 9b e8 99 bb e4 28 b3 3c
       -0.029648209 -0.045058355 -0.004696918 0.021870084
000250 59 86 b9 3b 9c e6 66 bd ca e8 af bd 74 8c cd 3c
       0.0056617674 -0.05637227 -0.08589323 0.025091387
000260 a8 a4 00 bd 36 11 1b bd 5b 4c 46 bc c9 38 b5 bc
       -0.03140703 -0.03785821 -0.0121031655 -0.022121804
000270 6f b2 16 bd 7d a8 b1 3d 03 4a b6 bd 45 45 b0 3a
       -0.03679126 0.08674715 -0.08900835 0.0013448378
000280 3d 38 c3 bc 72 3f 10 3d 54 6e 95 3c f1 de 43 bc
       -0.023830527 0.035216756 0.018241085 -0.011955009
000290 d4 8f 9d bd 7c 8f c1 bb cf de 2a 3d ac 28 04 3d
       -0.07693449 -0.0059069972 0.041716393 0.03226535
0002a0 50 d2 9c bd 99 8a b6 3c 72 95 24 3c 0a 90 05 3c
       -0.076573014 0.022282885 0.010045396 0.008152017
0002b0 ce af 89 3d fd 67 02 bd 21 79 d3 3c ed 46 0b bd
       0.06722985 -0.031837452 0.025814595 -0.034003187
0002c0 17 e4 40 bd 6c 6b 91 bc e9 5f e8 bb 9b d0 6e 3d
       -0.047092523 -0.017751418 -0.0070915115 0.05830441
0002d0 3a 87 13 3d d7 5e 23 bc 0e 6b 0d bd 6d 4f 62 3b
       0.036017634 -0.009971342 -0.034525923 0.0034532205
0002e0 1d ea c3 3c 1f 92 4f bd 93 03 b6 3c 25 dd a3 bd
       0.023915345 -0.05067646 0.022218501 -0.08001164
0002f0 c9 17 7f 3d 40 28 fb bc b2 af b8 bd 38 33 c3 3c
       0.062278543 -0.030658841 -0.09017886 0.023828134
000300 c6 b1 59 bc 03 77 ae 3c 8d 2e fe bc 80 26 d7 bc
       -0.013287013 0.021296984 -0.031028057 -0.026263475
000310 a3 eb c6 bc e3 06 fa 3c 0b d6 33 bd 78 dc af 3b
       -0.024282282 0.030520862 -0.0439053 0.005366858
000320 22 dc 63 3c 2b da 25 3c 35 51 9f 3d f0 bd f8 bc
       0.013907464 0.010122816 0.07779161 -0.030364007
000330 09 8d a5 3c 42 11 83 bd dd 57 1c bc 7b 6d c9 bd
       0.020208852 -0.06399776 -0.009542433 -0.09835335
000340 62 ef 29 bd cc f0 ae bb 9f e0 2b 3d 6e 76 08 3d
       -0.04148806 -0.005338764 0.041962262 0.03331607
000350 01 60 08 3d 32 e9 a1 bd 6a 45 6c bd 27 fd d0 bc
       0.03329468 -0.079058066 -0.057683386 -0.025511337
000360 78 d9 ac bc 0b a8 66 bd 04 73 8a b9 ff 37 0e bd
       -0.02109979 -0.056312602 -0.00026407104 -0.03472137
000370 00 57 a5 bd 5a a8 05 3d 27 fc 10 bd 4b 2d b7 bc
       -0.080732346 0.032631256 -0.03539672 -0.022360465
000380 68 d3 7d bd b0 14 1d 3a b0 e2 8b 3c 02 f7 fd 3c
       -0.06196919 0.00059921574 0.017075866 0.031001572
000390 e0 de cf bd 6e ea 42 bd ec 57 ae 3c 41 99 35 bd
       -0.10149932 -0.04758685 0.021282159 -0.044335607
0003a0 7b 08 bd ba 28 2e 25 3d c0 ad e6 3c f7 28 4b 3d
       -0.0014422083 0.04032722 0.028159022 0.049599614
0003b0 43 d6 f0 3b 6f 1a cf bd 64 ac 7c 3c 3a 24 7c 3c
       0.0073497607 -0.10112464 0.0154219605 0.015389496
0003c0 b6 71 d3 bc 1d 77 a7 bc 92 f7 cd bb 36 35 2c 3a
       -0.025811058 -0.02044254 -0.006285616 0.00065692083
0003d0 9a 10 05 bd 3e 4e 00 3c c5 7b ae bc ea 13 45 bd
       -0.032486536 0.007831154 -0.021299252 -0.048114695
0003e0 18 40 01 bc 9a 30 9c 3c 8b dc 03 3d f7 6b ca bc
       -0.007888816 0.019066144 0.032192748 -0.024709685
0003f0 3f 1c 37 3d f7 4a 42 bd e0 c9 07 bd 9b c3 d6 bc
       0.044704672 -0.047434773 -0.033151507 -0.026216319
