frontend/pdiot_app/assets/models/model_4_class_v1.tflite (tflite, 854520 bytes, 14 tensors)

sequential/conv1d/BiasAdd/ReadVariableOp f4 [64]
-0.279732 0.01407846 -0.21393695 -0.15950303 0.04159744 -0.0339915 -0.11447021 -0.053591765
-0.32188442 -0.039394315 0.015763853 -0.04547835 -0.0076752515 0.012179435 -0.13730367 -0.33980933
-0.18392904 -0.15090199 -0.118882254 -0.043143652 -0.019823326 0.033603746 -0.25021985 0.03670713
-0.03333682 -0.026334483 -0.04684298 -0.15248686 -0.07719095 -0.043623697 0.026996577 0.002103605
-0.12086223 -0.038494527 -0.30189788 -0.039709546 -0.1623683 -0.33210227 0.040339272 0.00022221677
-0.028941223 0.019683523 -0.24590525 0.049876448 -0.033976726 -0.042907186 -0.08660862 0.014523676
-0.009687285 -0.10261463 -0.034538966 -0.33711934 -0.23572163 -0.25857317 -0.0056581493 -0.17752443
-0.25255573 -0.3389545 -0.0421916 0.018553585 -0.054552224 -0.15520345 -0.08246383 -0.15839227
00000000: 0839 8fbe 57a9 663c 4a12 5bbe c354 23be
00000010: 1462 2a3d ac3a 0bbd 5c6f eabd 0a83 5bbd
00000020: 09ce a4be ef5b 21bd 3223 813c 8247 3abd
00000030: ad80 fbbb 418c 473c 5599 0cbe 7dfb adbe
00000040: e557 3cbe 0d86 1abe 8a78 f3bd 66b7 30bd
00000050: 8764 a2bc 15a4 093d d11c 80be 375a 163d
00000060: 308c 08bd 6abb d7bc 6dde 3fbd 8425 1cbe
00000070: 4a16 9ebd c3ae 32bd ed27 dd3c a3dc 093b
00000080: 9e86 f7bd 70ac 1dbd 5c92 9abe 7aa6 22bd
00000090: e043 26be 4f09 aabe cb3a 253d dc02 6939
000000a0: 2516 edbc 573f a13c 96ce 7bbe 3f4b 4c3d
000000b0: 2e2b 0bbd 72bf 2fbd dc5f b1bd b6f4 6d3c
000000c0: 6bb7 1ebc 9e27 d2bd bb78 0dbd e89a acbe
000000d0: 0361 71be b463 84be ff67 b9bb f7c8 35be
000000e0: fc4e 81be 728b adbe 19d1 2cbd b0fd 973c
000000f0: 2772 5fbd a7ed 1ebe cce2 a8bd 9531 22be

sequential/conv1d_1/BiasAdd/ReadVariableOp f4 [64]
-0.0072700107 -0.053259343 0.018631948 -0.0039146193 -0.0023969554 -0.089631386 0.012311789 -0.0713676
-0.009125313 -0.0651909 -0.016385667 -0.04294695 -0.07871466 -0.0095442375 -0.024745753 -0.07541895
-0.027373215 -0.07644519 0.004463244 0.07808456 -0.038880635 -0.07642889 0.019273216 -0.14757204
0.003937496 0.0071621705 -0.008548408 0.026461225 -0.05682368 -0.0017821098 -0.0012950657 -0.003545873
-0.00033161967 -0.01036418 -0.040809117 -0.004444379 -0.00866301 -0.038062174 -4.657711e-05 -0.004509784
0.053287093 -0.019885236 -0.012913647 -0.005444658 -0.26937914 0.0008260562 -0.072077125 -0.09093914
-0.017542025 -0.05338893 0.094552696 -0.0043295384 -0.019532233 -0.0023449701 -0.049815785 -0.04749169
-0.069318675 -0.0005937293 0.021726156 -0.003202302 -0.001304867 -0.005395193 -0.00020322746 -0.11814362
00000000: 4539 eebb 7826 5abd 07a2 983c 3546 80bb
00000010: 3d16 1dbb a990 b7bd 63b7 493c 2d29 92bd
00000020: 5682 15bc ce82 85bd 3c3b 86bc 24e9 2fbd
00000030: 2735 a1bd 6f5f 1cbc 9bb7 cabc 4075 9abd
00000040: cb3d e0bc 4c8f 9cbd 6840 923b ccea 9f3d
00000050: 4d41 1fbd c086 9cbd dde2 9d3c 201d 17be
00000060: 1c06 813b a4b0 ea3b 9f0e 0cbc 36c5 d83c
00000070: f2bf 68bd af95 e9ba 32bf a9ba e161 68bb
00000080: 3ddd adb9 86ce 29bc 7627 27bd 27a2 91bb
00000090: 4cef 0dbc 15e7 1bbd cb5b 43b8 cfc6 93bb
000000a0: 9143 5a3d 5de6 a2bc c393 53bc 1a69 b2bb
000000b0: 10ec 89be b18b 583a 2c9d 93bd 4d3e babd
000000c0: 4bb4 8fbc 5aae 5abd d8a4 c13d cdde 8dbb
000000d0: 1002 a0bc 12ae 19bb a30b 4cbd a586 42bd
000000e0: f3f6 8dbd 80a4 1bba 0dfb b13c b6dd 51bb
000000f0: 1208 abba 29ca b0bb 7519 55b9 48f5 f1bd

sequential/conv1d_2/BiasAdd/ReadVariableOp f4 [64]
-0.0022804004 -0.037873015 -0.00233712 -0.008788334 -0.008668709 -0.024040896 -0.020219605 0.09037221
-0.014136531 -0.064452484 -0.0023362357 -0.083244845 -0.0017361915 -0.49889645 -0.1183899 -0.05381756
-0.0013913746 -0.008887965 -0.009550431 -0.010552762 -0.017172659 -0.09778818 0.015966374 -0.0313387
-0.01281213 -0.12475059 -0.05238016 -0.003476003 -0.071699046 0.029746614 -0.05750309 -0.012658034
-0.020217048 -0.046276722 -0.024476409 -0.001048596 -0.09706418 -0.09159033 -0.014347146 -0.00857677
-0.018846886 -0.0035487018 -0.001214675 -0.23109037 -0.0003497713 -0.028334668 0.056708183 0.051232513
-0.00010611583 -0.019645808 -0.04366296 -0.014748813 -0.00018346877 -0.3565945 -0.07745618 0.004265651
-0.011906043 -0.010992282 0.011896778 -0.15523969 -0.007915306 -0.14410256 -0.018883497 -0.0032096414
00000000: c572 15bb bc20 1bbd 5e2a 19bb f2fc 0fbc
00000010: 3307 0ebc 6af1 c4bc 96a3 a5bc 1115 b93d
00000020: e99c 67bc aaff 83bd 881b 19bb 467c aabd
00000030: eb90 e3ba 5b6f ffbe 6776 f2bd cd6f 5cbd
00000040: c95e b6ba d49e 11bc 6979 1cbc 7ee5 2cbc
00000050: adad 8cbc 2b45 c8bd eacb 823c 025d 00bd
00000060: f8e9 51bc 3d7d ffbd 948c 56bd a7cd 63bb
00000070: f3d6 92bd 2caf f33c 5c88 6bbd a563 4fbc
00000080: 399e a5bc a98c 3dbd c082 c8bc 0b71 89ba
00000090: 96c9 c6bd b693 bbbd 4b10 6bbc 9585 0cbc
000000a0: c964 9abc 5691 68bb bb35 9fba f4a2 6cbe
000000b0: 8261 b7b9 1b1e e8bc d746 683d 2fd9 513d
000000c0: 818a deb8 3ff0 a0bc efd7 32bd 01a5 71bc
000000d0: 8661 40b9 8e93 b6be 58a1 9ebd e0c6 8b3b
000000e0: 9011 43bc f918 34bc b4ea 423c 27f7 1ebe
000000f0: 33af 01bc 9f8f 13be 90b1 9abc d958 52bb

sequential/conv1d_3/BiasAdd/ReadVariableOp f4 [64]
0.03558739 -0.0039703967 -0.012552047 -0.016016787 -0.041981053 0.026500914 -8.8759945e-05 -0.013877355
-0.032301404 -0.047506593 -0.026166081 0.006360311 -0.026989851 -0.013352264 -0.012055263 0.007207948
-0.014706714 -0.01041007 -0.004095781 -0.015408948 -0.02214728 -0.004957922 -0.015044333 0.060472656
-0.004685321 -0.032846708 0.042946912 -0.008130821 -0.006218496 0.010544679 0.0069102836 0.015059737
-0.0058567454 -0.0052145016 -0.09792015 -0.041970335 0.025976637 -0.008859534 0.041103695 -0.0022385821
-0.013433938 -0.03676628 0.03354098 0.0064686877 0.012397328 -0.04094617 0.029057013 0.014754144
-0.024582027 -0.010739303 -0.0044260737 -0.009745251 -0.040189058 0.04935511 0.008216616 -0.0176182
0.040261947 -0.026823994 -0.007961996 -0.056752216 -0.0044320202 -0.0033942987 -0.034555484 0.03194319
00000000: 15c4 113d 1a1a 82bb 1aa7 4dbc a335 83bc
00000010: 53f4 2bbd 7218 d93c a224 bab8 d85d 63bc
00000020: 7a4e 04bd 4696 42bd 405a d6bc 286a d03b
00000030: d219 ddbc 74c3 5abc 7083 45bc a630 ec3b
00000040: 6ef4 70bc 008f 2abc e735 86bb d075 7cbc
00000050: 366e b5bc 1076 a2bb 827c 76bc 2db2 773d
00000060: 5287 99bb 458a 06bd 1ae9 2f3d 2337 05bc
00000070: 86c4 cbbb 97c3 2c3c a96f e23b 1dbd 763c
00000080: f1e9 bfbb 69de aabb 5c8a c8bd 16e9 2bbd
00000090: f5cc d43c 9427 11bc 595c 283d 2db5 12bb
000000a0: 051a 5cbc 3d98 16bd 4462 093d 49f7 d33b
000000b0: 2a1e 4b3c 2cb7 27bd f908 ee3c 5dbb 713c
000000c0: 3f60 c9bc e7f3 2fbc 9908 91bb 8caa 1fbc
000000d0: 489d 24bd 9528 4a3d fc9e 063c 0b54 90bc
000000e0: b6e9 243d febd dbbc 0873 02bc 0375 68bd
000000f0: 7b3a 91bb e272 5ebb 0d8a 0dbd ddd6 023d

sequential/conv1d/Conv1D f4 [64, 1, 3, 3]
0.0048442064 -0.086959444 0.0018992948 0.021602519 -0.018792894 0.033805117 0.027023701 -0.12618436
0.06965147 0.096561454 -0.1190735 -0.016097913 -0.019240577 0.014473595 0.034101978 -0.08714809
0.11965863 -0.017062407 0.0115179205 -0.03192001 -0.15873463 0.05502607 -0.016739478 -0.077533096
0.05645113 -0.079411425 -0.08629852 -0.046029013 -0.03907751 -0.19151646 0.009181846 0.019047093
-0.07462979 -0.03827944 -0.08575525 -0.084836684 -0.029714782 -0.1453357 0.029012272 -0.025742192
-0.033102274 0.0033603893 0.02785706 0.16027343 -0.0013505971 4.4927597e-37 -5.7534553e-37 5.4946083e-37
-4.958385e-37 -5.532507e-37 4.1544127e-37 -5.037102e-37 5.5231953e-37 4.382098e-37 -0.0035866825 -0.003132278
-0.006641423 0.0037510355 0.007848612 -0.0014762299 -0.0019660804 -0.0032231263 0.0014337335 1.6878402e-37
2.3279946e-37 5.6071606e-37 -5.416111e-37 -1.612578e-37 1.0162302e-36 2.6834327e-37 -7.1283905e-37 -5.163665e-37
-0.030784395 -0.019261325 0.11300986 -0.049114194 -0.025038231 0.12604867 -0.0019745734 0.008154131
0.12435164 0.02645738 -0.12394098 0.09008548 -0.029133728 0.1955098 -0.12094559 0.011513538
-0.08108004 0.0374767 -0.11002478 0.15751974 -0.0205001 0.018156953 0.033209667 -0.016922917
0.06102701 -0.18021208 0.018859122 -0.052293394 -0.05317078 0.31350365 0.025612602 0.0072102165
-0.05562819 0.041869506 0.022342991 -0.28654718 0.026259236 -0.085419 0.060115382 -0.021659078
-0.019545844 0.05506064 -0.046473067 0.09821669 -0.028206922 0.009886572 0.07719243 -0.007578403
-0.08365917 -0.01931696 -0.029406343 0.19254538 -0.025710598 -0.038211327 -0.083134435 -0.04267421
-0.14799657 -0.0075361533 0.022947049 -0.059110697 -0.106333084 -0.032876134 -0.082648724 -0.03256034
0.067946635 0.023547009 -0.05431208 0.045170445 0.011932101 -0.043374155 0.089140415 0.06143414
0.023628555 0.059605986 0.015728896 -0.0038834505 0.017973483 0.029765055 0.02926904 0.08838874
0.031347793 0.06377791 0.05468396 0.017119884 0.044474784 -0.011506222 0.026049713 0.15523937
0.0535787 0.027464466 -0.07046702 -0.014112655 -0.039407723 -0.023868103 0.008241862 -0.017567879
-0.1379679 0.014561452 -0.03564336 3.8103727e-37 -3.79944e-37 3.8804533e-37 -3.664197e-38 -4.5328974e-37
3.6185466e-37 -5.946524e-37 -2.8003416e-37 -4.8495725e-37 -0.038777787 -0.065803416 0.00761642 0.0030268684
0.020994453 -0.19339307 0.032370944 0.08416119 0.19151865 0.03464723 -0.14462617 0.0011071294
0.011415745 0.0031206915 0.014956853 -0.038278196 0.14668758 -0.05925131 -2.255881e-21 8.320116e-17
-5.9302413e-37 -5.1610727e-21 6.868774e-18 -6.0410143e-37 -5.224746e-23 1.5504469e-19 -6.5309e-37 -0.1415484
-0.102594614 -0.030845901 -0.022150222 0.001863198 -0.009327337 0.13338538 0.10236124 0.02291565
-0.0033431542 -0.0641237 -0.09840531 -0.035650536 0.091435894 0.31490472 0.033204854 -0.015274514
-0.20254077 -2.600189e-37 4.4374777e-37 -5.2192314e-38 -7.127095e-37 -2.8915366e-37 -8.317859e-37 -3.2323404e-37
-7.547237e-37 1.7638372e-37 -0.14186455 0.01744043 0.028585486 0.19611014 -0.032441825 -0.0062926826
-0.10788952 0.025157498 -0.035620503 0.059782427 0.056578215 0.019656222 0.015171627 -0.013987235
0.02797784 0.10966174 0.041742742 0.030235156 -0.1536259 0.050857402 0.054163523 -0.0014530275
00000000: 26bc 9e3b cb17 b2bd c2f1 f83a c4f7 b03c
00000010: 8ef3 99bc 3c77 0a3d cf60 dd3c 7936 01be
00000020: 6ea5 8e3d 03c2 c53d cfdc f3bd c5df 83bc
00000030: 6a9e 9dbc a822 6d3c 84ae 0b3d b37a b2bd
00000040: 950f f53d 76c6 8bbc a9b5 3c3c 8ebe 02bd
00000050: 558b 22be 0463 613d 3b21 89bc acc9 9ebd
00000060: 4d39 673d 75a2 a2bd 47bd b0bd eb88 3cbd
00000070: bd0f 20bd e41c 44be 746f 163c a608 9c3c
00000080: 81d7 98bd e7ca 1cbd 73a0 afbd dbbe adbd
00000090: 6a6c f3bc e2d2 14be 25ab ed3c 4ae1 d2bc
000000a0: 4096 07bd fa39 5c3b 7d34 e43c b81e 243e
000000b0: 8506 b1ba 75e1 1803 aac7 4383 caf8 3a03
000000c0: a0b9 2883 ef42 3c83 0a5e 0d03 5967 2b83
000000d0: d1f1 3b03 751d 1503 8c0e 6bbb e846 4dbb
000000e0: 4ba0 d9bb efd3 753b 7797 003c 0e7e c1ba
000000f0: 5bd9 00bb 163b 53bb 1dec bb3a a6bc 6502
00000100: 636f 9e02 42cd 3e03 fb4c 3883 247e 5b82
00000110: 11e7 ac03 fe9f b602 0a91 7283 deb5 2f83
00000120: 8e2f fcbc edc9 9dbc b771 e73d f72b 49bd
00000130: fa1c cdbc e712 013e d867 01bb e798 053c
00000140: 13ac fe3d 26bd d83c c5d4 fdbd bc7e b83d
00000150: dba9 eebc b933 483e 52b2 f7bd 47a3 3c3c
00000160: 4b0d a6bd 2b81 193d ac54 e1bd db4c 213e
00000170: d3ef a7bc e4bd 943c dc06 083d eea1 8abc
00000180: 75f7 793d 8489 38be 727e 9a3c 9931 56bd
00000190: 9bc9 59bd 8d83 a03e 85d1 d13c ae43 ec3b
000001a0: 63da 63bd 5c7f 2b3d a608 b73c 50b6 92be
000001b0: 9c1d d73c 28f0 aebd 8c3b 763d 616e b1bc
000001c0: 9b1e a0bc 4487 613d 8b5a 3ebd d525 c93d
000001d0: 3412 e7bc 4afb 213c 1117 9e3d 4154 f8bb
000001e0: 8055 abbd 9a3e 9ebc 92e5 f0bc 9e2a 453e
000001f0: 089f d2bc 7b83 1cbd 6342 aabd 27cb 2ebd
00000200: 6a8c 17be d6f1 f6bb 73fb bb3c 0f1e 72bd
00000210: 29c5 d9bd 20a9 06bd bc43 a9bd fe5d 05bd
00000220: 9b27 8b3d a8e5 c03c 5876 5ebd a504 393d
00000230: dc7e 433c 19a9 31bd 408f b63d 5da2 7b3d
00000240: ac90 c13c 6825 743d e3d9 803c 7d81 7ebb
00000250: 203d 933c d8d5 f33c a0c5 ef3c 2805 b53d
00000260: 8b66 003d fe9d 823d 4afc 5f3d 003f 8c3c
00000270: 312b 363d 9884 3cbc 3566 d53c 12f7 1e3e
00000280: 5775 5b3d 29fd e03c 0351 90bd c438 67bc
00000290: fe69 21bd 0a87 c3bc e008 073c 83ea 8fbc
000002a0: 7547 0dbe 2893 6e3c c6fe 11bd 07a9 0103
000002b0: ca49 0183 840b 0403 747f 4781 1b3f 1a83
000002c0: f943 f602 8859 4a83 d594 be82 bc05 2583
000002d0: 75d5 1ebd f1c3 86bd 2993 f93b 6d5e 463b
000002e0: 8ffc ab3c d508 46be 6597 043d b45c ac3d
000002f0: 771d 443e 41ea 0d3d e218 14be 191d 913a
00000300: 1b09 3b3c 8484 4c3b 970d 753c 99c9 1cbd
00000310: 4535 163e 80b1 72bd 1673 2a9d 4cd9 bf24
00000320: b0cb 4983 d5fa c29d bc69 fd22 a890 4d83
00000330: 39a7 7c9a 620b 3720 2a3c 5e83 10f2 10be
00000340: 201d d2bd 8bb0 fcbc 6274 b5bc 8d36 f43a
00000350: b0d1 18bc 2d96 083e c5a2 d13d 9ab9 bb3c
00000360: d218 5bbb 4953 83bd b988 c9bd 4c06 12bd
00000370: be42 bb3d 313b a13e d001 083d f541 7abc
00000380: d966 4fbe aef5 b082 e2ff 1603 bc14 8e81
00000390: c185 7283 acc9 c482 6385 8d83 50fb db82
000003a0: da68 8083 c214 7002 f144 11be 3cdf 8e3c
000003b0: 1c2c ea3c 19d1 483e b8e1 04bd d932 cebb
000003c0: 2ef5 dcbd 1917 ce3c cee6 11bd 6bde 743d
000003d0: 8fbe 673d 1606 a13c 6a92 783c b72a 65bc
000003e0: c831 e53c 5696 e03d 70fa 2a3d b8af f73c
000003f0: 1c50 1dbe da4f 503d 92da 5d3d 8373 beba

sequential/conv1d_1/Conv1D f4 [64, 1, 3, 64]
-0.023957515 -0.044634577 0.0018591748 0.039219104 -0.016907442 8.582917e-37 0.0011574224 -2.0923162e-37
-0.001841032 -0.0021239666 0.068629846 0.10766667 -0.014799401 0.0042874976 0.022169536 -0.0077611553
-0.010289102 -0.037884273 -0.011024023 -5.437049e-37 0.022194454 -0.03964166 6.209363e-37 0.012430096
0.026884364 1.9139105e-37 -0.0017211505 -0.015655387 0.06550746 -0.013431633 -0.07597808 -0.04112192
0.0062289117 -0.025710896 -6.0341145e-37 0.05394683 -0.037451845 -0.007772662 0.041134074 0.048612233
-0.0060079377 -0.023935134 -0.020973075 0.03762145 0.00820972 0.010141194 -0.035606574 0.021278674
-0.028401062 0.01661279 -0.0058424436 -0.0038260452 0.028909406 -0.0024839824 -0.056659568 -0.01116658
-0.015458478 -0.04863487 0.00039004226 0.035429824 0.07603334 -3.5826758e-37 1.8967442e-37 0.03536095
-0.0063764346 -0.023694208 0.016841412 0.03490325 -0.025730098 -2.7685493e-38 -0.00032462465 5.1165084e-37
0.0065125613 -0.012153885 0.056892797 0.07078254 -0.018875796 0.030423496 -0.0073821293 -0.023211828
0.00050352624 0.008513498 -0.02856363 -4.1666334e-37 0.025816517 -0.015812637 5.6343866e-37 0.015160018
0.04611626 4.1624555e-37 -0.012175069 -0.0017867236 0.018309904 0.003655003 -0.04537559 -0.015574583
0.0111023635 0.006565568 -2.1590752e-37 0.04388843 -0.0086794775 -0.041269593 0.050335474 0.04423488
0.018353997 -0.012558155 -0.0075027235 0.027064446 0.0077309464 -0.008707525 -0.02818796 0.026399182
-0.023296308 -0.03895932 -0.03013631 -0.007621513 0.026719274 0.010268053 -0.037180107 0.0010395102
0.02044741 -0.031135332 0.005354631 0.034181856 0.060220934 5.519442e-37 -2.8172094e-37 0.035289675
0.017996186 -0.045843016 0.03605227 0.002305259 -0.018136783 2.8358463e-37 0.0013111111 -1.17290305e-36
0.027903644 0.008973149 0.022956703 0.08785184 -0.027977912 0.010229607 -0.040613323 -0.029671885
0.010965762 0.012505954 -0.056692265 7.517437e-37 0.0029555364 -0.027011264 4.6856797e-37 -0.016023275
0.01890818 -3.6088422e-37 7.741693e-05 0.0046769297 -0.004148861 -0.02407347 -0.046367973 -0.038158327
0.015517055 -0.0050120805 -5.6988566e-37 0.04012382 -0.0118366135 -0.071767256 0.018947612 0.018529892
0.0020254455 -0.053018615 -0.003849561 0.015043548 0.021763261 0.003384895 -0.0069167777 -0.0055024712
-0.05509706 -0.062343914 -0.0073082107 0.006093809 0.032860342 0.023930492 -0.048580624 -0.019965151
0.034004997 -0.0047421847 0.017362606 0.0140269 0.054443497 -3.74167e-37 -7.408044e-37 0.03045592
7.6446235e-37 -2.128078e-37 2.6330578e-37 -3.5010263e-37 -2.6629007e-37 -1.0749421e-36 8.331539e-37 8.7300625e-37
-6.3909187e-37 4.6076927e-37 -5.3622614e-38 9.853637e-37 4.4377315e-37 -6.9631503e-37 6.2817327e-37 1.0782519e-37
-1.0361051e-36 -5.2839512e-37 3.3279013e-37 -3.5256086e-37 -7.038575e-39 -4.123435e-37 -5.327195e-37 9.170367e-37
9.690776e-39 8.060504e-37 -1.1704924e-36 2.6812884e-37 -9.90179e-37 9.775442e-37 -1.0344098e-37 3.074714e-37
-2.5164729e-37 6.4793225e-37 3.484185e-37 -4.9010145e-38 2.3492065e-37 1.1274473e-36 6.392435e-37 5.0020046e-37
5.9420537e-38 -7.251002e-37 8.691008e-37 9.193073e-38 -4.6206505e-37 -1.1415953e-36 -5.0577157e-37 2.9264654e-37
-4.392487e-37 -5.392021e-37 4.5112134e-37 -2.8446173e-37 -3.8526363e-37 -6.538737e-37 3.3870245e-37 -1.0301149e-37
7.0766155e-37 -6.8030296e-37 2.0446613e-37 -4.445926e-38 -1.435506e-37 -2.8902146e-37 1.1416863e-37 -2.3807926e-37
00000000: 8d42 c4bc bfd2 36bd 8eaf f33a 36a4 203d
00000010: 7a81 8abc e007 9203 a7b4 973a 4a65 8e82
00000020: c84e f1ba 3f32 0bbb ce8d 8c3d 5880 dc3d
00000030: 3079 72bc 237e 8c3b e39c b53c 4a51 febb
00000040: 9f93 28bc 8a2c 1bbd 1b9e 34bc 6003 3983
00000050: 25d1 b53c 4b5f 22bd 2e4b 5303 9aa7 4b3c
00000060: 993c dc3c 0641 8202 3a98 e1ba ba3f 80bc
00000070: c628 863d 5a10 5cbc 659a 9bbd 756f 28bd
00000080: e61b cc3b a89f d2bc 8d54 4d83 5af7 5c3d
00000090: 1b67 19bd d1b1 febb 347c 283d 9f1d 473d
000000a0: 3cde c4bb 9d13 c4bc bacf abbc f318 1a3d
000000b0: 1082 063c 4027 263c 33d8 11bd 9d50 ae3c
000000c0: 58a9 e8bc 8c17 883c f871 bfbb 63be 7abb
000000d0: 6bd3 ec3c 4fca 22bb dd13 68bd 08f4 36bc
000000e0: 8e45 7dbc 5c35 47bd 967e cc39 dd1e 113d
000000f0: 5eb7 9b3d 04d3 f382 f215 8102 a5d6 103d
00000100: 69f1 d0bb 5b1a c2bc 00f7 893c b6f6 0e3d
00000110: edc7 d2bc f2bb 1681 6232 aab9 131b 2e03
00000120: 5367 d53b 1721 47bc 6c08 693d 70f6 903d
00000130: 6aa1 9abc b23a f93c cae5 f1bb bb26 bebc
00000140: 13ff 033a 337c 0b3c 46fe e9bc 7fc8 0d83
00000150: 297d d33c 8189 81bc 6eba 3f03 b961 783c
00000160: 67e4 3c3d 1aa4 0d03 f179 47bc 7f30 eaba
00000170: a7fe 953c c688 6f3b c1db 39bd 892c 7fbc
00000180: b0e6 353c fa23 d73b 65f0 9282 5bc4 333d
00000190: 5e34 0ebc 4e0a 29bd 922c 4e3d a22f 353d
000001a0: 1f5b 963c b8c0 4dbc 68d9 f5bb 42b6 dd3c
000001b0: e153 fd3b 02aa 0ebc 70ea e6bc 1943 d83c
000001c0: e6d7 bebc cf93 1fbd 6ce0 f6bc e3bd f9bb
000001d0: 61e2 da3c 563b 283c 2b4a 18bd 2d40 883a
000001e0: 5481 a73c 860f ffbc e775 af3b 4602 0c3d
000001f0: 3aaa 763d 1fd1 3b03 b6ba bf82 e88b 103d
00000200: bd6c 933c e3c5 3bbd 8cab 133d d413 173b
00000210: 9793 94bc 69ff c002 97d9 ab3a 228f c783
00000220: 2f96 e43c 1d04 133c b20f bc3c aaeb b33d
00000230: ef31 e5bc 159a 273c 285a 26bd 7412 f3bc
00000240: bda9 333c c6e5 4c3c 2636 68bd 1dce 7f03
00000250: acb1 413b ba46 ddbc 0772 1f03 3e43 83bc
00000260: 54e5 9a3c e69a f582 e65a a238 ee40 993b
00000270: 2bf3 87bb ba35 c5bc 58ec 3dbd e84b 1cbd
00000280: 3f3b 7e3c 613c a4bb 0bec 4183 e058 243d
00000290: 5bee 41bc b6fa 92bd 0638 9b3c 00cc 973c
000002a0: 56bd 043b 0c2a 59bd eb48 7cbb 3779 763c
000002b0: de48 b23c 1dd5 5d3b 23a6 e2bb 134e b4bb
000002c0: 74ad 61bd 555c 7fbd b779 efbb 93ae c73b
000002d0: 9198 063d e109 c43c 7afc 46bd f58d a3bc
000002e0: d348 0b3d 5464 9bbb 063c 8e3c 15d1 653c
000002f0: 2500 5f3d 16a5 fe82 2a15 7c83 b27e f93c
00000300: 0811 8203 59d4 9082 5632 b302 7b44 ee82
00000310: 463a b582 55e4 b683 f8c0 8d03 c988 9403
00000320: c178 5983 aaca 1c03 82f9 9181 a4a6 a703
00000330: 1802 1703 98f1 6c83 9cc1 5503 98c3 1202
00000340: be48 b083 b5cd 3383 387c e202 c4f0 ef82
00000350: afa4 4c80 2f50 0c83 6a46 3583 9506 9c03
00000360: f185 6900 7224 8903 2226 c783 a27a b602
00000370: 6178 a883 0e52 a603 eccb 0c82 1341 d102
00000380: 2443 ab82 dc7a 5c03 101f ed02 166b 8581
00000390: f3e0 9f02 41d3 bf03 f685 5903 9b35 2a03
000003a0: 12c2 a101 23bd 7683 aede 9303 5e42 fa01
000003b0: 8b3b 1d83 7d3b c283 eb1a 2c83 382a c702
000003c0: f577 1583 217b 3783 3682 1903 3998 c182
000003d0: 3219 0383 6f80 5e83 4a82 e602 4436 0c82
000003e0: 04ce 7003 bf7e 6783 0627 8b02 2a0f 7281
000003f0: 1564 4382 a4b2 c482 f665 1b02 4207 a282

sequential/conv1d_2/Conv1D f4 [64, 1, 3, 64]
-1.7051648e-37 1.12423005e-36 -7.304449e-38 3.933033e-37 8.074707e-37 2.6053845e-37 1.0192851e-36 -6.9327706e-37
-3.6077826e-37 2.1124388e-37 -3.1427838e-37 -1.1000644e-36 -5.7380343e-37 -3.66755e-37 3.5210227e-37 -2.2134704e-37
2.0705864e-37 7.576103e-37 -1.1618898e-36 -6.4005727e-37 -6.7479063e-37 -4.544641e-37 -4.735705e-37 3.2438826e-37
4.036927e-37 -5.3932857e-37 1.13412255e-36 -8.6437644e-38 3.153916e-37 7.776512e-37 -1.2683233e-37 1.0558121e-36
1.8762906e-37 7.968207e-37 -3.0381965e-37 -4.6849363e-37 3.186793e-37 -7.115467e-37 5.1605284e-37 -4.574121e-37
5.729945e-37 1.5534103e-37 5.033118e-37 3.2940144e-37 -6.54911e-40 -3.9739546e-38 -6.679065e-37 3.442817e-37
-2.4988734e-37 5.8292635e-37 -1.0256361e-36 -6.285384e-37 -3.5975094e-37 -1.89696e-37 8.863067e-37 -5.388741e-37
-4.8852152e-37 9.624781e-37 9.239094e-37 5.3146246e-37 -6.522546e-37 -5.814048e-37 -4.7295568e-37 9.6803025e-37
-1.0879473e-36 5.0668692e-37 -2.537108e-37 -1.0379919e-36 -5.193134e-37 3.8459105e-37 -9.090736e-37 2.7691985e-37
-5.7566502e-37 1.0688399e-36 -5.4303903e-37 -1.3609507e-37 -6.0523735e-37 7.0424597e-37 6.5796317e-37 -4.2690883e-38
4.620282e-37 7.37565e-37 2.104687e-37 -9.539627e-38 3.3513984e-38 -1.8800422e-37 4.4202487e-37 6.850678e-37
-3.3556224e-37 -6.215326e-37 2.5905847e-37 3.6003925e-37 8.917697e-37 -1.1220905e-37 2.821772e-37 2.6344626e-37
6.212761e-37 3.7790293e-37 -2.2031663e-38 3.919457e-37 1.0258642e-36 -6.972879e-37 -5.540988e-37 9.4023366e-38
-5.5923243e-37 2.6037442e-37 -9.492911e-37 -2.3316813e-37 -5.838785e-37 2.5995062e-37 -9.995798e-37 3.6634285e-37
-1.771424e-37 -1.1673224e-36 3.0656047e-37 -1.0327599e-37 4.729143e-37 -6.916083e-37 7.500994e-37 4.4369845e-37
-1.2968051e-37 -5.2616757e-37 -8.505404e-37 8.110812e-37 -7.657248e-37 -5.618743e-37 8.232751e-37 -6.5963926e-37
-7.7256495e-37 7.434724e-37 -6.350412e-37 1.3239311e-37 -4.947571e-37 2.3537218e-38 2.2344204e-37 5.713988e-38
-5.081981e-37 6.012545e-37 3.5326306e-37 -3.8512677e-37 1.0224198e-36 3.1311438e-37 -3.3125873e-37 7.250695e-38
-9.793433e-38 -1.1534369e-36 -1.0059154e-36 1.8760704e-37 -3.776114e-37 -1.7319184e-38 4.3611296e-37 -6.871312e-37
-3.9289355e-37 -2.9652762e-37 -4.0079593e-37 -1.7555005e-37 7.803243e-37 -5.785254e-37 8.167671e-37 -1.8232124e-37
-5.5398987e-37 6.059754e-37 5.6719925e-37 -1.1420059e-36 4.8621604e-37 -5.8870737e-37 5.145484e-38 8.954362e-37
4.9568788e-37 -5.8059096e-37 -6.2987164e-37 3.2906647e-37 -9.343598e-37 3.8132215e-37 -7.3638593e-38 -5.8242287e-37
-7.857269e-37 -5.3556546e-38 -3.1812036e-37 8.44543e-37 -6.355939e-38 -7.1240906e-37 6.2174236e-37 5.389292e-39
-2.265942e-37 -5.7734954e-38 -3.6008416e-37 3.3278094e-37 -1.6045921e-37 -2.1226726e-37 -1.4364123e-37 -8.637893e-37
6.128009e-37 -5.3757293e-37 -4.739329e-37 -7.193471e-37 -1.2999199e-37 1.6291013e-37 -1.7392455e-37 5.7062936e-37
-3.9561274e-37 7.722606e-37 8.563721e-37 5.471785e-37 -3.8246743e-38 8.4820624e-38 -4.3344363e-37 4.799904e-37
-2.767737e-37 -4.40409e-37 -2.4697437e-37 2.1000948e-37 -2.8463515e-37 6.1718964e-37 4.4779324e-37 -2.0734258e-37
2.6354877e-37 3.8279815e-37 -3.4873234e-37 -4.8991932e-37 -6.666762e-38 4.1933823e-37 -1.0427259e-36 -6.8043365e-38
-6.6041807e-37 -1.1068212e-37 2.379878e-37 1.1000391e-36 6.6548126e-37 -8.948816e-37 -8.22216e-40 1.0169746e-36
-1.0365571e-36 8.503777e-37 8.100531e-39 -4.679252e-37 4.3363874e-37 -2.6873914e-37 7.580414e-37 -7.609606e-37
3.116239e-37 8.102689e-37 2.594051e-37 -6.665727e-37 -6.2915288e-37 2.6270934e-37 -3.5547117e-37 -9.4366075e-37
4.6040148e-37 -4.7808053e-37 -8.158807e-38 -1.0625774e-36 8.045105e-37 2.6488373e-37 1.8296576e-37 -2.7581865e-37
00000000: 5218 6882 2047 bf03 94d8 c681 8dd5 0503
00000010: 4f62 8903 3350 b102 216c ad03 f3e8 6b83
00000020: 7088 f582 e0c3 8f02 04e3 d582 902a bb83
00000030: 5441 4383 bc99 f982 dea0 ef02 18a4 9682
00000040: b4ea 8c02 95e6 8003 70af c583 dacc 5983
00000050: 8e9e 6583 68a5 1a83 cf25 2183 68c4 dc02
00000060: 985e 0903 2586 3783 01f6 c003 3f4e eb81
00000070: f7a4 d602 7d4f 8403 9ea2 2c82 1aa3 b303
00000080: 2f63 7f02 7092 8703 d9c4 ce82 8d6b 1f83
00000090: c4e1 d802 7620 7283 8b9a 2f03 37a6 1b83
000000a0: dcfa 4203 7370 5302 a444 2b03 d32d e002
000000b0: a021 0780 d85c 5881 dd46 6383 554e ea02
000000c0: 8410 aa82 0c5c 4603 c180 ae83 6be1 5583
000000d0: 74d5 f482 b419 8182 1acc 9603 8e5e 3783
000000e0: 3a3c 2683 d5c1 a303 ee31 9d03 e9d8 3403
000000f0: 64f3 5d83 80d7 4583 40f0 2083 aab3 a403
00000100: ca1a b983 a86a 2c03 a8aa ac82 ec9a b083
00000110: 94b6 3083 9bde 0203 bdab 9a83 3e76 bc02
00000120: 7fe3 4383 8bda b503 5fc9 3883 363e 3982
00000130: 9cf3 4d83 7aa4 6f03 ade4 5f03 686e 6881
00000140: 5538 1d03 f9fa 7a03 d23c 8f02 c0d8 0182
00000150: ad77 3601 e9e5 7f82 cc69 1603 d21d 6903
00000160: 305f e482 207f 5383 5a4e b002 af07 f502
00000170: 0cba 9703 26bb 1882 340a c002 d04a b302
00000180: c868 5303 fd97 0003 50e7 ef80 495f 0503
00000190: b08a ae03 5846 6d83 d08c 3c83 b9f4 ff01
000001a0: 044c 3e83 9f33 b102 7583 a183 9eaf 9e82
000001b0: feae 4683 c9e9 b002 d711 aa83 ed51 f902
000001c0: 1e1d 7182 109c c683 5ea2 d002 6e92 0c82
000001d0: a5ec 2003 9457 6b83 e03e 7f03 96fb 1603
000001e0: 1083 3082 a90b 3383 42b6 9083 92ff 8903
000001f0: 0548 8283 2832 3f83 b012 8c03 af76 6083
00000200: f371 8383 95fd 7c03 e417 5883 4434 3402
00000210: 6c5b 2883 1826 0001 1811 9802 af8c 9b01
00000220: 4cee 2c83 a798 4c03 1b6b f002 460d 0383
00000230: aaf4 ad03 3818 d502 6971 e182 f861 c501
00000240: 224d 0582 433f c483 cc25 ab83 835b 7f02
00000250: 987e 0083 d796 bc80 cc66 1403 92d1 6983
00000260: dbb1 0583 66ce c982 4062 0883 44f2 6e82
00000270: ebc3 8403 acdc 4483 39f7 8a03 ae29 7882
00000280: 5383 3c83 e733 4e03 0602 4103 5f4d c283
00000290: 6473 2503 a553 4883 ca12 8c01 bf59 9803
000002a0: 81ac 2803 9b90 4583 8f55 5683 77f3 df02
000002b0: 1cf9 9e83 d8c1 0103 9c76 c881 3030 4683
000002c0: 3caf 8583 77cb 9181 6280 d882 09b1 8f03
000002d0: 6e06 ad81 956b 7283 6691 5303 27af 3a00
000002e0: 4736 9a82 642b 9d81 820f f582 9e7a e202
000002f0: e067 5a82 2c76 9082 aa83 4382 55f7 9283
00000300: 7d86 5003 35ed 3683 6145 2183 f8c7 7483
00000310: 99ef 3082 e5bd 5d02 dcbb 6c82 d42c 4203
00000320: bb9e 0683 b164 8303 44b4 9103 f831 3a03
00000330: 2e3c 5081 59e7 e601 447e 1383 1055 2303
00000340: c85c bc82 09dd 1583 0115 a882 d0ec 8e02
00000350: 70b6 c182 cd04 5203 4b60 1803 2c1c 8d82
00000360: ac5c b302 6c42 0203 be55 ed82 feb5 2683
00000370: 8d7c b581 83b1 0e03 1e69 b183 4e3b b981
00000380: 87ba 6083 17a7 1682 53f7 a102 7629 bb03
00000390: 9873 6203 9741 9883 01f4 0880 7e07 ad03
000003a0: 6e5c b083 2caf 9003 fc34 5800 093a 1f83
000003b0: 438f 1303 f6e4 b682 5cf9 8003 8278 8183
000003c0: 8a14 d402 30dc 8903 be8a b002 acd2 6283
000003d0: f216 5683 6cca b202 d0eb f182 398e a083
000003e0: a0aa 1c03 b0ae 2283 961a de81 c6c9 b483
000003f0: 60e1 8803 4145 b402 430a 7902 63b6 bb82

sequential/conv1d_3/Conv1D f4 [64, 1, 3, 64]
3.9434557e-37 -5.315622e-37 5.0765753e-38 -9.624205e-37 -0.05938311 -4.045313e-37 -0.032014165 0.051102903
1.0144834e-37 -4.1563477e-37 8.074992e-37 -1.6772929e-37 8.069265e-38 -0.027682716 0.0028963513 9.07078e-38
-6.0693577e-37 5.8333073e-37 -6.2461514e-37 -5.110412e-37 -0.036015894 -3.573077e-37 0.009506928 7.2275863e-37
6.1332977e-37 0.053075418 -0.0040129814 -8.906359e-37 4.7110883e-37 -0.06392764 -1.3117494e-37 7.5047815e-37
6.2983294e-37 1.00581e-36 -4.9776364e-37 5.7923257e-37 -1.8623158e-37 3.8939766e-37 -0.043554146 6.1125863e-37
-0.011762718 7.229463e-37 -1.1404079e-36 1.15651185e-36 -4.094983e-37 -4.629204e-37 -0.022162843 -0.02984461
8.328332e-37 -8.000795e-37 5.3349226e-37 -0.07828295 -1.5649868e-37 -5.1005363e-37 4.3676433e-37 -0.050694294
-0.04860545 -0.06244847 0.0014101686 0.005369837 3.3439533e-37 -3.549003e-37 -1.1213814e-36 -6.140498e-37
-7.3111023e-37 -1.0967237e-36 -1.1252781e-37 -7.066548e-37 -0.04962963 -6.256748e-37 -0.018944545 0.0390451
-2.606288e-38 -7.200692e-37 -6.7312616e-37 -2.8514857e-37 -3.5552251e-37 -0.015445833 -0.03568829 -1.1492424e-36
-1.9703954e-37 1.11823635e-36 3.230624e-38 8.245731e-37 -0.022149121 -3.909047e-37 0.02044666 -2.1850014e-37
2.766566e-37 0.045881562 -0.0013644119 4.457563e-38 -6.271288e-37 -0.053795144 -7.3150255e-37 2.5241376e-38
1.889594e-37 5.7730963e-38 -4.4882433e-37 1.7636686e-37 8.683631e-37 5.051771e-37 -0.03369692 1.7647296e-38
-0.018235985 6.2820555e-37 -7.583095e-37 9.14383e-37 -4.35571e-37 -5.260417e-37 -0.023276038 -0.031054022
-1.6616238e-37 6.4706367e-37 4.875343e-37 -0.057097904 6.801353e-37 1.5614976e-37 6.087331e-37 -0.034237094
-0.042020157 -0.03338514 0.004774185 -0.001068298 2.8104195e-38 4.793622e-38 2.2439078e-37 9.826383e-37
-1.4377715e-37 -8.3404675e-37 -4.3581436e-37 -4.8709875e-37 -0.061460234 -1.2205536e-37 -0.0232115 0.051743776
4.1116016e-37 5.2981786e-37 8.246285e-37 1.0162728e-36 -3.0807876e-37 -0.020246036 -0.027222948 -1.6950407e-37
-5.651332e-37 1.901549e-37 -6.3779465e-37 -5.972756e-37 -0.005110124 -3.2982687e-37 0.022144157 -9.222699e-37
-4.245075e-37 0.07643104 0.001093612 6.5711495e-37 -4.331679e-37 -0.053946804 -4.2602307e-37 9.181665e-37
-7.785015e-37 2.7709325e-37 -3.1476042e-37 -9.893172e-37 6.4252378e-37 4.9332943e-37 -0.049208265 5.7386665e-37
-0.026697118 -2.935812e-37 -8.889858e-37 1.0165298e-36 -6.7298738e-37 -4.7393887e-38 -0.015364146 -0.04400092
-7.925556e-37 7.005659e-37 7.594151e-37 -0.058605287 -1.4747574e-37 -3.0349627e-37 -3.2146162e-38 -0.022655228
-0.06785671 -0.04317855 0.019605853 0.0045236214 -3.2391702e-37 1.0581436e-37 6.1559445e-37 1.3356164e-37
-5.8951523e-37 -4.487466e-38 -7.89506e-37 -5.5769822e-37 -1.1136676e-36 3.7397445e-37 1.7343205e-37 2.006633e-37
1.0536905e-36 -1.0991257e-36 -5.554034e-37 7.0948934e-37 1.5766516e-37 3.5130965e-37 4.5294693e-37 9.700029e-37
7.446457e-37 7.2832983e-37 -5.046374e-37 8.527102e-39 -3.2854171e-37 1.1125059e-37 -7.1691133e-37 5.2204108e-37
-1.7628211e-38 -3.3331752e-37 -6.241151e-37 1.1424839e-36 7.072631e-37 -9.95686e-37 -3.907502e-37 8.8121145e-37
8.632875e-37 3.912085e-38 -5.224092e-37 -6.7475395e-37 1.05314535e-36 1.9876843e-37 4.9580753e-38 4.878603e-37
-1.0860097e-36 -3.3526826e-37 -2.0969945e-37 -6.1574646e-37 2.63871e-37 -4.225291e-37 1.5322726e-37 -2.822556e-39
-3.4565356e-37 -5.5823484e-37 -6.8110276e-37 -7.59262e-37 9.532859e-38 2.4037618e-37 -4.203094e-37 -6.416389e-37
1.9802067e-37 -5.555593e-37 -1.1699082e-37 -6.199964e-37 9.477404e-37 -3.0611186e-37 -6.9203387e-37 -1.1523635e-36
00000000: 5830 0603 99e1 3483 9132 8a01 53bf a383
00000010: b43b 73bd a5a7 0983 4921 03bd 4751 513d
00000020: 9615 0a02 e56e 0d83 8d63 8903 214d 6482
00000030: 92aa db01 ddc6 e2bc b6d0 3d3b 1cee f601
00000040: 9087 4e83 467f 4603 a78b 5483 f8e5 2d83
00000050: 6785 13bd c82b f382 f2c2 1b3c 28f1 7503
00000060: 8fb4 5003 9c65 593d 547f 83bb aa88 9783
00000070: 5e4f 2003 7fec 82bd cc8b 3282 de5f 7f03
00000080: 3052 5603 3421 ab03 5461 2983 461a 4503
00000090: 3c7c 7d82 5281 0403 d565 32bd 2300 5003
000000a0: 6ab8 40bc 8101 7603 c507 c283 32c5 c403
000000b0: 5558 0b83 0e86 1d83 da8e b5bc af7c f4bc
000000c0: 00b3 8d03 6120 8883 bb89 3503 d052 a0bd
000000d0: d503 5582 f08f 2d83 8a9f 1403 d2a4 4fbd
000000e0: 8216 47bd f8c9 7fbd 68d5 b83a 75f5 af3b
000000f0: e293 e302 5a88 f182 0ccb be83 48f3 5083
00000100: afc8 7883 0e99 ba83 382a 1982 5176 7083
00000110: 7048 4bbd f6e7 5483 9731 9bbc c1ed 1f3d
00000120: 5ae6 0d81 e006 7583 8f0d 6583 e30f c282
00000130: c2f4 f182 8510 7dbc e22d 12bd 9188 c383
00000140: 2119 8682 1042 be03 54e4 2f01 394b 8c03
00000150: 1372 b5bc 9a04 0583 c17f a73c 18b4 9482
00000160: 6148 bc02 4eee 3b3d 11d6 b2ba 5cb1 7201
00000170: a066 5583 4c58 5cbd dcea 7883 586d 0901
00000180: 5f99 8002 9c28 9d01 1dba 1883 e20e 7002
00000190: 8cbe 9303 22e7 2b03 c805 0abd 7b29 c000
000001a0: a263 95bc 6cc4 5503 0905 8183 ff92 9b03
000001b0: 9637 1483 b200 3383 64ad bebc 0165 febc
000001c0: 242b 6282 322f 5c03 3ae6 2503 7edf 69bd
000001d0: 2470 6703 408a 5402 2224 4f03 323c 0cbd
000001e0: 541d 2cbd dbbe 08bd c470 9c3b 2206 8cba
000001f0: 8803 1901 ab7e 8201 63b6 9802 ef2f a703
00000200: 06b3 4382 dce7 8d83 c94c 1483 49c0 2583
00000210: babd 7bbd 1622 2682 0b26 bebc 48f1 533d
00000220: 1ae9 0b03 a549 3403 a34d 8c03 ece8 ac03
00000230: e4aa d182 04db a5bc a902 dfbc 8cb7 6682
00000240: 0b4e 4083 a869 8102 c007 5983 0b3e 4b83
00000250: d472 a7bb f277 e082 aa67 b53c 85ea 9c83
00000260: d273 1083 e187 9c3d 8857 8f3a c99a 5f03
00000270: 3f66 1383 53f7 5cbd d8f7 1083 cb37 9c03
00000280: 8674 8483 7494 bc02 0037 d682 d752 a883
00000290: b7a3 5a03 0edf 2703 9b8e 49bd d646 4303
000002a0: eab3 dabc 0fcd c782 cb40 9783 1ef4 ac03
000002b0: 7801 6583 b804 8181 e6b9 7bbc 4f3a 34bd
000002c0: aad8 8683 e663 6e03 3135 8103 190c 70bd
000002d0: ccbb 4882 828c ce82 3605 2f81 7597 b9bc
000002e0: 75f8 8abd fedb 30bd 749c a03c e33a 943b
000002f0: 4e72 dc82 ec06 1002 d779 5103 70cb 3502
00000300: 059a 4883 2652 7481 d653 8683 5ec6 3d83
00000310: 117b bd83 8a83 fe02 4010 6c02 7a90 8802
00000320: b246 b303 ad01 bb83 76fe 3c83 3d6d 7103
00000330: 4a9a 5602 c616 ef02 3e21 1a03 9609 a503
00000340: ca63 7d03 7ad6 7703 1eb8 2b83 17da 5c00
00000350: 0a98 df82 2c6d 1702 c9f3 7383 31a4 3103
00000360: 48f4 bf80 1ad8 e282 1860 5483 3162 c203
00000370: 4eab 7003 3e68 a983 25f7 0483 2cee 9503
00000380: 79e1 9203 82fe 5401 42c4 3183 5c9b 6583
00000390: f32e b303 5846 8702 bef8 8601 a002 2603
000003a0: 65c6 b883 f82b e482 ccb6 8e82 1587 5183
000003b0: d094 b302 7ac7 0f83 e88f 5002 23bc 1e80
000003c0: 583d eb82 1df5 3d83 6bc4 6783 862e 8183
000003d0: 2ac1 0102 7097 a302 1d06 0f83 a256 5a83
000003e0: 11c4 8602 0a0c 3d83 5a3d 1f82 4ef9 5283
000003f0: eb3f a103 3554 d082 a77c 6b83 8210 c483

sequential/dense/BiasAdd/ReadVariableOp f4 [64]
-0.0032374656 -0.037370194 -0.45250085 -0.030055167 -0.038711417 -0.06425559 -0.010214936 -0.03327145
0.015881011 0.0012433422 -0.012021251 -0.01224805 -0.034296494 0.17998368 -0.030994846 -0.061342694
0.10520115 -0.030882066 0.11815106 -0.04466992 -0.027779618 -0.25233206 -0.040228233 -0.08466444
-0.055708896 0.08186892 -0.020463914 -0.01034088 -0.09268392 -0.03846314 -0.06891941 0.115371235
0.12228872 -0.03841653 0.28268844 -0.08176758 0.3337016 -0.024046252 -0.03251815 -0.03812608
-0.028126644 0.21466489 0.0067028357 0.4110672 0.12880076 0.06453692 -0.07508136 0.03865841
-0.0077807396 0.03952075 -0.0134999445 -0.01275665 0.068693146 0.10100088 -0.007879369 -0.057725064
-0.029762441 -0.026237093 -0.08560348 -0.016097961 -0.023608727 0.11606317 -0.017328555 -0.048134487
00000000: a92b 54bb 7d11 19bd 31ae e7be 4136 f6bc
00000010: dd8f 1ebd 6f98 83bd 8c5c 27bc a547 08bd
00000020: e518 823c a4f7 a23a c8f4 44bc 0cac 48bc
00000030: 7b7a 0cbd a44d 383e e7e8 fdbc 7a42 7bbd
00000040: b373 d73d 63fc fcbc 2ff9 f13d cef7 36bd
00000050: 1592 e3bc ab31 81be 5cc6 24bd 8d64 adbd
00000060: 032f 64bd e4aa a73d f0a3 a7bc cb6c 29bc
00000070: 11d1 bdbd 878b 1dbd 9f25 8dbd c147 ec3d
00000080: 8272 fa3d a75a 1dbd 8abc 903e c375 a7bd
00000090: f0da aa3e a5fc c4bc c031 05bd 182a 1cbd
000000a0: d969 e6bc 1dd1 5b3e 76a3 db3b 6677 d23e
000000b0: 59e4 033e ef2b 843d 42c4 99bd 4858 1e3d
000000c0: 93f5 febb 83e0 213d df2e 5dbc 4501 51bc
000000d0: feae 8c3d 8dd9 ce3d 7818 01bc 1e71 6cbd
000000e0: 5dd0 f3bc 2cef d6bc e150 afbd dfdf 83bc
000000f0: 1767 c1bc 87b2 ed3d 9df4 8dbc ab28 45bd

sequential/dense_2/BiasAdd/ReadVariableOp f4 [4]
-0.09613734 0.13719499 0.10549854 -0.07762584
00000000: a7e3 c4bd d87c 0c3e 9e0f d83d 4cfa 9ebd

sequential/dense_1/BiasAdd/ReadVariableOp f4 [32]
0.23185688 0.33161527 0.25625974 -0.056378614 0.07913162 0.2735789 -0.00072441704 0.26138592
0.0031198268 0.0872587 0.04160434 0.034332313 0.07534089 0.19922118 -0.06894929 0.2983906
0.21863791 -0.07826767 0.3380857 -0.025695631 0.1723658 0.069128625 0.046610698 -0.11717081
-0.12992981 0.043136228 0.1207184 0.08573999 0.14327744 -0.03491704 -0.06178021 0.15526102
00000000: e46b 6d3e 7ac9 a93e 7a34 833e 43ed 66bd
00000010: c20f a23d 8912 8c3e cee6 3dba 60d4 853e
00000020: 0276 4c3b b0b4 b23d 5069 2a3d 0aa0 0c3d
00000030: 534c 9a3d a300 4c3e 4935 8dbd a7c6 983e
00000040: 9ee2 5f3e cd4a a0bd 9219 ad3e a57f d2bc
00000050: a980 303e 4f93 8d3d dcea 3e3d 40f7 efbd
00000060: 520c 05be 9daf 303d 353b f73d 7398 af3d
00000070: 52b7 123e 2c05 0fbd 3f0d 7dbd bffc 1e3e

sequential/dense/MatMul f4 [64, 2688]
0.17102847 0.1019652 0.021183513 -0.030918457 -0.17467028 0.09103275 0.02192826 0.044850726
-0.27375984 -0.044389084 0.03782555 -0.17297602 -0.011285004 0.024014939 -0.09671882 -0.19360048
-0.0119877625 -0.0494929 0.031075059 0.13387537 -0.051140826 0.0037206265 0.0553833 0.14236543
-0.2690244 0.033556204 0.27714455 -0.0012761649 -0.049549997 -0.16284093 0.007855842 0.10351192
0.045294363 0.0023294154 -0.034035284 -0.0027060788 0.006498548 -0.01457257 0.096323095 -0.2243439
-0.06867611 -0.04141653 0.13633034 -0.17275555 -0.21889414 0.0032453265 0.29356462 0.15150486
-0.040189188 0.016063007 -0.16700624 -0.03247595 -0.042571977 0.29414335 -0.13837947 -0.18104793
0.09303749 0.00402292 -0.00094522926 -0.0055461745 -0.15851787 0.049282245 -0.11249887 -0.0036106908
0.13923378 0.017321661 0.001207631 -0.033515185 -0.11016601 0.096996695 -0.035093796 -0.00428786
-0.17149019 0.030011425 0.018158864 -0.065156505 0.04046103 -0.0006879154 0.004200424 -0.14293844
-0.0035807872 -0.0029363802 0.029081725 0.019266617 -0.045107357 0.055640455 -0.05722328 0.04716582
-0.20616701 -0.022590747 0.36785245 0.018235568 -0.086124025 -0.16731288 -0.08740882 0.05578171
-0.036400687 -0.006675227 -0.053996246 -0.021658838 -0.052885853 -0.013866811 0.08540506 -0.2124932
0.035728768 -0.012424078 0.29640073 -0.11228897 -0.14565985 -0.019368205 0.16161062 0.09177324
-0.047301605 -0.067035854 -0.14307907 0.04046074 -0.058308426 0.11784832 -0.006901933 -0.06256133
-0.012814868 0.008169976 -0.061003674 -0.13323002 -0.013187394 0.009840238 -0.17168365 -0.027579611
0.044260807 -0.020481998 -0.07378916 -0.016127469 -0.1264543 0.16422486 -0.041416302 -0.07470922
-0.103557676 -0.0080321 -0.023499433 -0.11164468 -0.023835408 0.0018256604 -0.004301329 -0.036596045
-0.0329673 0.026664445 -0.02878826 0.1637052 0.016701153 0.028834417 -0.08582597 0.021013917
-0.10392356 -0.02059681 0.24670039 0.04552049 -0.06900353 -0.17477636 -0.053389564 0.071987696
-0.02306639 0.023417864 -0.1397906 0.015185196 -0.102767676 -0.05796184 0.2042072 -0.1469783
-0.10687248 -0.011522971 0.025902154 -0.16086867 -0.040406525 -0.015541275 0.147995 -0.033859283
-0.012334713 0.0067268303 -0.14713347 -0.04814151 -0.28847525 0.07709938 -0.13179241 -0.1618292
0.09715062 -0.043180272 -0.029354315 -0.065105006 0.0022545028 0.039859872 -0.055485386 0.072939
0.048520543 0.05255072 -0.0116392905 -0.022073591 0.020635571 0.15021826 -0.016718809 -0.0016827566
-0.0063007586 0.038904384 -0.047932804 -0.048100013 -0.023229018 -0.021088174 -0.05432799 -0.062555894
-0.05022857 0.005708791 -0.030136826 0.061917786 -0.02486115 -0.023504712 -0.01000621 0.07233331
-0.095088385 -0.0013327004 0.12406996 0.045752086 -0.08327223 0.02229523 0.059119876 -0.059635628
0.003012185 0.058561746 -0.03649637 -0.0028642078 -0.23405635 0.045308325 0.036456194 -0.020996816
0.0330437 -0.018105913 -0.015353523 -0.087891184 -0.08571715 0.032215714 0.01291154 0.11284086
-0.05509204 0.018843725 -0.041422073 -0.04405929 -0.011932005 0.16387965 -0.038066864 -0.13301115
0.13644615 0.018170822 0.05098467 0.040683653 -0.026024431 -0.023425763 0.022825593 0.033495024
00000000: 1622 2f3e 21d3 d03d 0c89 ad3c b448 fdbc
00000010: c4dc 32be 616f ba3d e5a2 b33c 65b5 373d
00000020: 402a 8cbe 54d1 35bd f7ee 1a3d a020 31be
00000030: bde4 38bc faba c43c 8414 c6bd 343f 46be
00000040: 5268 44bc 11b9 4abd 1f91 fe3c a016 093e
00000050: 0b79 51bd c1d5 733b 99d9 623d 3ec8 113e
00000060: 91bd 89be 3b72 093d e4e5 8d3e fd44 a7ba
00000070: f0f4 4abd c6bf 26be cab5 003c 0ffe d33d
00000080: 9586 393d 1ba9 183b 9568 0bbd 7858 31bb
00000090: c6f1 d43b cac1 6ebc 0b45 c53d 68ba 65be
000000a0: 0fa6 8cbd 61a4 29bd 2e9a 0b3e d5e6 30be
000000b0: c925 60be 8baf 543b 1a4e 963e 1724 1b3e
000000c0: 6b9d 24bd 9196 833c af03 2bbe 8005 05bd
000000d0: f45f 2ebd f599 963e 59b3 0dbe a164 39be
000000e0: 718a be3d b3d2 833b 43c9 77ba afbc b5bb
000000f0: 8252 22be 2edc 493d cf65 e6bd 57a1 6cbb
00000100: 4d93 0e3e 28e6 8d3c 5f49 9e3a 3847 09bd
00000110: b89e e1bd 34a6 c63d 83be 0fbd 2d81 8cbb
00000120: 209b 2fbe 85da f53c e6c1 943c c670 85bd
00000130: 77ba 253d 3955 34ba b6a3 893b 745e 12be
00000140: a4ab 6abb 4970 40bb cc3c ee3c 06d5 9d3c
00000150: 7ec2 38bd 3fe7 633d f562 6abd f230 413d
00000160: 721d 53be 3b10 b9bc 2857 bc3e c262 953c
00000170: cb61 b0bd 1154 2bbe 6503 b3bd 5d7b 643d
00000180: e318 15bd ddbb dabb 2b2b 5dbd e06d b1bc
00000190: d69e 58bd 9f31 63bc d9e8 ae3d d197 59be
000001a0: 5458 123d 5c8e 4bbc d6c1 973e c2f7 e5bd
000001b0: db27 15be 12aa 9ebc 417d 253e 9cf3 bb3d
000001c0: 54bf 41bd 184a 89bd 5283 12be 29ba 253d
000001d0: d1d4 6ebd 765a f13d 9c29 e2bb 2820 80bd
000001e0: 74f5 51bc 5ddb 053c fdde 79bd 736d 08be
000001f0: f00f 58bc f338 213c d7cd 2fbe a3ee e1bc
00000200: d24a 353d ddc9 a7bc c51e 97bd c11d 84bc
00000210: 3c7d 01be 902a 283e 24a4 29bd 2601 99bd
00000220: 0c16 d4bd 1299 03bc e281 c0bc f7a5 e4bd
00000230: 7942 c3bc ff4a ef3a 2af2 8cbb bce5 15bd
00000240: b808 07bd 656f da3c 5bd5 ebbc 56a2 273e
00000250: dbd0 883c 2836 ec3c 87c5 afbd 6125 ac3c
00000260: e0d5 d4bd a4ba a8bc 079f 7c3e b173 3a3d
00000270: b951 8dbd 93f8 32be 04af 5abd 496e 933d
00000280: baf5 bcbc d2d6 bf3c 4425 0fbe 54cb 783c
00000290: dc77 d2bd 6569 6dbd b11b 513e 7b81 16be
000002a0: f5df dabd d8ca 3cbc c130 d43c c2ba 24be
000002b0: 5081 25bd d5a0 7ebc 008c 173e 08b0 0abd
000002c0: 8917 4abc be6c dc3b 28aa 16be 0830 45bd
000002d0: 07b3 93be 48e6 9d3d 97f4 06be 8eb6 25be
000002e0: e7f6 c63d ccdd 30bd 7678 f0bc c655 85bd
000002f0: 48c0 133b 1b44 233d a544 63bd 0b61 953d
00000300: 7abd 463d 6c3f 573d b9b2 3ebc add3 b4bc
00000310: ee0b a93c d1d2 193e e2f5 88bc f18f dcba
00000320: 9876 cebb 345a 1f3d 3055 44bd 8504 45bd
00000330: c84a bebc 1bc1 acbc 0787 5ebd 4e1d 80bd
00000340: 79bc 4dbd cf10 bb3b 81e1 f6bc 819d 7d3d
00000350: 9ca9 cbbc f48c c0bc 16f1 23bc 7d23 943d
00000360: b3bd c2bd 01ae aeba 6418 fe3d 8a66 3b3d
00000370: a28a aabd 7ca4 b63c af27 723d 7d44 74bd
00000380: 1468 453b 71de 6f3d 387d 15bd 6fb5 3bbb
00000390: 78ac 6fbe 3995 393d 1753 153d 8401 acbc
000003a0: d558 073d da52 94bc 588d 7bbc 4b00 b4bd
000003b0: 798c afbd a0f4 033d ed8a 533c 1c19 e73d
000003c0: 31a8 61bd 285e 9a3c 31aa 29bd 8477 34bd
000003d0: 757e 43bc 11d0 273e 00ec 1bbd 1334 08be
000003e0: 8ab8 0b3e fada 943c 4dd5 503d e7a3 263d
000003f0: 3031 d5bc 63e7 bfbc bdfc ba3c 1432 093d

sequential/dense_1/MatMul f4 [32, 64]
0.14474228 0.11330399 -0.039849207 0.119632654 0.17433663 -0.072327144 -0.021037534 0.08862823
0.29235676 0.25671816 0.13245733 0.093101054 -0.106340095 -0.27228433 0.18628912 0.15197411
-0.028292079 -0.135497 0.26240733 0.09554194 -0.46786472 -0.2660779 -0.06735324 0.12148794
0.19148386 -0.0985928 0.23614241 -0.19936162 -0.109834686 -0.22121598 -0.18836872 -0.20908809
-0.060596608 -0.12901431 -0.026507879 -0.32970926 -0.2350509 0.14292587 0.17587395 0.081560984
-0.1798101 -0.063696586 -0.20793417 0.05727341 -0.12375081 -0.20652686 0.11558577 -0.09264409
-0.00794556 0.10032228 0.20454863 0.13502441 -0.3733178 0.21946557 0.12702532 0.112154305
0.046913635 -0.21964596 -0.009879414 0.08957657 0.18125056 -0.08784719 0.20200856 0.17905354
-0.099140845 0.14813736 -0.28783014 -0.08795586 0.16273901 -0.24176295 0.13927783 0.049764056
-0.032775532 0.28148997 -0.039670028 -0.248399 -0.047729436 0.2013693 0.11781233 -0.20795259
0.23559146 0.14140835 0.27358806 0.07771515 -0.2857979 0.025929073 -0.086217575 0.11696189
-0.096911974 -0.19668011 0.18692452 -0.080334224 0.13046663 -0.2570536 0.16888577 0.1136732
-0.27846253 -0.07247326 -0.018993478 -0.030277288 0.13283944 0.0034769312 -0.1604179 0.076201074
0.026881233 0.27857277 0.104503974 0.23807636 0.041027784 0.11669794 -0.068315424 0.08797794
0.0820113 -0.4869402 -0.02302638 0.2130974 -0.14933218 0.44057116 0.038426194 0.15167658
0.18123612 -0.13820276 0.018422702 -0.12479785 -0.107799724 -0.19001807 0.1209028 -0.063392036
0.028619798 -0.18719372 -0.33494112 -0.11904577 0.06034882 0.3017068 0.052106306 0.033922054
0.08331874 0.3579289 -0.124822244 -0.22872728 0.11643762 0.21934156 0.17041188 0.13272075
0.1240739 0.2118691 -0.16414496 0.15390104 0.24123716 0.22693533 -0.021272535 0.029424751
-0.056196477 -0.20825396 0.22647917 -0.106485166 -0.07675391 0.2161116 0.24456383 0.315885
-0.030748596 0.090966806 -0.18248284 -0.056046195 -0.12739226 -0.23031047 0.12459493 0.088808484
0.07718291 0.19854832 -0.18622845 0.12118159 -0.027047537 -0.3918802 -0.23191305 -0.40754423
-0.17922185 -0.06311264 0.45830208 -0.020297758 -0.17541225 -0.33728603 -0.13156891 -0.16546983
0.24253386 -0.08101834 -0.28397104 -0.046214134 0.19535846 -0.16674551 -0.18604237 -0.21223459
-0.08409743 -0.18699968 -0.18604706 -0.18519741 -0.24077839 0.027838292 0.19755043 -0.14481404
0.38420832 0.28744978 -0.046323776 0.10465578 0.27704278 -0.23454139 0.21280578 0.06617483
0.05299766 0.08797981 0.16126058 0.03694885 -0.23346327 -0.22023961 0.2079366 0.040238746
0.006696869 -0.02823388 0.075666085 -0.08853203 0.058560744 -0.04818509 -0.39239946 -0.28620154
0.254909 -0.21026537 0.12954159 -0.32764247 -0.04458692 0.23488055 0.20912 0.034616686
0.013627231 -0.279738 -0.55530554 0.117806315 -0.05477909 0.15798624 -0.056780145 0.02470137
-0.09334065 0.0075132614 0.5114309 0.032510765 0.20104592 0.3230218 -0.22240083 0.23504858
0.10829723 -0.30586123 -0.070422634 0.054475956 -0.12462379 -0.008772538 0.09150579 -0.38470373
00000000: 5237 143e ec0b e83d ec38 23bd f701 f53d
00000010: 4d85 323e 4120 94bd e856 acbc b882 b53d
00000020: c9af 953e 9070 833e e5a2 073e c4ab be3d
00000030: d6c8 d9bd da68 8bbe 93c2 3e3e 1a9f 1b3e
00000040: cac4 e7bc babf 0abe 415a 863e 7eab c33d
00000050: f78b efbe 5d3b 88be 7ff0 89bd abce f83d
00000060: 5814 443e 06eb c9bd 51cf 713e 7425 4cbe
00000070: 02f1 e0bd 7186 62be bbe3 40be 301b 56be
00000080: 2634 78bd 541c 04be 0d27 d9bc a7cf a8be
00000090: 2fb1 70be 295b 123e 4d18 343e 7209 a73d
000000a0: 2420 38be 5b73 82bd b2ec 54be 8697 6a3d
000000b0: 1171 fdbd c77b 53be 3bb8 ec3d 2fbc bdbd
000000c0: 182e 02bc c475 cd3d 3275 513e d743 0a3e
000000d0: 8323 bfbe 95bb 603e ed12 023e 28b1 e53d
000000e0: 8328 403d dfea 60be 44dd 21bc ec73 b73d
000000f0: bf99 393e 3ae9 b3bd 55db 4e3e d059 373e
00000100: 5b0a cbbd 52b1 173e 795e 93be 3422 b4bd
00000110: 0ea5 263e b590 77be d99e 0e3e 65d5 4b3d
00000120: a33f 06bd 741f 903e 0a7d 22bd 4f5c 7ebe
00000130: f17f 43bd c133 4e3e 9747 f13d 86f1 54be
00000140: e33e 713e 5acd 103e bc13 8c3e 1f29 9f3d
00000150: 1a54 92be 3569 d43c d792 b0bd b789 ef3d
00000160: c979 c6bd 8366 49be 2469 3f3e 4586 a4bd
00000170: 0b99 053e 889c 83be 64f0 2c3e 7fcd e83d
00000180: a492 8ebe dc6c 94bd 3698 9bbc 1308 f8bc
00000190: 1007 083e 3add 633b 9744 24be 4f0f 9c3d
000001a0: 0836 dc3c 17a1 8e3e 2e06 d63d 4aca 733e
000001b0: c00c 283d 54ff ee3d f5e8 8bbd c72d b43d
000001c0: 8af5 a73d 3a50 f9be d2a1 bcbc 3436 5a3e
000001d0: 89ea 18be 8b92 e13e c964 1d3d 1b51 1b3e
000001e0: f695 393e 0685 0dbe 35eb 963c 0496 ffbd
000001f0: 1ac6 dcbd 1994 42be e39b f73d afd3 81bd
00000200: 1174 ea3c b6af 3fbe 677d abbe 45ce f3bd
00000210: 5330 773d 5079 9a3e 6c6d 553d daf1 0a3d
00000220: 04a3 aa3d 7542 b73e cea2 ffbd 7c37 6abe
00000230: d976 ee3d 139b 603e 7480 2e3e f3e7 073e
00000240: 751a fe3d 37f4 583e 9e15 28be 3c98 1d3e
00000250: e006 773e bc61 683e bd43 aebc 2d0c f13c
00000260: 472e 66bd 8740 55be 28ea 673e e514 dabd
00000270: 2731 9dbd 5c4c 5d3e f16e 7a3e aebb a13e
00000280: 7be4 fbbc ce4c ba3d c8dc 3abe b290 65bd
00000290: 1e73 02be 82d6 6bbe a02b ff3d 39e1 b53d
000002a0: 1312 9e3d 4050 4b3e acb2 3ebe 0e2e f83d
000002b0: cc92 ddbc 86a4 c8be 9d7a 6dbe a3a9 d0be
000002c0: ef85 37be 3341 81bd 92a6 ea3e 7c47 a6bc
000002d0: 459f 33be c1b0 acbe 00ba 06be ec70 29be
000002e0: cc5a 783e f2ec a5bd a764 91be 084b 3dbd
000002f0: 0c0c 483e 56bf 2abe e481 3ebe 0654 59be
00000300: 463b acbd d87c 3fbe 1f83 3ebe 64a4 3dbe
00000310: 9c8e 76be 210d e43c a94a 4a3e 224a 14be
00000320: f4b6 c43e 9e2c 933e 00be 3dbd c555 d63d
00000330: 8dd8 8d3e 9e2b 70be c2e9 593e ab86 873d
00000340: 1314 593d c22e b43d 7e21 253e ad57 173d
00000350: ff10 6fbe 7e86 61be 55ed 543e 62d1 243d
00000360: 6971 db3b bd4a e7bc d2f6 9a3d 4850 b5bd
00000370: 64dd 6f3d bb5d 45bd 95e8 c8be 0289 92be
00000380: 6f83 823e ce4f 57be 8da6 043e c1c0 a7be
00000390: c6a0 36bd 8784 703e 8e23 563e 3aca 0d3d
000003a0: c044 5f3c d239 8fbe 8128 0ebf 7044 f13d
000003b0: 0a60 60bd 25c7 213e 4c92 68bd 875a ca3c
000003c0: 6229 bfbd ce31 f63b 23ed 023f 022a 053d
000003d0: fbde 4d3e 1d63 a53e 0bbd 63be 93b0 703e
000003e0: f0ca dd3d d899 9cbe be39 90bd 2e22 5f3d
000003f0: c23a ffbd b1ba 0fbc 6367 bb3d e3f7 c4be
