frontend/pdiot_app/assets/models/model_online_3CNN_20.tflite (tflite, 805588 bytes, 10 tensors)

sequential_23/conv1d_73/BiasAdd/ReadVariableOp f4 [64]
00000000: b196 05bf c7e1 90be 9cbc 82be 2ccb 38be
00000010: 1bb9 25be 9f2f 43be a6ef f5be a45c 53be
00000020: cc38 d6bd 82a1 78bd 347d 95be a377 21bd
00000030: 1a06 85bd d7b7 d9bd 7a36 0abe 6fe6 ec3c
00000040: f67a e4bd 4164 94bd ac2f dabd 630d 01be
00000050: c1a5 99be 920b 71be 287c 313e b992 d8be
00000060: 8cd1 42be fbff 8dbd 2f8c 9fbe 6d65 ccbe
00000070: 4208 9abe 1463 57be db5c 58bd c6df 7ebe
00000080: 68e5 85be ce6f 25be 778c 20be 9c2e a9be
00000090: d63b 99bd 1b77 01be 8c00 02bf 5238 d6be
000000a0: d8aa 9bbe fc18 58bd 8e0d 82be 28f7 9dbe
000000b0: dcb7 91be b93f 2dbe cfc6 f6be c93d c1be
000000c0: 3c75 37bd 0851 f8be 5aed 62be cff7 00be
000000d0: 58c3 b7bd 5991 e4be 7735 ebbe 0a46 b8be
000000e0: 16fc d2be 2e0d 96be aa19 6dbe 62ae b8be
000000f0: 87c9 2abe 6ac4 2cbe 119f b6be 935a d7be
-0.5218306 -0.28297254 -0.25534523 -0.18046254 -0.16183893 -0.19061135 -0.480344 -0.20640808
-0.10460052 -0.0607009 -0.29197085 -0.039420735 -0.064953044 -0.10630768 -0.13497344 0.028918473
-0.111562654 -0.072456844 -0.10653624 -0.12602763 -0.30009273 -0.2353957 0.17332518 -0.4229944
-0.19025248 -0.0693359 -0.3116164 -0.39921132 -0.30084425 -0.21033889 -0.05282293 -0.2489005
-0.26151586 -0.16155931 -0.15678583 -0.33043373 -0.07482116 -0.12643091 -0.50782084 -0.41839844
-0.3040378 -0.052758202 -0.25400966 -0.30852628 -0.28460586 -0.1691884 -0.48198554 -0.3774245
-0.044789538 -0.48499322 -0.22160855 -0.12594531 -0.08972806 -0.4464214 -0.45939228 -0.35990936
-0.4120795 -0.2930693 -0.23154321 -0.36070544 -0.16678439 -0.16871801 -0.35668233 -0.4206129

sequential_23/conv1d_74/BiasAdd/ReadVariableOp f4 [64]
00000000: cdad 403c b5a5 0c3c 1fb1 78be aed8 d6bd
00000010: fbf4 3abd 1b41 05bd 3607 803d d692 3fb6
00000020: 586d de3d 3a4e 82bd 7338 cdbc fc56 8fba
00000030: 4555 703c 2ed3 14ba cbc3 7dbc 2c81 3dbd
00000040: 5353 84bd 80e0 28bc 3dfa 7b3d 479c ce3d
00000050: 400f d3bb 8249 c83d 063a 793c e42c 42be
00000060: 1ee6 acbc 8e16 79bc e590 77be f36a 4ebd
00000070: 84e6 ebbc 8b06 1bbe 6c19 c9bc 2012 1bbe
00000080: 425f ea3b 88d4 aa3d 5d69 adb8 3464 133d
00000090: c296 05be 246f c9bc c77c a0bf f8dd d3bc
000000a0: c6a2 a3bb a608 fdb9 baaf 9c3d 0835 2dbd
000000b0: aee1 34b9 2747 6cb8 efc4 d6bc f22a 17bd
000000c0: 13a9 8d3d 1195 39bd 60e6 a0ba 3006 f63c
000000d0: d61e 53bd 07ae 01bd 35a0 89bc 4eb1 cdbd
000000e0: a2b8 eaba ac68 e7bd 6492 40b8 137e b2b6
000000f0: 4ed3 1b3d 9e80 0fbd 2b00 703d a393 ebba
0.011760187 0.0085844295 -0.24286316 -0.10490547 -0.045643788 -0.032532793 0.062513754 -2.8546688e-06
0.108606994 -0.06362577 -0.025051331 -0.0010935958 0.014668767 -0.000567722 -0.015488575 -0.046265766
-0.06461205 -0.010307431 0.061517943 0.10088401 -0.006441027 0.097796455 0.015211588 -0.18962437
-0.021105822 -0.015203131 -0.24176367 -0.050394963 -0.028796442 -0.15139215 -0.024548255 -0.15143633
0.007152469 0.08341318 -8.268908e-05 0.035984233 -0.13045791 -0.024589129 -1.2538079 -0.025862679
-0.0049937693 -0.00048262364 0.07650705 -0.042286903 -0.0001725021 -5.633305e-05 -0.026216952 -0.03690619
0.06917014 -0.045308176 -0.0012275688 0.030032247 -0.05154308 -0.031660106 -0.016800025 -0.10043584
-0.0017907808 -0.112992615 -4.5912704e-05 -5.3194904e-06 0.038043313 -0.03503477 0.05859391 -0.0017973076

sequential_23/conv1d_75/BiasAdd/ReadVariableOp f4 [64]
00000000: 206c 063d 440f a0bc 9899 5c3d f43f 723d
00000010: a5fe 903d c07b 883d 40fe a8bc 0db4 1d3c
00000020: c241 8d3d 039f 63bd ee89 98bc 0551 c63d
00000030: f1f9 bc3c 12f6 6c3c 2ae0 3ebb 202c f23c
00000040: cb90 0b3e f066 2abd b9c8 4bbb e286 67bd
00000050: 938b 26bd 724d 0d3d 366a 683d ab55 debd
00000060: a38c 9f3c 463b 1cbd 57ad 683d c3f1 24bd
00000070: cc6a 14bd 1e53 f63d 1bcb b3bd 91cf 30bd
00000080: e3b2 c23d d968 c43d 1831 c5bc 03bf 263d
00000090: b990 613c 4c77 dcb9 bfef 01bc 251c ef3c
000000a0: 6c30 9cbd be87 8c3d b4ca cbbc 1ecb 82bb
000000b0: ed33 d9bc 072f 30bc 0829 903d f47d e2bc
000000c0: 23bc 033e f19d 18bd 9da4 7dbc d880 48bd
000000d0: cd16 a03d 69a9 bf3d 2c62 b23c 01ab b8bc
000000e0: 7adf 2f3d fc92 1dbd 438c 30bd f25c f0bc
000000f0: f664 203d b346 a43d b417 b53d 4861 3a3c
0.03281796 -0.01953853 0.053857416 0.05914302 0.070798196 0.066642284 -0.020629048 0.009625447
0.06897308 -0.055571567 -0.018620458 0.09683422 0.0230684 0.014462965 -0.0029125311 0.029562056
0.13629453 -0.041602075 -0.0031094982 -0.05652512 -0.040660452 0.034497686 0.056741916 -0.108561836
0.01947624 -0.038142465 0.056805935 -0.040269624 -0.036234662 0.12027572 -0.08778974 -0.0431667
0.09506776 0.095903106 -0.024071261 0.040709507 0.013767415 -0.00042050553 -0.007930695 0.029188225
-0.07626423 0.06861828 -0.02487693 -0.0039914986 -0.026514018 -0.0107534 0.07039076 -0.02764795
0.12864737 -0.03726 -0.015481141 -0.048951 0.07816849 0.09358484 0.021775328 -0.022542479
0.042937733 -0.038470253 -0.043102514 -0.029341195 0.039158784 0.08021297 0.08842412 0.011375733

sequential_23/conv1d_73/Conv1D f4 [64, 1, 5, 6]
00000000: 5cce 9abb 007f cebb e0c0 243c 90b9 c83c
00000010: 4fbd 02be b6e9 b63d 57f4 2fbb fdb0 ddbb
00000020: 0c1a 0b3c ae41 913c 4240 88bd d3f2 943d
00000030: 1297 4dba 1d52 bdbb d0a6 e53b de2a b2bb
00000040: 9d25 70bd 0a64 993d e2b3 1bbb fce6 afbb
00000050: 0dc5 043c 1578 c8bc ce02 5fbd 3a4c ac3d
00000060: c0e1 33bb 10cd acbb 88e7 253c ec3b f1bc
00000070: 19de dcbd 119d d43d 54a0 cdbc c628 513c
00000080: 4ad4 563c e7f1 1dbc c7f7 173d b4c0 2dbe
00000090: 429c c1bc d1e4 833c cb1c ca3b 31b6 8bbb
000000a0: 3350 18bc 44d2 f0bd c931 9bbc 6482 933c
000000b0: 0c48 e63a bfd4 d5ba d43c b8bc de9b ebbd
000000c0: 38f1 80bc 01e6 ac3c bc93 783a 8e57 4b3d
000000d0: 32ba 1dbd 4f02 f8bd 7962 56bc 728a b33c
000000e0: b8f3 fd3a 0d9b 843d b8f2 89bd 5688 27bc
000000f0: d6bd 1dbb f8c6 de3c bed0 4ebd 1828 6f3d
00000100: 634e 4dbd cdf3 55bc d646 aaba 46f4 f43c
00000110: 2fa3 45bd 6460 acbd ecc7 7f3d 05a0 a83d
00000120: 2d38 adbb 2209 e93c 7f78 24bd 39b8 653d
00000130: 1a37 9d3d aeb8 983d 2b74 c3bb 352e c63c
00000140: fd73 1dbd 2daf 4dbd 433e 74bd 05e3 8fbd
00000150: d102 e2bb e9f1 b43c 8306 25bd 58b9 253d
00000160: fbca 43bd c67f d0bc b42d 9d03 413a 7c83
00000170: 7af3 e982 bb3c 9283 76bc 2283 3f27 9f03
00000180: f2d5 7c03 5aa6 1883 edc6 2b83 1791 0d03
00000190: d33b 1203 99d7 7403 0962 b103 abb3 5783
000001a0: 9c07 5103 14aa 3b03 bad3 1b83 8fea a403
000001b0: 71f9 b703 3b2d 8183 e42c 5203 4de6 0083
000001c0: e573 5183 8018 9183 d799 bf03 bc95 1c83
000001d0: a247 b583 b6d4 3283 6e1b 4503 39a5 b183
000001e0: 8c61 e33c 51f5 edbc dd36 2abd 1185 41bd
000001f0: 0f5b 803d b2d2 943c 3970 e93c d81d dcbc
00000200: 276e 32bd 3534 0fbd f08e 4b3c 79fc 97bb
00000210: cd5f f53c 3f3b c9bc 32b8 33bd ace7 c2bc
00000220: c6ad f53b a52c a33c 1b8c ff3c e23d bfbc
00000230: 82ea 2fbd 17da c6bc fc0f 693d 7626 1bbb
00000240: 96c9 e73c ba5e c5bc f9dc 23bd bdce f6bc
00000250: 630c 133e 3a98 723b af26 ab3c 6e02 143d
00000260: b806 723c 0409 73bd 40b4 87bb 3114 ce3b
00000270: ef8f b43c ea53 163d 1252 4d3c 0b04 31bd
00000280: b9fd e7bb aebb 3abc 5810 bc3c 70ce 1e3d
00000290: d8ae 5d3c 48dd cbbc 53e2 03ba 9c79 fd3b
000002a0: 7571 b63c 9123 213d b5cf 493c 1b00 aebd
000002b0: 15a2 8c3c b35a aa3c d54d b13c f451 1a3d
000002c0: a4f4 263c fbad 1fbe cbfc c9bc 4e9e b4b9
000002d0: 5211 7683 aee9 ff82 b4c5 b983 ef0d f102
000002e0: aa9e 0d03 358c 0602 3301 9b83 94fe b383
000002f0: 8f17 8803 b13e 2b83 4e60 db82 b66e a283
00000300: 9a63 2b82 aa09 c683 84ab 9303 d394 1783
00000310: fdf8 f502 6daa db02 86e4 c502 9e55 a783
00000320: 7757 8503 3776 1e83 d698 4a03 f090 7783
00000330: 6f02 8f83 ee04 8083 8314 8303 f362 0003
00000340: 5654 3a83 6c57 b483 6c5b 9a3c 8ec1 a03c
00000350: a931 803b 35a8 063e 9baa 0b3d cd27 5fbc
00000360: 4f72 993c 496c a93c 1354 5f3b 67dd b63d
00000370: 095f 423d 8530 823a ebcc 903c a188 b83c
00000380: 5546 8f3b 125d 733d 056b d23c 73ad 983c
00000390: 16ca 973c bd98 bf3c 1de0 ca3b 5fd1 9f3d
000003a0: 383a 003d 8f83 c93b 4fcd 993c 14fa cd3c
000003b0: f30d d03b e384 ca3d b3e5 c93c c4cc a93c
000003c0: 885c a2ba 8916 853c 1e33 34bc 99fe 373e
000003d0: 85b1 b8bc c25c 0b3c 7555 afba 2c9e 863c
000003e0: 9da6 19bc 0465 0a3e e1c1 e2bc 52bd 213d
000003f0: 6863 6eba 69af 853c 3850 18bc 3d47 cd3c
-0.004724307 -0.0063017607 0.010055751 0.024502546 -0.12767528 0.089312956 -0.0026848519 -0.0067654834
0.008490097 0.017731514 -0.06652881 0.072728775 -0.00078426406 -0.005777611 0.007008411 -0.005437239
-0.05862962 0.07489784 -0.0023758342 -0.0053681117 0.008103621 -0.024471322 -0.054446034 0.084129766
-0.002744779 -0.005273469 0.010126002 -0.029447518 -0.10784549 0.103815205 -0.025100864 0.012766069
0.013112137 -0.009640194 0.037101533 -0.16968042 -0.02363408 0.01610032 0.006167983 -0.0042636623
-0.009296465 -0.11758855 -0.018944638 0.018006511 0.0017569079 -0.0016314014 -0.022489943 -0.11504339
-0.015740022 0.021105768 0.00094824634 0.049644046 -0.038507648 -0.12109815 -0.013085001 0.021916602
0.0019375002 0.06474886 -0.06735748 -0.010225376 -0.002406945 0.027194485 -0.05049204 0.058387846
-0.050123584 -0.013058615 -0.0012991081 0.029901635 -0.048251327 -0.084168226 0.06244652 0.08233646
-0.0052862377 0.028446738 -0.040153977 0.05608389 0.076765254 0.074571 -0.005964776 0.024191955
-0.038440693 -0.05021589 -0.05962969 -0.070257224 -0.0068973084 0.022088008 -0.040289413 0.04045996
-0.047801 -0.025451552 9.238124e-37 -7.4123016e-37 -3.4376022e-37 -8.595052e-37 -4.7823864e-37 9.3541906e-37
7.430174e-37 -4.4859748e-37 -5.048074e-37 4.160273e-37 4.297422e-37 7.195265e-37 1.0425633e-36 -6.338907e-37
6.1428315e-37 5.51496e-37 -4.5793456e-37 9.692906e-37 1.0813042e-36 -7.592323e-37 6.1764985e-37 -3.788019e-37
-6.155262e-37 -8.527959e-37 1.1261291e-36 -4.6016166e-37 -1.065467e-36 -5.255368e-37 5.7924585e-37 -1.0441058e-36
0.027756475 -0.02904764 -0.041556228 -0.047246043 0.06267368 0.018166874 0.028495895 -0.0268697
-0.04356208 -0.034961898 0.012424216 -0.0046382514 0.029952908 -0.024564384 -0.043876834 -0.02379211
0.007497522 0.01991875 0.031194737 -0.023344938 -0.042948253 -0.024273915 0.05690001 -0.0023674048
0.028294366 -0.02409302 -0.040005658 -0.030127877 0.14360194 0.0037017004 0.02089247 0.03613513
0.01477211 -0.05933477 -0.0041413605 0.006289028 0.02204129 0.03670112 0.012531774 -0.043216746
-0.0070798066 -0.011397285 0.022957012 0.038771093 0.0135304555 -0.024885789 -0.00050309784 0.007735444
0.022270897 0.03934056 0.012317588 -0.08496114 0.01716713 0.020795202 0.021643559 0.037675813
0.010190163 -0.15593712 -0.024656674 -0.00034450222 -7.2312785e-37 -3.7603008e-37 -1.0918713e-36 3.5419765e-37
4.1618313e-37 9.885003e-38 -9.1103565e-37 -1.0579123e-36 7.99877e-37 -5.032435e-37 -3.2234434e-37 -9.546922e-37
-1.259168e-37 -1.1639613e-36 8.6792615e-37 -4.4545754e-37 3.6142427e-37 3.2276977e-37 2.9077714e-37 -9.835035e-37
7.837118e-37 -4.656773e-37 5.953791e-37 -7.2753156e-37 -8.405343e-37 -7.524296e-37 7.704197e-37 3.7729407e-37
-5.47573e-37 -1.059952e-36 0.018842421 0.019623544 0.00391217 0.13150103 0.03409825 -0.013620329
0.018731264 0.020681517 0.0034077212 0.08928948 0.047453914 0.0009932673 0.017675838 0.022526087
0.004372398 0.05941493 0.025685797 0.018637395 0.01852898 0.023388261 0.006191267 0.07803606
0.03130552 0.006149716 0.018774657 0.02514366 0.006349319 0.098886274 0.024645662 0.020727523
-0.0012387196 0.016246097 -0.010998515 0.17968215 -0.022545585 0.008506002 -0.0013376909 0.016432844
-0.009378103 0.13515097 -0.02768034 0.03948719 -0.0009093792 0.016318994 -0.009296469 0.025058383

sequential_23/conv1d_74/Conv1D f4 [64, 1, 3, 64]
00000000: 8aac 9bbb ba95 88bd 479e 873d 6d4f 8003
00000010: bc10 3e3a 3d2d 473b 17a9 8503 5e1c 413c
00000020: 5d9a d2bc e557 1b3c d8d8 86bc cafc e6bd
00000030: 8c5a 6782 2081 bf3d 5c28 f43b 2c74 e93b
00000040: 4938 a03b 2e39 29bc 3cd8 f7bb bd84 2dbc
00000050: 76e3 bd3c 09e4 4ebd 306e 0a3d ce25 57bd
00000060: 3180 ed3d 3e69 8c3b c392 22bd 0dfd 4c3d
00000070: be80 833c 252d 49bd aaf8 aebb f455 663d
00000080: 0917 a63c 41da 8f3b 30ad 6783 c00c d73c
00000090: 967e 123d 6030 94bd d614 88bd 638f 3fbd
000000a0: 7644 1983 dfed 1c3d 1dce a5bd c48f 15bd
000000b0: 2de7 ed3a cad1 573c b51c 92bd 3a41 39bd
000000c0: 5a04 2d3d 261b 8dbb 64b3 073e ed3d 06be
000000d0: 0d20 753e 67a9 bdbc 28c0 8e3c 3066 b7bc
000000e0: dd43 7cbc 5056 2d83 7e49 b883 6668 0f3b
000000f0: ae24 4c83 cf60 8503 0c21 d33c f259 a0ba
00000100: ef4e 82bd 9d48 cbbc c0ff 07bc 9fff 0603
00000110: 5923 163c 96d7 11bd 1c93 9083 334e 02bc
00000120: d721 95bc c895 463c b3c7 6cbc 2a02 c2bd
00000130: 09f9 b983 357b 963c 7f1b a7bc 405d 3e3c
00000140: 7999 daba 1a1e c93c 2846 1b3a a44b 2cbc
00000150: afe9 63b9 0703 70bd b454 8e3c 908b 75bd
00000160: ac7c b13d 8af4 1abc 447c 16bc fab7 173d
00000170: 323d a8bc 0c4b b9bc 121e 983c 897e 563d
00000180: d528 d03c 2250 2fbd 436c bc81 e060 04bc
00000190: a852 c2bc be31 6b3c cff7 18bd 9bdf 67bd
000001a0: a4fc 5183 9edd 6b3d ec0a c5bc 6f65 81bd
000001b0: 8226 483d 68f2 763d d357 67bd 570d 86bd
000001c0: 3d62 8b3d 50be 1cbd c905 cd3d 9b2b e6bd
000001d0: cf03 343e 6a73 dabc 38a0 3f3d 6dad a3bb
000001e0: ff81 c13c 6fbb 9083 187b e982 141e c03c
000001f0: a8ea c003 79dd 5103 ef7f 663c 9b40 a63c
00000200: 0e19 67bd f894 15bd 24d4 8abc f407 8f03
00000210: fa52 30ba 0cd8 d2bc b6f5 2a03 c98e a03b
00000220: a84d a7bc 6a60 913c 5a5d b3bb 6501 cdbd
00000230: 1485 2883 a5bc a13d 2564 79bc 456b 423c
00000240: fad7 b639 8682 98bc 5228 113c 36ed 70bc
00000250: 939a 52bd 2f85 86bd e5a1 a73c 713f 2fbb
00000260: 07a6 de3c 0780 113d 3a6b e4bc 6033 833c
00000270: 502b 3fbd 028d 53bd 1086 d63b 1df1 653d
00000280: 8eef a83c 39aa 19bd 7601 9301 b378 98bc
00000290: 3e08 71bd 4d76 34bb 1344 60bc d80a 27bd
000002a0: e30e e082 3c15 b8bc 074e 81bc ae9d 3dbd
000002b0: 1b8f 763d 5d1f 8bbb 416a 43bd c503 82bd
000002c0: db7c 543d 08ed 4fbd 754e c63c 626e 8cbd
000002d0: 61c9 5c3e f930 0dbd 8833 d83c 36e3 b6bb
000002e0: ea10 383d 6220 4b03 f990 4283 e8ef 2a3c
000002f0: e807 9e03 9415 ec02 714c 53bb 618c e93c
00000300: 00f2 6e3c 6e1c ac3b f75a d2bb ca5f 8a03
00000310: 0c9e db3c 6652 f23b 9291 b902 a181 25bc
00000320: f559 9bba c972 0dbc ad87 e5bc 2fe3 2f3d
00000330: d8a3 8483 af39 343c 6ce4 cabb 50cd 84bc
00000340: 1cb0 c53d 75ea a8bc 77cc 033c a37f 423d
00000350: adc2 5a3d 1a8a 523d 442c 3e3c e8ff d4bc
00000360: 00b1 b7bc de9f e6bb 9c56 55bb d6f9 543c
00000370: ecd2 0e3d 3b4f d73c f1d3 3ebe b218 edb9
00000380: 3008 63bd b53e 1cbd 7bc7 1d03 1070 ad3d
00000390: ca60 ef3b 6c42 0bbb 409a a43b 99d9 9cbd
000003a0: 2aad ae01 e438 283c 63dd b13d bab5 fa3c
000003b0: e496 f03b 9d93 a33c 07ee e5bd 23a3 2c3d
000003c0: a207 e53a 428f 033d 339a f63c 8875 473d
000003d0: 2ead f3bc 1dd5 b23d 674a 603c b54b bbbc
000003e0: cdd6 353b fe9e 3d83 88fb 1381 a130 aabc
000003f0: 0298 8001 2d6f 4b83 d9d2 1cbd 8159 63bc
-0.004750793 -0.06669183 0.06621986 7.541399e-37 0.00072504184 0.0030391954 7.855859e-37 0.011786548
-0.025708372 0.009481405 -0.016460821 -0.112786844 -1.6997185e-37 0.093508005 0.0074511003 0.0071244445
0.004889522 -0.010328574 -0.007563619 -0.010590729 0.02317975 -0.05051044 0.03379649 -0.052526288
0.11596716 0.004285007 -0.039690744 0.050046016 0.0160526 -0.04911532 -0.0053397017 0.056234315
0.020274656 0.0043900316 -6.808361e-37 0.026251197 0.035765253 -0.07235789 -0.06644599 -0.046767604
-4.504125e-37 0.03831279 -0.080959536 -0.03651406 0.0018150561 0.013172576 -0.07134382 -0.04522822
0.042240478 -0.004306215 0.13252026 -0.1310956 0.23938008 -0.023152066 0.017425612 -0.022387594
-0.015397039 -5.0939213e-37 -1.0831421e-36 0.0021882295 -5.999232e-37 7.839264e-37 0.025772594 -0.0012233837
-0.06362712 -0.024814898 -0.008300722 3.96725e-37 0.009163701 -0.03560599 -8.497334e-37 -0.007953214
-0.018204613 0.012120672 -0.014451909 -0.09473069 -1.0930498e-36 0.018369297 -0.020398853 0.011618912
-0.0016677818 0.024550486 0.0005923235 -0.010516081 -0.00021735461 -0.058596637 0.017374374 -0.05994755
0.086663574 -0.009457717 -0.009184901 0.037040688 -0.020536993 -0.022618793 0.018569026 0.052366767
0.025410095 -0.04280103 -6.921564e-38 -0.008079737 -0.023721054 0.014355121 -0.037345704 -0.05660973
-6.1709597e-37 0.057584397 -0.02405306 -0.06318175 0.04886485 0.06028977 -0.05648024 -0.06545513
0.06805847 -0.038267434 0.10010869 -0.11238786 0.17579578 -0.026666362 0.046783656 -0.004995039
0.023621557 -8.506592e-37 -3.4306925e-37 0.023451842 1.133862e-36 6.167382e-37 0.014068588 0.020294478
-0.05642038 -0.03651902 -0.01694686 8.406611e-37 -0.00067262317 -0.025737785 5.024057e-37 0.004899834
-0.020422772 0.01774617 -0.005473775 -0.100100316 -4.952353e-37 0.07897309 -0.01522163 0.011866395
0.0003487466 -0.018616926 0.008859711 -0.014704993 -0.051416945 -0.065683715 0.02046294 -0.0026740695
0.027178777 0.035522487 -0.02788316 0.016015708 -0.046672165 -0.051648147 0.006546743 0.056138147
0.020622041 -0.037515853 5.400137e-38 -0.018612241 -0.05884575 -0.0027536333 -0.013688105 -0.040781826
-3.2922386e-37 -0.022471063 -0.015784277 -0.046292953 0.06019507 -0.004245682 -0.047708753 -0.06348375
0.051876884 -0.05076316 0.024207333 -0.06856991 0.21561195 -0.034470532 0.02639176 -0.005581285
0.044938006 5.969351e-37 -5.7177896e-37 0.010433175 9.288221e-37 3.4689469e-37 -0.0032241608 0.02850932
0.0145840645 0.0052524125 -0.0064195353 8.132903e-37 0.026808761 0.0073950766 2.726686e-37 -0.010101707
-0.0011852371 -0.008633324 -0.028018797 0.04294127 -7.795879e-37 0.011000081 -0.006191781 -0.016211182
0.09652731 -0.02061961 0.008044354 0.047485005 0.053408314 0.051401235 0.011607233 -0.026000932
-0.022423267 -0.0070381006 -0.0032552844 0.012999019 0.03486912 0.026282897 -0.18635537 -0.00045222562
-0.05542773 -0.03814574 4.6367146e-37 0.0846864 0.0073052393 -0.0021249307 0.005023271 -0.07658691
6.4165984e-38 0.01026747 0.08684804 0.030604232 0.0073422063 0.019967848 -0.11227041 0.042147767
0.0017473588 0.032119043 0.030102825 0.04869607 -0.029745664 0.087320544 0.013689614 -0.022863248
0.002774644 -5.572462e-37 -2.71801e-38 -0.020775141 4.7237895e-38 -5.978396e-37 -0.038287017 -0.01387632

sequential_23/conv1d_75/Conv1D f4 [64, 1, 3, 64]
00000000: 3f11 63bd 84a7 8ebb 89f9 01bc b8a9 93bc
00000010: 4cf0 f601 e33e 1103 5cbd e9ba 3083 b900
00000020: b44b a3bc 9a45 5d03 6cf9 2283 9e89 b182
00000030: 64de 4ebc 9452 9203 6065 cfbc 0b5e 10bd
00000040: 867d a483 7adf 8a03 88be 94bb 7cf3 0b3c
00000050: e843 06bc b47a ca3c 9297 d9bc 0ebe 3f82
00000060: 0c5d b802 4606 2903 58bf 2703 2b91 8cbc
00000070: 6c6e 843a f488 d502 3c65 d23c 5204 d4bc
00000080: 67e5 4abc 72ca 083d 13fa 9002 e50c 0abc
00000090: d2f4 4b83 ba77 9903 570f dbbb ba7a 1883
000000a0: 714a 94bc c08c 1c83 933d a73b fe3f 5983
000000b0: e01c a482 e830 b782 4b5b 36bd 81f1 aa03
000000c0: e60d 8c3d 7826 0b03 0a3f 2483 c84c d9bc
000000d0: 9904 6d83 2647 84bc 38c4 3982 116e 40bd
000000e0: fd2b 0b83 3773 6e03 c5b5 f582 dcce 5a02
000000f0: 738d f8bc 3215 9303 2d3b 7fbc bed6 9a02
00000100: bf2e 2fbd c0bb d4ba 7737 4cbc b5b4 f5bc
00000110: af58 b882 8112 bb03 874d 053c d369 6903
00000120: a335 89bc f721 2d82 d3ce aa82 9874 9783
00000130: 0780 923a 0d86 3683 0a43 f1bc 0add e5bb
00000140: 78e4 0f83 f6db 5103 3ba8 b03b 6c6e fd3b
00000150: 95d0 d83a 805f bbbb d9fe 20bc 115d eb02
00000160: 377f 9003 2a75 8b01 32f8 9682 bd61 43bc
00000170: ad56 90bc a977 e302 30a3 b2bb 0539 bfbb
00000180: 35a9 3cbc 4770 f43c fea7 e902 8b53 a1bc
00000190: af16 5f83 6b04 b202 2362 d5bb e034 ec02
000001a0: fd91 d2bc e5ef 0283 e233 db3b ffb7 e082
000001b0: 93c1 4e82 c315 f682 5675 00bd 9ef8 7283
000001c0: d8e2 c53d 6eeb 4700 9386 8f83 e27a a2bb
000001d0: ea21 8e83 e552 02bd 5745 6103 ad2a 1abd
000001e0: 391e b982 dabd 5a03 7b99 8c03 98a5 5702
000001f0: 3f07 fdbc 6df2 7103 5a98 69bc 5843 8a83
00000200: 5d9b 4ebd cff9 b6bc 02e7 0ebd 43bc 0dbd
00000210: 5ffa 7602 ed25 4503 8628 8c3b 317a 3280
00000220: 3b94 d6bb dc76 a983 58c5 f802 6c75 4382
00000230: 3573 23bc 7cde ad03 b529 f1bb 2c15 243a
00000240: 0ecf bc81 9669 4003 ed9d ac3b 8119 e9ba
00000250: fadf 723b b2cb c13b 76ae 88bc 41bd 0203
00000260: 362d 3c03 c7fd 7983 015c 4b82 7fe9 2fbc
00000270: 8b79 f2bc 9928 8703 6dbd b0bb 9647 aabb
00000280: 72d0 aabb a4a5 133d b61f 0203 a69a a9bc
00000290: 1cc6 8883 5379 4783 705e 9cbb 8e92 3c83
000002a0: 785d 99bc c69c 9403 d5d4 4fb9 e943 4383
000002b0: fafb 0583 becd b582 53c3 d3bc dab7 0483
000002c0: 96b1 9c3d 0645 1182 8bda 0b81 063f 533a
000002d0: 900b 6183 e667 12bd 2e04 7003 17d0 09bd
000002e0: d511 ac03 b2c3 9803 eee6 7c03 9d61 6282
000002f0: e56f c4bc f895 e902 85b4 f6bb 4b71 b681
00000300: 08f1 8d83 db09 3b03 aab0 af03 a709 7483
00000310: b5f2 8a03 d505 be83 a2b8 2f83 601f 9a02
00000320: 87da 1283 443b 5e03 e92c 1d03 e314 5803
00000330: 5847 a083 18fd b481 1e9b 0503 83bb 9282
00000340: a6fc b883 a43f e482 d658 f402 829f 3e83
00000350: 3b1c 1800 b92a 2283 e2f6 d880 22a3 9003
00000360: 079c fb82 2caa 4d83 9539 be83 4678 8702
00000370: 9db6 2283 7367 ae02 9898 3d82 56e2 4183
00000380: 2887 cf82 1efd a082 ec04 a002 7cd8 8781
00000390: 008c 3182 8662 a182 2c89 d001 107b 4d82
000003a0: 526f 4f83 5980 8402 0693 ae83 bc79 2e82
000003b0: a480 1203 26c2 bb02 f718 2a02 bc09 3303
000003c0: c1ea 4603 3f34 8e83 4452 2983 67ef 7503
000003d0: 4ea7 e281 f643 7403 8b91 be03 a048 f901
000003e0: a554 1a80 ae94 9883 676c 6c02 7066 8103
000003f0: cae9 9382 6624 f582 6abb 0b83 7667 2203
-0.05543637 -0.0043534655 -0.007933029 -0.018025264 9.071094e-38 4.268386e-37 -0.0017832923 1.7036628e-38
-0.019933559 6.502596e-37 -4.7893843e-37 -2.60868e-37 -0.012626264 8.600068e-37 -0.025316894 -0.035245936
-9.667872e-37 8.162219e-37 -0.0045393147 0.008541938 -0.008194901 0.024716713 -0.026561532 -1.4087007e-37
2.7089776e-37 4.967184e-37 4.929654e-37 -0.017159065 0.0010103709 3.1376144e-37 0.025683038 -0.025880966
-0.012383795 0.033396192 2.1302434e-37 -0.008425926 -5.993738e-37 9.02002e-37 -0.0066851783 -4.480967e-37
-0.018101903 -4.6005853e-37 0.0051037758 -6.384403e-37 -2.4114208e-37 -2.6917504e-37 -0.044520658 1.0047149e-36
0.068385884 4.089259e-37 -4.8267634e-37 -0.02652587 -6.965332e-37 -0.016147207 -1.3647965e-37 -0.046979968
-4.0898925e-37 7.0074174e-37 -3.6103845e-37 1.6075476e-37 -0.030340886 8.64475e-37 -0.015578073 2.2751522e-37
-0.04276919 -0.001623027 -0.012464396 -0.029993394 -2.7087272e-37 1.09951205e-36 0.00813616 6.8594026e-37
-0.016749209 -1.271978e-37 -2.5097966e-37 -8.901751e-37 0.0011177071 -5.3638876e-37 -0.029450912 -0.0070148753
-4.2286192e-37 6.1672083e-37 0.0053911484 0.0077341106 0.0016541654 -0.0057181716 -0.009826385 3.4583564e-37
8.492766e-37 5.122866e-38 -2.2182976e-37 -0.011925158 -0.017619455 3.3423334e-37 -0.0054515824 -0.0058356547
-0.0115149515 0.029838694 3.4332696e-37 -0.019693157 -6.555985e-37 2.6157285e-37 -0.006511943 3.4707432e-37
-0.025704378 -3.847895e-37 0.0066895345 -3.301945e-37 -1.5190043e-37 -3.6158942e-37 -0.0313619 -7.1402807e-37
0.09662408 6.604776e-39 -8.435681e-37 -0.0049584964 -8.353796e-37 -0.031817336 6.6201155e-37 -0.037638355
-2.7200654e-37 6.428238e-37 8.263698e-37 1.5843228e-37 -0.030887244 7.1101826e-37 -0.014257515 -8.126372e-37
-0.050441135 -0.022335915 -0.034888275 -0.03460337 1.8145079e-37 5.7936633e-37 0.0042772917 -4.635609e-39
-0.006548432 -9.960216e-37 3.6553595e-37 -1.4360036e-37 -0.009976198 1.0219106e-36 -0.007359708 0.00062592584
-6.93574e-38 5.6544936e-37 0.0052678497 -0.001778409 0.003705977 0.005914175 -0.016684752 3.842082e-37
5.5300134e-37 -7.3465845e-37 -1.4940488e-37 -0.010736822 -0.029598972 7.943908e-37 -0.005393675 -0.005196522
-0.005212837 0.03604664 3.823997e-37 -0.020703625 -8.038845e-37 -5.8620117e-37 -0.004772 -5.541647e-37
-0.018721327 8.734652e-37 -0.00019820344 -5.7383307e-37 -3.937444e-37 -2.671365e-37 -0.025849974 -3.9002365e-37
0.07651059 -1.0672726e-37 -2.5687065e-38 0.00080584025 -6.613483e-37 -0.035743617 7.053446e-37 -0.033645716
1.01133455e-36 8.9786865e-37 7.432124e-37 -1.6631871e-37 -0.023979137 3.432235e-37 -0.007528844 -6.701881e-38
-8.342573e-37 5.4965674e-37 1.0326136e-36 -7.1716236e-37 8.166634e-37 -1.1168535e-36 -5.1639826e-37 2.2646275e-37
-4.31564e-37 6.530797e-37 4.6189708e-37 6.350067e-37 -9.4203345e-37 -6.648473e-38 3.9263253e-37 -2.1560398e-37
-1.0872553e-36 -3.3538117e-37 3.5903567e-37 -5.6019088e-37 2.214179e-39 -4.7656564e-37 -1.9925032e-38 8.501013e-37
-3.697069e-37 -6.0439433e-37 -1.11804165e-36 1.99055e-37 -4.781715e-37 2.562638e-37 -1.3929319e-37 -5.6977423e-37
-3.0493492e-37 -2.365517e-37 2.3512712e-37 -4.990181e-38 -1.3044084e-37 -2.3713373e-37 7.6603965e-38 -1.5096339e-37
-6.095962e-37 1.9469325e-37 -1.0260556e-36 -1.2818437e-37 4.3053216e-37 2.7588616e-37 1.2496792e-37 5.2614547e-37
5.8456455e-37 -8.358005e-37 -4.9759073e-37 7.227385e-37 -8.325936e-38 7.178317e-37 1.1200611e-36 9.1572366e-38
-2.418088e-39 -8.967892e-37 1.7369652e-37 7.605457e-37 -2.1733897e-37 -3.6020406e-37 -4.106357e-37 4.772629e-37

sequential_23/dense_54/BiasAdd/ReadVariableOp f4 [20]
00000000: e102 bebc 39ba e7bd cb0e 103e 4a70 c83d
00000010: 899a e4bc 27f8 9d3e 8640 1dbe c2ec f8bb
00000020: d8e0 3ebe a4fb 503e 0053 a23e 8a2f 6ebd
00000030: 98ca b6bd 9421 523e 8c28 cb3d 8a91 6fbd
00000040: c5f9 e7bd d8cc 6abe e3e6 fd3d d0c2 f1bd
-0.023194732 -0.11314816 0.14068143 0.097870424 -0.02790572 0.30853388 -0.15356645 -0.007596583
-0.18640459 0.20408493 0.3170395 -0.058150806 -0.089253604 0.20520622 0.09919843 -0.058488406
-0.11326937 -0.22929704 0.12397554 -0.11804736

sequential_23/dense_53/BiasAdd/ReadVariableOp f4 [64]
00000000: 8242 87bc e008 033e f6a5 92bc 8873 a2bc
00000010: c88e 42bd 39e9 20bd a987 41bd d94e 38bd
00000020: dcc7 4ebd d124 bdbd 285e b63d 666e 91bc
00000030: 238e 1dbd 95f4 84bd 8e46 d4bc 0aef 473c
00000040: 6a5d 213e 5673 03bd 10f4 5bbc cd3f 22bd
00000050: d3fb 663e 1973 883e a4e0 503e 7d69 0ebd
00000060: 378e 0abd 1167 17bd 4a57 0e3e e5a8 5f3e
00000070: da9e a03e eaf0 393e aa70 29bd d333 72bd
00000080: e0c1 1fbc 2cfd 27bd 1fdc f13d 2cab 973d
00000090: 0e1c 94bc 608a 7abd c5dc ae3d 86cd 1c3e
000000a0: 4b8e 943e 5d99 8fbc e389 32bd a355 d0bc
000000b0: a278 f5bd 4ec3 c53d 8be8 07bd 30d7 ff3c
000000c0: aae4 f4bc 2b95 9ebc d40d 8bbc e0fa 4abd
000000d0: 8235 98bc de7e 81bd 591c 533e f775 71bd
000000e0: e5df d73b da08 f7bc 7337 c0bc 6d3c adbc
000000f0: 9ec8 6c3e 2d98 24bd 865c 2e3e 42ae a0bc
-0.016511206 0.12796354 -0.017901402 -0.01983048 -0.047499448 -0.03928492 -0.047248516 -0.04499707
-0.05048357 -0.09235538 0.08904678 -0.017752837 -0.03846563 -0.06491963 -0.02591255 0.012202987
0.15758291 -0.032092415 -0.013424888 -0.039611626 0.22557001 0.26650313 0.20398194 -0.03476857
-0.033827033 -0.036963526 0.13900486 0.21841772 0.31371194 0.18158308 -0.04136721 -0.059131455
-0.009750813 -0.041012928 0.11809563 0.07405695 -0.018079784 -0.06116712 0.08538202 0.15312776
0.2901481 -0.017529184 -0.04358853 -0.02543146 -0.119858995 0.09656392 -0.033180755 0.03123054
-0.029894192 -0.019358238 -0.016974367 -0.04955566 -0.018580202 -0.06323026 0.20616283 -0.05895039
0.0065879696 -0.030155588 -0.02346394 -0.021146977 0.23123404 -0.04018419 0.17027482 -0.019614343

sequential_23/dense_53/MatMul f4 [64, 2688]
00000000: b74c b43d 8be1 f1bc d9fc 1a3e c302 6abb
00000010: 6d50 bcbd 59dc 353d 8693 43bd fb07 f63c
00000020: c3e1 ba3d 3c30 8ebd 3def b7bc ea60 063d
00000030: 36a7 153d dd26 5cbd 059b de3c 705c c5bd
00000040: 5fda 86bb ba18 8ebd 7934 8dbd f902 d7bb
00000050: c91e a0bd 3115 cebd 3f1f 84bd b0f9 b6bc
00000060: e64e ab3c f3a0 da3b 21a1 a7bc 5702 143d
00000070: 9adf ee3a a29e 95bd d46a fdbd d01a 173c
00000080: 838d 66bd 6cda fd3b 7843 a2bc 8ec5 f9bc
00000090: c0a1 febc e946 ca3b be85 1b3d 97f1 b93a
000000a0: 45f6 9bbd f698 a6bc 788d b3bc 8d29 653c
000000b0: a760 2f3d 27e3 70bd 5a05 39bd 2fa6 8f3d
000000c0: 894e 743d 6bd3 9f3c d78b b9bc dcff f23c
000000d0: 73bb a0bd ef73 5cbd 6688 80bd 8850 5abc
000000e0: 2123 8fbd ec55 cdbd f760 31ba 7cf3 dc3b
000000f0: 5561 c2bc dfb0 e9bc b3ac 2bbc f71f a2bc
00000100: 873b 6a3d ed19 ac3b ab4e fa3d a0df a1bd
00000110: e7e1 88bd 96ae f23d d78a 50bd addf 883d
00000120: 6b79 8abd 50c3 bfbd 346b 9e3c d270 b939
00000130: 60e4 fdbc f55e 913b 57b3 63bd 5a7e 0abe
00000140: 835d 2a3d db3b b3bd 3d55 8cbd 8ace 89bd
00000150: e544 9bbd 3865 4bbd f115 26bd cebf 9dbd
00000160: 39be b6bd 1a56 673d 65b7 e4bd fb61 abbd
00000170: 5461 a0bd 8ff6 ecbd e89b bebd e951 a33c
00000180: cce3 5cbd 1b38 123d 33f3 b0bd 51ef 5e3c
00000190: 8dae d53c 8cf2 d1bc 9c9c 4c3c 9bb3 3ebd
000001a0: 6734 53bd 78e6 42bd 2876 d3bb 3fee ecbb
000001b0: 6780 573d 9a4b af3d 89fc b1bd ae8c 043d
000001c0: fefb a1bb 8ad6 07bd c49d f73c bf59 853b
000001d0: f8a7 8dbc 8a9f 603a 1ad8 d4bd 341c 28bc
000001e0: 9527 22bd 99a5 8bbd df71 cebb dde1 8f3c
000001f0: 01ec 0abd 8f29 d63b 97cc f1bc 2b74 3fbd
00000200: 202f 213d 9e14 403c 466c c138 10af 66bd
00000210: 7790 a73d b17d 773d 6239 7d3c e21b 493d
00000220: 648d f5bc ab84 09bd 7648 ff3c ecca 51bd
00000230: 8950 ccbb 7880 a9bd c637 acbc 3e68 6fbc
00000240: f7ea 9bbd cf77 363c c513 dabd bd5e 2b3b
00000250: f8d0 9abd 483c 04be e544 d8bd 3afe 1cbd
00000260: af7d b3bd 4224 183d 8eb0 72bd 3725 d9bd
00000270: a0aa 48bc a1bb dabd d130 07bd ab23 0dbd
00000280: 391a b8bd 5216 f33c 3ea6 7ebd ed97 aabd
00000290: 58fc 27bd ad15 233c 9075 e0bc 92b9 84bd
000002a0: 84a4 64bd 703e 29be d43c 78bc 8b71 e6bc
000002b0: 44c6 1d3d d939 0ebc cf13 0cbe 145f abbd
000002c0: af6a e4bd b5f3 f13c 7f5d bbbc 9879 25bd
000002d0: 9624 4dbd 8e51 cabd 174e 94bc 3050 9c3c
000002e0: 3ccc 27bc 45df dfbd 3ba7 e6bc 9804 7cbc
000002f0: dda5 debc af5c 9c3d 47c1 67bc 5e17 debd
00000300: 5dde 5c3d b39d 973a 291b f7bd 80c1 aabc
00000310: 1118 183d 4fc8 11bd 4b84 d1bc 7c1b 193c
00000320: c593 19bd 74dc a9bc a166 29bd 1d60 683c
00000330: 7390 5c3d a3b0 7fbd 7179 fb3c a0f2 623b
00000340: 2b11 0bbd 4a45 6c3d 0cb7 8abd 0d5e d23c
00000350: c331 04be 879a a4bd f96f cbbd c3ea bebc
00000360: 9dff 18bc e0b1 6f3d 71b3 8cbd f594 5abd
00000370: 9ec9 43bd 510e 9abd 06a4 633b f96a b13b
00000380: aad1 3abd 4c60 a5bc 2272 e1bd 06cb 51bd
00000390: 3bf5 943d 2ef2 b1bb 2353 153d 6ef8 78ba
000003a0: 89d6 03bd bbea 1bbe 081f f9bc 0823 55bc
000003b0: b76b 93bc 16fc 66bc 49fb 14bd 7f38 84bd
000003c0: 93e9 81bd 44d6 133d 0917 6e3d 7636 4ebd
000003d0: 5742 c9bd 07bb 15bd 6181 1dbb ff07 57bc
000003e0: 93de a1bd 3be2 50bd 84f9 503d b95f 4a3b
000003f0: 6f3b 95bc 384f ee3d 6190 24bd 2250 89bd
0.08803695 -0.029526493 0.15135516 -0.0035707213 -0.091950275 0.044399593 -0.04774811 0.030033102
0.09125092 -0.06942794 -0.022452945 0.03280727 0.036536418 -0.053748 0.027173528 -0.09636772
-0.0041153873 -0.0693831 -0.06894774 -0.0065616337 -0.07818372 -0.10062636 -0.06451272 -0.022335857
0.020911645 0.0066720187 -0.020462574 0.036135044 0.0018224597 -0.073056474 -0.123738915 0.009222701
-0.0562873 0.007746985 -0.019807562 -0.03048971 -0.031082988 0.006173004 0.037969343 0.0014186379
-0.076153316 -0.02033661 -0.021918043 0.013986957 0.042816784 -0.05881038 -0.04517112 0.07014119
0.05964521 0.019509992 -0.022649689 0.029663019 -0.07848253 -0.0538215 -0.06276016 -0.013324864
-0.06989122 -0.10026154 -0.0006766463 0.006742893 -0.023728052 -0.028526722 -0.010478186 -0.019790633
0.057185676 0.005252114 0.12222036 -0.07903981 -0.066837125 0.11849706 -0.050913658 0.06683288
-0.0676144 -0.09363425 0.019338228 0.00035370007 -0.030992687 0.0044363686 -0.055590954 -0.13524762
0.041593086 -0.08751651 -0.068521954 -0.06728847 -0.075815 -0.049657077 -0.04054827 -0.077025995
-0.08923001 0.056478597 -0.11167792 -0.08368298 -0.07831064 -0.11570465 -0.093070805 0.019936519
-0.05392818 0.035698038 -0.086401366 0.013606862 0.026084209 -0.02562835 0.01248851 -0.046558004
-0.051563647 -0.047583073 -0.0064532943 -0.0072305496 0.05261269 0.08559342 -0.086907454 0.032360725
-0.00494337 -0.033163585 0.030226596 0.0040695365 -0.017292008 0.0008568695 -0.103927806 -0.01026063
-0.03958853 -0.068186946 -0.0063001956 0.017563755 -0.033916477 0.006535716 -0.029516501 -0.046741646
0.039351583 0.0117236655 9.223125e-05 -0.056319296 0.08181851 0.060422603 0.015455576 0.049098857
-0.029974647 -0.033573788 0.031162482 -0.051218912 -0.0062351865 -0.082764566 -0.021022689 -0.014612256
-0.07613175 0.011136963 -0.10648302 0.0026148998 -0.07559389 -0.1291362 -0.105600156 -0.038328387
-0.087642066 0.037143953 -0.059250407 -0.10602801 -0.012247711 -0.106803186 -0.03300554 -0.034457844
-0.089893766 0.02967373 -0.06217026 -0.08329759 -0.041012138 0.009953898 -0.027399808 -0.06480707
-0.055820957 -0.16527724 -0.015151221 -0.028130313 0.03851916 -0.008680784 -0.13679431 -0.08367744
-0.11153161 0.029535154 -0.02287173 -0.040399164 -0.05008372 -0.098788366 -0.018103642 0.019081205
-0.010241564 -0.10931257 -0.028155914 -0.015381955 -0.0271787 0.076348655 -0.014145202 -0.10844301
0.053923 0.0011567384 -0.12065727 -0.020844221 0.037132327 -0.03559142 -0.025575778 0.009344932
-0.03749444 -0.020735003 -0.04135764 0.014183071 0.053848695 -0.062424313 0.030697556 0.003462948
-0.03395192 0.057683267 -0.06773195 0.025679613 -0.12909608 -0.08037286 -0.099334665 -0.023305302
-0.009338287 0.058519244 -0.06870163 -0.053364713 -0.0477997 -0.07522262 0.0034735217 0.0054143635
-0.045610107 -0.02018752 -0.11008097 -0.05121901 0.072733365 -0.0054304814 0.03645624 -0.0009497468
-0.03218702 -0.15226261 -0.030410305 -0.01300884 -0.017995698 -0.014098188 -0.036372457 -0.06456088
-0.06343379 0.03609301 0.058127437 -0.050344907 -0.098271064 -0.036555316 -0.0024033415 -0.013124465
-0.07903781 -0.050997 0.051019207 0.003087981 -0.018216817 0.116362035 -0.040176753 -0.06704737

sequential_23/dense_54/MatMul f4 [20, 64]
00000000: 64dc 5f3e b58c b8bb 954f b8bb a3d2 e9bd
00000010: 105a 0e3e 769c 15be 5702 63bd 14b4 85be
00000020: a708 74be 237f f53d 0a2c 1f3e 718c 803e
00000030: 06c1 5fbe dc93 04bf 2b9c e8bf b75f 013f
00000040: 38e2 f4bf 4b1d 083e 8567 d3bd 6555 483e
00000050: ea14 f33d 9119 1ebd 3f83 7abe a303 1dbe
00000060: 9485 57bd 9914 43bd 7e11 32be 311a 4f3e
00000070: 51cc 86bf 5a2e 1ebe 4f68 85bd 41eb fcbd
00000080: 0b99 8a3d 65a7 13be c2d9 ffbe 0a8b 923e
00000090: 3172 813d da23 37be b865 4cbf a2b1 cd3e
000000a0: 2e4f f4bf 2eb5 193e ff9f c3bd 8f0e a03d
000000b0: 41a7 fabd b480 0ac0 7a1f 3e3e d811 34bf
000000c0: 67b1 26be e569 933d d183 633e 2dc4 89bd
000000d0: 9e05 8ebe e28e 5b3e 5b62 51bf 8228 46be
000000e0: adde 4abf ae35 8ebe cda9 553d 60f9 10bd
000000f0: 5ff2 a5bf f2d1 533e b4ba 3ebf 0f11 9b3d
00000100: eee5 8ebe 19dd 3f3e b2f8 41be 6c70 c13d
00000110: 9c41 233b 9797 883e 4d56 113c b279 503e
00000120: 5097 083d 3ddd 94be 5855 ebbb cb5e 5d3c
00000130: dee2 d5bb 1437 553e 92a7 8cc0 e7c1 17be
00000140: 1148 aebf 9ed9 9d3d 5afc 5c3b de8e 8dbd
00000150: 03b1 a5bc 0989 9dbf 9ff6 313e 88c9 74be
00000160: 3790 3a3d 067a 693e 02c8 34be 5d4e cdbe
00000170: 6d2a 36bf 052d e3bc 504a 11be a11e 3f3e
00000180: 536a 0e3e 4bd8 62bd 0312 22bf ad8a ef3e
00000190: e584 9c3d 0919 263e 55c7 9abe 8f85 e53e
000001a0: 67c2 59bf bf4b 1c3e f977 2c3d ea51 bfbd
000001b0: e3f1 12bf 8699 67be de59 40be 6bb7 133f
000001c0: 67bb d8bc 14e0 f23d 9189 253e c39c 303e
000001d0: a634 423e 5bce 1cbe 48c7 21bf 88e3 083e
000001e0: ff26 3f3e aca6 8cbe 6f56 62bd f6d6 b9bd
000001f0: 4922 093e 4451 abbd ae04 e13e 1879 23be
00000200: c130 c63d a127 9e3e 83f7 6cbe 1a22 b5bc
00000210: c64a 4cbe 4186 473e 86a6 ccbc 3334 0cbd
00000220: 041e ddbd 5284 5abf 4a66 46bf ddcd e0bd
00000230: cf02 acbd a09f 5ebf 1949 88c0 b495 dd3d
00000240: 1290 82bf 157f 313e 63cd 83be a457 07be
00000250: 0778 ccbe 6063 9c3e 9ba4 bf3e 667b 373d
00000260: 0d0e 213d daf0 57bd 17c0 29be 5b53 e23e
00000270: 01db d4be 61e9 a43e 427f 823d c570 58be
00000280: e9c7 063e 0cd0 4abe 041e c4bd 219b 3a3d
00000290: 3e6f 2d3e 04cc b23d 217e 223e 0f66 953d
000002a0: beae d33e 578e 8c3d 8fc7 37be ab5d 38be
000002b0: fabb babf 4b42 6abf f25f 04be 8e5e 05bf
000002c0: 8ce7 bb3d 8977 3dbd dcda 1dbe c172 c43d
000002d0: d5a7 593e df28 3bbe 0c29 3cbe c80d 89be
000002e0: 3454 96bf 7ae8 643e d243 46be ed0e 883d
000002f0: de5c 8a3c b37a cbbd f146 88bf 307c 1a3f
00000300: a9cc 793d ec25 5f3e 9b11 de3b fb43 0dbf
00000310: 6c9c 1c3e 978e fe3d db19 fb3d d338 313e
00000320: ce1d 643c d259 2d3d 8b70 debe 28b0 353e
00000330: cad7 823e 4390 8fbe 0b6a e9bf 9aa6 813e
00000340: 52a8 9d3d 7f16 91bd ad67 873d a22f 25be
00000350: 1c01 783e cfec 403e d961 4cbe ffa3 823d
00000360: ce03 063e 9e5e 763e 1a6e c23e 547f 45be
00000370: 5460 3ebf 091f 44be 63cf 123e 35b9 223d
00000380: 9da3 c4bd dbc1 dfbd 4b34 62bf 6561 933d
00000390: fdbd 1ebe 2748 05be 4b30 79be ca39 b93e
000003a0: 75ee 09bd b7a0 e43d 11c3 a1bd c3e4 f8bd
000003b0: 6610 2ebf ccef b9be 40cc 2abd 0860 453d
000003c0: ce9f 883d 141f e2bd f03a 01be 0857 82be
000003d0: d6d2 ea3d 94d3 1a3e f716 53bf 9205 1cbe
000003e0: 9907 273e d6c7 2e3c 3c6b a5bd c141 9ebc
000003f0: 2a15 36bd 8ccf eabd e302 8d3e b0a0 f83e
0.21861416 -0.005632008 -0.0056247213 -0.11417129 0.13901544 -0.14610466 -0.055422153 -0.2611395
-0.23831426 0.1198714 0.15544143 0.25107148 -0.21850976 -0.51788116 -1.8172659 0.50536674
-1.9131536 0.13292424 -0.10322479 0.19563825 0.118692234 -0.0385986 -0.24464129 -0.15333419
-0.052617624 -0.047627065 -0.17389485 0.20224835 -1.0531102 -0.15447369 -0.06514036 -0.123495586
0.06767472 -0.14419325 -0.49970824 0.28621703 0.063206084 -0.1788477 -0.7984271 0.40174586
-1.9086664 0.15010521 -0.09552001 0.07815277 -0.122389324 -2.1641054 0.18566695 -0.7033973
-0.16278611 0.07197932 0.22218253 -0.06726871 -0.2773866 0.21441224 -0.81790704 -0.1935139
-0.79246026 -0.2777533 0.052163888 -0.035394073 -1.2964591 0.20685557 -0.74503636 0.07571613
-0.27909797 0.18736686 -0.18942526 0.09445271 0.0024910932 0.26678154 0.008870673 0.20358923
0.033347428 -0.2907504 -0.0071818046 0.01351137 -0.006527289 0.20821792 -4.3954554 -0.14820062
-1.3615743 0.07707523 0.003371975 -0.069120154 -0.020226007 -1.2307445 0.17379235 -0.23905003
0.04554769 0.22800454 -0.17654422 -0.4009885 -0.71158487 -0.027731428 -0.14188504 0.18664028
0.13907747 -0.055382054 -0.63308734 0.4678549 0.07642535 0.16220488 -0.30230203 0.4482846
-0.8506226 0.1526327 0.042106602 -0.09341796 -0.5740034 -0.22617158 -0.18784282 0.5770175
-0.026456548 0.11859146 0.16165759 0.172473 0.18965396 -0.15313093 -0.63194704 0.13368046
0.1866722 -0.2747091 -0.05525821 -0.09074204 0.13391985 -0.083651096 0.43948883 -0.15964162
0.09677268 0.3088961 -0.23141293 -0.022110987 -0.19950399 0.19484808 -0.024981748 -0.03422947
-0.10796741 -0.85358155 -0.7749983 -0.10976765 -0.08398973 -0.8696232 -4.258923 0.10819569
-1.0200217 0.17333634 -0.25742635 -0.13217026 -0.39935324 0.30544567 0.37430272 0.044795416
0.03932004 -0.05271993 -0.16577183 0.4420422 -0.41573337 0.32209304 0.06371929 -0.21136768
0.13162197 -0.19805926 -0.095760375 0.0455581 0.16936967 0.08730319 0.15868427 0.07294857
0.41344255 0.06863087 -0.1794722 -0.18004481 -1.4588616 -0.91507405 -0.12927225 -0.52097404
0.091750234 -0.046256576 -0.1541552 0.095922 0.21255429 -0.1827731 -0.18375033 -0.26768327
-1.1744447 0.22354308 -0.19361809 0.06643472 0.016889986 -0.099355124 -1.064665 0.60345745
0.060986195 0.2179181 0.006777001 -0.55181855 0.15294045 0.124295406 0.12260791 0.17306833
0.013923122 0.042321987 -0.43445238 0.1774298 0.2555526 -0.2803975 -1.8235487 0.2532242
0.0769812 -0.07084369 0.066115715 -0.16131452 0.24219173 0.18840335 -0.19959201 0.06378936
0.13087389 0.24059531 0.37974626 -0.19286853 -0.74365735 -0.19152464 0.14336924 0.03972741
-0.09601519 -0.10925647 -0.8836104 0.07196311 -0.15502162 -0.13015805 -0.24334829 0.36176902
-0.033674676 0.111634664 -0.07898534 -0.12153008 -0.6799377 -0.36315763 -0.041698694 0.048187286
0.06671105 -0.11041084 -0.12620139 -0.25457025 0.11465995 0.15119773 -0.82456917 -0.152365
0.16311492 0.010667762 -0.08077094 -0.019318463 -0.044453777 -0.11465368 0.27541265 0.48560095
