frontend/pdiot_app/assets/models/model_online_3CNN_2dense_4class_79.tflite (tflite, 801428 bytes, 10 tensors)

sequential_25/conv1d_81/BiasAdd/ReadVariableOp f4 [64]
000000 28 9c 5a be 00 fb 0a be 8e 75 19 bc 5a c7 05 be
       -0.21348631 -0.13572311 -0.009366406 -0.13064328
000010 45 82 20 bd 8d fa b1 be 3c 92 0d be 62 99 37 3d
       -0.039186735 -0.34761468 -0.13825315 0.04482401
000020 5b b9 09 be ea 9f 9b be ad d1 21 bf af 7c bf be
       -0.13449614 -0.30395442 -0.63210565 -0.37399814
000030 6b 91 01 be d6 2e 31 be 93 c3 5d be 0f 94 f7 bd
       -0.12653129 -0.17303023 -0.21656637 -0.12088787
000040 fd e5 66 3d 3d 64 a0 be 64 85 60 3d 35 eb 8f be
       0.056371678 -0.31326476 0.05481471 -0.28109136
000050 98 a6 57 bd 50 a5 85 3d 6f 01 3c be 46 b1 22 be
       -0.05264911 0.065256715 -0.18359922 -0.15887937
000060 e5 7e 53 be 4f ed 2f bd fd d8 fc bd 2d 1c 61 be
       -0.20653875 -0.042950924 -0.12346075 -0.21983404
000070 d3 67 2a be e5 d6 0e be 5c 88 f9 bd 98 54 0c bf
       -0.16641168 -0.13949163 -0.121842116 -0.5481658
000080 06 f9 c7 bd 50 df 9c 3d ed 25 a4 bd 7c 92 61 be
       -0.09764294 0.07659781 -0.08015046 -0.22028536
000090 14 4c 1e bf 78 8b 28 be 99 3f 93 3d 11 2e 04 be
       -0.61834836 -0.16459453 0.07189865 -0.12908198
0000a0 f6 f7 29 be 67 3a 01 3d c9 10 05 bf 3d 66 fe be
       -0.16598496 0.031549837 -0.5197874 -0.49687377
0000b0 2f 0d a9 bd 3a 4e f4 be 29 32 9a be a6 78 81 be
       -0.08254468 -0.47715932 -0.30116394 -0.2528736
0000c0 df 54 7e 3d 69 c4 05 3d 68 96 36 be 89 ff 2f 3c
       0.062092658 0.032658014 -0.17830813 0.010742077
0000d0 5a 71 8d be bf b3 94 3d 39 8d c4 be a8 02 07 be
       -0.27625543 0.07260846 -0.38388994 -0.13184607
0000e0 1a f6 06 be 03 a5 5a be a7 7a ac 3d c5 e0 9c be
       -0.13179818 -0.2135201 0.084218316 -0.30640236
0000f0 bd 09 12 bd 32 42 a0 be 60 15 36 be 8e 2f aa be
       -0.03565382 -0.31300503 -0.17781591 -0.33239406

sequential_25/conv1d_82/BiasAdd/ReadVariableOp f4 [64]
000000 ec 35 9d bc f1 8a ae bb bd fa 36 ba 7a ce 09 bc
       -0.019190751 -0.0053266217 -0.0006980112 -0.008411044
000010 2e 6d d6 3c bb d2 15 be a7 72 81 bc 0a 3b 38 bd
       0.026175108 -0.14631169 -0.01580174 -0.04497818
000020 0b a2 2c bc ab ee b9 3c 80 b5 9c bc f1 2a c1 bc
       -0.010536681 0.022696814 -0.019129515 -0.023580046
000030 fe 06 09 be 60 c0 80 3d f1 e1 33 bc a2 bb b5 bd
       -0.13381574 0.062866926 -0.010979162 -0.08873679
000040 63 6b 8a bb dc a5 09 be f6 3e b4 bc c7 21 f4 be
       -0.0042242273 -0.13442177 -0.022002678 -0.4768202
000050 21 7a d5 bb c6 78 af b8 5a dc cc bc 4c ce e4 bb
       -0.006514803 -8.367146e-05 -0.025007416 -0.0069826003
000060 f8 69 03 bc 8e d3 89 bb e3 5d fa 3c e8 86 f1 bc
       -0.00802087 -0.0042061275 0.030562347 -0.029483274
000070 03 17 4d bb c6 2d 02 bd 6d fd 94 bb 92 d3 2e bd
       -0.0031294234 -0.031781934 -0.0045468123 -0.042682238
000080 26 22 77 bc 7a 69 d4 bc d1 8c c8 bb 9f f9 ea bb
       -0.015083825 -0.025929201 -0.0061203022 -0.0071708704
000090 7d 38 18 bd 67 bd 86 bc 08 79 55 b6 a7 ba 17 bb
       -0.037163246 -0.016447736 -3.1809923e-06 -0.0023152025
0000a0 aa 84 8e bc 5a 1f 88 bd 73 46 03 bd 84 fd 09 bc
       -0.017397244 -0.06646605 -0.032049607 -0.008422259
0000b0 8e 10 a7 bc 7d fa 7d 3d 83 a7 3d bb 6d 4a 8f ba
       -0.020393636 0.062006462 -0.0028938956 -0.0010932215
0000c0 ea 69 2b bd e4 4f 4b bd 81 20 4e b9 4e 64 26 bd
       -0.041849054 -0.049636737 -0.000196578 -0.040623
0000d0 41 dc e8 bc 20 6f 44 bc 03 f8 78 3d 50 8b 8c bd
       -0.028425338 -0.011989385 0.060783397 -0.06862509
0000e0 70 6d a5 bf 61 6f 46 3d f8 2e a6 bc be 8c fc bd
       -1.2924023 0.048446063 -0.020286068 -0.12331532
0000f0 ee 25 a9 be 07 bb 88 bd 83 a9 1f b8 6a ca 6e bc
       -0.3303675 -0.06676298 -3.8066424e-05 -0.014574626

sequential_25/conv1d_83/BiasAdd/ReadVariableOp f4 [64]
000000 15 b7 bd 3c fe 97 52 bc 25 c7 e7 3c ac 59 e1 bc
       0.02315859 -0.012853621 0.028293202 -0.02750858
000010 b3 ae d6 bc 73 a5 38 bb de 91 7b bd 4f 9d da bb
       -0.02620635 -0.0028174787 -0.061418407 -0.0066715847
000020 7a e6 c3 bc 77 3f 94 3c e9 01 d4 bd cb de 85 3d
       -0.02391361 0.018096669 -0.10351927 0.06536635
000030 89 ac 47 3d ef 82 cb bc b5 48 d2 3d d9 78 91 3d
       0.048748527 -0.024842707 0.10267774 0.07103128
000040 79 64 9a bd ce a5 70 bc 12 e8 8d 3c 44 72 5c bc
       -0.07538695 -0.014687968 0.017322574 -0.013454977
000050 1b f7 8d bb f7 a4 5b bc 9d cb b0 bc e1 b4 ce bc
       -0.004332436 -0.01340603 -0.021581465 -0.025232734
000060 ed c4 b2 bc 15 6a 9a 3c 9a 0d 12 3d 5f 19 ed bc
       -0.021822417 0.018849412 0.035657503 -0.028942762
000070 ec ea e8 3a a8 6c 34 3d f8 40 60 bc eb 14 6f bc
       0.0017770207 0.044048935 -0.013687365 -0.01459239
000080 7c 93 93 bc 14 a6 c7 bc 66 af c2 3d 0c 82 d3 3c
       -0.018014662 -0.024371184 0.09506111 0.025818847
000090 20 e7 01 bd fe 16 ef bc fc 3b 05 be c4 b6 37 bc
       -0.03171456 -0.029185768 -0.13011163 -0.011213008
0000a0 0d ab 4f be 52 98 92 bb cb 3f fe bc a7 a5 57 bc
       -0.20280094 -0.0044737244 -0.031036278 -0.013162053
0000b0 55 5e 18 bc ec 95 3e bc 13 5c 4d bb 48 ff 9e 3a
       -0.009299834 -0.011632424 -0.0031335398 0.0012130523
0000c0 b6 04 45 bd bc 0c 12 3d 80 25 a1 bb 83 6f 3e bd
       -0.048100196 0.035656676 -0.0049178004 -0.046493065
0000d0 30 a0 b4 3d 7d 49 32 bc 16 7f 1b 3c cc 94 68 b9
       0.08819616 -0.010881779 0.009490749 -0.00022180675
0000e0 8b ab dd bd 36 ad 1a bc 97 b9 12 bc 56 07 7f 3d
       -0.10823735 -0.009440711 -0.008955381 0.062262855
0000f0 cd b0 18 be 7f a5 e4 bd e9 86 ea ba a8 89 4e bc
       -0.14911194 -0.111643784 -0.001789299 -0.012606062

sequential_25/conv1d_81/Conv1D f4 [64, 1, 5, 6]
000000 53 33 25 3d cc e8 48 3d 0e 9a 72 bd 4b 38 78 bd
       0.04033215 0.049050137 -0.05922895 -0.06060056
000010 fd 59 a7 3d 63 8b 32 bc f3 97 1e 3d 05 1e 46 3d
       0.08171461 -0.01089749 0.03871913 0.048368473
000020 4e 53 72 bd 23 25 4e bc 79 e1 c0 3d 70 bf 10 bc
       -0.059161477 -0.012582096 0.094180055 -0.008834705
000030 cc f2 20 3d 5f 38 47 3d 50 b6 80 bd 07 e0 7f 3c
       0.03929405 0.048637744 -0.06284773 0.015617377
000040 2e b9 99 bc a5 fa 6b 3a 46 89 2d 3d 9b ef 4a 3d
       -0.018765058 0.00090018875 0.042367242 0.04954491
000050 90 35 84 bd b2 0a 02 3c f9 b2 a9 bd 01 49 e6 3c
       -0.06455529 0.00793712 -0.082860895 0.028110983
000060 c0 1a 2f 3d aa 45 50 3d 44 28 87 bd d0 dd 51 3c
       0.04275012 0.050847687 -0.06599477 0.012809232
000070 d1 2f e7 bd 15 6f 9a 3d 9a df 5d 3d 0c d4 ab bc
       -0.11288417 0.075407185 0.05416832 -0.020975135
000080 c5 f0 e5 bc 6e ac 99 3d 8c c8 a6 bd 10 46 c4 3d
       -0.02806891 0.075035915 -0.0814372 0.09583676
000090 f3 10 61 3d 4d e5 a4 bc 77 96 f0 bc 8f da 60 bd
       0.054947805 -0.02012887 -0.029368622 -0.054895934
0000a0 63 6f ef bc e7 00 41 3d dd ca 67 3d 46 04 a2 bc
       -0.029227918 0.04712 0.05658995 -0.019777428
0000b0 01 11 cb bc 0a 2b 56 bd e1 db 17 3e 48 f0 ba 3c
       -0.024788382 -0.05228714 0.14829971 0.022819653
0000c0 cf 3c 5a 3d 87 d6 ca bc 7c 18 94 bc 24 06 94 bc
       0.053280648 -0.024760498 -0.018078081 -0.018069334
0000d0 7d 62 72 bd 0f 84 56 3c 6c b5 56 3d a4 24 e7 bc
       -0.059175957 0.013093009 0.05241911 -0.028215714
0000e0 ea 86 9e bc ac 9a 50 bc d9 fa 2c bc b9 36 4d bd
       -0.019351441 -0.012732189 -0.010557854 -0.050101016
0000f0 eb 63 1f 3d 46 df b3 3c 1a 88 88 bc 7b 57 90 bb
       0.03891365 0.021957051 -0.01666646 -0.0044049597
000100 69 d5 f0 3d bf 64 29 3d b4 19 1e 3d 04 16 a6 3c
       0.11759455 0.041355845 0.03859873 0.02027417
000110 17 b0 96 bc e8 a6 ba bc 20 0a 36 3d 9a 86 9c bc
       -0.018394513 -0.022784665 0.04444325 -0.019107152
000120 1b f7 1d 3d 41 ba 9c 3c 2e da 90 bc 98 49 57 bc
       0.038565736 0.019131782 -0.017682161 -0.013140105
000130 fc 4c d3 bb 54 51 ad bc 19 40 26 3d dc ab a1 3c
       -0.0064483862 -0.021156944 0.040588472 0.01973527
000140 f0 8e 98 bc dd f8 70 3d cf b7 25 bd a2 5d e8 bc
       -0.018622845 0.058831085 -0.040458497 -0.02836496
000150 a2 6c 24 3d ec 2d ac 3c 2d e0 b9 bc 7a 29 d1 3c
       0.040142663 0.021017991 -0.022689903 0.025532473
000160 f5 f2 13 be d2 95 eb 3c 1a 99 5a bc a1 59 ae 3c
       -0.1444815 0.028757963 -0.013342166 0.021282973
000170 80 c4 63 bb 08 b8 e0 3b db 71 12 bc fc 7d cc 3b
       -0.0034754574 0.0068578757 -0.008938278 0.0062406044
000180 ba a5 4e bc 2d 91 b7 3c 38 0f ae bb 6c 6f e0 bc
       -0.0126127545 0.022408092 -0.005311873 -0.02739688
000190 ba 71 fd bb 80 90 21 bc 2b 4d 53 bc cf 5d b8 3c
       -0.0077345045 -0.009861112 -0.012896816 0.022505669
0001a0 f4 a1 a8 bb 44 05 42 bc 74 a3 d5 bc 78 01 89 3b
       -0.0051462594 -0.011842076 -0.026078917 0.0041810833
0001b0 da 65 5c bc 46 ca b1 3c 9b 5e ac bb 07 2b e0 bc
       -0.013452018 0.021702897 -0.0052603013 -0.027364267
0001c0 fc 4c 87 3c f1 be 81 bb 79 5f 6b bc cc de a6 3c
       0.016516201 -0.0039595296 -0.014366024 0.02036991
0001d0 14 96 83 bb 1a 56 0f 3e d2 55 51 bc 09 0e 84 3d
       -0.0040156934 0.13997689 -0.012776809 0.064479895
0001e0 df f3 69 3c 39 90 d5 3c 20 ca 9d 3a 5d db 62 3c
       0.014279335 0.026069747 0.0012038387 0.013846246
0001f0 d4 e6 2c bc 5f 27 ff bb df a7 51 3c 44 0e c4 3c
       -0.010553081 -0.007786676 0.012796371 0.023932584
000200 0e 9b 5a 3a 3e 9b b1 3d 70 fe 19 3d 71 69 a5 bc
       0.0008339145 0.08672188 0.037596166 -0.02019188
000210 90 a9 43 3c 1a f4 bd 3c 80 c4 ab 3a f4 03 cc 3d
       0.011942282 0.023187686 0.0013104826 0.099616915
000220 48 b1 e5 ba 90 2c 27 3d 20 d0 54 3c 38 0c c6 3c
       -0.0017524147 0.040813982 0.012989074 0.024175748
000230 fc 1c 8d 3b 26 1d 85 bd 94 2c 59 bd 34 36 b9 3d
       0.0043064337 -0.064997 -0.05302103 0.090435416
000240 c0 8d 3e 3c b0 9e d0 3c e3 6f e6 3b c8 3b 53 be
       0.0116304755 0.025466293 0.007032381 -0.20628273
000250 b5 3f c6 bb fe de b3 3d 7f 6c 13 bd 3a 37 98 3c
       -0.006050075 0.08782767 -0.03599214 0.018581022
000260 1b fd 24 3c c0 6f 2e 3d ec 89 0f 3b db 37 1d be
       0.010070111 0.04258704 0.0021902276 -0.15353338
000270 19 ac 0f bd c6 c7 b4 3c 1c b2 10 3c f8 ac 54 3d
       -0.035076234 0.022067916 0.008831527 0.05192277
000280 23 e6 57 bc 98 58 03 be cf 0c 0f bd f0 58 b5 3c
       -0.013177427 -0.12826765 -0.034924325 0.022137135
000290 38 93 13 3c a1 73 e8 3c 8c 8d 12 bd 22 e5 f2 bd
       0.009007268 0.028375449 -0.03577952 -0.1186011
0002a0 8f 85 0e bd 09 7f c0 3c a4 2a c5 3b 90 df 2b 3d
       -0.03479534 0.023498075 0.006017046 0.041961253
0002b0 68 8c c6 bc 59 9a 13 be 29 2f 07 bd cf e3 ca 3c
       -0.024236873 -0.14414348 -0.03300396 0.02476683
0002c0 54 b0 8d 3b b6 2e 9d 3c a5 7a 53 bd 9a a2 05 be
       0.0043239985 0.019187313 -0.051630635 -0.13050309
0002d0 8d a2 38 3d c1 a5 06 3d 93 81 57 bd 3e a0 2a 3d
       0.045076896 0.03287292 -0.052613806 0.041656725
0002e0 a9 b1 16 be 10 9f 91 bb 19 5a 43 3d 57 d8 06 3d
       -0.1471621 -0.0044440106 0.047693346 0.03292116
0002f0 47 e3 55 bd 9c 85 02 3d b8 9b a3 bd f2 b6 76 bb
       -0.0522187 0.0318657 -0.07988685 -0.0037645665
000300 cb 09 43 3d ab eb ff 3c 1d 0e 4b bd 1d c3 f5 3b
       0.04761676 0.031240305 -0.049574006 0.007500066
000310 70 97 f3 3c b8 6d 84 bc f5 c8 32 3d 37 b9 f9 3c
       0.029735297 -0.0161656 0.04364868 0.030483825
000320 c7 c8 3c bd 87 ef 35 3c ab 9c cd 3d 7e bb 99 bb
       -0.046089914 0.011104471 0.10039648 -0.0046915403
000330 f1 71 28 3d 9b a0 f6 3c 27 df 3a bd da fc 07 bd
       0.041124288 0.03010588 -0.04562297 -0.033200122
000340 2f 8c 11 3d cb cd 0b 3c 40 2c b0 bb 13 a2 4d 3d
       0.03553408 0.008532952 -0.0053763688 0.050203394
000350 10 64 9c b7 65 23 05 be 93 19 23 3d 27 05 50 3d
       -1.8643244e-05 -0.13001783 0.03981931 0.050786164
000360 b6 80 e3 bb c8 11 49 3d d7 78 f0 ba cd 20 b4 bd
       -0.006942834 0.049089223 -0.001834656 -0.08795319
000370 8d a9 3c 3d ca b6 6e 3c 9c ac bf bb 10 8a 4a 3d
       0.046060134 0.0145699475 -0.005849434 0.049448073
000380 b3 f4 47 bb 58 8a 6a bb 6c 9d b0 bc 4f c1 bd bc
       -0.0030510842 -0.0035788026 -0.02155944 -0.023163466
000390 ca 5c 68 bb 36 09 47 3d 06 ce d4 bb de 34 4e 3d
       -0.0035455697 0.04859277 -0.0064942865 0.050343387
0003a0 35 48 a6 bd 91 4f ff 3b 73 c3 00 bb 70 8e 49 3d
       -0.08119241 0.0077914675 -0.0019647747 0.049208105
0003b0 0a 69 0b bc 51 26 f3 3d 5a ea 03 bb 7a b4 02 bc
       -0.00850893 0.11872543 -0.0020128698 -0.007977599
0003c0 0a 87 71 bc cb 84 bc 3c 43 a7 8f bc ca ac 2f bd
       -0.0147416685 0.02301254 -0.017535811 -0.042889394
0003d0 8b ef 9d 3b ab 8f eb bd 9d 28 54 bc 76 41 c5 3c
       0.0048198155 -0.11502012 -0.012949136 0.024079066
0003e0 4a 2b af bc 5c 59 60 bb 51 9e 11 bd f1 51 e2 bd
       -0.021382947 -0.003423295 -0.035551373 -0.11050785
0003f0 22 f5 1e bc 95 e1 cf 3c de b3 cd bc ff 60 74 3c
       -0.009701999 0.02537612 -0.025110181 0.014915704

sequential_25/conv1d_82/Conv1D f4 [64, 1, 3, 64]
000000 bb 4e ff 02 53 8f 41 83 fa 10 6a 83 67 a7 87 81
       3.7514072e-37 -5.688213e-37 -6.8785908e-37 -4.983138e-38
000010 c8 4d 61 83 c1 ae 57 83 89 59 82 03 de 8a 1d 03
       -6.6210846e-37 -6.338343e-37 7.6612695e-37 4.6297565e-37
000020 fe 42 c2 02 61 f4 7d 83 6c 1c 43 83 81 54 01 83
       2.854419e-37 -7.463055e-37 -5.7337976e-37 -3.80067e-37
000030 8a c4 8d 02 e1 5c 71 02 f5 5c 9a 02 52 af 76 83
       2.0830896e-37 1.7732539e-37 2.268162e-37 -7.249416e-37
000040 fb 81 8c 83 2d 93 a1 83 18 50 73 03 64 16 5a 03
       -8.2583025e-37 -9.496519e-37 7.1503225e-37 6.4090145e-37
000050 d6 ae c4 83 6c ac 9b 03 08 36 2a 03 2e e1 a3 83
       -1.1559985e-36 9.149667e-37 5.0020535e-37 -9.631978e-37
000060 16 ec 7d 03 9a 0c 8d 83 10 10 49 03 96 0c 0e 02
       7.462103e-37 -8.290128e-37 5.908703e-37 1.0436124e-37
000070 85 87 61 03 9d 25 c7 82 fa fd be 02 18 20 75 83
       6.6277126e-37 -2.926201e-37 2.8063766e-37 -7.203587e-37
000080 c9 d6 73 03 24 d2 b9 83 79 f5 ca 82 95 d6 e8 02
       7.1657843e-37 -1.0921569e-36 -2.9822127e-37 3.42125e-37
000090 1e 6b 50 02 98 7a a2 82 b0 cb af 02 04 b8 94 03
       1.5312168e-37 -2.3874126e-37 2.583085e-37 8.740906e-37
0000a0 08 ab 95 81 a9 71 fb 02 1e fe 34 03 ae 9c 34 83
       -5.4979374e-38 3.6946373e-37 5.318896e-37 -5.3077105e-37
0000b0 70 ef 94 02 c4 ed 37 83 16 b2 2e 02 02 3f 43 82
       2.1884076e-37 -5.405181e-37 1.2834609e-37 -1.434442e-37
0000c0 ec 1a 07 02 18 1b b1 03 40 5c 54 03 90 4c 06 03
       9.92596e-38 1.0409345e-36 6.24071e-37 3.946695e-37
0000d0 ac 65 48 83 e3 fd 44 03 c0 0a 9a 82 10 84 e0 02
       -5.889143e-37 5.789067e-37 -2.2634436e-37 3.2989642e-37
0000e0 5d 67 2a 83 4d 6a 3f 83 65 3d 44 83 38 b4 d8 02
       -5.0077165e-37 -5.6251883e-37 -5.76697e-37 3.1841788e-37
0000f0 2e 9b e8 02 ff 8f c3 83 cb da ae 83 34 c1 14 83
       3.4178405e-37 -1.149413e-36 -1.0277033e-36 -4.3715077e-37
000100 f6 5b 93 03 7a f6 0e 83 db 79 a8 03 24 1c eb 82
       8.660997e-37 -4.201299e-37 9.902129e-37 -3.4546298e-37
000110 75 fb 0d 83 02 d5 9f 83 68 e6 fb 82 a8 74 8d 03
       -4.1724834e-37 -9.394084e-37 -3.7013382e-37 8.314018e-37
000120 2e 92 51 83 aa 4b d1 82 67 e1 95 83 dc 90 3c 83
       -6.1587386e-37 -3.075322e-37 -8.809183e-37 -5.5414525e-37
000130 41 a0 c4 02 e7 78 16 83 b0 75 e3 82 d0 77 43 82
       2.8891593e-37 -4.4219827e-37 -3.3422202e-37 -1.4360722e-37
000140 90 cd 22 81 17 66 a1 83 c2 d5 0d 82 be ba 76 03
       -2.9902185e-38 -9.486168e-37 -1.042039e-37 7.250727e-37
000150 53 bb 80 01 cc 15 33 83 bc f0 60 82 21 36 3b 01
       4.728857e-38 -5.2628394e-37 -1.6526008e-37 3.438531e-38
000160 1e 2c ad 03 b4 6d b9 02 92 a3 56 83 f2 75 de 82
       1.0178155e-36 2.7246273e-37 -6.3076717e-37 -3.2687666e-37
000170 69 04 31 03 a4 ef 09 82 96 16 ae 03 d9 33 7c 03
       5.2020688e-37 -1.0133944e-37 1.0231986e-36 7.4115662e-37
000180 39 74 de 02 50 2f 8b 02 71 91 9f 82 ef d3 2e 83
       3.2686677e-37 2.045137e-37 -2.344643e-37 -5.137729e-37
000190 42 49 06 82 4a 29 b6 02 1f 88 4d 83 e3 fe 4c 03
       -9.865789e-38 2.6766195e-37 -6.0400345e-37 6.0242807e-37
0001a0 94 1a 3b 83 b9 6d 30 03 27 1f 81 03 08 9c a1 03
       -5.498487e-37 5.1847707e-37 7.589091e-37 9.4985525e-37
0001b0 73 58 5f 03 36 18 24 83 12 c9 1c 03 64 65 58 03
       6.5635345e-37 -4.822306e-37 4.6075097e-37 6.3593086e-37
0001c0 10 f3 63 03 a0 5d ab 03 13 dd d3 01 27 16 4d 03
       6.6988326e-37 1.0071972e-36 7.7826385e-38 6.0269515e-37
0001d0 49 2c 9d 03 b8 4b 11 03 90 a7 39 03 1c a1 00 83
       9.237798e-37 4.269859e-37 5.4558966e-37 -3.7800764e-37
0001e0 7a d6 60 83 b0 37 35 83 cc 39 63 00 45 ab 67 83
       -6.607389e-37 -5.3255045e-37 9.112448e-39 -6.8081407e-37
0001f0 11 22 fc 01 35 41 1f 83 48 a2 63 03 be 01 2e 83
       9.2619063e-38 -4.6800754e-37 6.6895594e-37 -5.1136004e-37
000200 0a b7 30 82 b8 e1 3b 03 66 e9 81 82 9c 6e 05 03
       -1.2982967e-37 5.5213473e-37 -1.908881e-37 3.921216e-37
000210 48 ad 98 83 b1 ea 48 80 7a d0 30 03 68 08 16 03
       -8.9735405e-37 -6.696347e-39 5.196107e-37 4.409069e-37
000220 82 23 97 03 44 63 d3 82 9d 7c 03 03 da 09 24 83
       8.8831345e-37 -3.106064e-37 3.864049e-37 -4.8206577e-37
000230 6d df 5c 03 f4 ca 16 83 bc fc bb 82 46 56 90 03
       6.490867e-37 -4.4314017e-37 -2.7622243e-37 8.483367e-37
000240 be e6 3d 83 e6 83 5f 83 e3 fa 1b 83 4a 55 34 03
       -5.5806987e-37 -6.568522e-37 -4.583841e-37 5.2995153e-37
000250 97 22 93 83 3c 97 11 83 e0 2d c7 02 ee 88 02 82
       -8.647825e-37 -4.278528e-37 2.9266753e-37 -9.590188e-38
000260 6d e5 4f 03 bc 2d 57 82 ed 0f 96 03 dc b2 95 83
       6.10952e-37 -1.580883e-37 8.819864e-37 -8.798497e-37
000270 68 4c 59 02 df da 3c 03 68 53 06 83 ae 46 ad 02
       1.596457e-37 5.5499486e-37 -3.9474806e-37 2.5460633e-37
000280 61 55 53 03 c0 3f f2 02 52 74 ad 03 5a bc 4c 82
       6.2105337e-37 3.5595295e-37 1.0194732e-36 -1.5041607e-37
000290 be 9f 35 83 78 d7 c4 03 db 19 ef 82 36 55 05 83
       -5.3374494e-37 1.1569314e-36 -3.5132734e-37 -3.9183005e-37
0002a0 4d 07 3b 03 0e 7d 11 03 0c ae f8 02 0f 4c e7 02
       5.496274e-37 4.2755226e-37 3.6540223e-37 3.3986055e-37
0002b0 10 66 5a 03 24 fe 8a 03 16 18 80 02 b7 2a 69 83
       6.4181604e-37 8.169259e-37 1.8821734e-37 -6.852158e-37
0002c0 80 0f b8 82 96 c5 a9 83 ec 6f 72 82 25 10 96 03
       -2.7045267e-37 -9.978291e-37 -1.7811472e-37 8.819914e-37
0002d0 98 9e 6d 02 ce b8 d0 02 4f 68 35 83 18 a9 33 83
       1.7457524e-37 3.0668926e-37 -5.331086e-37 -5.2797482e-37
0002e0 4b a3 3d 83 7d e1 af 83 f3 15 1b 82 76 ae 31 03
       -5.572956e-37 -1.0337345e-36 -1.1393901e-37 5.2215896e-37
0002f0 03 31 88 02 bf f5 92 83 75 98 8e 01 aa e8 80 83
       2.0011535e-37 -8.637529e-37 5.2381327e-38 -7.576581e-37
000300 54 c5 e2 3b 6a 80 23 bc 7f c4 b6 bc f8 58 dc bc
       0.006920496 -0.009979347 -0.022310494 -0.026897892
000310 43 11 38 bc c5 48 e0 3c cd b0 f5 bb d8 63 66 3d
       -0.011234584 0.02737845 -0.007497883 0.056247562
000320 b5 16 54 3d 7e cb 98 bc ce 38 7b 3b 20 b9 3b bd
       0.051779468 -0.01865172 0.0038333419 -0.045830846
000330 46 88 33 bd bd 58 18 bc 05 3e 61 83 52 55 45 bc
       -0.043831132 -0.009298501 -6.619275e-37 -0.012044268
000340 a2 71 72 bd 5f 06 90 bc fe 8f 41 bd 56 8b d2 3d
       -0.0591904 -0.017581163 -0.047256462 0.102804825
000350 60 ac a8 bc 20 51 5f bc 1a db eb ba cc d1 67 bc
       -0.020590007 -0.013630182 -0.0017994375 -0.014149141
000360 e8 ce e1 3c 41 a5 43 3c f0 ad 53 3d 6e 68 1e bd
       0.02756448 0.011941255 0.05167955 -0.03867381
000370 46 e4 7e 81 eb 2e db bc 8d 40 92 bb 75 d7 2b 3c
       -4.681621e-38 -0.02675577 -0.0044632615 0.010488381
000380 ab fc 45 bd 17 23 9d 3c 39 dd a3 bd 79 a2 2d 83
       -0.048336666 0.019181771 -0.08001179 -5.102664e-37
000390 58 bb 9a 3d dd f1 86 3c ee 7d 03 bd 35 40 8d bd
       0.07555264 0.016472751 -0.032102518 -0.06897012
0003a0 77 57 19 3c 22 73 a2 3d 13 ad 51 3c 72 b2 66 3b
       0.009359232 0.07932116 0.012797612 0.0035201577
0003b0 7e 04 1b 03 ca b5 81 bc 25 c4 66 bc b1 38 34 3d
       4.5555563e-37 -0.015833754 -0.01408485 0.043999378
0003c0 3b 81 08 bc e4 03 a3 3d 58 07 bb 3d c2 47 48 bd
       -0.008331592 0.079597265 0.0913226 -0.04889656
0003d0 a5 1b 35 03 22 d9 49 3c 2b fb c0 3c 54 84 54 3d
       5.3222854e-37 0.012319835 0.023557266 0.05188401
0003e0 78 92 0d 83 48 a1 1a 3d ca 45 0b 3d 77 7f ca bc
       -4.1604314e-37 0.037751466 0.034002103 -0.024718983
0003f0 d3 9b 8e bd d3 c9 cd bc 5e 6c 4d bd 40 d0 da 82
       -0.06963315 -0.025120651 -0.050152175 -3.215175e-37

sequential_25/conv1d_83/Conv1D f4 [64, 1, 3, 64]
000000 7e e7 3b 83 b8 75 b6 bc d8 04 8b 83 f0 7a 8c 03
       -5.52201e-37 -0.02227293 -8.170798e-37 8.2566855e-37
000010 60 47 4a bd 72 4c 6c 03 f4 9c 59 3c b2 a0 5a 83
       -0.049384475 6.944192e-37 0.013282049 -6.424891e-37
000020 b6 a5 54 81 12 4b 2b 3c c6 fd c8 82 4f fc bb 03
       -3.9057142e-38 0.01045491 -2.9533018e-37 1.1048799e-36
000030 c3 eb 7e 02 c2 c3 41 3d d0 bb 0b 03 32 df 7e 83
       1.8728633e-37 0.04730583 4.1064027e-37 -7.4900107e-37
000040 c8 40 39 03 b2 39 ad 83 90 03 d4 02 b9 0c 91 bc
       5.444098e-37 -1.0181272e-36 3.1152645e-37 -0.017706262
000050 7a ab b6 03 8a 0f 65 83 a2 54 34 83 f3 c2 40 83
       1.0736368e-36 -6.731489e-37 -5.29944e-37 -5.664752e-37
000060 b1 c4 2e 82 b4 df 34 02 7b ce 89 bb 22 01 66 83
       -1.2839949e-37 1.3288511e-37 -0.0042055226 -6.7592226e-37
000070 d7 84 20 03 5a 77 b9 83 72 a8 44 02 5f 1e f1 bb
       4.7172267e-37 -1.09007245e-36 1.4448147e-37 -0.007358357
000080 37 af 3d bd 83 c0 da 02 5d 69 30 83 29 00 61 03
       -0.046309676 3.2142717e-37 -5.1842703e-37 6.612174e-37
000090 f8 c7 52 83 ac 41 80 82 d5 18 8c 83 89 f6 32 bd
       -6.1943006e-37 -1.8845603e-37 -8.234162e-37 -0.043692145
0000a0 76 a3 49 03 b8 3f 3c 83 5a c4 68 83 a0 7d ff 07
       5.9256235e-37 -5.532138e-37 -6.8404073e-37 3.8441971e-34
0000b0 9e 26 84 03 b6 0f c7 bc 13 b3 a2 bc 6f a7 22 03
       7.767129e-37 -0.024299484 -0.01986078 4.7799726e-37
0000c0 1b ae b2 82 7c 4b 9d 03 06 a9 04 83 15 25 39 83
       -2.625468e-37 9.244961e-37 -3.8985343e-37 -5.440918e-37
0000d0 34 9c ac 83 f0 cb b1 02 d2 4a 12 3d 18 00 76 83
       -1.0145114e-36 2.6124867e-37 0.035715885 -7.229301e-37
0000e0 f5 ff cc bc 54 46 2c 3c d7 84 b0 82 46 46 eb 81
       -0.025024394 0.010514814 -2.5937122e-37 -8.6426204e-38
0000f0 52 e4 08 03 53 27 35 bd 83 64 2c 03 fd bf 62 03
       4.0228907e-37 -0.044226956 5.066164e-37 6.6635823e-37
000100 85 ac a3 83 a3 89 8b bc 1c 70 82 82 de ad 1a 83
       -9.6198875e-37 -0.017033404 -1.916613e-37 -4.5456122e-37
000110 ae ef 39 3d 9a 9b ce 82 5d 6d a3 3c 20 5a 9f 03
       0.045394592 -3.035829e-37 0.01994961 9.365872e-37
000120 54 3f 99 81 6b e4 b7 bc 64 b2 07 03 49 e9 03 03
       -5.6294195e-38 -0.022447785 3.9877717e-37 3.876524e-37
000130 36 64 0e 02 f3 09 12 3d 20 50 b6 82 f5 ff e8 82
       1.0461271e-37 0.03565402 -2.6788486e-37 -3.4236248e-37
000140 09 00 86 03 3a 85 a4 03 e9 a9 80 83 16 81 74 bc
       7.87582e-37 9.669641e-37 -7.562173e-37 -0.014923355
000150 a6 16 5b 03 24 42 87 83 d4 31 6f 02 f4 bc 45 83
       6.4384315e-37 -7.949772e-37 1.7573247e-37 -5.8110004e-37
000160 f6 8f 07 02 26 04 d4 02 e3 d0 9e bc 40 be 50 03
       9.959548e-38 3.1152981e-37 -0.019386714 6.1344103e-37
000170 d4 82 0f 03 29 7e 40 03 f6 4f 09 02 21 86 6b bc
       4.2174106e-37 5.6568554e-37 1.0088118e-37 -0.014375241
000180 2b b6 32 bc 14 a3 87 83 34 be b7 81 78 45 2c 03
       -0.01090769 -7.972028e-37 -6.749651e-38 5.0626003e-37
000190 7b 5f d8 82 d3 ed 06 03 9e c0 42 82 96 cd 31 bc
       -3.179315e-37 3.965207e-37 -1.4308147e-37 -0.010852238
0001a0 b9 30 20 83 4d 4a 54 83 b0 d3 50 03 8a eb 90 02
       -4.7075705e-37 -6.2386494e-37 6.136871e-37 2.129409e-37
0001b0 59 8c 47 02 15 4b be bc 6e c9 84 bc 27 ed 16 82
       1.4660489e-37 -0.023229161 -0.01620933 -1.1088319e-37
0001c0 fd 33 af 82 0e 53 3f 82 9e bd 97 83 e8 c9 3c 02
       -2.5743779e-37 -1.4056299e-37 -8.918516e-37 1.3870003e-37
0001d0 ec 0f 40 00 73 35 9b 02 19 02 39 3c 9d 5e 86 03
       5.883183e-39 2.2805881e-37 0.011292004 7.897534e-37
0001e0 7f 15 af bc 92 5e 2c bb 72 4b 02 83 2d fa 92 03
       -0.021372555 -0.0026301485 -3.8290173e-37 8.638546e-37
0001f0 f9 94 6e 03 07 fd fd bc a3 fe da 02 14 5f 79 82
       7.0112926e-37 -0.031004442 3.2178375e-37 -1.8320917e-37
000200 26 9a 75 83 1f aa f8 bb 9b 39 bc 03 08 20 48 82
       -7.2175983e-37 -0.0075886394 1.10628725e-36 -1.4702872e-37
000210 c1 be cc 3d 97 47 ce 82 31 17 02 3d 8c 69 c2 03
       0.09997321 -3.031007e-37 0.0317604 1.1426528e-36
000220 9a 68 e6 81 e6 f1 e9 bb de ee 42 83 d8 91 17 03
       -8.463875e-38 -0.0071394322 -5.728568e-37 4.454233e-37
000230 9e c3 30 82 d1 ac b2 3c 52 b2 09 81 77 e4 38 03
       -1.2986577e-37 0.02181092 -2.5290864e-38 5.4335005e-37
000240 c4 2f bb 03 cb 79 68 03 9e f1 54 03 0a 47 d0 bc
       1.1001839e-36 6.8318484e-37 6.2578564e-37 -0.025424499
000250 f9 6f 7b 03 c7 d9 0f 03 47 02 93 82 b9 1d ab 83
       7.389081e-37 4.227392e-37 -2.1601016e-37 -1.0057301e-36
000260 17 29 55 03 ef 8b 9b 82 60 57 bb bc 50 8d 10 82
       6.2642243e-37 -2.285552e-37 -0.022868812 -1.0620004e-37
000270 2b af 92 01 55 31 96 03 d3 60 bd 80 63 82 ae bc
       5.3883283e-38 8.827534e-37 -1.7391643e-38 -0.021302408
000280 7d 85 b2 bc 4d 42 1b 81 a9 60 a7 83 ec 2c 74 03
       -0.021792168 -2.8516572e-38 -9.83757e-37 7.1756723e-37
000290 ac a9 86 03 61 9b 4a 03 35 fc b9 83 af 32 19 bd
       7.914767e-37 5.954083e-37 -1.0931227e-36 -0.03740185
0002a0 e6 d7 28 03 64 99 82 02 bf 37 5c 83 1c c5 85 02
       4.96186e-37 1.9189825e-37 -6.4716183e-37 1.9655729e-37
0002b0 ea ff 32 03 38 9f 88 bc c8 26 d7 bc 5e a8 45 81
       5.2603274e-37 -0.016677484 -0.02626361 -3.6303983e-38
0002c0 ee ca 9a 83 7f bf 08 03 6b 27 ba 83 82 10 83 83
       -9.097897e-37 4.0186635e-37 -1.0941147e-36 -7.703278e-37
0002d0 2c 18 b1 83 eb 46 46 03 e2 38 e3 bc 82 9b de 02
       -1.0408675e-36 5.826838e-37 -0.027737085 3.2709225e-37
0002e0 71 84 4f bc 71 ba 51 bc 8e 91 9c 83 72 ff 82 80
       -0.012665854 -0.012800799 -9.202274e-37 -1.2030251e-38
0002f0 ee 4a 7c 02 25 38 7a bc 50 17 6b 81 39 e6 ed 82
       1.853554e-37 -0.015272175 -4.317941e-38 -3.4956161e-37
000300 88 4b c4 03 14 8b 55 03 09 d9 43 83 7f 8c 90 83
       1.1537186e-36 6.275473e-37 -5.7554494e-37 -8.495816e-37
000310 97 53 93 03 b7 64 18 83 c7 9d 58 83 16 43 a7 02
       8.659075e-37 -4.47844e-37 -6.3657814e-37 2.457695e-37
000320 84 e1 be 01 f9 3a bf 02 24 e2 c6 81 36 89 72 03
       7.0118576e-38 2.8098776e-37 -7.305821e-38 7.127492e-37
000330 12 cc 09 03 90 16 79 82 da b0 64 03 cb 85 e2 00
       4.0494943e-37 -1.8300106e-37 6.7206194e-37 2.0802818e-38
000340 2f ed 98 82 7e aa 23 02 85 02 5d 83 e0 62 65 82
       -2.247053e-37 1.2024278e-37 -6.4948955e-37 -1.6852639e-37
000350 e1 dc 62 83 9c 4b 1f 03 7a 9a 5d 02 1d 87 a5 02
       -6.6668987e-37 4.6812696e-37 1.6280848e-37 2.4322122e-37
000360 f9 9f c0 01 7c 27 43 83 3f 55 b1 03 22 bd ba 02
       7.075921e-38 -5.7350675e-37 1.04226965e-36 2.74388e-37
000370 75 97 a6 83 b1 de 10 83 fe f8 a7 01 2d 64 f6 02
       -9.791376e-37 -4.2573434e-37 6.17034e-38 3.620395e-37
000380 72 98 c6 82 e3 33 ac 83 17 5f 67 83 a2 5b 39 02
       -2.9180985e-37 -1.0121164e-36 -6.7993957e-37 1.3617951e-37
000390 92 11 bc 01 f6 09 38 83 76 cd 4f 03 c8 14 6c 02
       6.9085505e-38 -5.4084175e-37 6.106769e-37 1.7344506e-37
0003a0 64 7f 7e 82 04 8a 61 03 f4 6d 6a 83 96 0c 14 03
       -1.8697532e-37 6.627999e-37 -6.889264e-37 4.350774e-37
0003b0 45 03 1a 82 a4 8b 06 83 1a ec e4 02 d6 c0 c6 02
       -1.1315071e-37 -3.953936e-37 3.3637105e-37 2.9204168e-37
0003c0 e8 74 bd 03 4e a6 26 03 51 53 90 03 cb fd 61 83
       1.1135262e-36 4.8973924e-37 8.482688e-37 -6.6412897e-37
0003d0 aa 78 a6 82 64 27 71 81 9f c6 09 83 b8 9f a0 03
       -2.4460766e-37 -4.429297e-38 -4.0488687e-37 9.440624e-37
0003e0 6d 0b c5 81 dc 90 81 03 96 11 8f 01 af ab 30 02
       -7.2382766e-38 7.615197e-37 5.255514e-38 1.2979709e-37
0003f0 3e 37 c7 01 5f 95 53 03 f0 e1 7d 02 51 0a 21 83
       7.3180324e-38 6.2178797e-37 1.8652345e-37 -4.732549e-37

sequential_25/dense_57/BiasAdd/ReadVariableOp f4 [4]
000000 f2 b3 d3 bd bd 46 26 3e e7 54 ea 3c af ac 1a bd
       -0.10337056 0.16237922 0.028604938 -0.03776234

sequential_25/dense_56/BiasAdd/ReadVariableOp f4 [64]
000000 f5 ba 1b bd 2a 06 9d bd ef d5 72 bd d3 88 96 3d
       -0.038020093 -0.07667191 -0.059286054 0.07350316
000010 5b c9 77 bc 6a 17 2f bd 6d 7d a6 bd f6 a3 f4 3d
       -0.0151236905 -0.04274694 -0.08129392 0.119453356
000020 e7 c5 80 3b a1 ae 65 3e 0e f8 19 3e c9 fd 5c be
       0.003929842 0.22429897 0.15036032 -0.21581186
000030 c5 85 d1 3d b6 e1 09 3c 9d aa f5 bc 83 69 8d 3e
       0.10230593 0.00841563 -0.029988581 0.27619562
000040 ec fd 25 bd de bd d1 3e 82 02 e3 bd a7 e6 26 bd
       -0.040525362 0.4096517 -0.11084463 -0.04074731
000050 8a d0 35 bd e9 d0 26 bd ec 5b 66 3c 37 11 c7 bc
       -0.04438833 -0.040726576 0.014060002 -0.0243002
000060 0c 32 a5 bd 3c 9b 68 3c 58 99 85 3e ed 11 c2 3d
       -0.08066186 0.014197167 0.26093554 0.09476075
000070 96 14 ed bc 86 75 02 bd 10 e1 e5 3d f6 73 f2 3d
       -0.02894048 -0.03185036 0.11224568 0.11838524
000080 a5 f4 24 3d 1e 83 fb bc 33 ad ed bc f0 07 82 bc
       0.040272374 -0.03070217 -0.029013252 -0.015872926
000090 b8 72 24 bd 9e 6c b5 3d 33 b5 80 3c b1 35 57 3d
       -0.040148467 0.08858608 0.015711403 0.05254144
0000a0 f8 f2 22 bd 5a 81 3c bd 43 12 44 bd c3 f1 6c 3d
       -0.039782494 -0.046021797 -0.04786898 0.05784775
0000b0 87 fc b7 3d dc 8f b0 bd 63 d6 c4 3d c0 34 e2 3e
       0.08983713 -0.08621189 0.096112035 0.4418087
0000c0 74 3d 0c bd 8d 6f c2 3d 0d 41 21 3d 7e aa 23 bd
       -0.034238294 0.09493933 0.039368678 -0.039957516
0000d0 fe 43 f7 bc 35 7a 04 3d a2 24 12 3d 43 54 98 bc
       -0.030183788 0.03234311 0.035679467 -0.018594867
0000e0 1c 45 eb 3c 4a f5 1c bd bc 93 1c 3d 83 76 28 3e
       0.028719477 -0.038319863 0.038226828 0.16451459
0000f0 78 fc 10 3d cc 6b 83 bd 27 6a ec bc 9f c2 b2 3d
       0.035397023 -0.06417045 -0.028859211 0.08728527

sequential_25/dense_56/MatMul f4 [64, 2688]
000000 7f c9 93 bc eb a2 e9 3c 59 74 19 3e b9 88 40 3d
       -0.018040417 0.028520068 0.1498579 0.04700539
000010 68 80 8f bd b5 3a e2 bc e0 b2 91 3d ab da 7c 3d
       -0.070069134 -0.027615884 0.07114196 0.061731976
000020 8f 6e 4a be 3c 82 50 3e 77 1a 74 3d 4f da 44 3e
       -0.19768737 0.2036218 0.05959555 0.19223903
000030 47 2f 5f 3d 79 72 08 bd 52 18 94 bd c5 e6 61 3b
       0.054488447 -0.033312295 -0.07231201 0.0034469825
000040 7c df 51 3e 21 19 3b 3d 74 3d 49 be f0 fb 35 3e
       0.20495409 0.04567826 -0.19652349 0.17771888
000050 38 dc 11 3e 3b 03 4f bd 21 a7 23 bc 84 eb 33 3b
       0.14244163 -0.05054019 -0.009988577 0.002745361
000060 fd f0 aa bd 42 1e 68 be 75 4f be bc 67 98 d2 bd
       -0.08346746 -0.22667792 -0.023231247 -0.10282975
000070 2a de 67 bc db ea fb 3d c0 2b c2 bd 4f 4f 15 3e
       -0.014152089 0.123006545 -0.09481001 0.14581035
000080 de 29 91 3e df cd 63 bc d3 b3 a4 3d 96 56 30 be
       0.28352255 -0.013904064 0.08042111 -0.1722053
000090 33 bf b3 3d d2 44 87 bd 46 65 7a 3e 24 09 3e be
       0.08776703 -0.06604923 0.24452695 -0.18558174
0000a0 99 aa b2 3d 7f 60 9f be 15 80 ad 3b a7 5f 60 be
       0.08723945 -0.31128308 0.0052948096 -0.21911488
0000b0 98 b9 d9 bc 0a 05 29 bd 63 bd 2e bd 0b 77 0d be
       -0.026577756 -0.04126457 -0.042661082 -0.13814943
0000c0 c0 79 18 bd 08 e4 c9 bd 84 4c 10 be 21 ad 00 3d
       -0.037225485 -0.09857947 -0.14091688 0.03141511
0000d0 1c d1 12 be 7f b4 89 3c e6 f3 0d be 0c 87 d5 3e
       -0.14337581 0.0168097 -0.13862571 0.41704595
0000e0 17 3b b2 3e 89 05 ad 3d b1 8e 58 bd 9c 15 15 3e
       0.34810707 0.08448321 -0.052870456 0.14559025
0000f0 e6 ab 2d 3b ac e1 18 3c de 73 cc 3c 72 9c 88 bd
       0.0026500165 0.009331148 0.024957594 -0.066704646
000100 65 ec 9b bd c3 12 b5 ba fa 73 c1 3c 67 c4 e9 bb
       -0.07613448 -0.0013814796 0.023614872 -0.0071340087
000110 0e e7 1f bd 12 c0 d0 3d b5 1e 67 3d 2f 33 39 bd
       -0.03903871 0.101928845 0.05642577 -0.045214828
000120 9f 8f 34 3e 2f 1b bb bd fc 08 cf bc 90 40 cd 3d
       0.17632912 -0.09136044 -0.025272839 0.1002208
000130 f6 d4 24 3d 7b 4c 09 3d 54 81 4a bd b5 5b 49 bc
       0.040242158 0.033520203 -0.049439743 -0.012289931
000140 98 65 26 3e 40 8b bb 3d e9 f9 6b be 2e 04 ee 3d
       0.16249692 0.09157419 -0.23044552 0.11621891
000150 7e be 91 3e fa 6d 37 bd 59 6f ec bc 38 90 83 bd
       0.28465647 -0.044782616 -0.028861688 -0.06423992
000160 9f e6 24 bd 4b bb 52 be 34 65 17 be e2 83 5d bb
       -0.040259 -0.20579259 -0.147847 -0.0033800532
000170 e7 ba 28 3e 5e a5 e9 3c a8 b7 fa 3d 37 8c 06 3e
       0.16477548 0.028521236 0.12242061 0.13139425
000180 54 f2 5e 3e 1b a4 d6 3d f2 b1 b3 bd f7 44 04 3b
       0.21772128 0.104805194 -0.08774175 0.0020182708
000190 bf 55 71 bd ef 33 66 bd 14 ac cb 3b f4 17 34 bd
       -0.058919664 -0.05620187 0.0062155817 -0.043968156
0001a0 f5 3a b0 3c c1 8b 3a bb 14 cb af 3c 98 d5 c9 3d
       0.021512488 -0.0028464647 0.02145914 0.09855193
0001b0 0d 4a ac 3c ad 5c 33 3c 4e 6c 9d 3d 29 b5 7d bd
       0.021031404 0.010947389 0.07686673 -0.061940346
0001c0 53 6e f2 3c 02 d8 f8 bc 76 1d 91 bd 4d c4 10 3d
       0.029593622 -0.030376438 -0.07085697 0.035343457
0001d0 13 bc 3f be 3b 7a 46 3e 2e 48 21 bd fa a5 e1 3d
       -0.18724088 0.19382565 -0.039375477 0.11017986
0001e0 27 41 2c 3e 82 2f 06 3e b6 cb d4 bb f9 01 13 3e
       0.16821729 0.1310406 -0.006494011 0.14356221
0001f0 ee 65 23 3c 31 2a b2 3c 9c 95 2a 3d 59 d3 84 bd
       0.009973032 0.021748634 0.041646585 -0.06485624
000200 ea 6d ca bd a3 01 4d 3c b2 06 c6 bc a3 d8 a2 3c
       -0.09884246 0.012512597 -0.024173114 0.019878691
000210 4b b6 40 bd 90 55 c4 3d d0 49 13 3c 0c 00 98 3e
       -0.047048848 0.09586632 0.008989766 0.29687536
000220 03 57 c5 3e cf 53 83 bc 87 35 aa 3c 9d 9c 1a 3e
       0.38542947 -0.016031174 0.020777477 0.15098806
000230 e2 cb e9 3d 21 df bd bb 3c da 0c bd 79 27 cb 3c
       0.11415841 -0.0057944213 -0.034387812 0.024799095
000240 4a 79 3a 3e ee 77 94 3e 20 8f 26 bd 68 f9 85 bd
       0.1821033 0.2899775 -0.04066384 -0.06541711
000250 7a c0 9f 3c 14 fe 0a 3d 27 3d b1 bc 69 1f 93 3b
       0.01950096 0.033933714 -0.021635605 0.0044898284
000260 0d 84 7c bd bb 55 d1 bd 76 58 27 be 5f e3 35 bd
       -0.06164937 -0.1022143 -0.16342339 -0.04440629
000270 1e e3 0e 3e 18 fc 0e 3d 63 b6 47 3e cc be 0e 3e
       0.13953826 0.034908384 0.19503169 0.1393997
000280 8d 2b f2 bc c0 3f c0 3c fb d6 ee bd 0e 5c 9a 3d
       -0.029561782 0.023467898 -0.11662098 0.07537089
000290 23 30 8c 3c c8 2d d1 3c 79 38 24 bc 4f 07 36 be
       0.017112797 0.025534526 -0.01002323 -0.17776226
0002a0 1e 34 f6 3d e5 88 df bb 40 92 68 3d 63 4d 04 bd
       0.12021659 -0.006821739 0.0567801 -0.032300364
0002b0 f5 3f af 3e 5e 17 b3 bc 2e 7c c1 3e 06 46 ef 3d
       0.34228483 -0.021861728 0.37790054 0.11683278
0002c0 3f 7c 76 3c ff 81 c5 bd 31 ed e1 bd 94 d4 3d bb
       0.015044271 -0.096439354 -0.11031569 -0.0028965818
0002d0 8c 7c 26 be d2 b3 77 3e 99 33 6d be bc 0a 1e bd
       -0.16258448 0.2418969 -0.23164214 -0.038584456
0002e0 c4 d6 d5 3c 72 64 ca bc 00 2a 4d bd fb 97 44 3d
       0.026103385 -0.0247061 -0.050088882 0.047996502
0002f0 55 dc 5f 3c 20 e1 ef 3c c0 d8 87 bc 73 65 ef bc
       0.013663371 0.029282153 -0.016582847 -0.02922318
000300 9a d5 5c bd fa a9 6d 3c 0f 06 d9 3d 5f 1a ca bc
       -0.053914644 0.014505858 0.10596859 -0.024670778
000310 42 2d 80 bd 56 62 48 3e 80 d4 4a bd 77 eb 4a 3e
       -0.06258632 0.19568762 -0.049519062 0.19816385
000320 87 ac a1 3e 83 ad 7f 3c d2 65 51 bd 77 13 49 3e
       0.3157694 0.015605333 -0.051122494 0.19636331
000330 0c dc a1 3d 15 c4 e8 bb ac c1 62 3c ba 19 59 bd
       0.07903299 -0.007103453 0.01384012 -0.05300305
000340 e6 dc 7f 3e a7 60 c9 3e bd 54 71 3d c7 31 c7 bd
       0.2498661 0.39331552 0.058918703 -0.09726291
000350 63 3e 4b bd 12 65 f1 3c c8 af a8 bd 74 7c 76 3d
       -0.049620043 0.02946714 -0.082366526 0.06017728
000360 11 a1 3b bd c2 2c ac bd 60 09 f8 bc a5 21 38 3c
       -0.0458079 -0.084069744 -0.030277908 0.01123849
000370 ba e8 88 bd 69 30 a7 3d 35 b1 96 3d 0f fd 14 be
       -0.06685014 0.081635304 0.07358018 -0.14549659
000380 bc 2d 97 3d 11 71 05 be b1 af ca 3b c1 4a ae 3e
       0.0738177 -0.13031413 0.006185495 0.34041408
000390 78 83 6d 3d 4a 46 52 bc 48 c5 0c bb 94 bf 9e be
       0.057986706 -0.012834141 -0.0021479893 -0.31005538
0003a0 a6 56 f9 3d 1d f7 3f 3e f5 29 c6 3c c3 5d 96 bd
       0.1217473 0.1874661 0.024189929 -0.073421024
0003b0 76 69 9b 3e 02 c6 07 3d aa 71 57 3e 33 e6 a3 3e
       0.30353898 0.03314782 0.21039453 0.32011566
0003c0 51 ba 3a 3d a7 6d 4b bd 2a 50 e6 bd 17 2c 70 bc
       0.04558784 -0.04966512 -0.11245759 -0.014658949
0003d0 60 46 93 bc e3 0d 4e 3e 7f d4 57 be 50 6f 89 3d
       -0.017977893 0.20122485 -0.21077155 0.06710684
0003e0 ae 23 19 bc df 88 20 be e8 13 c8 3c d1 82 b6 3d
       -0.009346886 -0.15677212 0.024423555 0.0891167
0003f0 27 df 24 3d 88 6f 0d bd 60 21 df bb a4 24 5e bc
       0.040251877 -0.034530193 -0.0068093985 -0.0135585405

sequential_25/dense_57/MatMul f4 [4, 64]
000000 5d 07 45 3e 8a 82 48 3e 01 a6 5d be 80 95 97 3d
       0.1924109 0.19581047 -0.21645357 0.07401562
000010 3a 71 47 3d 6c 49 bd 3d 95 6c c4 bd c2 a1 01 3e
       0.048691966 0.0924252 -0.09591023 0.12659362
000020 60 50 42 bd 82 3e 37 3e 77 77 4c be d7 ab 02 bf
       -0.047439933 0.17894939 -0.19967447 -0.51043457
000030 60 8f 93 be 37 d5 a9 3e bb 9a 90 3d 4d 17 66 be
       -0.28820324 0.33170483 0.070607625 -0.22469826
000040 21 22 82 3c 75 cb 27 3e d6 95 36 be 6b 34 48 3e
       0.015885415 0.16386206 -0.17830595 0.19551246
000050 08 d5 2d be ff 65 e2 bc 07 7a 17 3e 64 64 3d 3e
       -0.16975796 -0.027636526 0.14792643 0.18495327
000060 ef ad 30 bd 92 7b bb bd c5 13 03 3e d3 03 05 bf
       -0.043134626 -0.091544285 0.1280051 -0.5195896
000070 1a 2e d6 bd 7e 3f 64 3e ec 93 8a 3e 7f 90 29 bf
       -0.10458012 0.22289845 0.2706598 -0.6623611
000080 a2 7d 79 3e 1a ef e6 3d ed 6e 8e 3e 7a 63 cc 3d
       0.24364331 0.11276074 0.27819005 0.09979911
000090 8f 30 f4 3d 60 33 f1 be 52 cd c8 be f8 43 8d be
       0.11923324 -0.4710951 -0.39219147 -0.2759092
0000a0 3d df 79 3e 87 98 fe 3d 0d 4f 5c 3e e7 df 96 bd
       0.24401565 0.12431436 0.2151453 -0.07366925
0000b0 df fe 28 3d d6 1f 66 be 09 37 19 bf 6a 59 2f 3e
       0.04125869 -0.22473082 -0.598496 0.17123953
0000c0 95 09 46 be 4b e5 ce bd 35 60 1e bb fd 3e 10 3b
       -0.19339593 -0.10102328 -0.002416623 0.00220102
0000d0 be 10 c1 be 43 7b ad be dd 8e cf be 31 5e f6 3d
       -0.37708086 -0.33883104 -0.40538684 0.12029684
0000e0 a0 d5 27 3f f0 43 01 3e 90 06 87 be 7e c4 51 3e
       0.6556034 0.12623572 -0.26372194 0.20485112
0000f0 3b c9 1e 3e 05 3c 5b be 7a e2 86 3d 52 b2 cb be
       0.15506451 -0.21409614 0.06586166 -0.39784485
000100 55 84 7f be af b6 0e bd e1 43 46 3e be fa c4 bd
       -0.24952824 -0.03484219 0.19361831 -0.09618138
000110 1b 2f b3 3e 7e 32 99 bd bc 4d b4 3d 62 5a ad bf
       0.34996876 -0.07480334 0.08803889 -1.3543208
000120 82 96 73 3e 74 40 95 3e 56 21 9c be e7 74 97 be
       0.23787883 0.29150736 -0.30494183 -0.29581377
000130 d7 13 87 3e 92 25 f8 bd 8b a9 14 be d5 64 b2 be
       0.26382324 -0.12116541 -0.145178 -0.34842554
000140 14 a2 25 3d ca 34 45 bf 4c bb f8 bd 07 a6 3c bd
       0.040437773 -0.77033675 -0.12145099 -0.046056774
000150 1c 15 df 3b 6e 5e 65 be a0 33 d9 be ba 62 3a 3d
       0.0068079364 -0.22399303 -0.424222 0.04550431
000160 df 79 d0 3d 8c 83 fc 3e ef e8 08 bf e9 bb 29 3d
       0.10179495 0.49319112 -0.5348043 0.04143897
000170 a0 a5 7a be 26 9c b7 3d 05 c2 35 bf c1 9b f1 3d
       -0.24477243 0.0896533 -0.70999175 0.11797286
000180 ef 78 49 3e a4 ae 1b 3d 61 d1 2f be d9 97 bb 3e
       0.19675039 0.038008347 -0.17169715 0.36639288
000190 fa 55 52 3e bf 5a 09 3e e8 93 01 bf 38 78 b3 3d
       0.2054061 0.13413523 -0.5061631 0.08763164
0001a0 23 bc c9 bd 98 75 88 bd b8 55 69 3d 9d b4 c8 3e
       -0.09850337 -0.06663054 0.056966513 0.39200297
0001b0 4b bf e8 3e db 7a 4d 3e e3 ee 20 3e 24 07 34 bf
       0.45458445 0.20066397 0.15716128 -0.70323396
0001c0 a9 6d 2d be 03 9b 0c bd 1e 86 16 3e 35 9a f6 3b
       -0.16936363 -0.03432752 0.14699599 0.007525707
0001d0 55 39 fa 3e a2 82 2b 3e 59 27 df 3d 06 dc f1 bc
       0.48871866 0.16749051 0.10896177 -0.02952386
0001e0 91 ad a2 bf ab 3c 5d 3d dd 66 ce 3b ae 3a 53 bd
       -1.2709218 0.054012936 0.0062988834 -0.051569633
0001f0 23 05 49 3e ca 4b b9 bd 5b d3 8e bd c9 7c 6c 3e
       0.19630866 -0.09047659 -0.069739066 0.23094477
000200 16 d9 7b bf 50 1d a5 be de d4 80 be ba 9f 98 bd
       -0.9837812 -0.32248926 -0.25162405 -0.074523404
000210 af 33 d6 bd 71 59 b5 3d ec b7 dd 3b fa 77 94 be
       -0.104590766 0.0885495 0.00676631 -0.28997785
000220 e1 c1 ac be a4 8e 9d 3e e2 eb ad 3c 25 82 98 3e
       -0.33741668 0.3077289 0.021230642 0.29786792
000230 5a 30 8f 3e 50 28 c1 3e d0 26 91 bf 12 e4 90 3d
       0.27966577 0.37726068 -1.133997 0.07074751
000240 b1 76 7a 3e 3b d0 9e 3e a6 03 5a be ab 8f 40 be
       0.2445934 0.31018242 -0.21290454 -0.18804805
000250 47 aa d7 bd 00 11 90 3e 93 2f 3a bf 34 0d 29 3e
       -0.10530525 0.2813797 -0.7272884 0.16508943
000260 66 60 81 3e 6c a7 90 be 07 bd f2 bd 7f 14 87 3e
       0.2526886 -0.28252733 -0.1185246 0.26382825
000270 35 b2 f3 bd e6 c8 db bd ec 2d c3 be 77 6b 1c 3e
       -0.11899225 -0.10731678 -0.38120973 0.1527537
000280 30 98 75 be 7d c0 51 3d db 8b 54 3e 63 81 a4 be
       -0.23983836 0.05120896 0.20756476 -0.32129964
000290 ed 71 1b 3e a5 62 d7 3d 98 fb 6e bd 8f ab fc 3c
       0.15180178 0.10516862 -0.058345407 0.030843524
0002a0 67 85 80 3d 9c f6 52 3e df 9a ea 3c c9 6f e3 be
       0.062754445 0.20601887 0.028638301 -0.44421223
0002b0 8a 95 68 be 00 d4 af bd a2 7a 27 bf 60 a1 a2 3e
       -0.22713295 -0.08585358 -0.654215 0.31763744
0002c0 a7 f4 75 be 4e 24 1e bf e5 57 84 be ac 23 26 3e
       -0.24019109 -0.61774147 -0.25848308 0.16224545
0002d0 77 31 6a 3e 39 95 1b bf 00 a2 f2 3d a0 d6 39 be
       0.22870432 -0.6077457 0.11847305 -0.18148279
0002e0 0e 7d bb 3d 42 ed 78 bd ea 87 a3 bd 2a e1 09 3f
       0.09154712 -0.06077314 -0.07984908 0.538592
0002f0 94 7e d5 be 4a df 88 be 50 b4 56 be 7f 20 1e bf
       -0.41698134 -0.26732856 -0.20967221 -0.61768335
000300 1a 18 56 3d e0 a9 fe bd 6f d9 11 be f6 b1 92 3e
       0.05226908 -0.12434745 -0.142431 0.28651398
000310 24 a7 cf bd 2d da 25 be a0 6c 3c 3d ff cf 64 be
       -0.101393014 -0.16196509 0.04600203 -0.22344969
000320 d2 a4 74 3e 67 6a 7d be e3 45 1a 3e b6 60 a1 be
       0.23890999 -0.2474762 0.15065722 -0.31519097
000330 19 3b 91 3e 18 c2 67 be a0 f7 6b 3e 9d c8 42 be
       0.283654 -0.22632635 0.2304368 -0.1902184
000340 a0 2b 69 3d 48 49 a5 3d 6f 56 0a 3d 5b 5b 6f be
       0.05692637 0.08070618 0.033773836 -0.23374693
000350 94 3a 74 bd a4 60 5c be f3 03 5a be c8 5f 8f bd
       -0.059626177 -0.2152124 -0.21290569 -0.07000691
000360 d2 5e 32 be b2 71 d2 be b9 be bf 3d 4b 31 34 bd
       -0.17418984 -0.41102368 0.09362549 -0.043992322
000370 b8 11 4e be d8 d1 b6 bd 8a df a0 3e 4f c2 6f 3d
       -0.20123947 -0.08926743 0.31420547 0.058534916
000380 4d e3 a2 3e 02 33 12 bd 8c ea 7f be 25 42 b1 be
       0.31814042 -0.035693176 -0.24991816 -0.34620777
000390 79 90 f4 39 2f 4a df 3d e1 8f 4f 3e 11 b8 59 3d
       0.00046646947 0.10902821 0.20269729 0.053154055
0003a0 01 5d 1c 3e cc 52 c7 bd 53 1a 7c 3e 77 6f 12 3e
       0.15269853 -0.09732589 0.24619417 0.14300333
0003b0 f9 6d 33 be 5b 6c 56 be be 68 b9 3e f4 68 8b 3e
       -0.1752242 -0.20939772 0.36212724 0.2722851
0003c0 31 31 d5 3d 7b 08 cf 3e 10 48 20 bd c0 b9 da 3d
       0.10409773 0.40436158 -0.039131224 0.1067996
0003d0 9a 74 10 3c 35 b4 43 3e d0 bf 0d 3e b9 c5 8a be
       0.0088168625 0.19111712 0.13842702 -0.27103975
0003e0 56 40 1c bf c0 d9 2b be 88 80 fd bd e9 b1 f4 be
       -0.6103567 -0.16782284 -0.12378031 -0.47791985
0003f0 e1 79 9e 3e 98 c1 e3 3c 7d ab 49 3e 37 76 df 3e
       0.3095236 0.027802274 0.19694324 0.43644878
