frontend/pdiot_app/assets/models/model_online_task_1.tflite (tflite, 825784 bytes, 16 tensors)

sequential/conv1d/BiasAdd/ReadVariableOp f4 [64]
-0.02541866 -0.04808268 -0.053696387 -0.0528023 -0.046626505 -0.028512035 -0.015011307 -0.040353075
-0.041603744 -0.037518263 -0.0089228265 -0.048466932 -0.12251007 -0.116943024 -0.075912625 -0.09327976
-0.009052744 -0.025191722 -0.034261234 -0.038413145 -0.021291172 -0.13756654 -0.089632034 -0.032511186
-0.0516801 -0.018060809 -0.044391405 -0.0071867965 0.038313728 -0.09007112 -0.10533139 -0.049786538
-0.0728445 -0.024734635 -0.04979979 -0.02311704 -0.00050027895 -0.06531179 -0.06536467 -0.027680714
-0.09818698 -0.024996148 -0.030751437 -0.12481041 -0.009520427 -0.06606513 -0.05303055 -0.11931276
-0.06823256 -0.14227575 -0.02901561 -0.07182859 -0.040462356 -0.06046853 -0.043912414 -0.10780233
-0.040085696 -0.06818555 -0.045430064 -0.14734294 -0.07904639 -0.014110569 -0.03257248 0.009744766
00000000: cb3a d0bc 58f2 44bd bef0 5bbd 3947 58bd
00000010: 6ffb 3ebd 1292 e9bc fcf1 75bc 4449 25bd
00000020: b068 2abd c0ac 19bd 0c31 12bc 4385 46bd
00000030: 8fe6 fabd d37f efbd 1478 9bbd 7509 bfbd
00000040: f651 14bc df5e cebc 8255 0cbd 1a57 1dbd
00000050: d36a aebc 3ede 0cbe 0091 b7bd 732a 05bd
00000060: 83ae 53bd 43f4 93bc c3d3 35bd 387f ebbb
00000070: dbee 1c3d 3577 b8bd fcb7 d7bd f8ec 4bbd
00000080: 7f2f 95bd 4aa0 cabc ddfa 4bbd f25f bdbc
00000090: 2725 03ba 30c2 85bd e9dd 85bd aac2 e2bc
000000a0: 4116 c9bd b9c4 ccbc 70ea fbbc 9a9c ffbd
000000b0: 91fb 1bbc 284d 87bd 9036 59bd 405a f4bd
000000c0: 83bd 8bbd bcb0 11be 25b2 edbc de1a 93bd
000000d0: dbbb 25bd d9ad 77bd 81dd 33bd 78c7 dcbd
000000e0: e630 24bd dea4 8bbd e014 3abd 11e1 16be
000000f0: 13e3 a1bd 0430 67bc b96a 05bd 83a8 1f3c

sequential/conv1d_1/BiasAdd/ReadVariableOp f4 [64]
-0.03232691 0.0037921043 -0.03276504 -0.015896276 0.009040587 0.0011304583 -0.011970498 -0.011279562
-0.023684867 -0.019375464 -0.028526656 -0.008644916 -0.014777994 0.006223223 -0.020856919 -0.01692746
-0.00677722 0.0147389565 0.013975112 -0.03135107 0.007937834 -0.036494967 -0.046496 -0.028417118
-0.022664146 -0.003158386 0.0017214799 -0.022626905 -0.013719329 0.014682901 -0.020485805 0.03402795
-0.02457174 -0.004267518 -0.0046292576 -0.012383273 -0.01954906 -0.020301571 -0.050157413 -0.015608925
0.018707149 -0.0062614414 -0.030224595 -0.02568784 -0.012704744 -0.001308827 -0.013186314 -0.0062506446
0.04095365 -0.0396888 -0.016089806 -0.016901715 0.04190872 -0.01220057 -0.010728401 0.0070912307
-0.015972186 -0.026166838 -0.004690479 -0.015222839 -0.030083116 0.002341262 -0.025964685 -0.013821557
00000000: 3969 04bd f484 783b a234 06bd e838 82bc
00000010: f81e 143c e32b 943a e81f 44bc e9cd 38bc
00000020: c406 c2bc 4bb9 9ebc bcb0 e9bc 68a3 0dbc
00000030: 661f 72bc 2eec cb3b 21dc aabc 75ab 8abc
00000040: 7113 debb aa7b 713c def7 643c fb69 00bd
00000050: b00d 023c bf7b 15bd 9772 3ebd 04cb e8bc
00000060: 29aa b9bc edfc 4ebb 48a3 e13a 0f5c b9bc
00000070: 09c7 60bc 8d90 703c d9d1 a7bc e460 0b3d
00000080: ac4a c9bc 89d6 8bbb 07b1 97bb 36e3 4abc
00000090: 5a25 a0bc 7b4f a6bc dc71 4dbd 94bc 7fbc
000000a0: bc3f 993c c72c cdbb 9299 f7bc 4e6f d2bc
000000b0: 8f27 50bc f28c abba 690b 58bc 35d2 ccbb
000000c0: 04bf 273d b990 22bd c5ce 83bc 7775 8abc
000000d0: 7aa8 2b3d e6e4 47bc 2dc6 2fbc 8e5d e83b
000000e0: 1ad8 82bc d65b d6bc 97b2 99bb 3769 79bc
000000f0: de70 f6bc dc6f 193b e4b3 d4bc d073 62bc

sequential/conv1d_2/BiasAdd/ReadVariableOp f4 [64]
-0.031445388 -0.026546083 0.02680726 -0.017260572 -0.0089674685 0.011763823 0.017690636 0.014811248
-0.0045121796 -0.0049836254 -0.0027376455 -0.02231487 -0.027151586 -0.041984122 0.0137413265 0.0074130152
0.0025767644 -0.030592794 0.031222595 0.0023528605 -0.054021034 -0.015025701 -0.009385176 -0.007453487
0.02427139 -0.007689025 -0.0036188888 0.0011137853 -0.0038334471 -0.012590984 -0.002349979 -0.0046842084
-0.0247644 -7.4123134e-05 -0.010241275 -0.004068746 -0.011460795 -0.021169035 -0.006270063 0.016396841
0.024518171 0.006573422 0.005298345 -0.021060538 0.011782778 -0.005278148 0.002051649 0.00399959
-0.0045283316 0.018719085 0.0073865475 -0.013133482 -0.008474186 -0.0025318887 -0.008728294 -0.019742448
-0.01669132 0.010743645 -0.014484557 -0.008372202 -0.007982069 0.012132209 -0.0073432247 -0.005966345
00000000: e1cc 00bd 2c77 d9bc e69a db3c 0b66 8dbc
00000010: 4aec 12bc 0dbd 403c f4eb 903c e0aa 723c
00000020: e8da 93bb ae4d a3bb 126a 33bb adcd b6bc
00000030: 016d debc 8bf7 2bbd 4d23 613c e1e8 f23b
00000040: efde 283b bd9d fabc 87c6 ff3c 7332 1a3b
00000050: 2945 5dbd 5c2e 76bc 48c4 19bc 613c f4bb
00000060: cbd4 c63c 37f4 fbbb e12a 6dbb 6ffc 913a
00000070: 923a 7bbb 6a4a 4ebc 1b02 1abb fd7d 99bb
00000080: b6de cabc 8e72 9bb8 05cb 27bc 1e53 85bb
00000090: 0fc6 3bbc af6a adbc 1a75 cdbb ab52 863c
000000a0: 55da c83c dc65 d73b bd9d ad3b 2687 acbc
000000b0: 8e0c 413c 51f4 acbb f574 063b fe0e 833b
000000c0: 6662 94bb c458 993c da0a f23b d12d 57bc
000000d0: 50d7 0abc 0bee 25bb 1e01 0fbc eaba a1bc
000000e0: 3cbc 88bc 1d06 303c a350 6dbc 8f2b 09bc
000000f0: 39c7 02bc 2cc6 463c 6f9f f0bb 5481 c3bb

sequential/conv1d_3/BiasAdd/ReadVariableOp f4 [64]
0.0070640943 0.013614871 0.022124805 0.03209425 -0.027608782 -0.009207923 -0.036119647 0.015851509
-0.020508798 0.014139126 -0.0038780195 -0.011375579 0.009691488 -0.02605323 0.039512534 -0.027757183
0.016406901 -0.035222847 -0.029598672 0.018456606 0.030396232 -0.024781624 -0.032217342 0.02748107
-0.017944813 0.018622689 0.030834205 -0.031211367 0.020727482 -0.023456331 -0.020454606 -0.03255281
-0.003481185 -0.015685285 0.011515792 -0.012256329 0.013568897 0.023328837 0.018150093 0.028744904
0.011925227 0.022400558 0.010179778 0.0020654937 -0.010084928 0.013063807 0.027346725 -0.016191354
0.016475681 0.017634941 0.006169 0.024118979 0.01666489 0.02069213 -0.025166605 -0.017737191
-0.0045526503 0.013741882 0.009005167 -0.017831609 0.0030642317 0.018780565 0.04342917 0.03138607
00000000: eb79 e73b e810 5f3c 143f b53c 4375 033d
00000010: d02b e2bc d4dc 16bc 32f2 13bd 06db 813c
00000020: 1102 a8bc cba7 673c 5f26 7ebb a360 3abc
00000030: 0cc9 1e3c 956d d5bc e5d7 213d 0863 e3bc
00000040: c467 863c d545 10bd ea78 f2bc 4f32 973c
00000050: 8501 f93c d502 cbbc 55f6 03bd fb1f e13c
00000060: 0001 93bc 9c8e 983c 0498 fc3c fbae ffbc
00000070: aecc a93c 7e27 c0bc 6b90 a7bc 1856 05bd
00000080: 9824 64bb 6d7e 80bc bcac 3c3c c5ce 48bc
00000090: 1450 5e3c 1e1c bf3c 81af 943c 6f7a eb3c
000000a0: 0762 433c 6081 b73c 15c9 263c 3c5d 073b
000000b0: 413b 25bc 9409 563c 3d06 e03c bba3 84bc
000000c0: 02f8 863c 2777 903c 5325 ca3b 2a95 c53c
000000d0: cf84 883c 8b82 a93c 322a cebc 964d 91bc
000000e0: 662e 95bb a125 613c 688a 133c 9813 92bc
000000f0: 47d1 483b b3d9 993c c9e2 313d ae8e 003d

sequential/conv1d/Conv1D f4 [64, 1, 5, 3]
0.09148951 -0.010975595 -0.31937057 0.017085988 -0.11627385 -0.21498786 -0.08101471 -0.06541809
0.053024396 0.064168334 0.010354842 0.22400925 -0.08613637 0.18227482 0.2282213 1.3668932e-06
1.2390625e-10 8.8680945e-06 -1.6160436e-06 -9.5547695e-11 8.447869e-06 -1.3381815e-06 5.4781496e-10 -2.1077194e-05
4.327183e-07 -1.2322839e-09 2.274639e-05 8.771623e-07 4.960617e-10 -1.9725685e-05 0.022345688 0.15714474
-0.078539014 -0.011182401 0.03449801 -0.10396262 0.036161188 -0.16175337 0.020579688 0.027373955
-0.05824612 0.093738064 0.0003990568 0.013970848 0.0993991 0.03258658 -0.015170372 -0.0014406187
0.022547971 -0.017005272 -0.0009898575 0.014471195 0.024420006 -0.017143438 -0.017922884 0.07666445
-0.0016755904 -0.029000646 0.09483338 -0.009608882 -0.004651906 -0.039870158 0.039981052 0.07325125
0.10417 -0.0015775466 0.10659832 0.046328504 -0.06818247 -0.089229666 -0.049201004 0.07592723
-0.09592979 -0.04686336 -0.066571005 -0.1521497 -0.13727373 0.12645528 0.043768123 -0.1495972
0.0333961 0.02321132 0.026274541 -0.13780755 0.050013952 0.10921248 -0.0016388007 0.06770928
0.16406919 -0.05496271 0.13845207 -0.084844 0.008022398 0.033527613 0.106463976 -0.012470226
0.01912243 0.036709018 0.0037303779 -0.033870462 0.12147154 -0.038466543 -0.08742052 -0.12971391
-0.020469744 -0.00031435754 -0.0022402648 -0.0058956505 0.0007717109 0.0001601276 -0.007338469 -3.7534035e-05
0.00065063423 -0.0027816428 -0.0011921653 0.0013761059 0.00708126 -0.0009150952 0.00021934543 0.009470553
0.0036248483 0.0028349827 -0.016211856 0.002791291 0.0024359582 0.023089128 0.0007898098 0.0019461417
0.009791391 0.0047738873 0.0024935177 -0.019332262 -0.0017097854 0.0027523572 -0.015581791 0.09858077
0.114816785 -0.09045019 0.02583126 0.10398917 0.05091512 0.1248471 0.12204552 -0.03362119
0.104010805 0.099491745 -0.030582486 0.0835255 0.112053744 -0.062465865 0.26329574 0.0438477
-0.053500384 0.07005847 0.097829826 0.15302342 -0.24440861 -0.08982883 0.11905045 -0.099793725
-0.1413656 -0.14434676 -0.0067893807 0.08828772 -0.07505457 0.031682204 -0.08843731 -0.008910339
0.01722985 0.0085461 -0.010852667 0.014316197 0.05005361 -0.009003837 -0.015909772 0.08080758
-0.00080885726 -0.040218648 0.07255182 0.018801497 -0.029166628 0.029149486 -0.00582453 0.035453144
0.100892186 0.069606684 -0.07100548 -0.027518407 -0.061272506 -0.12855935 -0.056009766 0.0011988584
-0.053394772 -0.14694713 -0.14020506 -0.05355913 0.009365758 -0.022181557 -0.059831966 0.04981169
-0.07360408 -0.08119575 0.056819238 -0.011240767 -0.060629368 0.005158889 0.007483777 -0.06362583
0.025883213 -0.08359716 0.06420664 0.04498797 -0.025438484 0.109172806 0.1013322 -0.02799272
-0.08385918 0.007313862 0.099675 -0.038671553 -0.08812522 0.05054923 -0.08499925 -0.15400748
0.014435501 0.054926097 -0.15544763 -0.08642068 -0.03919604 -0.11991184 -0.03367565 -0.050272502
0.11407517 -0.0658962 -0.026510773 0.041402787 0.023415271 -0.01648522 0.03131193 0.047219954
-0.1104606 0.060244143 0.20577905 -0.04340873 -0.11102408 -0.042077426 0.17160185 0.08560697
-0.07806304 0.011845193 0.06909973 -0.026168864 -0.017672187 -0.08240916 -0.0070739 0.06313488
00000000: da5e bb3d fbd2 33bc 8a84 a3be eaf7 8b3c
00000010: fc20 eebd c725 5cbe 0aeb a5bd ebf9 85bd
00000020: 1c30 593d b06a 833d 5ba7 293c ae62 653e
00000030: 4468 b0bd 40a6 3a3e d8b2 693e 1876 b735
00000040: 823c 082f 2dc8 1437 d6e6 d8b5 921c d2ae
00000050: 52bb 0d37 919b b3b5 0d95 1630 eece b0b7
00000060: 5a50 e834 235d a9b0 80cf be37 2276 6b35
00000070: 3d5b 0830 9678 a5b7 4e0e b73c 8dea 203e
00000080: 10d9 a0bd 6436 37bc c94d 0d3d 5bea d4bd
00000090: c11d 143d ada2 25be bc96 a83c 583f e03c
000000a0: 7c93 6ebd bef9 bf3d 7f38 d139 fce5 643c
000000b0: c191 cb3d 8179 053d 278d 78bc 24d3 bcba
000000c0: 86b6 b83c a44e 8bbc 1bbe 81ba 9718 6d3c
000000d0: 770c c83c 6570 8cbc 03d3 92bc 4002 9d3d
000000e0: 7c9f dbba c392 edbc 0138 c23d 926e 1dbc
000000f0: 046f 98bb e44e 23bd 2cc3 233d c004 963d
00000100: 1557 d53d aec5 ceba 3850 da3d f5c2 3d3d
00000110: 40a3 8bbd 0bbe b6bd fe86 49bd bc7f 9b3d
00000120: d676 c4bd cbf3 3fbd 6156 88bd 22cd 1bbe
00000130: 7c91 0cbe 7e7d 013e 3446 333d 0230 19be
00000140: 59ca 083d ab25 be3c b53d d73c 6c1d 0dbe
00000150: 6edb 4c3d cbaa df3d 07cd d6ba 2aab 8a3d
00000160: c101 283e 9420 61bd 61c6 0d3e b1c2 adbd
00000170: 6070 033c 4054 093d c909 da3d eb4f 4cbc
00000180: a4a6 9c3c 325c 163d 5b79 743b c1bb 0abd
00000190: 12c6 f83d 188f 1dbd 8809 b3bd b9d3 04be
000001a0: 2ab0 a7bc 5bd0 a4b9 68d1 12bb 4d30 c1bb
000001b0: a44c 4a3a ede7 2739 8a77 f0bb dd6d 1db8
000001c0: 538f 2a3a 394c 36bb 6e42 9cba 745e b43a
000001d0: ea09 e83b 00e3 6fba 1700 6639 612a 1b3c
000001e0: dd8e 6d3b 1ecb 393b bace 84bc 18ee 363b
000001f0: 99a4 1f3b 6925 bd3c 3d0b 4f3a ae15 ff3a
00000200: 126c 203c 456e 9c3b 496a 233b b15e 9ebc
00000210: e11a e0ba e460 343b c54a 7fbc b7e4 c93d
00000220: 1025 eb3d f33d b9bd 149c d33c 46f8 d43d
00000230: 5f8c 503d d6af ff3d 00f3 f93d 5fb6 09bd
00000240: 9e03 d53d 54c2 cb3d 1f88 fabc 6b0f ab3d
00000250: 6f7c e53d 35dc 7fbd b3ce 863e a599 333d
00000260: 3823 5bbd d17a 8f3d 015b c83d 2cb2 1c3e
00000270: 4046 7abe 2df8 b7bd b9d0 f33d a760 ccbd
00000280: 25c2 10be a3cf 13be 7479 debb 31d0 b43d
00000290: 36b6 99bd 33c5 013d 9f1e b5bd acfc 11bc
000002a0: 9d25 8d3c f104 0c3c 62cf 31bc 7b8e 6a3c
000002b0: 0405 4d3d d484 13bc 3655 82bc 727e a53d
000002c0: 7e09 54ba 4fbc 24bd 0c96 943d 9905 9a3c
000002d0: daee eebc e7ca ee3c b3db bebb 5137 113d
000002e0: 90a0 ce3d f38d 8e3d 526b 91bd 486e e1bc
000002f0: e1f8 7abd 10a5 03be 7f6a 65bd 0323 9d3a
00000300: 7ab4 5abd 4f79 16be ea91 0fbe d160 5bbd
00000310: d672 193c 19b6 b5bc 5d12 75bd 5807 4c3d
00000320: bcbd 96bd f549 a6bd 4abb 683d 322b 38bc
00000330: 8056 78bd e60b a93b 793a f53b 424e 82bd
00000340: 0809 d43c fd34 abbd c57e 833d 4e45 383d
00000350: 5e64 d0bc fe95 df3d 4287 cf3d fd50 e5bc
00000360: 5dbe abbd 1fa9 ef3b 6822 cc3d 1066 1ebd
00000370: ff7a b4bd b60c 4f3d 1614 aebd 23b4 1dbe
00000380: e182 6c3c 30fa 603d aa2d 1fbe 53fd b0bd
00000390: 078c 20bd 5794 f5bd 7aef 09bd 8aea 4dbd
000003a0: 3ea0 e93d 96f4 86bd 1f2d d9bc f895 293d
000003b0: 62d1 bf3c 030c 87bc f040 003d b669 413d
000003c0: 2b39 e2bd 90c2 763d beb7 523e 5acd 31bd
000003d0: 9860 e3bd 6159 2cbd 65b8 2f3e b552 af3d
000003e0: 84df 9fbd 5712 423c 2984 8d3d 1660 d6bc
000003f0: 43c5 90bc 22c6 a8bd 2dcc e7bb dc4c 813d

sequential/conv1d_1/Conv1D f4 [64, 1, 5, 64]
-2.9916525e-17 -2.1919039e-37 -1.467938e-11 -2.7487387e-21 -1.8946797e-23 8.4512863e-29 8.344471e-37 -2.1714494e-37
-5.459742e-21 -1.4215277e-11 -5.0181247e-18 1.3604922e-30 1.1375827e-09 6.9385144e-24 6.191152e-06 -2.452219e-12
-6.2430752e-37 -1.8928946e-10 8.633288e-20 -3.818147e-29 -1.260077e-21 -4.647272e-10 -1.2017233e-12 3.91074e-37
-2.8523743e-20 -7.096814e-17 9.8901914e-33 -1.9493475e-18 1.0037934e-32 -3.1390947e-08 -2.706412e-12 -1.6248414e-33
1.2558744e-10 -4.7097942e-24 -2.0773074e-21 -2.5564267e-18 4.9612245e-06 -5.869935e-17 -7.70638e-23 0.00028411488
-1.75131e-19 -4.559431e-37 1.344943e-33 1.422748e-07 6.62413e-37 -1.6015203e-15 1.0836874e-17 -1.5297457e-26
-3.308084e-12 -8.5399225e-09 -2.221795e-16 1.5216489e-36 6.64709e-37 3.3282204e-06 -1.7128859e-16 1.5451488e-13
-1.9594257e-16 4.39606e-37 -1.0215121e-21 -2.4733886e-09 -2.8140277e-37 2.110254e-37 1.6697464e-29 -4.4257063e-06
-1.1479935e-16 6.4405426e-37 -8.532788e-12 -1.0844064e-19 8.0974504e-22 -1.8941226e-21 4.39785e-37 6.065926e-37
-9.917493e-20 -1.00927426e-10 -4.3222085e-21 -5.6485996e-27 -2.8582794e-10 1.0577492e-23 1.4409093e-06 4.0654828e-12
4.2531718e-37 -1.2884125e-09 1.9574841e-21 -1.7436482e-27 -2.9712503e-31 1.1191325e-09 -2.9307543e-13 -1.05039965e-26
-1.3083714e-21 -5.554561e-17 -6.315867e-37 2.4478813e-16 1.406336e-35 7.53364e-08 -1.3136742e-11 -1.7923853e-32
4.039671e-12 -1.2098231e-37 -4.802695e-21 -3.3128993e-18 5.4605407e-06 -8.632242e-18 -4.7820304e-22 0.0003222039
-7.4151774e-19 -3.2663665e-36 2.6543944e-34 2.2156958e-07 7.914983e-35 -4.5158913e-17 1.0850382e-14 -1.1464423e-23
-3.5011403e-11 -1.1120131e-09 -2.859557e-16 5.485249e-37 6.5954567e-37 2.5721592e-05 -2.6799175e-16 -4.9734094e-15
-3.3457433e-20 4.136479e-37 -6.368038e-20 -1.1676277e-09 -3.5344146e-36 -3.2728082e-35 8.521401e-28 -5.7048405e-06
-1.5983384e-17 5.8971554e-37 -1.271768e-11 -2.762369e-19 -6.7931864e-25 -5.0196967e-16 9.994119e-38 -7.316267e-38
-3.1402888e-19 -5.153203e-10 -3.5660017e-26 -1.105915e-25 5.803583e-10 4.3318645e-25 2.5989273e-06 -5.795218e-12
-1.4911412e-37 -1.4765996e-09 4.4555565e-29 -1.2962108e-26 9.473869e-35 -2.5532486e-11 7.936047e-12 -1.7427486e-22
-2.4991987e-22 -7.364585e-18 2.9128686e-37 3.0869437e-17 -5.8074508e-36 -7.767565e-08 1.0510843e-10 9.769739e-34
1.6000098e-12 6.056356e-37 -2.944408e-21 -3.984878e-19 1.8468296e-05 -8.5335426e-19 -1.3202983e-16 0.00024525035
-9.0584595e-17 1.4969515e-37 7.8224805e-34 2.2385215e-07 -1.0374724e-22 -1.1860038e-16 3.8196322e-17 -5.713907e-30
-1.7030136e-11 -8.248111e-11 -1.9264156e-16 -8.877795e-36 -2.2270552e-37 5.4350065e-05 -8.036782e-18 1.1919598e-14
-1.0884211e-18 -5.552075e-36 -2.9032823e-23 -8.523699e-10 7.33875e-35 -6.979457e-25 8.309039e-31 2.014028e-06
-6.8105166e-19 4.45439e-37 -6.4440766e-12 1.6897558e-19 -1.7314266e-23 -5.678106e-15 -7.111343e-37 3.0229333e-37
-4.9467608e-20 -1.0616755e-10 2.150485e-29 -3.5884316e-27 -1.6180703e-10 -5.846454e-24 2.5911064e-07 2.8350636e-12
-6.2740567e-37 -4.2530632e-09 -2.0540852e-22 -3.6641513e-36 8.479019e-37 -1.653891e-12 -1.1381372e-14 -2.8628547e-21
-5.5266324e-21 -1.310996e-15 -1.1960906e-37 1.6365869e-24 -1.1861794e-37 1.160763e-07 4.5900866e-11 9.93457e-37
-9.739603e-12 2.9161961e-30 -5.988219e-20 -3.479318e-19 -3.8757303e-06 -9.0536175e-18 -9.489633e-17 -8.046255e-05
-1.27228675e-17 -6.7950353e-37 -2.9253492e-33 3.846958e-07 -1.3638185e-21 -4.0314986e-16 3.2756328e-16 -9.297774e-28
-8.1913035e-12 4.883652e-09 -8.732298e-17 2.443276e-31 1.0587196e-36 1.1492252e-05 -1.5646775e-16 -5.979806e-15
2.023458e-15 4.354161e-39 -2.2067148e-20 -3.8702335e-09 -8.464547e-33 -7.302585e-23 -6.328521e-29 -7.921819e-06
00000000: 33f7 09a4 5a2c 9582 061f 81ad 57b0 4f9d
00000010: ff3d b799 fc43 d610 4cf9 8d03 fcc7 9382
00000020: 6243 ce9d eb13 7aad d922 b9a2 a3c0 dc0d
00000030: 2259 9c30 dc35 0619 97bd cf36 408f 2cac
00000040: db70 5483 3f20 50af 06d9 cb1f 629a 4190
00000050: de6a be9c 8a7c ffaf a520 a9ab 5a13 0503
00000060: 17b3 069f 32a4 a3a4 4769 4d0a 22d6 0fa2
00000070: d07a 500a b6d2 06b3 6272 3eac 8efc 0689
00000080: b915 0a2f 8b33 b698 f8f4 1c9d 89a1 3ca2
00000090: 9878 a636 fb59 87a4 2f54 ba9a 41f5 9439
000000a0: 19c2 4ea0 3f26 1b83 8c77 df08 33c4 1834
000000b0: 5068 6103 accd e6a6 b1e7 4723 a97f 9794
000000c0: 25c9 68ac fab6 12b2 e813 80a5 9472 0104
000000d0: 5230 6203 645a 5f36 787b 45a5 e2f7 2d2a
000000e0: 0ae8 61a5 1597 1503 d65d 9a9c 50f8 29b1
000000f0: 4783 bf82 cf9d 8f02 1855 a90f 8780 94b6
00000100: ca5a 04a5 0a29 5b03 431c 16ad 2c06 00a0
00000110: fdba 741c a91d 0f9d ada6 1503 ab69 4e03
00000120: 912b ea9f 17f1 ddae d649 a39d 9bc3 df93
00000130: b522 9daf 3499 4c19 4465 c135 9d0a 8f2c
00000140: 5aba 1003 fc13 b1b0 40e7 131d 6325 0a93
00000150: 5dd8 c08c f9cf 9930 9ffc a4aa 970d 5094
00000160: 2bb7 c59c 5714 80a4 f6ea 5683 5a1c 8d25
00000170: 1b8c 9505 a0c8 a133 a01a 67ad c621 ba8a
00000180: 1f22 8e2c 2fac 2482 d170 b59d e672 74a2
00000190: b039 b736 9c3c 1fa3 2b87 109c 7aed a839
000001a0: 7fdb 5aa1 95ef 8a84 2e6a b007 95e8 6d34
000001b0: 956a d206 3c42 50a4 8e76 4328 13c1 5d99
000001c0: 56fb 19ae 7cd5 98b0 9dd7 a4a5 42a7 3a03
000001d0: 886e 6003 b3c4 d737 9a7c 9aa5 9b2f b3a7
000001e0: 8eff 1d9f d0c1 0c03 6e5c 969f 3f7a a0b0
000001f0: 5e56 9684 2803 2e86 e906 8712 356c bfb6
00000200: b36b 93a3 78ab 4803 57bb 5fad bd0f a3a0
00000210: 2b3d 5297 d3ae 10a6 6c08 0802 f02a c781
00000220: b45e b9a0 71a6 0db0 7194 3095 d8e7 0896
00000230: 1687 1f30 9110 0617 3b69 2e36 afe6 cbac
00000240: b0f6 4a82 3bf1 cab0 6eec 6110 d95e 8094
00000250: d0db fb06 0c96 e0ad c79c 0b2d 75af 529b
00000260: 3a11 979b 45da 07a3 543d c602 335c 0e24
00000270: 8a05 f784 a4ce a6b3 c922 e72e e053 a208
00000280: 6e2e e12b 4d16 4e03 2279 5e9d c639 eba0
00000290: 5dec 9a37 a0dd 7ba1 5438 18a5 f294 8039
000002a0: b5df d0a4 26c1 4b02 27f9 8108 035c 7034
000002b0: 6ed8 fa9a a7bc 08a5 4226 3024 9ac8 e78e
000002c0: 75cc 95ad bd60 b5ae c119 5ea5 50cf 3c85
000002d0: c690 9782 f0f5 6338 a140 14a3 72b9 5628
000002e0: 639f a0a1 be28 ec84 e564 0c9a 334c 6ab0
000002f0: f218 c306 f500 5897 66d2 860d bd28 0736
00000300: cf02 49a1 3693 1703 15bb e2ac bc7d 4720
00000310: 0c74 a799 4993 cca7 89fc 7183 edba cd02
00000320: ab9a 699f 0477 e9ae c815 da0f 0527 8e93
00000330: a1e8 31af 7a2c e298 e51b 8b34 f77f 472c
00000340: be7e 5583 5722 92b1 dc52 789b 13db 9b84
00000350: 5643 9003 b4c3 e8ab 5007 4da8 aa4f 589d
00000360: 4fca d09d 37ef bca6 adcd 2282 e33f fd17
00000370: 5274 2182 9f45 f933 c8df 492e 2807 a903
00000380: 4657 2bad 0697 6c0e 9064 8d9f f861 cda0
00000390: 450c 82b6 8002 27a3 e8d0 daa4 01be a8b8
000003a0: 0bb2 6aa3 1b39 6783 4c07 7389 3088 ce34
000003b0: 2c18 ce9c 6b66 e8a5 cfd3 bc25 4154 9392
000003c0: 5a1a 10ad 0fcd a731 645a c9a4 e393 9e0c
000003d0: be21 b403 d9ce 4037 2165 34a5 fa71 d7a7
000003e0: 36ce 1127 a169 2f00 176b d09e effa 84b1
000003f0: 40cd 2f8a d090 b09a 7372 a090 f4e7 04b7

sequential/conv1d_2/Conv1D f4 [64, 1, 3, 64]
-1.6154593e-09 -0.011464558 0.0014634292 0.0055304836 0.045170706 0.018927546 1.2009914e-05 -0.020247363
-3.559884e-18 -8.993458e-37 -0.0048933276 7.992298e-05 0.0011869437 0.031408545 -3.0354645e-37 3.849716e-37
0.032531682 0.05427484 0.03326444 0.06563289 0.012205384 -0.01133006 -0.005420614 0.00811341
0.02367505 -0.0027945088 -0.028281173 -3.989284e-05 0.0035556583 0.041864973 2.6592673e-12 -0.007644649
0.007785743 0.044440363 0.03617348 -2.6812418e-19 1.1268744e-07 7.8948216e-11 0.008138091 -0.0052217273
0.0070143295 7.187335e-16 -4.367311e-06 -0.0050368323 7.3748806e-20 0.022036918 5.5978777e-11 0.013108942
0.024342226 0.0029540458 3.8611503e-07 4.4922158e-23 0.07097896 -2.6746026e-37 -0.0024790675 0.0069186785
3.383744e-37 -0.012241321 -0.010305548 3.6046908e-37 7.659986e-37 4.7668746e-05 -1.1831084e-07 4.3839624e-29
3.3750513e-09 0.030807829 0.0016311712 0.005746189 0.031642284 0.045648023 7.0352717e-06 -0.017554061
1.21656115e-14 -3.7114154e-37 -0.0075058085 7.9888174e-05 0.010297747 0.017589433 -3.9068013e-37 -5.8714513e-37
0.032465983 0.038195897 0.030188479 0.059349734 0.007952827 -0.0020058479 0.015512588 0.023708262
0.030897189 0.00898548 -0.02437386 -0.0021556548 -0.0063374965 0.053792182 2.574277e-11 -0.0018599295
0.028428534 0.021021137 0.016964681 -6.216991e-18 1.3560638e-09 1.7493324e-11 -0.0058782124 -0.0032184157
0.012403972 6.3352656e-15 1.4578837e-05 -0.00334809 2.7994958e-21 0.011958409 2.2570362e-10 0.019883312
0.015574182 0.0056004305 -9.07584e-08 6.2262753e-19 0.066666245 -6.581622e-37 0.030062154 0.011144397
-6.1905707e-37 -0.009048387 0.0031265018 -4.6428435e-37 -3.525398e-37 0.00012701088 -2.106307e-06 -1.0628045e-28
1.3422554e-09 0.03174436 0.00035595492 0.01210382 -0.009539622 0.057520546 1.6604849e-06 -0.017260993
6.8879732e-15 6.3991673e-37 -0.011318556 0.0001372788 0.011484246 0.005038156 5.5257974e-37 8.456629e-37
0.003106783 0.029297436 0.01612621 0.044447068 -0.010110074 -0.002057492 0.0037020682 0.054682825
0.024822855 0.0003601613 -0.037015818 -0.003226373 -0.008798519 0.06155512 4.0872516e-10 -0.007548645
0.00391356 -0.0141889965 -0.014748744 -1.2808575e-15 -4.768013e-10 3.7519554e-10 -0.0028419918 -0.004375485
-0.02768916 -6.1647434e-16 4.0374085e-05 -0.005240277 4.306292e-20 0.007647237 3.671944e-10 0.016521301
0.022169594 -0.0079984665 2.1997176e-08 1.6747252e-22 0.06843872 -2.2299327e-37 0.024874572 0.013668419
1.1523596e-36 -0.016473427 -0.0027881742 1.3374128e-38 -6.640413e-37 0.00024812084 -2.9634998e-06 2.6887016e-24
4.3275706e-29 -6.474205e-30 -6.8687884e-38 5.236209e-37 2.8369843e-20 -1.0812325e-33 -7.471487e-37 7.276107e-24
8.924568e-37 -1.0862659e-36 5.1233294e-36 -1.0406403e-36 -2.9683205e-37 2.9680412e-37 -2.6759198e-37 -8.491944e-38
3.8405766e-37 -1.0823027e-36 7.232404e-37 2.9494158e-37 -3.9148524e-38 -4.519085e-37 -4.7972854e-37 1.3999169e-37
1.3097546e-36 -2.6374175e-37 -3.167844e-37 -3.0726657e-37 -3.1260893e-37 -9.98744e-25 -1.2796626e-37 -4.456842e-26
-4.00325e-37 5.883432e-37 1.4622512e-36 2.6021695e-37 -9.001424e-37 -3.0130437e-37 5.844938e-23 -5.500335e-37
5.0895205e-38 -2.3432351e-37 6.6693843e-37 -9.028606e-26 3.332475e-37 1.7665511e-32 4.4364177e-37 8.841962e-27
-4.1263783e-37 -1.3129976e-25 6.913725e-37 -4.999434e-38 6.6683046e-17 7.1005645e-37 -1.1028178e-28 -6.9321506e-38
-1.1736486e-36 -7.88171e-37 -9.067225e-37 2.7769202e-37 3.4114746e-38 7.136585e-34 -3.9762635e-37 1.1596776e-37
00000000: ec06 deb0 d7d5 3bbc 89d0 bf3a 0f39 b53b
00000010: eb04 393d f10d 9b3c 307e 4937 ccdd a5bc
00000020: 2756 83a2 0904 9983 3558 a0bb 539c a738
00000030: 3993 9b3a 3fa6 003d 4095 ce82 c2ff 0203
00000040: f13f 053d 4b4f 5e3d 4b40 083d 896a 863d
00000050: 17f9 473c b7a1 39bc 689f b1bb 1cee 043c
00000060: 2ef2 c13c 1424 37bb ebad e7bc 9c52 27b8
00000070: 0c06 693b 9b7a 2b3d 1a21 3b2c f77f fabb
00000080: 8c1f ff3b 1907 363d a52a 143d c845 9ea0
00000090: 93fe f133 e59b ad2e a155 053c 061b abbb
000000a0: 76d8 e53b 2c29 4f26 ea8a 92b6 030c a5bb
000000b0: 6b22 ae1f c486 b43c 8032 762e e3c6 563c
000000c0: 5969 c73c aa98 413b 3f4b cf34 f03a 591a
000000d0: 6b5d 913d 2606 b682 da77 22bb 15b6 e23b
000000e0: 2349 e602 d28f 48bc 9ad8 28bc 9252 f502
000000f0: f253 8203 edef 4738 1212 feb3 164b 5e10
00000100: 88ee 6731 b360 fc3c 06cd d53a 874a bc3b
00000110: 579b 013d 6cf9 3a3d 8610 ec36 89cd 8fbc
00000120: fb27 5b28 fa95 fc82 49f3 f5bb a389 a738
00000130: e2b7 283c b717 903c 0af1 0483 8ecb 4783
00000140: 0dfb 043d 4d73 1c3d d44d f73c b518 733d
00000150: 934c 023c 8b74 03bb 8328 7e3c d437 c23c
00000160: 1a1c fd3c d637 133c b0ab c7bc e345 0dbb
00000170: c6aa cfbb 3155 5c3d 916f e22d e1c8 f3ba
00000180: f5e2 e83c 8534 ac3c 84f9 8a3c d25d e5a2
00000190: 4160 ba30 77df 992d 059e c0bb 0eec 52bb
000001a0: 083a 4b3c 8340 e427 a197 7437 a16b 5bbb
000001b0: 2086 531d 34ed 433c ec29 782f 54e2 a23c
000001c0: db2a 7f3c d183 b73b f5e6 c2b3 68c4 3721
000001d0: 5088 883d 04f6 5f83 e844 f63c fd96 363c
000001e0: 7aa7 5283 b03f 14bc ffe5 4c3b dffc 1d83
000001f0: 19ed ef82 392e 0539 145a 0db6 fab9 0691
00000200: 6a7a b830 6006 023d 769f ba39 1a4f 463c
00000210: 134c 1cbc aa9a 6b3d d4dd de35 ed66 8dbc
00000220: 572a f827 9cc0 5903 7771 39bc 7ff2 0f39
00000230: 6b28 3c3c 1e17 a53b 7c08 3c03 d0e1 8f03
00000240: 2b9b 4b3b 2d01 f03c 1d1b 843c 210e 363d
00000250: b9a4 25bc fdd6 06bb 669e 723b 19fb 5f3d
00000260: 4d59 cb3c 08d4 bc39 e69d 17bd 8f71 53bb
00000270: aa27 10bc 3921 7c3d f4b2 e02f a05a f7bb
00000280: 523d 803b f778 68bc b7a4 71bc 4d97 b8a6
00000290: e90f 03b0 1444 ce2f b640 3abb 3a60 8fbb
000002a0: 61d4 e2bc c7af 31a6 5857 2938 a1b6 abbb
000002b0: e05b 4b1f ac95 fa3b 05de c92f ae57 873c
000002c0: 029d b53c 000c 03bc 4df4 bc32 3c76 4a1b
000002d0: 9a29 8c3d e8c2 9782 c2c5 cb3c 81f1 5f3c
000002e0: 5710 c403 48f3 86bc cdb9 36bb a1a1 9100
000002f0: 28f6 6183 3716 8239 8ae0 46b6 3907 5018
00000300: 146f 5b10 ff4f 038f 78fc ba81 d02d 3203
00000310: 09f9 051f 8ba6 b388 d53d 7e83 89bd 0c19
00000320: fad7 9703 8ed1 b883 1eec d904 470e b183
00000330: 7003 ca82 92fe c902 191d b682 362c e781
00000340: 24b0 0203 ee24 b883 201b 7603 12ba c802
00000350: 1425 5581 c8c6 1983 403e 2383 fc8b 3e02
00000360: dcd7 de03 4b7e b382 a097 d782 631d d182
00000370: 28c0 d482 538c 9a97 bc2d 2e82 2fb1 5c95
00000380: 3a39 0883 ec33 4803 06ca f803 3018 b102
00000390: bb26 9983 a00e cd82 6a52 8d1a ad2a 3b83
000003a0: c88c 8a01 ea78 9f82 88f2 6203 9789 df95
000003b0: e7cb e202 fc72 b70a a6f6 1603 1322 2f14
000003c0: d369 0c83 8e8a 2296 0a43 6b03 f818 8881
000003d0: b9c2 9924 a49e 7103 7ccc 0b91 0ab6 bc81
000003e0: 9baf c783 b019 8683 5645 9a83 c6fc bc02
000003f0: 04bd 3901 5a27 6d08 244e 0783 ded8 1d02

sequential/conv1d_3/Conv1D f4 [64, 1, 3, 64]
-0.0063026883 7.2093017e-37 0.027608264 0.00033960884 1.0986419e-13 0.013015244 0.003194415 0.020047843
-3.7839808e-15 -0.016530385 6.458427e-20 -4.0520574e-37 -2.717066e-39 1.4308663e-28 -0.031695444 0.010795489
-0.025969654 -6.0938278e-37 0.07626469 -0.040795248 0.002316269 6.16849e-37 -4.473041e-15 -0.0026218544
0.04740848 -0.01117141 -0.007946387 0.04510666 -3.7501097e-37 -1.9154288e-10 -0.012926134 -2.930432e-15
-7.1594513e-37 -0.03143897 2.2090935e-06 -0.022915946 -0.02533052 -5.9943804e-37 -0.042798255 0.05594625
0.013378447 -0.04129599 0.008372008 2.0902064e-37 0.04746586 -0.009594177 -0.020785414 -0.027319692
-0.014628516 0.036267053 -0.017582312 2.37046e-36 1.4105696e-11 0.009583299 -0.0023550494 1.0578305e-36
-0.0039206347 0.022042822 1.2578199e-37 -0.011527466 -0.027126985 0.0057307566 0.00053143816 0.012623631
-0.037169345 -1.3166959e-37 0.029078802 -0.00035930832 1.4932107e-14 0.022180228 0.0008133954 0.009123036
-3.167074e-17 -0.009265064 -1.2656994e-21 -8.558459e-37 3.060087e-37 -5.1737796e-37 -0.028809233 0.0033623956
-0.034583855 -7.420936e-37 0.05659654 -0.034717217 -0.0037610715 6.3505994e-37 -1.1223038e-14 -0.0008102992
0.033651892 -0.0070755766 -0.00899525 0.041771825 6.4781364e-37 -1.5185979e-10 -0.007298617 4.1262082e-14
-7.3000117e-37 -0.039840017 2.5458312e-06 -0.030413907 -0.01953816 -4.8610506e-37 -0.04224743 0.03896885
0.048166536 -0.03686516 -0.011079034 -5.279338e-37 0.024379656 -0.012627336 -0.025589481 -0.033124838
-0.02501192 0.039263733 -0.006816886 -7.611918e-38 2.0608746e-11 0.003878917 -0.0010572893 -7.509574e-37
-0.009934515 0.022729574 -3.8399103e-34 -0.014581682 -0.02048821 0.02382135 -0.0048775617 0.011134248
-0.043464787 6.1558335e-38 0.018018715 -0.00086128624 3.0325135e-14 0.0034895777 -0.014378037 -0.013788458
-7.885316e-16 -0.029703736 8.652579e-22 -4.1614403e-37 -5.0919765e-37 -5.89167e-35 -0.0024238983 0.00012472068
-0.0493298 -4.7562545e-37 0.08067742 -0.031564053 0.001985502 8.910057e-37 9.164152e-17 -0.0008229952
0.031939913 0.011194494 -0.00601032 0.052784238 -1.6924476e-37 3.2173528e-10 -0.016909316 3.0815286e-14
6.6642105e-37 -0.03570079 -1.5870286e-06 -0.036063444 0.002935398 1.5435421e-37 -0.031750217 0.060154717
0.040792417 -0.06327692 0.0024948143 3.1364127e-37 0.031468615 -0.008094024 -0.025519753 -0.0354548
-0.035368577 0.006863641 -0.041532077 -1.6625005e-37 6.3938e-12 0.000521948 -4.63791e-05 2.5822328e-37
-0.0011558321 0.027068831 -8.527758e-37 -0.014005839 -0.025484225 0.038045935 0.0084181195 0.008874302
0.0016000071 -7.801741e-37 0.018978644 -0.0010992223 2.9198706e-13 -0.009656613 0.03355073 -0.042682525
1.3593022e-13 0.0033758571 -2.810838e-17 9.910397e-37 2.1677235e-37 1.4075655e-22 0.06658624 -0.01224023
-0.011995119 1.1701571e-36 -0.027744297 0.02399633 -0.005429767 1.5501141e-37 1.7362566e-14 0.0012512257
-0.04639588 0.01166767 -0.002932347 0.028576694 -9.452151e-33 5.0628093e-09 0.013538195 1.0369954e-12
-4.1198336e-37 0.010940128 4.4419317e-05 0.012676731 0.016932324 1.0761551e-36 0.009069507 -0.010000232
0.03873948 0.012175384 0.04126003 4.553544e-37 -0.044158913 0.006727274 -0.011269123 0.0027938671
0.010992309 0.04517005 -0.00371153 -1.8593182e-31 5.6998963e-12 0.0053649643 -0.00040722004 3.442232e-37
-0.0022051928 0.048226956 8.276038e-27 0.006217999 0.025983078 0.010947931 0.013562586 0.0063644648
00000000: c886 cebb e051 7503 ba2a e23c 870d b239
00000010: 6564 f729 e43d 553c 6459 513b 603b a43c
00000020: 1055 88a7 bb6a 87bc cc7e 981f 66e2 0983
00000030: 1396 1d80 4462 3511 15d3 01bd 90df 303c
00000040: 50be d4bc ba5c 4f83 a930 9c3d eb18 27bd
00000050: 8ccc 173b 20e7 5103 8528 a1a7 6bd3 2bbb
00000060: 652f 423d 4a08 37bc 9031 02bc c3c1 383d
00000070: 2038 ff82 879a 52af 23c8 53bc ee28 53a7
00000080: 9e9f 7383 26c6 00bd f03f 1436 39ba bbbc
00000090: f381 cfbc 6bfa 4b83 394d 2fbd e527 653d
000000a0: 4631 5b3c fc25 29bd bf2a 093c 8840 8e02
000000b0: 906b 423d e530 1dbc 2c46 aabc 8ccd dfbc
000000c0: 71ac 6fbc c38c 143d c808 90bc 0ca8 4904
000000d0: 6826 782d 4503 1d3c 2c57 1abb 04fb b303
000000e0: ab78 80bb 2693 b43c a034 2b02 b2dd 3cbc
000000f0: 6939 debc 12c9 bb3b 3650 0b3a 59d3 4e3c
00000100: e23e 18bd 2838 3382 ab36 ee3c 8c61 bcb9
00000110: 187f 8628 4fb3 b53c 0b3a 553a c978 153c
00000120: 360e 12a4 7fcc 17bc 6044 bf9c 599d 9183
00000130: 3c42 d002 fa0d 3083 5701 ecbc a35b 5c3b
00000140: cda7 0dbd 7885 7c83 c6d1 673d a433 0ebd
00000150: 4f7c 76bb 8619 5803 212d 4aa8 426a 54ba
00000160: 91d6 093d 3dda e7bb d060 13bc ef18 2b3d
00000170: 8770 5c03 bbf8 26af 3d29 efbb f1d3 3929
00000180: 1268 7883 492f 23bd 0cd9 2a36 9626 f9bc
00000190: 7e0e a0bc b969 2583 a40b 2dbd cd9d 1f3d
000001a0: 464a 453d ecff 16bd d684 35bc 85a5 3383
000001b0: d8b7 c73c e3e2 4ebc 08a1 d1bc e9ad 07bd
000001c0: cce5 ccbc 02d3 203d 2f60 dfbb 5437 cf81
000001d0: c546 b52d 6e35 7e3b be94 8aba 9e89 7f83
000001e0: 60c4 22bc 5f33 ba3c b034 ff87 02e8 6ebc
000001f0: e4d6 a7bc fe24 c33c f4d3 9fbb 6c6c 363c
00000200: 2208 32bd e693 a701 fc9b 933c f1c7 61ba
00000210: 8092 0829 66b1 643b dc91 6bbc fce8 61bc
00000220: 5d47 63a6 4055 f3bc 0bc1 821c 429b 0d83
00000230: 5f45 2d83 a1a0 9c86 44da 1ebb 74c7 0239
00000240: 0b0e 4abd d2d8 2183 343a a53d 4f49 01bd
00000250: 321f 023b c698 9703 9b4f d324 46be 57ba
00000260: 6dd3 023d 1c69 373c 38f2 c4bb 4934 583d
00000270: 315d 6682 37e0 b02f 6885 8abc 9bc7 0a29
00000280: 76c5 6203 fe3a 12bd e301 d5b5 43b7 13bd
00000290: ce5f 403b 9818 5202 840c 02bd cb64 763d
000002a0: f315 273d 5497 81bd 0a80 233b 0474 d502
000002b0: 3ce5 003d cc9c 04bc cd0e d1bc 0d39 11bd
000002c0: a4de 10bd 65e8 e03b 8a1d 2abd b049 6282
000002d0: 3bf6 e02c 56d3 083a 2e87 42b8 d7bc af02
000002e0: 4a7f 97ba 74bf dd3c a017 9183 bf78 65bc
000002f0: 4bc4 d0bc 0ed6 1b3d 27ec 093c 8565 113c
00000300: 54b7 d13a 60bd 8483 1a79 9b3c c813 90ba
00000310: c55f a42a c536 1ebc 7e6c 093d dfd3 2ebd
00000320: 380b 192a 7c3d 5d3b 85a0 01a4 de9d a803
00000330: 1287 9302 0b2a 2a1b 5e5e 883d 3f8b 48bc
00000340: 2d87 44bc 8817 c703 0248 e3bc f493 c43c
00000350: 30ec b1bb 98fd 5202 5a63 9c28 2b00 a43a
00000360: 9b09 3ebd c129 3f3c 9e2c 40bb ac19 ea3c
00000370: 4150 448a f1f4 ad31 4ecf 5d3c b2f1 912b
00000380: d030 0c83 393e 333c e14e 3a38 10b2 4f3c
00000390: a8b5 8a3c 2a19 b703 4598 143c 03d8 23bc
000003a0: 4aad 1e3d 437b 473c 4700 293d f6f2 1a03
000003b0: fadf 34bd 7770 dc3b 21a2 38bc 5019 373b
000003c0: 1619 343c 3b04 393d 243d 73bb 725a 718c
000003d0: 1a8c c82c 95cc af3b 2680 d5b9 2444 ea02
000003e0: ff84 10bb a189 453d 80ec 2314 5bc0 cb3b
000003f0: 77da d43c f35e 333c 9c35 5e3c 008d d03b

sequential/batch_normalization/batchnorm/sub f4 [64]
-0.45516208 -0.5141656 -0.3993771 -0.89027387 -0.0018751336 -0.06852452 -0.07843305 -0.26686168
0.0027849365 -0.22171886 -0.10249583 0.009940578 -0.3029259 -0.0028925948 -1.0809302 0.013846931
-0.7056583 -0.0004627563 -0.06494227 -0.48491138 -0.8088689 -0.041645568 -0.044849865 -0.52394986
0.006078786 -0.5156017 -0.76572657 0.0027711173 -0.48862913 -0.003032384 0.010261635 -0.12403414
-0.37668276 0.0071985964 -0.37130228 -0.0095134415 -0.4551774 -0.43620753 -0.34200427 -0.42876303
-0.22385101 -0.7037018 -0.41387248 -0.39753878 0.021364639 -0.2775249 -0.57275 -0.018664734
-0.61607623 -0.66895825 -0.42816916 -0.49157673 -0.5565073 -0.61131847 0.00075688475 -0.088280566
-0.10593229 -0.36654103 -0.16229466 -0.007197114 -0.0688608 -0.44075087 -1.149041 -0.6291238
00000000: 010b e9be 5ba0 03bf 287b ccbe fde8 63bf
00000010: 0bc7 f5ba 9556 8cbd 82a1 a0bd 18a2 88be
00000020: 7b83 363b 450a 63be 55e9 d1bd cedd 223c
00000030: 1b19 9bbe b091 3dbb ec5b 8abf 3dde 623c
00000040: 06a6 34bf 199e f2b9 7400 85bd 4e46 f8be
00000050: 0812 4fbf 8b94 2abd 7eb4 37bd 9421 06bf
00000060: 8e30 c73b 79fe 03bf a806 44bf a29b 353b
00000070: 992d fabe f6ba 46bb 6b20 283c 9c05 febd
00000080: 90dc c0be 34e2 eb3b 551b bebe 44de 1bbc
00000090: 030d e9be 9856 dfbe 2f1b afbe d486 dbbe
000000a0: 3339 65be cd25 34bf 18e7 d3be 348a cbbe
000000b0: e504 af3c be17 8ebe be9f 12bf c9e6 98bc
000000c0: 2cb7 1dbf d940 2bbf fd38 dbbe f2af fbbe
000000d0: 4377 0ebf 5e7f 1cbf ad69 463a 71cc b4bd
000000e0: 07f3 d8bd 44ab bbbe 9230 26be c5d5 ebbb
000000f0: e406 8dbd 19aa e1be c713 93bf 420e 21bf

sequential/batch_normalization/batchnorm/mul f4 [64]
28.332384 24.458443 29.228968 25.253239 31.067493 27.414164 27.325108 27.399876
30.888403 29.74842 31.96433 28.334808 28.410618 30.117443 25.315033 31.194885
27.207045 30.630827 26.318726 30.804045 25.562916 28.51312 29.645147 27.574865
28.967234 31.463463 24.313654 31.088493 29.692146 31.127426 30.912197 27.189634
25.578913 27.69211 26.811045 30.491547 26.335306 25.14675 29.401783 29.765863
31.171574 27.412525 26.602783 30.145555 25.849585 26.391037 23.957188 30.211859
24.808 27.186419 28.262032 26.134256 29.573814 22.491636 31.19864 28.032648
27.467833 32.79695 29.88071 30.830484 27.998484 27.970215 26.817907 29.824041
00000000: b9a8 e241 e4aa c341 edd4 e941 a206 ca41
00000010: 3a8a f841 3550 db41 d299 da41 f232 db41
00000020: 731b f741 c4fc ed41 f3b6 ff41 b0ad e241
00000030: f248 e341 86f0 f041 3085 ca41 208f f941
00000040: 07a8 d941 ef0b f541 c08c d241 af6e f641
00000050: da80 cc41 df1a e441 4329 ed41 5399 dc41
00000060: e5bc e741 2cb5 fb41 5d82 c241 3cb5 f841
00000070: 8489 ed41 f804 f941 2e4c f741 5f84 d941
00000080: 9da1 cc41 7189 dd41 057d d641 b0ee f341
00000090: b5ae d241 8b2c c941 da36 eb41 7d20 ee41
000000a0: 625f f941 da4c db41 80d2 d441 192a f141
000000b0: f3cb ce41 d820 d341 52a8 bf41 e3b1 f141
000000c0: c976 c641 c97d d941 a418 e241 f512 d141
000000d0: 2c97 ec41 dfee b341 d196 f941 dd42 e041
000000e0: 1fbe db41 1430 0342 b20b ef41 d5a4 f641
000000f0: e5fc df41 00c3 df41 138b d641 a397 ee41

sequential/dense/BiasAdd/ReadVariableOp f4 [64]
-0.00753555 -0.016365686 -0.08153539 0.0026869236 -0.03356951 -0.023237547 -0.05439145 -0.010295986
-0.015262341 -0.03650999 0.003328879 -0.07829672 -0.06821318 -0.12616706 0.025425002 -0.010418851
-0.1436602 0.075991906 0.037464358 -0.059714973 -0.0590586 0.04422187 -0.031071002 -0.018276228
-0.012795823 -0.10434311 0.1395054 -0.034758013 -0.07592914 -0.14368007 -0.06115643 0.040301934
-0.06724673 -0.1194408 -0.12936021 0.1308074 -0.1383105 0.047192935 -0.08233493 -0.04887585
-0.05397082 -0.103051215 -0.077351406 0.023926051 0.004211656 -0.034739543 -0.055314478 0.010639335
-0.10063716 -0.10183091 -0.13644002 -0.02247256 -0.033125006 0.027354471 0.058116872 -0.15605186
-0.024681162 -0.059684813 0.0013055594 0.004037787 -0.062754475 0.008198456 0.08164383 0.096426524
00000000: c6ec f6bb 5511 86bc 07fc a6bd 1917 303b
00000010: 2f80 09bd ab5c bebc 92c9 5ebd 7fb0 28bc
00000020: e60e 7abc 808b 15bd 5229 5a3b 085a a0bd
00000030: 5ab3 8bbd f031 01be 1848 d03c d4b3 2abc
00000040: a91b 13be a5a1 9b3d 3a74 193d b097 74bd
00000050: 6ee7 71bd fe21 353d 9d88 febc 07b8 95bc
00000060: 92a5 51bc d7b1 d5bd 81da 0e3e 6b5e 0ebd
00000070: bd80 9bbd de20 13be 2a7f 7abd a413 253d
00000080: a7b8 89bd 619d f4bd 0177 04be 60f2 053e
00000090: 45a1 0dbe 614d 413d 379f a8bd 0b32 48bd
000000a0: 8210 5dbd 840c d3bd 6a6a 9ebd 9100 c43c
000000b0: ee01 8a3b 0d4b 0ebd 6f91 62bd 9b50 2e3c
000000c0: db1a cebd b98c d0bd efb6 0bbe 6018 b8bc
000000d0: 16ae 07bd 7c16 e03c f50b 6e3d 0fcc 1fbe
000000e0: 2630 cabc 1078 74bd 4e1f ab3a 6a4f 843b
000000f0: 6b85 80bd d152 063c e134 a73d 457b c53d

sequential/dense_2/BiasAdd/ReadVariableOp f4 [11]
0.02158511 0.081086196 0.045826737 0.041093428 -0.012090397 0.032051742 0.039336544 -0.03707771
-0.13774836 0.070592366 -0.11765694
00000000: 42d3 b03c 8510 a63d d1b4 3b3d 9551 283d
00000010: cd16 46bc b048 033d 5b1f 213d ccde 17bd
00000020: e80d 0dbe bb92 903d 1ff6 f0bd

sequential/dense_1/BiasAdd/ReadVariableOp f4 [32]
0.068962716 -0.009276457 -0.06889303 0.06916406 0.086893156 0.008029053 -0.044934634 0.013611047
-0.07462345 -0.0023459345 0.018645512 0.072316155 -0.014043409 0.05072178 0.002655904 0.03248237
0.11870067 -0.06771909 -0.08567418 0.07827799 0.06125658 0.10138467 0.09553233 0.113288075
0.032722916 -0.07205685 -0.06917258 0.016091922 -0.018772881 -0.057118405 -0.015066459 0.06459835
00000000: 533c 8d3d 48fc 17bc ca17 8dbd e3a5 8d3d
00000010: 0af5 b13d 4a8c 033c 610d 38bd de00 5f3c
00000020: 2ed4 98bd 40be 19bb 79be 983c 7e1a 943d
00000030: 5416 66bc a4c1 4f3d ad0e 2e3b 3c0c 053d
00000040: 5619 f33d 4eb0 8abd f275 afbd 3650 a03d
00000050: 2ee8 7a3d c4a2 cf3d 74a6 c33d 9403 e83d
00000060: 7708 063d 8b92 93bd 5baa 8dbd 35d3 833c
00000070: 96c9 99bc fdf4 69bd 4fd9 76bc 244c 843d

sequential/dense/MatMul f4 [64, 2432]
-0.00336546 0.021598432 0.06682065 -0.11684745 0.00823859 0.083752126 -0.014372689 0.014524958
0.05675951 0.06053138 -0.023282496 0.0059876535 0.06534757 -0.018130928 -0.074688055 0.022556566
-0.019196352 0.02792261 0.05120972 0.028116666 -0.034386326 0.031336285 0.009761893 0.051469676
0.0042026183 0.21026243 -0.014406709 1.1593333e-05 -0.17719826 -0.033999026 -0.035241257 -0.018750638
-0.114216626 0.06389983 -0.05153199 0.011696103 -0.0034561234 -0.0054490026 -0.16416553 -0.022292176
-0.048302427 0.036790024 -0.08037264 0.038486168 -0.035000116 -0.09692097 -0.050474677 0.04640117
0.06671649 -0.013887067 0.054390162 -0.14729796 0.1568117 -0.019720977 0.029106613 -0.055675182
0.025913425 -0.07181322 -0.002601654 -0.01215462 0.07056639 0.056604613 0.078232095 0.16081853
-0.08793239 0.05524893 0.0130107645 -0.0051366487 0.00070596725 0.03709957 0.026807986 -0.08347042
0.011136387 0.12032717 -0.048891164 0.010539424 0.07143629 0.016372314 -0.021137217 0.0042657563
-0.053497545 -0.034787867 0.05740147 0.06336361 -0.037925966 0.03907734 -0.018015012 -0.018323774
0.02458831 0.1826562 -0.06330827 0.009819986 -0.13336481 -0.031374104 0.012713477 0.002907697
-0.062159397 -0.0183657 -0.054085977 0.07399525 -0.077578515 -0.023465969 -0.0334618 -0.052187864
0.049424153 0.08639126 0.024407234 -0.080683425 -0.0036142615 -0.004399814 0.008112498 0.05453755
0.0072812145 0.095697604 0.05576782 -0.12042065 0.123786405 -0.048536286 0.03966311 -0.009105676
0.036928907 -0.024535825 0.022139313 0.017382069 -0.007094426 -0.029650766 0.058504514 0.012314514
-0.027780758 0.022068445 0.018607598 0.090978615 0.050949454 0.07128609 0.006930309 -0.03484259
0.05455253 0.046712894 0.005281858 0.020392796 0.09439783 -0.026466193 0.022028083 0.0449948
-0.12842679 0.0037274875 0.081914485 0.03628349 0.030151082 0.06181834 0.007843332 0.00062367314
0.021057261 0.061622653 0.06480733 -0.017418599 -0.045150213 0.02686038 -0.014453625 0.10723334
-0.036508664 0.03537635 0.009651246 0.07559395 -0.03576608 0.020449078 -0.032282673 -0.047868684
-0.027445212 0.005503701 0.07707113 -0.061269853 -0.00024507282 0.05705461 0.060119174 -0.026836054
0.003918891 0.0039783623 0.077472776 0.008895999 0.01578595 -0.015640052 0.019915486 -0.05493808
0.10844442 -0.041932676 -0.027324807 0.025208667 -0.01710301 0.034531604 0.011006127 0.021598507
-0.02133799 0.018931676 -0.060030304 0.08104388 -0.012788439 0.08261451 0.0374069 -0.013647706
-0.022651736 0.045057435 -0.071985275 0.054212596 0.059561007 0.023873983 0.029372428 -0.029187433
-0.12054458 0.03939099 0.035634995 0.03022821 0.102539845 0.01226959 -0.03654273 -0.065371625
-0.04167259 0.16577713 -0.0046479125 -0.049729627 -0.02229157 0.05156757 -0.0019186649 0.0037347039
-0.060396355 0.050376583 0.000947125 0.018844947 -0.06398524 -0.02317702 -0.05913433 -0.035487056
-0.015811386 0.030798301 0.099758856 -0.010217225 -0.05631117 -0.049004383 0.101283446 0.062031608
0.05988542 -0.08018479 -0.061095186 0.008921253 0.021021493 -0.027582001 -0.050100744 -0.025431437
0.010672546 -0.09737742 -0.028910885 -0.008128267 0.08528621 -0.058133494 -0.007959752 -0.07329761
00000000: 0d8f 5cbb 32ef b03c 44d9 883d b74d efbd
00000010: 27fb 063c 3c86 ab3d 6d7b 6bbc 17fa 6d3c
00000020: a97c 683d c1ef 773d efba bebc 1434 c43b
00000030: f2d4 853d 5087 94bc 0df6 98bd 8cc8 b83c
00000040: ab41 9dbc f5bd e43c 49c1 513d ec54 e63c
00000050: add8 0cbd 7a5a 003d 59f0 1f3c ded1 523d
00000060: 1eb6 893b 094f 573e 1e0a 6cbc fc80 4237
00000070: 7673 35be 9042 0bbd 2359 10bd f09a 99bc
00000080: 68ea e9bd eadd 823d 3513 53bd 03a1 3f3c
00000090: 2180 62bb 8c8d b2bb 021b 28be 159e b6bc
000000a0: c4d8 45bd 23b1 163d 699a a4bd aca3 1d3d
000000b0: 485c 0fbd 807e c6bd 89be 4ebd 270f 3e3d
000000c0: a8a2 883d 9586 63bc 38c8 5e3d 47d5 16be
000000d0: 3f93 203e e38d a1bc fe70 ee3c a90b 64bd
000000e0: 6448 d43c cf12 93bd 8380 2abb 2c24 47bc
000000f0: 1d85 903d 3dda 673d 2638 a03d 9dad 243e
00000100: e615 b4bd b44c 623d 1a2b 553c 5551 a8bb
00000110: a910 393a b8f5 173d 6c9c db3c 8af2 aabd
00000120: 6475 363c 176e f63d 1a42 48bd 8cad 2c3c
00000130: 314d 923d 3b1f 863c f527 adbc c2c7 8b3b
00000140: 3e20 5bbd b97d 0ebd ce1d 6b3d c8c4 813d
00000150: 4258 1bbd 900f 203d 3894 93bc bd1b 96bc
00000160: 6c6d c93c 3a0a 3b3e c4a7 81bd 02e4 203c
00000170: c990 08be 2282 00bd 304c 503c 108f 3e3b
00000180: da9a 7ebd aa73 96bc 4289 5dbd d28a 973d
00000190: 7ce1 9ebd b43b c0bc 3e0f 09bd f1c2 55bd
000001a0: fb70 4a3d e7ed b03d aef1 c73c 5a3d a5bd
000001b0: 3fdd 6cbb 512c 90bb 48ea 043c c462 5f3d
000001c0: 4197 ee3b 1bfd c33d cc6c 643d 1a9f f6bd
000001d0: ba83 fd3d fccd 46bd c975 223d f92f 15bc
000001e0: c442 173d 5bff c8bc 815d b53c d764 8e3c
000001f0: 5c78 e8bb 2ae6 f2bc 6ea2 6f3d d1c2 493c
00000200: 7994 e3bc e2c8 b43c f66e 983c ff52 ba3d
00000210: 60b0 503d 71fe 913d a517 e33b 1bb7 0ebd
00000220: 7972 5f3d 0556 3f3d 7013 ad3b cb0e a73c
00000230: a653 c13d a1cf d8bc 3d74 b43c 784c 383d
00000240: 5082 03be dd48 743b c8c2 a73d ff9d 143d
00000250: 67ff f63c 3a35 7d3d 5281 003c ff7d 233a
00000260: 4780 ac3c 0968 7c3d b5b9 843d 73b1 8ebc
00000270: 6eef 38bd 4d0a dc3c e6ce 6cbc 279d db3d
00000280: 1c8a 15bd cbe6 103d 4220 1e3c 00d1 9a3d
00000290: 747f 12bd d384 a73c d63a 04bd f411 44bd
000002a0: c8d4 e0bc 6458 b43b 78d7 9d3d 19f6 7abd
000002b0: 1e7d 80b9 18b2 693d 863f 763d 49d7 dbbc
000002c0: 0a6a 803b ec5c 823b 0caa 9e3d 86c0 113c
000002d0: 8951 813c 911f 80bc cd25 a33c c106 61bd
000002e0: 1c18 de3d 99c1 2bbd 46d8 dfbc 6882 ce3c
000002f0: 9d1b 8cbc 0371 0d3d 0b53 343c 5aef b03c
00000300: 02cd aebc 9a16 9b3c 56e2 75bd 55fa a53d
00000310: 9a86 51bc cc31 a93d fa37 193d a19a 5fbc
00000320: 2290 b9bc 258e 383d 046d 93bd 070e 5e3d
00000330: 3ef6 733d 5f93 c33c 729e f03c 7c1a efbc
00000340: 14e0 f6bd 7258 213d 00f6 113d 27a1 f73c
00000350: 6900 d23d 6406 493c d4ad 15bd 8fe1 85bd
00000360: e1b0 2abd 7bc1 293e 844d 98bb 4bb1 4bbd
00000370: d09c b6bc 8438 533d b67b fbba efc1 743b
00000380: 2b62 77bd ad57 4e3d 7c48 783a b860 9a3c
00000390: b20a 83bd bcdd bdbc d736 72bd e05a 11bd
000003a0: e186 81bc b84c fc3c 5f4e cc3d 2666 27bc
000003b0: 8ba6 66bd d2b8 48bd b26d cf3d db14 7e3d
000003c0: 6a4a 753d ec37 a4bd f23e 7abd 722a 123c
000003d0: 4435 ac3c a6f3 e1bc 7036 4dbd 9755 d0bc
000003e0: e7db 2e3c d06d c7bd 85d6 ecbc 6c2c 05bc
000003f0: 89aa ae3d 631d 6ebd 9f69 02bc 0f1d 96bd
