frontend/pdiot_app/assets/models/model_task23.tflite (tflite, 859116 bytes, 14 tensors)

sequential_1/conv1d_5/BiasAdd/ReadVariableOp f4 [64]
000000 06 29 6a bd e8 62 cb bd d8 e8 b9 bd 08 bd 26 be
       -0.05716803 -0.09930974 -0.090776145 -0.16283047
000010 9c 69 d1 bd 47 c1 36 be bf d1 de bd 99 86 c6 bd
       -0.102252215 -0.17847167 -0.1087985 -0.09693641
000020 3e 7d 99 be d3 35 2e 3e 73 96 1f be 34 c6 a0 be
       -0.29978365 0.1701272 -0.15584736 -0.31401217
000030 12 f9 af bd 92 f9 49 be 1d 3d 15 be 30 28 75 bd
       -0.08592428 -0.1972411 -0.14574094 -0.05985278
000040 8a e9 75 be f7 fb df bd 14 95 4f be e7 6c 42 be
       -0.2401487 -0.1093673 -0.20271713 -0.18986855
000050 f4 74 b5 be 5b 01 82 3d c2 71 97 be 70 b7 2c be
       -0.3544079 0.06347915 -0.29578978 -0.16866851
000060 89 30 93 be 6d f6 10 bf 64 93 00 be 94 83 92 bd
       -0.28747967 -0.56626016 -0.12556225 -0.07154003
000070 2e ff 8b be 6a cd 56 be c5 71 f0 bd c8 5c 03 be
       -0.27343124 -0.20976797 -0.1174045 -0.12828362
000080 3d 4a d0 bd 61 30 49 bd 68 ce 9b be 83 6f a9 bd
       -0.1017041 -0.049118403 -0.30430913 -0.08273222
000090 af f2 10 be 90 a9 98 be 57 61 1b be 31 8a ab bd
       -0.14155076 -0.29816866 -0.15173851 -0.08375967
0000a0 ef 5a 1b be d1 c4 44 be 7f 06 30 be d6 ff 6a be
       -0.15171407 -0.19215705 -0.17189978 -0.22949156
0000b0 53 2a ff be 64 2c 1f be 70 2f 6b bd fa 99 28 be
       -0.49836978 -0.15544277 -0.057418287 -0.16464987
0000c0 7b e7 55 be c3 ff 48 bd eb 15 f9 bd 32 3e 25 be
       -0.20889084 -0.04907204 -0.12162384 -0.16137007
0000d0 89 f4 89 bd be 57 16 be 1b 3c 3f bd 3b 92 4f be
       -0.067360945 -0.14681908 -0.04668818 -0.20270626
0000e0 b7 da 27 be 3e 8e 7b be 51 0d 2b be 96 21 27 bd
       -0.16392027 -0.2456598 -0.16704299 -0.040803514
0000f0 48 05 43 be 60 b8 12 be cd 79 e6 be 25 ff fb 3d
       -0.19044983 -0.14328146 -0.45014802 0.12304524

sequential_1/conv1d_6/BiasAdd/ReadVariableOp f4 [64]
000000 3e 58 75 3d d0 14 cd ba 56 40 c0 b9 4c 0f 2f bc
       0.059898607 -0.0015646461 -0.00036669028 -0.010684799
000010 65 30 bb bb b7 59 64 bc c0 25 be bc d8 b4 19 3c
       -0.005712556 -0.013937405 -0.02321136 0.009381495
000020 50 b3 9e b7 d6 f2 71 be eb 56 cb bc 2f c4 61 b5
       -1.8918567e-05 -0.23627791 -0.02482172 -8.4104516e-07
000030 31 cf a9 bc 29 22 cc bc 7f 56 70 bb 08 34 c3 bd
       -0.02072868 -0.024918633 -0.003667265 -0.095314085
000040 38 fa 9d bc eb e2 df 3d 30 6b b9 b9 5b 33 14 bc
       -0.019284353 0.10931953 -0.0003536581 -0.009045447
000050 7a 5b 0c bd b7 8b eb 3d 6e be 9f bc 82 cf 74 be
       -0.034266926 0.11501258 -0.019499984 -0.23907283
000060 91 21 94 bd 7a 57 2f b5 bd d3 f8 b6 4f bd 82 bd
       -0.07232965 -6.5319875e-07 -7.4156255e-06 -0.06383764
000070 c5 a1 e3 ba ee 0b 0f 3e 8e 07 a8 bc 97 98 b3 bc
       -0.0017366937 0.13969395 -0.020511415 -0.021923346
000080 13 6b 61 be 85 3b bb 3d a2 ce 27 bc fb 1d 78 bd
       -0.22013502 0.09142212 -0.010242136 -0.060575467
000090 a4 2f 2c bb 46 1a 3e bc bf 8e 0f bd ef 1a a9 bc
       -0.0026273513 -0.011602944 -0.035048243 -0.020642726
0000a0 45 36 40 b4 fa 80 a6 b9 7c 93 80 bd 65 39 f1 3d
       -1.7901137e-07 -0.00031758082 -0.062781304 0.11778525
0000b0 d0 d5 78 b5 a0 58 77 be e0 52 ca b7 a0 80 81 bd
       -9.269834e-07 -0.24154902 -2.4118868e-05 -0.063233614
0000c0 9a 71 54 bc 26 f5 48 ba b1 6c bc bc 21 d3 d2 bc
       -0.012966538 -0.00076659245 -0.023001047 -0.02573544
0000d0 c2 80 63 bc 85 1d 6f bc 06 bd 15 3d 59 49 9e ba
       -0.013885679 -0.01459444 0.03655722 -0.0012076303
0000e0 8e f5 82 ba ac ba fc bc 9f 86 6a b9 ad 69 9d 3d
       -0.0009991394 -0.03085073 -0.00022366129 0.07686172
0000f0 9b 07 ad bd 7a 57 63 3d ee 96 64 3d 05 80 44 bd
       -0.08448716 0.055503346 0.055808 -0.04797365

sequential_1/conv1d_7/BiasAdd/ReadVariableOp f4 [64]
000000 66 3d 93 bc c1 3e 7b bc 54 85 01 b6 ed 04 e5 bc
       -0.017973613 -0.015334786 -1.9300105e-06 -0.02795645
000010 52 c8 a8 b9 74 5c 75 3d 78 5a 2e bd 5a 63 2c ba
       -0.00032192707 0.059902623 -0.042566746 -0.0006576084
000020 f3 0e 52 b9 c1 88 83 bb 53 00 d7 ba f5 8d f0 3c
       -0.0002003273 -0.004014105 -0.0016403295 0.029364565
000030 d4 31 33 3d e9 50 e2 bc 7a dd 1c b9 fd 65 e6 bc
       0.04374869 -0.027626472 -0.00014959826 -0.028124804
000040 e2 2a 8c 3d 25 68 93 bc 62 03 f6 bc 45 20 a4 bb
       0.06844117 -0.017993996 -0.03003091 -0.0050087296
000050 bb f7 7a bc a3 c7 55 bb fa 06 26 b9 20 ef aa b7
       -0.015317853 -0.0032620213 -0.00015833593 -2.037693e-05
000060 a1 37 f6 3c dc 60 4c b8 3d 72 16 be 26 5b b8 bc
       0.030055823 -4.8727597e-05 -0.14692016 -0.0225044
000070 c3 1e d5 bc a4 cc c8 b9 b6 67 ca bc d1 7c 15 3d
       -0.026015645 -0.00038299442 -0.024707656 0.036495987
000080 92 5e df ba 91 92 c5 bc 4e a5 89 bc af 4f 92 bc
       -0.0017041734 -0.02411774 -0.016802456 -0.017860262
000090 71 36 ee b7 43 c1 c8 b6 ce 1e e4 bc 96 ed f8 3c
       -2.8397162e-05 -5.982963e-06 -0.02784672 0.030386727
0000a0 90 61 b5 b7 66 8b aa bb 57 cd af bd 9a 6f 97 b6
       -2.1622312e-05 -0.005204606 -0.08584087 -4.513143e-06
0000b0 91 e4 05 bd 33 31 08 bc a6 d2 1e 3d 19 8b c6 bc
       -0.03268868 -0.008312511 0.03877511 -0.024236249
0000c0 35 03 6c 3c f9 ba b5 ad 12 cd 29 3c 15 43 5a bc
       0.0144050615 -2.066035e-11 0.010363834 -0.013321658
0000d0 cf 13 3a ba a2 06 e1 ba e7 2f 98 b9 d7 62 c8 b5
       -0.00070982886 -0.0017168114 -0.0002902739 -1.4929927e-06
0000e0 de 11 3f 3d 3b 79 55 bc 87 16 06 bd 28 ac 3c bd
       0.0466479 -0.013029392 -0.032736327 -0.04606262
0000f0 5b e0 d9 bc fd 72 a8 b0 1e 5d ea b7 7f 63 47 bd
       -0.026596239 -1.225629e-09 -2.7938335e-05 -0.04867887

sequential_1/conv1d_8/BiasAdd/ReadVariableOp f4 [64]
000000 b5 e1 f4 b9 3e b4 e2 b8 09 f6 03 bd ff 0a fe bb
       -0.00046707471 -0.000108100925 -0.03221706 -0.0077527757
000010 98 9a 81 3c 7e 85 af bc a8 07 18 3d 60 3b 1c bc
       0.015820786 -0.021425959 0.037116677 -0.0095356405
000020 b7 17 84 3d 7e 29 38 3d c2 63 62 bd b7 78 b5 b9
       0.06449836 0.044961445 -0.055270918 -0.0003461295
000030 2f 71 c0 3c 31 e5 77 3c 7c 74 92 bc cb 59 ee 3c
       0.02349147 0.015130327 -0.01787781 0.029095551
000040 38 61 08 bd 15 59 07 3d 06 a3 24 bd 62 dd 2c 3d
       -0.03329584 0.03304394 -0.040194534 0.042203315
000050 71 85 0f bb 72 fe 9a bc a3 62 dd ba 20 45 26 bb
       -0.0021899606 -0.018920157 -0.0016890358 -0.0025370792
000060 68 f8 b1 3d e5 9d 22 bc 25 8f 61 bb 32 e2 c1 bc
       0.08689958 -0.00992534 -0.0034417596 -0.023667429
000070 46 d8 e9 bc d5 da 65 bd d0 00 62 bb 06 d0 8a bb
       -0.02854551 -0.056116898 -0.0034485348 -0.004236224
000080 1e 52 5b 3d 7e 4c 98 b8 a9 1a 63 3d 56 25 97 ba
       0.05354511 -7.2621726e-05 0.055445347 -0.0011531513
000090 f0 de e6 bb fe 4f c1 3d 51 1e c1 bc a6 7c 2b bb
       -0.007045619 0.094390854 -0.023574026 -0.0026166826
0000a0 a0 74 08 bb 8d 9d 2a ba ad fa 97 3a f4 cd cd bc
       -0.0020821467 -0.0006508462 0.0011595093 -0.02512262
0000b0 db e4 fe bc b8 9f d7 3b 3c dc 17 bc 0e 79 32 3d
       -0.031114986 0.0065803193 -0.009268817 0.043572478
0000c0 02 74 be 3d 91 d2 7e bb 88 78 5f 3d db bc 54 3d
       0.092994705 -0.0038882832 0.054558307 0.05193792
0000d0 74 d6 c4 bb 98 38 39 bd e4 5c 19 39 a3 de 83 3d
       -0.00600701 -0.045219988 0.00014625821 0.06438949
0000e0 04 2c fa bc fe ce 72 bb d5 9c 9a bb 71 cb 77 3d
       -0.030538566 -0.0037049646 -0.004718403 0.06049675
0000f0 71 5c 86 3d 63 46 08 bd 54 c4 75 3d ff 2c 88 bb
       0.065606005 -0.03327025 0.060001686 -0.0041557546

sequential_1/conv1d_5/Conv1D f4 [64, 1, 3, 6]
000000 0c dd 92 02 ff 99 65 03 7c 56 cd 82 6c f6 4d 03
       2.1579647e-37 6.747383e-37 -3.0171682e-37 6.0526964e-37
000010 d8 2f 64 83 18 5e 09 03 ef c5 86 02 88 84 25 03
       -6.70581e-37 4.0368696e-37 1.9803139e-37 4.864128e-37
000020 4c 1a b3 82 ed 80 63 83 06 e0 62 03 87 37 f4 82
       -2.631678e-37 -6.6857304e-37 6.6672597e-37 -3.5884449e-37
000030 e8 28 89 02 88 6c 37 03 71 9f bd 82 ce 9e 9b 82
       2.015382e-37 5.3903454e-37 -2.786257e-37 -2.2866352e-37
000040 65 fa 82 83 96 29 02 83 bb 53 c1 82 33 55 6a 03
       -7.698201e-37 -3.8251305e-37 -2.840686e-37 6.8864223e-37
000050 d6 83 94 83 1c 00 1d 03 ba 62 94 83 b5 ea 81 03
       -8.728926e-37 4.613828e-37 -8.721325e-37 7.635825e-37
000060 b6 0a 13 83 ff 0f 61 03 30 0e 6e 83 c6 19 2b 83
       -4.3211713e-37 6.613992e-37 -6.99582e-37 -5.028197e-37
000070 d9 10 55 03 00 c8 82 03 30 9a b2 82 d4 7a 67 03
       6.2614414e-37 7.686631e-37 -2.6243249e-37 6.80258e-37
000080 e8 18 84 83 71 29 57 03 cd 7b 3b 03 90 b9 c6 03
       -7.763981e-37 6.3230394e-37 5.5096477e-37 1.1679997e-36
000090 91 0c aa 3d c1 de 3a 3e 96 8b 70 bd db 02 df ba
       0.08303178 0.18249036 -0.05872687 -0.0017014401
0000a0 fd a4 bb 3c 23 8a f7 3c 77 36 ad 3d df fc 3b 3e
       0.022905821 0.030217236 0.08457654 0.18358181
0000b0 2b e7 51 bd 06 0f 6e bc 5b 46 4c bc 09 39 3f 3d
       -0.05124585 -0.014529949 -0.012467946 0.046685252
0000c0 1c 23 ac 3d 8a 50 3b 3e d9 79 5d bd 9f c3 7f 3c
       0.08405134 0.18292442 -0.05407128 0.015610605
0000d0 80 87 6d 3c 2c 30 46 3d 73 84 0d 3d 29 e5 89 bd
       0.014497638 0.048385784 0.03455014 -0.06733162
0000e0 83 0f b9 bd d0 33 73 bc ff f3 0c 3d 59 9e 34 3d
       -0.09036162 -0.014843896 0.03441238 0.044096325
0000f0 4f 5f 04 3d 91 03 94 bd 08 71 b6 bd 04 73 b0 3b
       0.032317456 -0.07227243 -0.08908278 0.0053848047
000100 2d 9d 36 bc a3 19 20 bd 92 51 f2 3c 9e 7b 93 bd
       -0.011145872 -0.03908695 0.029579911 -0.072013125
000110 8e 3f b4 bd 0a 19 28 bc c9 99 f1 3c e7 18 8b bd
       -0.088011846 -0.010259876 0.029492276 -0.06791859
000120 24 77 eb 80 43 25 73 03 e2 85 46 83 bb fe 12 83
       -2.1624081e-38 7.1454056e-37 -5.834066e-37 -4.319796e-37
000130 40 e0 33 83 74 11 2f 03 aa 21 15 82 73 d8 7d 03
       -5.28608e-37 5.1447913e-37 -1.0956452e-37 7.459849e-37
000140 af 6e b6 83 c6 65 ca 02 c7 8c 63 03 0c 09 83 83
       -1.072241e-36 2.9739647e-37 6.687091e-37 -7.701565e-37
000150 91 22 9b 02 61 d1 e2 82 46 bf 51 83 40 9a 29 83
       2.2795043e-37 -3.3327893e-37 -6.163915e-37 -4.9841707e-37
000160 28 4b 60 83 ee ba f4 02 f0 35 3a bc 1d 0b 40 3c
       -6.591396e-37 3.595987e-37 -0.011365399 0.0117214
000170 db 42 e6 3a 75 49 00 bd 66 e2 f1 bc 4f 46 70 be
       0.0017567532 -0.031320054 -0.0295269 -0.2346432
000180 c4 0f 29 bc d1 1a 4b 3c 18 0f c9 39 6a 92 b9 bb
       -0.0103187 0.01239653 0.00038348953 -0.005663206
000190 61 d9 e8 bc 1d 26 14 be 51 4a 00 bc 3b 73 8e 3c
       -0.028423967 -0.14467664 -0.007830218 0.01738893
0001a0 af 31 11 bb 58 8c 4d 3d b1 7a 9a bd fa 99 36 be
       -0.0022154858 0.05018267 -0.07542933 -0.17832175
0001b0 74 f2 bf 3d a1 6f 82 be e3 fd b4 3d 6d ce 43 3c
       0.09372416 -0.2547579 0.088374875 0.011951071
0001c0 6e 40 33 3b dc e5 d9 bc 55 37 bc 3d ab 89 82 be
       0.0027351636 -0.026598863 0.09190241 -0.25495657
0001d0 f4 19 b2 3d 07 d2 05 3c 88 4c 6b 3b 6d d3 43 bc
       0.086963564 0.00816775 0.003590377 -0.011952263
0001e0 3b a8 b8 3d 07 c3 83 be 06 de b2 3d b2 ce 9a bc
       0.090164624 -0.25734732 0.08733754 -0.018897388
0001f0 93 c0 23 3c 12 f2 23 bb 08 5f 50 3c b5 ef de bb
       0.009994644 -0.0025016111 0.01271797 -0.0068034776
000200 fa d3 97 3c 7c 3e 2d 3d a6 28 cb 3b 7d e7 cc be
       0.018533695 0.042295918 0.006199914 -0.40020362
000210 80 a7 f4 3a 15 35 83 bb 20 0a ab 3c 90 40 23 bc
       0.0018665642 -0.0040041306 0.020878851 -0.009964123
000220 8d 0c 87 bb 31 5e 46 bc 84 97 ea ba 99 09 ad bc
       -0.004121369 -0.012107418 -0.0017897938 -0.02112274
000230 be 85 de 3c 08 22 52 bd 32 ae 4e 3b e9 3c c8 3e
       0.027163383 -0.051301986 0.0031536934 0.3910897
000240 6d 67 ea 81 72 89 0e 01 26 34 a3 03 b4 c7 e4 82
       -8.6106433e-38 2.6179893e-38 9.592252e-37 -3.3616213e-37
000250 3e da f7 02 18 1f 76 82 cc fd 12 03 76 78 97 82
       3.6418653e-37 -1.8082149e-37 4.319689e-37 -2.2256597e-37
000260 46 42 be 03 c2 d0 b7 02 fd 57 fb 82 69 74 8d 83
       1.1182412e-36 2.7009254e-37 -3.6931638e-37 -8.313962e-37
000270 a7 7f c1 01 3a ab 1d 83 c4 09 65 83 7a 1a fb 82
       7.1080175e-38 -4.633471e-37 -6.730826e-37 -3.6896332e-37
000280 fa 7c ec 02 0f 9b 68 03 96 0d 92 3e 99 13 98 3d
       3.4748816e-37 6.835667e-37 0.2852599 0.07425613
000290 3b 5b c4 bc f0 cb ba 3b 47 05 7a 3b 60 3b 8b 3a
       -0.023969283 0.005700581 0.0038150118 0.0010622554
0002a0 b1 da 91 3e 5b d5 9c 3d 7c 1f 75 bc 90 99 63 ba
       0.2848716 0.07657882 -0.01496112 -0.00086822454
0002b0 96 b6 49 3b e7 13 ec 3b 0c 9c 93 3e ac 06 9c 3d
       0.0030778996 0.007204521 0.28829992 0.0761846
0002c0 be 74 a5 bc 57 0a 47 3c b4 c0 15 ba 01 22 0e 3d
       -0.020197269 0.012148461 -0.0005712614 0.034700397
0002d0 b3 78 35 bc 30 78 29 3c 53 f9 e3 bc 59 e5 d9 bd
       -0.01107614 0.010343596 -0.027828848 -0.10639448
0002e0 1a 9d b2 3d f9 2e ef bc 76 20 a4 bc 09 90 67 3b
       0.08721371 -0.029197203 -0.02003501 0.0035333654
0002f0 c2 dc c8 bc 72 01 23 3e 56 e5 67 be d6 fc e9 3a
       -0.024519328 0.1591852 -0.22646078 0.001785184
000300 18 7a 5d bc 7c 0d 0b 3c 92 de ce bc 57 2a ae bd
       -0.013517879 0.008487102 -0.025252614 -0.085041694
000310 60 96 09 3e d6 ee 0d bd 48 58 c2 bc 66 60 9a 3c
       0.1343627 -0.0346516 -0.023723736 0.018844794
000320 9d bd b9 bb 2c 3d c9 bb a6 ec fb bd 67 85 85 3d
       -0.0056683556 -0.0061413255 -0.123009965 0.06519585
000330 af cd bf bc 12 33 92 3c 35 13 db bb 59 16 44 bc
       -0.023413507 0.017846618 -0.0066856393 -0.011968219
000340 1a a6 d6 bc da fd 69 3d 31 25 a1 bc d3 f6 94 3c
       -0.02620225 0.057126857 -0.019671055 0.018184101
000350 98 2f 17 bc 95 55 cc 3c df c5 de bd 87 b4 00 3e
       -0.009227656 0.024943152 -0.10877585 0.12568866
000360 eb 3f 84 bc 69 66 3d 3b 38 f6 c2 bc 9f a6 e8 3c
       -0.01614376 0.0028900153 -0.023799047 0.028399764
000370 30 90 64 3e 94 5b 09 bd 54 0e 9c bc 08 0a a5 3b
       0.22320628 -0.0335346 -0.019049801 0.005036596
000380 e3 72 69 bc 1b 4b 89 3c 3d b1 cf 3b 7b 9a cb 3c
       -0.014248583 0.016759446 0.006338267 0.024853935
000390 37 09 6d bc df 1e dc 3b f7 f9 a7 bc 86 f2 58 bd
       -0.014467529 0.0067175473 -0.020504935 -0.052965663
0003a0 10 01 57 be 5e a2 8a 3c 64 08 a1 bc 78 99 91 3c
       -0.20996499 0.016923126 -0.019657321 0.017773375
0003b0 4b 27 58 3a 35 dc ab bd a0 8e 1a bd ec 37 39 be
       0.0008245601 -0.083916105 -0.037733674 -0.18087739
0003c0 a5 74 a1 bc 18 9b 9f 3c f7 f3 95 3a 64 34 ac bc
       -0.01970894 0.019483134 0.0011440505 -0.021021076
0003d0 8a dd 6a bc ab bf 09 bd 6b b5 87 bc 8c 0a 9d 3c
       -0.014335046 -0.033630054 -0.016565999 0.019170068
0003e0 8e be e0 ba aa 39 1d be 51 cc f3 bc 6a 6e b5 bd
       -0.0017146633 -0.15354028 -0.029760512 -0.088589504
0003f0 71 11 4e 3d d2 ef af bb e0 46 b2 bc 6c bd 44 3d
       0.050309602 -0.005369165 -0.021762311 0.04803221

sequential_1/conv1d_6/Conv1D f4 [64, 1, 3, 64]
000000 86 de c9 02 bf 4e 4d 03 75 79 1e 3d 3b 29 1a bd
       2.9662018e-37 6.033448e-37 0.03869005 -0.037636977
000010 08 40 8a 83 a4 89 de bd 11 c5 76 bc be 29 2f 3c
       -8.125612e-37 -0.108660966 -0.015061633 0.010691104
000020 04 f6 43 03 e7 38 26 3d 71 c5 ed bc d0 54 60 bd
       5.758776e-37 0.04058161 -0.029024811 -0.054768384
000030 3a 1a 2a 3d ee 2f af bd 28 e0 99 3d 54 3e cc 02
       0.041528918 -0.08554064 0.075134575 3.001088e-37
000040 78 55 e0 81 90 0c 68 3d a4 f9 09 bd 28 c5 02 03
       -8.2407246e-38 0.056652606 -0.03368534 3.842989e-37
000050 af d0 9c bb 04 7d d2 bb 4f d3 50 bc 87 50 bb bd
       -0.004785619 -0.0064235944 -0.012745692 -0.09146219
000060 49 d5 78 bd dd b4 ba bd 9c f5 36 3d d6 e7 3b 3d
       -0.06075028 -0.09116528 0.044667825 0.045875393
000070 b2 2b 08 83 8e a5 9a bc e0 51 11 03 26 a2 c6 83
       -4.0016968e-37 -0.01887777 4.270566e-37 -1.16746215e-36
000080 d6 14 ba 03 82 c4 8d bd 32 78 ab bd 54 20 50 3d
       1.0936881e-36 -0.069222465 -0.08372535 0.05081208
000090 34 32 91 02 33 50 6a bb 4a 12 c2 83 ea f4 2a 82
       2.133465e-37 -0.003575337 -1.1406494e-36 -1.2559914e-37
0000a0 da 23 91 bd bd 96 21 03 50 e2 7d 83 6f 31 a7 bd
       -0.07086916 4.7486687e-37 -7.460981e-37 -0.081637256
0000b0 fd de 45 bc 11 42 3f 03 8a 25 f2 3c 2a e7 51 83
       -0.01207709 5.6205696e-37 0.029558916 -6.1684943e-37
0000c0 05 50 30 3c e6 c8 0d bd e7 f5 1d 03 a9 a0 c2 bd
       0.010761266 -0.03461542 4.6420435e-37 -0.095033
0000d0 7f 4a 97 3d 6a 18 13 3d 13 23 a4 bd e7 3f 81 bc
       0.07387256 0.035911955 -0.080145024 -0.015777541
0000e0 d0 ed 0e 3a 41 22 2f 83 18 93 24 03 9b 79 88 3d
       0.0005452307 -5.14672e-37 4.8364124e-37 0.066638194
0000f0 a4 5b a9 bc ff 04 b3 83 08 08 7f bd 9c 4f 62 3c
       -0.02067358 -1.05218215e-36 -0.06226352 0.013812926
000100 91 3a 9b 03 f8 de 50 83 5f 25 22 3d 20 71 f1 bc
       9.123527e-37 -6.138166e-37 0.03958642 -0.029472888
000110 72 b4 5a 83 c5 56 97 bd a4 e0 ea bc e6 49 2e 3d
       -6.4271583e-37 -0.07389597 -0.02867157 0.042550944
000120 f2 ee 83 03 cc 54 2c 3d 7e 5f f7 3c 5f 19 48 bd
       7.754347e-37 0.042073056 0.030196901 -0.04885232
000130 03 90 1e 3d 32 10 21 bd 23 d6 55 3d 1c e8 c0 02
       0.03871156 -0.039322086 0.05220617 2.8345089e-37
000140 15 70 50 83 48 75 20 3d 16 22 53 bd 9f 77 a6 03
       -6.125437e-37 0.039174348 -0.05154618 9.784067e-37
000150 96 74 ad 3b 7d 34 cf bb b7 09 2c bd e0 8f e6 bd
       0.005293439 -0.0063233958 -0.042001452 -0.11257911
000160 89 23 7a bc 11 f0 c8 bc 49 f6 90 3c 07 8d 33 3d
       -0.015267261 -0.024528535 0.017695563 0.043835666
000170 b8 ad 88 02 6b 76 e4 bc b6 43 10 83 e6 2d 14 03
       2.0083114e-37 -0.027888497 -4.2395525e-37 4.354598e-37
000180 3a ab 6c 03 62 f7 9b 3c a2 a8 6f bd af c1 9c 3c
       6.9550725e-37 0.01903886 -0.05851043 0.019135324
000190 20 7a 3f 03 82 62 b7 3c 7d 68 5a 83 20 7f 36 03
       5.627005e-37 0.02238584 -6.418439e-37 5.3630925e-37
0001a0 3d 66 47 bd 48 b2 35 83 7a 35 16 03 ec 62 50 bd
       -0.048681486 -5.3395776e-37 4.4142426e-37 -0.05087559
0001b0 2b 5a bd bc 40 31 9e 83 6b b4 8d bc 4e 39 c6 82
       -0.023114285 -9.297713e-37 -0.017297944 -2.9126376e-37
0001c0 35 28 2b 3c ff 94 80 bc 10 51 3a 03 5b 18 f7 bd
       0.010446598 -0.015696047 5.4753542e-37 -0.12065192
0001d0 6e 40 5a bd 80 45 f4 3c 09 c6 c6 39 de 40 1d bc
       -0.0532841 0.029818296 0.0003791305 -0.009597985
0001e0 20 0b 7a 3c e2 af 57 83 80 8e 09 03 b1 ca 94 3c
       0.0152614415 -6.3384725e-37 4.0424263e-37 0.018163057
0001f0 58 60 be 3a 26 32 32 03 56 d9 4b bd 73 82 6c 3c
       0.0014524562 5.2367066e-37 -0.049767815 0.014435398
000200 97 5f 71 83 16 1f 51 83 6b 82 14 3d fc f3 66 bd
       -7.0933266e-37 -6.1455265e-37 0.03625719 -0.056385025
000210 4d d1 5e 83 94 a5 e5 bd d0 31 04 bd 49 b1 61 3c
       -6.54802e-37 -0.11213222 -0.032274067 0.013775178
000220 48 cb 70 83 f6 43 71 3d f8 e7 9b 3b 6b 56 74 bd
       -7.0763016e-37 0.058902703 0.0047578774 -0.059652727
000230 f4 e0 fe 3c ce 2e 04 be 9a 25 2c 3d 4d 56 27 02
       0.031113125 -0.1290848 0.042028047 1.2293989e-37
000240 74 52 a6 81 b3 8f bf 3d 79 2e 06 bd 8c 6a bf 81
       -6.1097084e-38 0.0935358 -0.032759164 -7.0315206e-38
000250 dc a2 eb 3b be 01 d9 bb b4 c1 05 bd 22 72 d7 bd
       0.007191045 -0.006622522 -0.032655433 -0.10519816
000260 38 00 89 bd 78 10 99 bd c7 51 3e 3c b8 c7 2e 3d
       -0.06689495 -0.07473844 0.011616177 0.042670935
000270 f0 d0 16 82 59 df 95 bc f0 3d 36 02 6c 89 9c 80
       -1.1080222e-37 -0.018294977 1.3389023e-37 -1.4375635e-38
000280 66 00 5c 03 c0 7a 6e 3d a5 e0 36 bd 25 fd cb 3b
       6.4652647e-37 0.058222532 -0.04464783 0.0062252455
000290 38 be 9b 82 47 cf b5 3b 0a 3b 28 03 f3 99 62 83
       -2.2884383e-37 0.005548391 4.9438536e-37 -6.6592156e-37
0002a0 63 9e e0 bd 7b 48 26 83 8c 50 e9 02 8d 7c 8a bd
       -0.1096771 -4.886622e-37 3.4282505e-37 -0.067620374
0002b0 34 8e 96 bc 0c 7b 6a 03 be 66 6a 3c 79 a5 06 00
       -0.018378355 6.890767e-37 0.014306722 6.10373e-40
0002c0 f0 e9 66 3b b5 fd 52 39 c6 e9 66 83 c6 85 8b bd
       0.0035234652 0.00020121674 -6.7859284e-37 -0.06812625
0002d0 79 c5 13 be 1e 9e 40 3d 1f 61 b7 3d 58 5e 7f bd
       -0.14430799 0.047025792 0.08954071 -0.062345833
0002e0 79 14 0b 3c 9e cc 14 83 b4 20 b2 82 91 eb af 3c
       0.008488768 -4.372818e-37 -2.617352e-37 0.021474632
0002f0 54 ec 82 bc 77 eb 39 83 82 1f 7c bd fe 9c 51 3c
       -0.01598183 -5.4636914e-37 -0.061553486 0.0127937775
000300 1c 09 1a 83 0c 16 ad 83 08 9b 01 83 90 82 03 01
       -4.526699e-37 -1.0173088e-36 -3.808766e-37 2.4154574e-38
000310 dc 27 bc 02 73 ed 95 03 3d 13 6e 03 ae 22 5c 02
       2.7646995e-37 8.811949e-37 6.9964e-37 1.6173e-37
000320 69 e3 8a 03 1d 02 07 00 3c d8 08 03 46 b9 b1 00
       8.163122e-37 6.43607e-40 4.0215033e-37 1.6321346e-38
000330 ed 8e 32 83 ec 7f 01 83 c0 a3 9c 82 f9 63 07 03
       -5.247357e-37 -3.805654e-37 -2.3016128e-37 3.9787697e-37
000340 c0 eb c7 02 a8 f3 be 02 86 68 37 83 0e e3 c9 02
       2.9375736e-37 2.8057843e-37 -5.3898854e-37 2.9664619e-37
000350 3e ce 75 03 aa cc ac 82 26 68 60 83 1d 4c 2c 83
       7.2235783e-37 -2.53906e-37 -6.594724e-37 -5.063363e-37
000360 1e 58 e6 82 a5 98 25 83 19 d8 c4 83 c2 d4 a0 83
       -3.384604e-37 -4.866437e-37 -1.1569458e-36 -9.452802e-37
000370 5e 20 34 03 60 80 7d 03 e0 03 b5 03 ee e0 ab 83
       5.29344e-37 7.4497385e-37 1.06391135e-36 -1.0102118e-36
000380 b2 99 a0 83 dc 10 1c 83 19 ae 4d 82 3b dd f4 82
       -9.4392415e-37 -4.5863633e-37 -1.5110985e-37 -3.5979558e-37
000390 e9 92 3a 83 2b e6 22 83 e8 de b9 82 9f ae a2 02
       -5.482913e-37 -4.787174e-37 -2.7311249e-37 2.3903988e-37
0003a0 b0 e0 a3 82 a9 2d 37 01 32 95 38 83 fa 42 62 03
       -2.4079662e-37 3.364455e-38 -5.424401e-37 6.6492316e-37
0003b0 ee 7d c3 01 63 a5 55 82 93 82 ad 83 18 73 82 03
       7.181239e-38 -1.5696232e-37 -1.01980045e-36 7.6671375e-37
0003c0 be 72 e9 02 a4 ed 94 83 ec 10 89 81 ef 04 81 03
       3.4302132e-37 -8.753218e-37 -5.0350134e-38 7.583071e-37
0003d0 9f f0 6f 03 43 f9 c5 83 84 6a 30 01 e5 9a b6 03
       7.0512007e-37 -1.1635847e-36 3.2402516e-38 1.0732561e-36
0003e0 7e 5e ae 83 9e 13 35 83 94 e8 b7 82 6f 86 a6 83
       -1.0248495e-36 -5.321364e-37 -2.7022927e-37 -9.7874676e-37
0003f0 d1 10 87 03 2f c2 f9 02 a3 05 6c 03 b7 d1 14 03
       7.938448e-37 3.6698718e-37 6.9360637e-37 4.373403e-37

sequential_1/conv1d_7/Conv1D f4 [64, 1, 3, 64]
000000 a9 5a 3d 03 a4 1f 2d 03 84 36 1a 83 6d ed 41 03
       5.564618e-37 5.0876452e-37 -4.5319113e-37 5.6990154e-37
000010 67 2b 66 83 be fc 2b 01 38 98 26 83 0a 05 c5 82
       -6.764075e-37 3.1589073e-38 -4.8957754e-37 -2.894944e-37
000020 a6 b6 0e 83 4b 2d a2 83 98 bc d4 02 60 ed 13 03
       -4.193972e-37 -9.531903e-37 3.1258848e-37 4.347191e-37
000030 c9 0a 03 02 00 a1 e0 02 bd 6a a9 83 21 c2 14 83
       9.627455e-38 3.3006251e-37 -9.957433e-37 -4.371614e-37
000040 6b 46 07 03 07 14 e2 02 6b ad 00 02 12 66 c3 03
       3.975377e-37 3.321921e-37 9.453723e-38 1.1484504e-36
000050 76 5d 05 03 8d da c6 02 32 25 8f 80 16 34 19 03
       3.9192475e-37 2.9218927e-37 -1.3145819e-38 4.502245e-37
000060 7a c5 12 82 ba db 84 82 f2 90 c0 03 10 da 42 83
       -1.0783059e-37 -1.9521774e-37 1.1318024e-36 -5.72618e-37
000070 f6 0a f7 02 84 f7 0f 83 d8 7a 9d 83 cb 7c 6b 00
       3.629968e-37 -4.2308057e-37 -9.255834e-37 9.871165e-39
000080 7d 1c 9f 03 2f 05 c3 03 06 6d d0 82 b6 a0 99 82
       9.351721e-37 1.146226e-36 -3.062543e-37 -2.2573573e-37
000090 4f 5e 0f 02 f2 7b 5b 82 44 9d 9c 83 ea 7f 73 83
       1.0533046e-37 -1.612515e-37 -9.204962e-37 -7.155812e-37
0000a0 7d c1 3e 82 5b 18 f3 81 40 e8 9a 83 1a ff 43 83
       -1.4014524e-37 -8.929905e-38 -9.1046285e-37 -5.759819e-37
0000b0 e4 b1 1f 83 0b 5a 3c 03 48 0b dd 82 da b2 d0 02
       -4.693011e-37 5.53516e-37 -3.2479507e-37 3.066551e-37
0000c0 2d 58 45 03 fa bf d3 02 aa 22 04 82 36 78 9a 02
       5.7994318e-37 3.1113853e-37 -9.707776e-38 2.2697264e-37
0000d0 ac 40 55 81 58 f7 2e 83 60 f7 b6 02 b2 47 66 03
       -3.916832e-38 -5.141794e-37 2.6884483e-37 6.7673227e-37
0000e0 8c a8 07 83 59 31 86 83 1e 49 e0 02 5d 98 89 03
       -3.9866417e-37 -7.887142e-37 3.295581e-37 8.087117e-37
0000f0 30 54 3b 03 9d 06 90 02 6c d5 e5 02 4a 91 6c 83
       5.5051003e-37 2.1162694e-37 3.3771024e-37 -6.952095e-37
000100 ac 99 7e 03 06 a9 a1 02 fe 6c 90 83 a6 d5 5c 03
       7.48203e-37 2.3753839e-37 -8.488583e-37 6.4897446e-37
000110 78 48 6c 83 b4 67 c9 02 a8 45 ac 82 77 9a cc 82
       -6.9437357e-37 2.9593818e-37 -2.531311e-37 -3.0063764e-37
000120 97 b3 04 83 a2 0c bb 83 fd 67 de 02 71 a3 0c 03
       -3.8997473e-37 -1.09937725e-36 3.2679655e-37 4.1329924e-37
000130 14 ea d1 01 cd 9d a1 02 fa a2 61 83 ad 15 ee 80
       7.711036e-38 2.3747397e-37 -6.6308645e-37 -2.1864624e-38
000140 e7 47 9e 83 96 06 60 83 b1 c4 de 01 49 0c 95 03
       -9.302913e-37 -6.5835244e-37 8.183216e-38 8.760253e-37
000150 16 40 32 03 97 f9 37 83 18 27 07 03 53 a9 fb 02
       5.2383066e-37 -5.406538e-37 3.971781e-37 3.6978323e-37
000160 b9 ac 9a 83 27 37 bd 82 dd 2f 72 03 77 c5 39 83
       -9.090962e-37 -2.780271e-37 7.1172353e-37 -5.4593292e-37
000170 da 71 87 02 a6 79 13 83 30 4d 40 02 54 ea c0 82
       1.9901815e-37 -4.3339063e-37 1.4128084e-37 -2.8346362e-37
000180 14 12 8b 03 f0 46 3e 03 7d 3c ef 02 f0 d6 22 83
       8.173836e-37 5.5917414e-37 3.5152612e-37 -4.7854257e-37
000190 16 22 95 82 96 2d d5 82 8d 47 2a 83 ac a8 79 83
       -2.1913147e-37 -3.1323702e-37 -5.0040646e-37 -7.336815e-37
0001a0 15 e7 22 01 22 aa 78 03 14 7d ce 01 34 b2 34 83
       2.9920494e-38 7.3075953e-37 7.5851927e-38 -5.3101813e-37
0001b0 a6 2b 2d 83 86 e8 20 03 9a 9a 7c 82 0a dd 90 03
       -5.0890237e-37 4.72867e-37 -1.8558404e-37 8.514307e-37
0001c0 5d ac 4e 03 96 9f b1 02 dc ae 60 82 6b 31 04 03
       6.0735822e-37 2.609941e-37 -1.6507103e-37 3.8848043e-37
0001d0 2e d8 95 82 4e 07 11 82 fb 92 99 83 84 d0 0f 03
       -2.2017663e-37 -1.0655014e-37 -9.026277e-37 4.2263287e-37
0001e0 9f 6a 4a 83 1c 1b 8a 83 ee 98 f7 02 9a ce 7c 03
       -5.948486e-37 -8.117135e-37 3.6381165e-37 7.429331e-37
0001f0 59 db 13 02 fa 1b f7 01 db 1b 5f 03 70 20 70 83
       1.0862804e-37 9.0773615e-38 6.5565787e-37 -7.0566897e-37
000200 89 97 ba 02 2a 59 a9 02 61 c0 5e 03 10 66 49 03
       2.741722e-37 2.4883496e-37 6.5460777e-37 5.9185753e-37
000210 2b 41 6f 83 55 fa b8 82 82 bc a4 03 1b a0 39 83
       -7.0310597e-37 -2.7180054e-37 9.682333e-37 -5.4550406e-37
000220 70 8d 0b 83 4b 43 8a 83 74 42 e9 02 4a 7c a6 02
       -4.101079e-37 -8.126361e-37 3.4274415e-37 2.4462846e-37
000230 7a b9 1d 02 ca 03 fc 82 d0 41 78 83 bd d3 d2 82
       1.1587767e-37 -3.7030247e-37 -7.29562e-37 -3.0978259e-37
000240 90 16 41 83 33 8a 4b 83 6d 91 5e 83 1c fc ba 03
       -5.6743503e-37 -5.9814983e-37 -6.5406877e-37 1.0989979e-36
000250 83 f0 0b 03 e4 32 14 83 18 f3 3e 83 00 b1 d6 02
       4.1124523e-37 -4.355171e-37 -5.611504e-37 3.1546067e-37
000260 51 f8 be 03 c2 ac 42 83 95 eb 3d 03 35 f2 38 83
       1.1224207e-36 -5.7209792e-37 5.5812543e-37 -5.435078e-37
000270 36 3e 45 83 8c 87 17 83 ef 61 b6 03 bc 6c d9 81
       -5.796451e-37 -4.453051e-37 1.0719483e-36 -7.9869237e-38
000280 32 70 3d 03 35 b7 36 83 e0 8a 7b 82 55 35 99 82
       5.56709e-37 -5.3695304e-37 -1.8480423e-37 -2.251194e-37
000290 7e 6a da 01 c3 97 0b 83 3e ce e5 82 7a 16 ca 00
       8.023336e-38 -4.1022643e-37 -3.3766903e-37 1.8558833e-38
0002a0 92 ef e4 01 a8 20 98 03 9b 67 39 03 27 1a 1b 83
       8.409774e-38 8.941255e-37 5.4485547e-37 -4.5580428e-37
0002b0 96 50 1d 83 61 ab 38 03 27 0c 10 82 42 48 4e 03
       -4.623066e-37 5.4269473e-37 -1.0582937e-37 6.0620907e-37
0002c0 65 38 28 03 ba c8 f2 02 ae 88 aa 01 11 c2 0d 83
       4.94355e-37 3.5673916e-37 6.2644263e-38 -4.1658953e-37
0002d0 b9 eb 4a 82 84 67 e0 82 a0 f1 29 83 60 95 8b 03
       -1.4908265e-37 -3.2973257e-37 -4.994201e-37 8.203981e-37
0002e0 42 28 87 81 a0 04 a6 83 43 c4 6d 83 4b 51 7f 03
       -4.9648935e-38 -9.757665e-37 -6.9873338e-37 7.5031085e-37
0002f0 e4 4e 8a 03 2a aa ad 82 4c 6e ec 82 18 60 5c 83
       8.129023e-37 -2.5517735e-37 -3.474039e-37 -6.47625e-37
000300 73 6f 8c 82 cf b4 2f 03 4a 81 20 83 dc a6 12 82
       -2.063512e-37 5.1635436e-37 -4.716819e-37 -1.0774272e-37
000310 09 a0 8f 03 51 08 2f 03 df e3 8f 03 d3 42 ac 01
       8.441527e-37 5.1437425e-37 8.457101e-37 6.327871e-38
000320 10 64 9d 83 c8 72 e1 02 57 eb 5f 03 35 32 9a 82
       -9.250604e-37 3.312666e-37 6.5803967e-37 -2.2657084e-37
000330 56 2b 1c 83 8a 2a 46 83 16 80 47 02 4d f9 97 82
       -4.5894027e-37 -5.8235803e-37 1.465697e-37 -2.2330548e-37
000340 d4 39 9b 03 97 4b a8 03 53 f3 0c 82 66 09 0b 83
       9.123358e-37 9.891507e-37 -1.0355406e-37 -4.0859218e-37
000350 c2 d4 52 03 0b a0 77 81 1d 0d 23 03 07 2b 9e 03
       6.1957687e-37 -4.548156e-38 4.791645e-37 9.296284e-37
000360 70 fc 72 03 67 43 a5 02 eb 6b 67 03 01 a1 ba 83
       7.1407192e-37 2.4283258e-37 6.8008683e-37 -1.0969062e-36
000370 b0 9b ca 82 e2 2f 9e 83 cc bf 03 03 2a 23 8e 03
       -2.9770593e-37 -9.297399e-37 3.871761e-37 8.354083e-37
000380 20 7c 93 83 f8 e4 0a 83 0a 71 18 83 49 f5 a7 02
       -8.668381e-37 -4.08174e-37 -4.479855e-37 2.4679231e-37
000390 5a de a4 02 76 e1 49 02 9b 6b 12 83 a0 19 03 00
       2.4225258e-37 1.4831852e-37 -4.302907e-37 2.84699e-40
0003a0 2b a9 12 83 06 03 5c 03 16 d0 89 03 36 32 d0 82
       -4.309974e-37 6.465566e-37 8.0999105e-37 -3.0591673e-37
0003b0 64 74 41 03 d2 08 3b 83 71 86 2e 03 e6 5c 3c 83
       5.6851212e-37 -5.4964486e-37 5.1288335e-37 -5.5354877e-37
0003c0 95 83 91 83 df aa f1 02 e7 16 b6 83 51 24 b3 83
       -8.552544e-37 3.5509843e-37 -1.0702257e-36 -1.0529012e-36
0003d0 9b a8 44 03 62 d6 29 83 c4 48 c0 02 5d ba 25 03
       5.7792773e-37 -4.9910736e-37 2.825363e-37 4.8703077e-37
0003e0 bc c7 dc 02 25 d6 29 83 d8 b9 c1 03 c9 e3 be 83
       3.2440737e-37 -4.991046e-37 1.1386188e-36 -1.1219493e-36
0003f0 b5 bb 40 83 81 7e 0d 03 01 f6 a5 83 88 71 40 03
       -5.6639206e-37 4.1581395e-37 -9.754308e-37 5.6554056e-37

sequential_1/conv1d_8/Conv1D f4 [64, 1, 3, 64]
000000 20 4f 09 03 4d 03 35 83 ea 07 b1 03 c2 44 10 83
       4.0351513e-37 -5.319491e-37 1.0404942e-36 -4.2396727e-37
000010 7f ae bd 03 44 96 97 83 61 a1 9b 03 e8 6a 48 02
       1.1148484e-36 -8.909482e-37 9.147132e-37 1.472436e-37
000020 50 de 40 83 92 94 79 83 d3 11 c9 02 93 db 94 83
       -5.667893e-37 -7.3345074e-37 2.9544526e-37 -8.74907e-37
000030 11 53 92 83 2a 03 20 83 16 ab 98 01 5f 0b 00 83
       -8.60018e-37 -4.7023406e-37 5.608148e-38 -3.7628873e-37
000040 78 2e b8 02 1e 7f 67 83 0d ea ea 02 65 0e 8a 82
       2.7063042e-37 -6.803072e-37 3.4517548e-37 -2.028554e-37
000050 a8 e8 18 03 68 f7 24 82 ee 76 2d 83 79 5c af 02
       4.493586e-37 -1.2119819e-37 -5.0976655e-37 2.5767016e-37
000060 e3 a7 7c 83 64 4b b9 03 0d 52 60 82 49 ef 0c 03
       -7.424887e-37 1.0890632e-36 -1.6480468e-37 4.141699e-37
000070 e7 41 b1 03 32 91 83 00 92 fc 7f 03 de 48 17 83
       1.0418255e-36 1.2082536e-38 7.52277e-37 -4.445856e-37
000080 cc d7 7b 02 1d 07 96 03 e9 72 6f 83 53 66 80 83
       1.8502498e-37 8.817841e-37 -7.03677e-37 -7.546656e-37
000090 af 28 b8 82 10 81 20 03 3c da bd 83 e8 85 c7 02
       -2.7059721e-37 4.716793e-37 -1.1158526e-36 2.931728e-37
0000a0 a7 78 0f 03 97 c7 c3 02 16 c4 0e 02 37 d6 78 83
       4.2162425e-37 2.8767234e-37 1.0488786e-37 -7.3126556e-37
0000b0 29 b5 28 83 44 9e 74 83 87 2b 7d 83 d3 78 62 83
       -4.9578724e-37 -7.1886835e-37 -7.4399985e-37 -6.655413e-37
0000c0 f3 c9 35 02 6d f3 54 03 83 47 9d 83 cf 8e fd 02
       1.3355736e-37 6.258064e-37 -9.244049e-37 3.7256977e-37
0000d0 9b a2 18 81 ff 42 5a 03 ea 87 0f 02 fe bd 0d 83
       -2.8034655e-38 6.414135e-37 1.0544986e-37 -4.1654276e-37
0000e0 ea d1 8e 03 1a a8 5b 83 74 4a b2 83 d4 f7 09 83
       8.394204e-37 -6.4551287e-37 -1.0478993e-36 -4.0545174e-37
0000f0 21 21 90 83 9b 9a 11 83 1c 08 a8 80 e2 2f 80 83
       -8.471165e-37 -4.278915e-37 -1.5431272e-38 -7.534157e-37
000100 fb c9 63 02 4c d3 40 03 48 d7 fb 01 4b 39 bf 03
       1.6735292e-37 5.6666286e-37 9.251175e-38 1.1239125e-36
000110 96 ad 27 02 8a 4e a0 83 9b 18 81 03 e6 de 85 03
       1.2319039e-37 -9.4219865e-37 7.587588e-37 7.868212e-37
000120 e2 df c6 02 1f ea 05 03 06 7f bf 02 18 9a c7 83
       2.9221988e-37 3.9353945e-37 2.8137836e-37 -1.1731547e-36
000130 eb ca 8f 83 5b 37 8b 83 07 0f 25 83 c3 9b 48 03
       -8.451372e-37 -8.182395e-37 -4.8506393e-37 5.8953523e-37
000140 3a 51 ab 02 22 dc 45 82 a1 61 50 03 53 bb a3 03
       2.5172814e-37 -1.4536449e-37 6.123778e-37 9.6232865e-37
000150 3e 7e 5a 03 84 02 84 82 b6 81 49 82 ba a2 8f 03
       6.420936e-37 -1.93971e-37 -1.4804373e-37 8.442145e-37
000160 43 2d 70 83 1a 71 64 83 c7 9e 19 83 1c ea 36 03
       -7.058162e-37 -6.713301e-37 -4.5144926e-37 5.3753737e-37
000170 08 bb a3 82 1e a7 b8 82 14 e5 b9 02 49 1c 1f 83
       -2.4058048e-37 -2.713229e-37 2.7314791e-37 -4.675837e-37
000180 8a 76 b5 02 ae 35 97 02 7c 27 c3 83 9a a6 bd 82
       2.6663598e-37 2.2218267e-37 -1.1470135e-36 -2.7866679e-37
000190 b2 6f 9b 83 bc b5 b1 83 39 c2 23 03 4c 0e 64 02
       -9.135725e-37 -1.0444849e-36 4.812435e-37 1.6754898e-37
0001a0 37 f4 88 83 dc 6f 6c 02 54 b2 93 82 59 32 75 83
       -8.049431e-37 1.7370644e-37 -2.1702064e-37 -7.2056825e-37
0001b0 f6 54 a5 03 f2 08 98 82 08 c3 69 83 c7 2d 9c 82
       9.7173345e-37 -2.2339527e-37 -6.869643e-37 -2.2948415e-37
0001c0 15 82 96 02 76 b6 80 83 1f 5f 92 83 34 4e 23 03
       2.2115183e-37 -7.565055e-37 -8.6029475e-37 4.7991168e-37
0001d0 3e f3 93 03 27 00 9f 03 7c ba da 82 42 25 43 01
       8.695729e-37 9.345215e-37 -3.2139258e-37 3.5842575e-38
0001e0 d8 2a 5b 03 00 d4 54 02 cc 3a bc 83 bf 88 f2 80
       6.44075e-37 1.5636141e-37 -1.1063146e-36 -2.2273245e-38
0001f0 c5 fe fe 82 9f 6f 40 83 84 54 95 02 9b 87 64 83
       -3.7468176e-37 -5.6551864e-37 2.1942092e-37 -6.7158845e-37
000200 b8 9c d3 81 02 86 9d 83 c4 a9 dc 00 78 e6 92 83
       -7.773404e-38 -9.258397e-37 2.026471e-38 -8.634022e-37
000210 a1 af 01 02 0a ac 86 83 6d a2 5b 03 d4 eb 26 83
       9.527826e-38 -7.91531e-37 6.454477e-37 -4.9053733e-37
000220 28 3f b8 02 f0 02 f3 01 57 65 2b 03 00 43 ac 83
       2.707262e-37 8.926832e-38 5.0368716e-37 -1.0124634e-36
000230 03 ed bf 83 86 bc 1c 83 04 41 81 03 5d df 98 03
       -1.1280386e-36 -4.6060694e-37 7.596865e-37 8.985039e-37
000240 80 97 6b 02 12 54 7b 03 5c 27 06 03 48 55 c6 82
       1.7308552e-37 7.385878e-37 3.9424243e-37 -2.9142434e-37
000250 46 de 39 03 2f 8f 2c 82 5e c1 40 03 92 03 bd 83
       5.462177e-37 -1.2677656e-37 5.6645703e-37 -1.1109241e-36
000260 12 8e bf 83 39 72 54 83 ef b3 93 02 81 81 41 03
       -1.1258589e-36 -6.243232e-37 2.1702986e-37 5.6866266e-37
000270 99 9a 16 03 70 db 89 03 a5 6d 49 83 7a 88 f9 02
       4.4258508e-37 8.102517e-37 -5.9194457e-37 3.6665595e-37
000280 88 a2 25 03 55 fa bd 83 83 96 93 83 ae 4a 19 03
       4.867572e-37 -1.1165895e-36 -8.674439e-37 4.5048387e-37
000290 bb 0d 6b 83 57 55 0a 80 61 e3 b6 83 10 36 1b 83
       -6.9076055e-37 -9.48969e-40 -1.0749202e-36 -4.5612467e-37
0002a0 9d 04 86 01 92 2f 2f 03 64 69 b4 81 75 d7 aa 03
       4.9230446e-38 5.1482486e-37 -6.6272785e-38 1.00411685e-36
0002b0 36 19 08 81 98 d9 89 02 25 52 3e 83 90 70 02 03
       -2.4997343e-38 2.0255233e-37 -5.593028e-37 3.833278e-37
0002c0 52 42 90 01 b6 b4 40 03 c1 2e 98 83 33 a6 bd 03
       5.299241e-38 5.6631175e-37 -8.944491e-37 1.1146579e-36
0002d0 5b fe 41 03 21 b6 9e 03 e1 c4 46 02 51 2e 06 03
       5.700959e-37 9.32822e-37 1.4603244e-37 3.943223e-37
0002e0 4c 72 23 03 f2 1f 10 83 c4 d9 7e 83 1b 97 0e 02
       4.80326e-37 -4.235447e-37 -7.4893874e-37 1.0475878e-37
0002f0 59 17 d8 02 02 36 be 83 be 94 51 83 a5 82 d3 02
       3.1751748e-37 -1.1179596e-36 -6.1590327e-37 3.107865e-37
000300 ee db bd 02 2b 1f 98 03 c2 35 6e 02 db b7 3d 03
       2.7897287e-37 8.940913e-37 1.7500906e-37 5.5753164e-37
000310 89 5d 50 82 28 ef c7 82 32 1c d4 02 b9 52 92 03
       -1.530827e-37 -2.937769e-37 3.1166784e-37 8.600101e-37
000320 7a b9 82 03 7c 0e 44 83 93 6f 58 03 2d a9 b9 82
       7.683297e-37 -5.761585e-37 6.3604776e-37 -2.728041e-37
000330 93 ca 5b 03 94 2c 8d 83 81 f1 88 81 89 a9 91 83
       6.459086e-37 -8.29747e-37 -5.030505e-38 -8.561257e-37
000340 64 a3 03 82 f7 06 b1 83 24 11 17 02 b6 a0 b4 83
       -9.671251e-38 -1.0404724e-36 1.1098647e-37 -1.0616347e-36
000350 8e d8 9c 83 9a 08 bb 02 47 cf a9 03 5e 4c de 02
       -9.2185745e-37 2.7482118e-37 9.980516e-37 3.26638e-37
000360 71 29 61 83 a0 f8 36 80 4f 94 64 03 22 a2 6e 83
       -6.616913e-37 -5.048307e-39 6.717343e-37 -7.0128033e-37
000370 c4 c3 5c 83 62 a7 5f 03 67 8f df 82 0a 51 06 83
       -6.4876917e-37 6.5725956e-37 -3.2849214e-37 -3.947209e-37
000380 d8 7f 36 82 57 3b 29 03 4f 61 c5 82 e3 df 80 83
       -1.3407938e-37 4.9732755e-37 -2.90024e-37 -7.574566e-37
000390 df 8d 98 83 42 ad 95 82 0c 86 bf 02 b5 ff 01 83
       -8.966329e-37 -2.1993027e-37 2.8141867e-37 -3.820323e-37
0003a0 23 1a 33 03 be bc 00 02 3e 49 25 82 0b c9 a0 83
       5.2633376e-37 9.458121e-38 -1.2143305e-37 -9.450112e-37
0003b0 38 84 35 03 fe 7a 34 02 59 4a 74 02 ba 02 42 03
       5.33429e-37 1.3259608e-37 1.7947626e-37 5.7014606e-37
0003c0 44 78 7c 83 e4 d7 e8 02 6a 2a 9b 03 a4 5d 7d 83
       -7.4194202e-37 3.4213251e-37 9.119819e-37 -7.445751e-37
0003d0 32 96 15 83 38 be 9b 82 38 69 7a 03 0d ce 58 82
       -4.395958e-37 -2.2884383e-37 7.358918e-37 -1.5928307e-37
0003e0 80 b6 cb 02 93 26 5f 02 69 e6 c7 02 ab fd 7b 83
       2.993292e-37 1.6394523e-37 2.937267e-37 -7.4053467e-37
0003f0 ff ff 45 83 7e ff 04 02 66 e1 a1 83 8b fc fc 82
       -5.8186966e-37 9.771151e-38 -9.5144785e-37 -3.7173025e-37

sequential_1/dense_5/BiasAdd/ReadVariableOp f4 [20]
000000 df 67 1c be 77 0d cf bd 3b 81 56 3e 7f 19 37 3d
       -0.15273999 -0.1010999 0.20947735 0.04470205
000010 66 c2 c0 bd a1 04 a2 bc c9 65 43 3e cd 47 96 3d
       -0.094120786 -0.019777598 0.19081797 0.07337914
000020 b4 c1 46 be e3 38 e8 bd 14 dd 9d bd 25 09 a9 3e
       -0.1940983 -0.11338975 -0.07708183 0.3301479
000030 f2 06 d9 bc 90 3b 8b be 78 ef d2 bd fa 3f 56 3e
       -0.02649257 -0.2719388 -0.10299581 0.20922843
000040 56 49 6d be 91 ab 89 be 2b be ef bd 0c 35 6e 3e
       -0.23172507 -0.26888707 -0.117061935 0.23262423

sequential_1/dense_4/BiasAdd/ReadVariableOp f4 [32]
000000 4b 1e 80 bb 49 da c0 bd e9 fc 89 3d 84 f8 84 3e
       -0.003909861 -0.094166346 0.06737692 0.25970852
000010 50 24 23 3e fe 13 63 3d 42 9c 10 3e a1 4e 85 3e
       0.15931821 0.055438988 0.14122108 0.26036552
000020 ba ab a3 3d 70 e1 57 bc a0 a0 8c bd 42 64 84 3e
       0.079917386 -0.013176307 -0.06866574 0.2585774
000030 11 8d 4b 3e 09 6e c4 3d d3 c7 42 bd f0 89 3a bd
       0.19878031 0.095913 -0.04755385 -0.045541704
000040 0d 05 aa bc e0 57 1e 3e 4c 4b 2f be 92 2b d3 3d
       -0.020754362 0.15463209 -0.17118567 0.10311045
000050 94 01 02 bd cd 30 b0 3d 20 a2 88 3e 75 9a 88 bd
       -0.031739786 0.08603058 0.26686192 -0.06670085
000060 db 99 26 3e ce 91 d4 bd 1f 3e 10 3d 2f f4 e6 3d
       0.16269629 -0.103793725 0.035215493 0.11277043
000070 42 28 40 3d 1e 88 af 3c 2b 6e 65 3e d2 5c 18 3e
       0.046913393 0.02142721 0.22405307 0.14879158

sequential_1/dense_3/BiasAdd/ReadVariableOp f4 [64]
000000 05 fc 4c 3e 77 84 36 bd d0 fe d4 3d 1e 74 c6 3d
       0.20018013 -0.044559922 0.10400164 0.09690116
000010 5c 2c e3 3d be 95 71 bd da cc 82 bd a4 7d ca bc
       0.11092445 -0.058980696 -0.063867286 -0.024718113
000020 88 4b f6 bc 81 c4 d7 3d 31 51 00 bd 84 e0 1a bd
       -0.030065313 0.10535527 -0.03132743 -0.03781177
000030 8e 16 2f bd 3d 40 1a bd f8 68 57 3d 96 88 32 3d
       -0.04274612 -0.03765892 0.05259034 0.04358729
000040 4e 71 e1 bc 17 79 23 bd fc 93 e9 3d 95 af e2 bc
       -0.027519848 -0.039910402 0.11405179 -0.027671615
000050 48 47 7c 3e 9d 76 0c bd 61 4e ed bb 93 a9 50 bc
       0.24636567 -0.034292806 -0.0072420095 -0.012735742
000060 aa c3 1c bd 26 ad e0 3d fb 03 8e 3e b3 32 ea bc
       -0.038272537 0.109705254 0.27737412 -0.028588628
000070 61 74 42 bd b1 45 45 3d 4e 6a 30 bd 35 2f b7 3d
       -0.04747427 0.048162166 -0.04307013 0.08944551
000080 10 b8 53 bd 29 3a 37 3d a8 77 d7 bd cd cd ab bc
       -0.051689208 0.0447332 -0.105208695 -0.020972157
000090 39 12 15 3e 85 19 b5 bd 30 dc 0f bd af 35 24 bd
       0.14557733 -0.08842758 -0.035122097 -0.04009026
0000a0 70 25 20 bd fd d5 05 bd e0 cc 05 bd 5a 88 18 bd
       -0.039098203 -0.03267478 -0.032666087 -0.03723941
0000b0 fd 5c 07 3c ec 18 e0 bb 16 da bf 3d 46 18 84 bc
       0.008261916 -0.0068389084 0.093677685 -0.016124856
0000c0 01 07 f0 bc d8 e0 76 bd a4 87 28 bd 66 20 01 bd
       -0.029300215 -0.06027302 -0.041144982 -0.03152504
0000d0 ee 93 53 3e ab 08 ed bc a6 b8 ae bc 60 ee 37 bd
       0.206619 -0.028934797 -0.021328282 -0.044905066
0000e0 73 d7 29 bd bf 7f 54 bd 8c 03 b2 3d 99 b3 77 bd
       -0.041465234 -0.05187964 0.08692083 -0.060474012
0000f0 98 91 2f 3e 16 72 bb bd 18 61 7d bc 5f 32 9d 3d
       0.17145383 -0.091526195 -0.0154650435 0.07675623

sequential_1/dense_3/MatMul f4 [64, 2688]
000000 15 19 74 bd 07 f4 2f bc 24 05 aa 3b 9a 1d bd 3c
       -0.059594233 -0.010739333 0.005188601 0.023085404
000010 11 76 47 3e 10 6d ec 3e 4a 33 67 be a9 dc a3 3e
       0.19478633 0.46176958 -0.22578159 0.32004288
000020 53 16 c7 3e 0a 79 d6 be 80 bf 84 bd b7 75 4a 3d
       0.3888422 -0.4188922 -0.06481838 0.049428668
000030 b4 1f 83 be b8 22 95 3e b4 74 a4 bc 20 78 c0 3e
       -0.25610125 0.2912805 -0.02007518 0.37591648
000040 89 bf a4 bc 29 27 cb bd 95 49 0f 3e 27 f4 af 3d
       -0.020110862 -0.099195786 0.13992913 0.0859149
000050 7a 48 03 3e a8 b1 4c 3d 5f af c3 3c 06 62 93 3d
       0.12820616 0.049974114 0.023887334 0.07196431
000060 dd 2a 6e be 49 96 c1 3c 0c 40 b0 3d b7 d8 e7 bc
       -0.23258539 0.023631232 0.08605966 -0.02830158
000070 8a 55 5d bc c6 3c 2b bc 3f 75 da bd de 69 08 bd
       -0.013509164 -0.010451501 -0.10666894 -0.033304088
000080 ba 13 63 bd 17 5f 91 bd 08 88 79 3d 66 4a 23 bc
       -0.055438735 -0.07098215 0.060920745 -0.009966468
000090 23 db 82 bd 6a d3 46 3e eb b8 be 3b 73 04 39 bd
       -0.06389453 0.19416586 0.005820384 -0.04517026
0000a0 5d 85 94 3c bd 0a 4a bb 39 d5 f3 bc b7 23 82 3b
       0.018129999 -0.0030829154 -0.029764758 0.0039715427
0000b0 a6 0e 3e 3d 7b 23 09 be 1b a5 67 be d5 f5 86 be
       0.04640069 -0.13392441 -0.22621576 -0.2635943
0000c0 36 f4 8f 3d 1e 43 ae bb 25 64 b2 bd 35 6e c4 3e
       0.070290014 -0.0053180596 -0.08710507 0.3836533
0000d0 cc 5c 70 3d 8f 1a 95 3e 69 c6 c1 bd 57 e9 84 be
       0.058682248 0.29121825 -0.09461672 -0.25959274
0000e0 30 3d 1c bd 63 2b dc bc 58 3a 79 3b 12 01 86 3e
       -0.03814429 -0.026876157 0.003802916 0.26172692
0000f0 9a 84 39 3d 0f c2 4d bd 24 31 30 bd 51 83 e1 3c
       0.045292474 -0.050233897 -0.043015614 0.027528437
000100 ed cb 9f bc ac 2c 4b 3d 5e ee 82 3d f1 df 71 3d
       -0.01950642 0.04960315 0.06393121 0.059051458
000110 f9 2c 84 3d 83 4f 5c 3e 8a bd a6 bc a7 c0 25 3d
       0.0645389 0.21514706 -0.020354051 0.04046693
000120 fa ef 52 3e f8 7c 98 3d 08 a0 c9 3c e8 65 c5 3c
       0.20599356 0.07445711 0.024612442 0.024096444
000130 bd 74 15 be 03 8f be bc a2 f9 3d bd e5 3e 14 3e
       -0.14595313 -0.023261553 -0.046380647 0.14477117
000140 f4 e1 75 3b 9f 2b 18 bb aa f9 e7 3d cb 91 3d bd
       0.0037518712 -0.002321936 0.113269165 -0.046281617
000150 ab f0 bd 3c 77 2b be 3c fc 6e b5 3d 47 be 2b 3d
       0.023186048 0.023214085 0.08859059 0.04192951
000160 8a 1c 00 3c c5 b9 77 bb d7 a8 46 3e 92 45 29 3c
       0.007819304 -0.0037799936 0.19400345 0.010331528
000170 44 05 e7 bc c3 0b 87 bc 95 e3 78 be 49 88 cc bd
       -0.028200753 -0.0164851 -0.24305566 -0.09986932
000180 0f 1e 15 3d ba 7c c8 3c 31 15 e2 3b 27 a1 85 bd
       0.03640562 0.024473537 0.006899499 -0.06524878
000190 39 c3 6d bd 2a e4 ba 3e bc 56 13 bd d2 78 e5 3d
       -0.058047507 0.365022 -0.03597139 0.11204685
0001a0 5a 77 bb bc 37 0e 1e bd 53 7a 40 3e 2a 90 e3 bc
       -0.02288406 -0.038587775 0.18796663 -0.027778704
0001b0 70 d7 ae ba 6b 69 7f bc e9 b3 3d bb 65 19 db bd
       -0.0013339352 -0.015589098 -0.0028946346 -0.10698203
0001c0 45 34 d2 3d 00 62 3c 3e 13 db 9d bd a8 d5 3e 3e
       0.10263876 0.18396759 -0.07707801 0.18636191
0001d0 e0 3b 04 ba 49 a1 b5 3d 9e a0 b4 bd d7 52 47 bd
       -0.00050443225 0.08868653 -0.08819698 -0.048662987
0001e0 e3 5a 84 3d 56 11 a9 3c 93 15 c4 bc a6 86 59 3e
       0.06462648 0.02063815 -0.023936069 0.2124277
0001f0 12 a5 72 3e 72 a8 79 3d 14 85 59 3d 94 de 75 3c
       0.23695782 0.060951658 0.05310543 0.01500668
000200 9f d8 ab 3d a3 f1 56 3d 87 3c f7 3b fe ed 94 3c
       0.083909266 0.052476536 0.007545057 0.01817989
000210 33 5f 71 ba 37 34 2b 3e 5b bf b9 bc 4c 20 66 bd
       -0.0009207606 0.16719137 -0.022674253 -0.056183144
000220 91 bd 0f 3e da 76 19 be eb 06 02 3d 96 f4 ec 3b
       0.14037158 -0.14986745 0.03174488 0.0072313054
000230 a3 f1 35 be 49 e5 e9 bc c0 59 3b 3d af e5 e7 3d
       -0.17767958 -0.028551714 0.04573989 0.113231055
000240 c9 bd 1e bd 46 8c 67 3d 56 31 be 3d 93 43 c0 3b
       -0.038755212 0.05653026 0.09286754 0.0058674305
000250 07 3c 72 bd e7 7b 7c 3b a9 0b f6 3c f6 35 15 3d
       -0.059139278 0.0038526 0.030034857 0.036428414
000260 d0 fc 0a bb 5b 44 1a 3c 52 f5 16 3e 15 a0 87 bc
       -0.0021207817 0.009415711 0.1474202 -0.016555825
000270 63 be 2a bd e0 15 86 3d 41 23 4f be 48 64 a6 bd
       -0.041685473 0.06547141 -0.20228292 -0.08124596
000280 a0 66 11 3e 88 78 90 3d 37 3d a4 bb 9d 42 25 bd
       0.14199305 0.070542395 -0.00501218 -0.04034673
000290 d0 6f a3 3b 92 cd b0 3e b1 67 2e bc ff 66 bd 3d
       0.0049876943 0.34531838 -0.010644839 0.092481606
0002a0 75 bc 8f bd de ea 1b 3d ee fb 33 3e e9 d8 a2 bd
       -0.07018367 0.038065784 0.17576572 -0.079515286
0002b0 5e 1e 8d 3d f4 d1 24 bd 14 49 55 bd 92 62 b9 bd
       0.06890558 -0.04023929 -0.052071646 -0.09052004
0002c0 4d bc ff 3c be 1b 82 3e 34 97 42 bc f4 ad 72 3e
       0.031217718 0.2541179 -0.01187687 0.2369917
0002d0 d8 e3 15 bd 81 59 28 3d 05 72 1b be 34 7a 94 3d
       -0.03659424 0.041100983 -0.15180214 0.07249871
0002e0 54 33 db bb e9 9d c8 bc 29 f2 3d bb 10 63 1e 3e
       -0.0066894684 -0.02448936 -0.002898345 0.15467477
0002f0 1c a1 4d 3e fb d1 13 3d 61 26 d3 3d 89 be 4c 3d
       0.2008099 0.036088925 0.103100546 0.049986396
000300 4f 31 65 3d e4 1d 14 3d d9 43 38 3d cd 31 3e ba
       0.055955227 0.03616132 0.04498658 -0.00072553457
000310 49 c7 ba bd 68 3e 16 3e d1 8a 37 3d 14 3a 25 3e
       -0.09120042 0.14672244 0.04481012 0.16135436
000320 13 cf 0c 3e 24 da b4 bd 65 3b 1d bd d2 c9 76 bc
       0.13750868 -0.088306695 -0.03838672 -0.015062766
000330 83 79 4f be 03 7b 23 3e 3a ba 00 3a 92 56 4a 3e
       -0.20261197 0.15964894 0.00049105624 0.19759586
000340 84 b5 12 39 9f e7 39 3e 82 3d b1 3d 0a f4 05 bd
       0.00013991265 0.18154763 0.0865431 -0.032703437
000350 9e a0 3a bb 23 18 1b 3d db 63 9b bd 38 d9 92 3d
       -0.0028477083 0.037864815 -0.07587405 0.071703374
000360 4a 29 91 bd 71 ee 29 bd 97 46 06 3e ea 93 dc bc
       -0.070879534 -0.04148716 0.13112865 -0.026926
000370 54 70 c5 bc c3 61 b7 3d 02 55 fb 3d cf 72 bc 3b
       -0.024101414 0.089541934 0.12272073 0.005750991
000380 cf e7 10 3d 19 22 2c 3d 4d 18 0e be 74 9e 2a bd
       0.03537732 0.042024706 -0.13876458 -0.04165502
000390 0e 85 ac bd f1 58 24 3e 59 53 b6 3c 03 a4 29 3e
       -0.08423816 0.16049553 0.02225654 0.16566472
0003a0 54 af 2a 3d 89 24 de bc 85 fa a2 3e 63 1b e2 3d
       0.041671112 -0.02711703 0.31831756 0.1104038
0003b0 99 fd 19 3c 9e be 56 be 19 70 ee b9 2f 13 03 bd
       0.009398841 -0.20971152 -0.00045478417 -0.032000717
0003c0 c4 c7 60 3e 71 da ac 3e 7e 87 f8 bc 61 9d 15 3e
       0.21951205 0.33760408 -0.030338045 0.14610817
0003d0 74 31 2e 3a fd 8c 06 3d 89 11 cc bb a1 5a 40 be
       0.00066449423 0.0328493 -0.0062276763 -0.18784572
0003e0 0a 34 6a bc 67 46 b5 3c 1b c7 be bd a8 09 1d 3e
       -0.014294634 0.022128297 -0.0931532 0.15335715
0003f0 f7 c7 a1 3e 40 2d 28 3d a7 69 d1 3d 45 7d 29 bc
       0.31597874 0.04105878 0.1022523 -0.010344808
