frontend/pdiot_app/assets/models/model_dense.tflite (tflite, 550208 bytes, 6 tensors)

sequential_4/dense_9/BiasAdd/ReadVariableOp f4 [32]
000000 7c d0 21 39 25 cd 8c bc 9e ef bd bc 19 9c dc bc
       0.00015431823 -0.017187664 -0.023185547 -0.026929902
000010 84 8e 91 bc e5 ac b9 3c 1c a6 aa 3c 95 bf 00 3c
       -0.017768152 0.02266545 0.02083116 0.007858177
000020 be be a6 3c 02 2c ce 3c 97 fc 1d bc 9e 6e 92 3b
       0.020354625 0.025167469 -0.009642742 0.004468753
000030 18 b6 d1 bb 93 97 e9 bc 82 74 f2 ba 5e 61 2c bc
       -0.006399881 -0.028514659 -0.0018497857 -0.010521261
000040 8e 68 a5 3b 45 a7 58 3c 0c 96 d1 bb a1 a9 20 bc
       0.0050478643 0.013223474 -0.006396061 -0.009806068
000050 65 41 65 3c 96 27 5f bc 0c 1a 17 3b d4 e0 8e bc
       0.013992642 -0.013620278 0.0023056297 -0.01744119
000060 8c 7d e4 bb 44 46 6d bc 98 1f 5d bc ef e3 cc 3b
       -0.006972974 -0.014482085 -0.013496302 0.0062527577
000070 d6 52 8a 3b 26 9c 08 bc 31 6b 9d bc 73 fe 0c 3d
       0.0042213006 -0.00833801 -0.019216152 0.03442235

sequential_4/dense_8/BiasAdd/ReadVariableOp f4 [64]
000000 76 9f c7 3b 2c ee a5 bc 21 fd dd bc 6b 64 fc 3b
       0.0060920073 -0.02025517 -0.02709824 0.0077024004
000010 aa c7 bd bc ba 75 11 3c 1e ca 6e bb 8c 27 3e 3c
       -0.023166496 0.008878166 -0.003643639 0.011606108
000020 7f 63 a5 ba 2a 5c d4 3b 72 31 a2 3c 34 37 48 3c
       -0.0012618153 0.0064807134 0.019798968 0.012220193
000030 2f c2 e9 bb 26 2c 9c bc 88 29 91 bb e9 b7 e1 3c
       -0.007133744 -0.01906402 -0.0044299997 0.027553516
000040 58 25 9f bb 9c 5c 6b 3c 49 70 41 ba aa e8 89 bc
       -0.0048567466 0.0143653415 -0.00073790975 -0.016834576
000050 8a 29 20 bc 4e 5b ce 3c 48 d6 fe 3a ba 17 cc bb
       -0.009775529 0.025190022 0.0019442523 -0.0062284144
000060 a6 33 c4 3b 6d 57 13 bc a8 5c db bc d6 c2 50 3b
       0.0059876023 -0.008993012 -0.02677758 0.0031854413
000070 d5 6d dc 3c b2 2e 61 3c b5 60 d4 3c a6 a3 35 3c
       0.02690784 0.013744043 0.02592502 0.01108638
000080 6a 55 22 3c 89 0d cb bc ee 5c 21 bc 6a 8c 0e bc
       0.00990806 -0.024786728 -0.009848816 -0.0087004695
000090 5b 4f f6 3b 00 1b 51 bc 55 4f 6e bc c1 64 1b 3b
       0.007516784 -0.012762785 -0.014545281 0.0023711177
0000a0 c5 71 41 3c c3 22 87 bc 12 51 1a bc 59 5f 4d bb
       0.01180691 -0.016496068 -0.009418743 -0.003133735
0000b0 e2 91 8f 3b 48 3d 4e bc 8b 09 3d bc 88 e8 7a 3c
       0.0043814043 -0.012587853 -0.01153792 0.015314229
0000c0 0f 3d b7 bc a9 64 b5 ba 43 8a 8b bc 99 c0 ae bb
       -0.022367982 -0.0013839203 -0.017033702 -0.005333018
0000d0 33 06 7a 3c a5 69 36 bc 79 d9 85 3c bd 54 11 bc
       0.015260267 -0.011133586 0.01633905 -0.008870301
0000e0 95 93 06 3c 61 78 35 3c 94 69 2a bc 8a a4 0d bc
       0.008213897 0.011076064 -0.010401148 -0.008645186
0000f0 f2 8a 07 3b 1b cd 00 ba 64 72 1f 3a 8c d2 88 bc
       0.0020682183 -0.00049133756 0.0006082414 -0.01670196

sequential_4/dense_10/BiasAdd/ReadVariableOp f4 [12]
000000 71 2d 4a bc 51 ea 4a bc 29 fb 97 bb ac d1 3b 3a
       -0.012339936 -0.012384967 -0.004638095 0.00071647274
000010 93 cb aa ba 93 3a d5 3b fb 8a b2 bc 20 ff 5b 3b
       -0.001303064 0.0065072267 -0.021794787 0.0033568814
000020 d5 d9 be bc 44 0f e2 bb d9 2f 05 3d 5b ab 40 3c
       -0.02329723 -0.0068987925 0.032516334 0.011759604

sequential_4/dense_8/MatMul f4 [64, 2100]
000000 bf eb bf 3c 6b a1 d3 39 94 71 9e 3b 69 d0 c7 3c
       0.023427842 0.00040365322 0.004835317 0.02439137
000010 65 9c 17 3d f7 3f 4d 3c c4 80 5d bb da 09 3c 3d
       0.037014384 0.012527457 -0.0033798674 0.045907833
000020 cc f0 5a 3c 1a 09 b6 3c a9 d9 5d 3d 5a 28 8e 3c
       0.0133630745 0.022221137 0.054162655 0.017353225
000030 38 f7 0b bd 2d 7b db 3c 11 09 dc 3c 0b 5d 16 3d
       -0.034171313 0.026792133 0.026859792 0.036709826
000040 dd f6 15 3d 38 01 10 3d ce 27 f9 3c 62 ac 71 3d
       0.03661238 0.035157412 0.030414488 0.059002288
000050 8c d5 07 3c af 57 11 3d a5 94 1a 3c 20 bc 3a bb
       0.00829066 0.035484012 0.009434854 -0.002849348
000060 be ec 91 bc 6c 82 34 bd 4e 8f 24 3d 06 1a 7e bb
       -0.017813083 -0.044069692 0.04017573 -0.0038772835
000070 38 32 f9 bc 2f 68 27 3d 4f bd e3 bc 45 3e ca 3c
       -0.030419454 0.04087084 -0.02780023 0.024687896
000080 c3 14 c2 bc 6a 3e 1d 3d 62 fa 2d 3c d7 3c 42 bb
       -0.02369154 0.0383896 0.010618778 -0.0029638314
000090 65 a8 8c 3c aa 58 e0 3c d1 4d de 3c 01 4d f8 bc
       0.01717014 0.027386028 0.027136715 -0.030310156
0000a0 8a 0a c3 3c ec cc 55 bc 4a b1 e4 bc e4 59 cc bc
       0.023808736 -0.013049345 -0.02791657 -0.024945207
0000b0 0b 8f a0 bc 78 1b fc bc 26 59 44 3d 18 a1 d4 3c
       -0.019599458 -0.030774817 0.04793658 0.025955722
0000c0 c0 a6 5a 3d cb 7b 1a 3d 58 52 19 bd 97 c8 0b bd
       0.05338168 0.037715714 -0.037432045 -0.034126844
0000d0 aa 9a 12 3d 68 b4 f8 3b c5 ec 29 bd 74 e8 f1 3c
       0.03579203 0.0075898655 -0.041485567 0.029529788
0000e0 4b 31 f9 bc 73 08 20 bd b7 ce eb 3c e1 61 0b bc
       -0.030419013 -0.039070558 0.028785093 -0.008507223
0000f0 93 f1 44 3a 6b cd 28 bb f5 95 5c bd bc 12 b4 bc
       0.0007512804 -0.0025757204 -0.053853948 -0.02198159
000100 2a cf 0f bd a1 4d 4d bd 44 c6 ab 3c 2f 51 1f bd
       -0.035109676 -0.05012286 0.020968564 -0.038895782
000110 fb e0 01 3d dd fc ce 3b 06 f7 92 3c 5c a6 b9 3c
       0.0317087 0.0063167647 0.017940056 0.022662334
000120 12 cf 3c bc 0e 55 57 3d a3 79 4a bd e2 f4 b7 bc
       -0.011523979 0.05257135 -0.049432408 -0.022455636
000130 8d 7e 2d 3d 38 68 65 bd ab ca b8 bc 0f 18 16 bd
       0.042357016 -0.056007594 -0.022557577 -0.036644038
000140 29 92 e5 3c 8d b5 e8 3b bd b9 5f 3c 28 78 4a 3c
       0.028023796 0.0071017207 0.013655123 0.012357749
000150 b4 97 02 bd 1d fe 49 3d 8a 3f 18 3d b1 e1 19 3d
       -0.031882957 0.049314607 0.03716997 0.03756875
000160 f3 e7 10 bd f3 25 17 3d da 85 29 3c a7 8f d7 3c
       -0.035377454 0.036901426 0.010346854 0.026313616
000170 e3 95 cd 3c d2 c3 06 3d 95 9a cd 3c 45 e8 ab 3a
       0.025095886 0.032901593 0.025098125 0.0013115486
000180 cb 20 00 3d 62 2b 2e bd b9 a2 52 bd 53 a5 2d 3d
       0.031281274 -0.04252184 -0.051424716 0.042393994
000190 bb 10 dc bc 8d 8a d1 bc 9a e1 8c bc 0f cb 03 3d
       -0.026863446 -0.025578761 -0.017197419 0.032176074
0001a0 10 bd 3a bb 84 8a 93 bc 04 02 29 bc 15 df 55 bd
       -0.0028494038 -0.018010385 -0.010315422 -0.0522147
0001b0 c4 4c f6 3b 51 55 c2 bc ab c5 87 bc 14 37 55 3c
       0.0075164754 -0.023722323 -0.016573748 0.01301362
0001c0 ff 6b 9e 3b 06 ef 43 bd 77 aa 86 3c 06 cf 60 3c
       0.0048346515 -0.047835372 0.016438706 0.013721233
0001d0 98 0e 39 3d 83 fd e9 bc e6 5f 05 bd 6d 35 ad 3b
       0.045179933 -0.028563267 -0.03256216 0.00528591
0001e0 ae 1a 13 bb 22 ab 06 bd eb 8c 33 bd c7 32 91 bc
       -0.0022446322 -0.03287805 -0.04383556 -0.017724408
0001f0 64 52 02 3d 06 fd 19 3d 28 3b b9 bc 41 6c 52 3d
       0.031816855 0.037594818 -0.022611216 0.05137277
000200 40 ab 1b 3d 7d 38 c0 bc 8d 66 e9 bc 9c dd b3 3c
       0.038005114 -0.023464436 -0.028491283 0.021956258
000210 f9 40 0a bd 7f 4d af ba 53 28 bb 3c 45 a1 d8 b9
       -0.03375337 -0.0013374536 0.022846377 -0.00041318886
000220 aa 6f e3 3c e5 ec 55 bd 28 44 fa bc 6d 79 03 bd
       0.027763207 -0.052227873 -0.030550078 -0.032098223
000230 b7 77 78 bc 61 f0 87 bc 6d b1 b4 bc 82 8a 15 3d
       -0.015165261 -0.016594114 -0.02205726 0.036509044
000240 a6 68 b6 3c ca 07 68 3d ed d2 09 bd fb 4e 8a 3c
       0.022266697 0.056648053 -0.03364842 0.016883364
000250 d1 86 56 bc aa 8f 10 bd 22 11 1c bd 42 2d 08 bd
       -0.013093666 -0.03529326 -0.038102277 -0.033246286
000260 68 56 8d 3c 62 4f df bc 4b 4d 83 3c 6a 21 2f bd
       0.017253116 -0.027259532 0.016028067 -0.042756476
000270 52 7d 0f bd 3a 4f 1f 3d df 2d 00 3d 71 33 94 ba
       -0.035031624 0.038893916 0.031293746 -0.0011306835
000280 b8 1d 74 3c b9 9c 17 3d cf 07 10 bd 5f 64 0a bd
       0.014899664 0.037014697 -0.035163697 -0.033787128
000290 09 65 42 3d f9 0b b7 bc 94 71 86 3c 75 05 4f 3d
       0.047459636 -0.022344576 0.01641158 0.050542314
0002a0 dd d8 2d 3d 93 65 e7 bc a9 b1 1b 3d e3 1e f8 bc
       0.042443145 -0.028246677 0.038011227 -0.030288165
0002b0 8a 04 30 bd 22 6d aa bc 2e 44 ff bc c6 21 33 3d
       -0.04297308 -0.020803992 -0.03116044 0.04373338
0002c0 b0 3c 18 bc 62 07 d5 3c 7b 43 67 3d bf f5 d6 3c
       -0.009291813 0.026004497 0.05646084 0.026240228
0002d0 80 83 94 3c 42 52 4f 3d 65 8c eb bc 56 e0 b8 bc
       0.01812911 0.050615557 -0.028753469 -0.02256791
0002e0 87 16 5e bc 7b ac 17 3c 00 a6 b0 3c 7d 65 20 3d
       -0.013555176 0.009257431 0.02156353 0.039159287
0002f0 6e 3c 40 ba af 14 f0 bc 13 bb 8a 3b 68 b4 5c bd
       -0.00073332235 -0.029306738 0.0042337268 -0.053882986
000300 08 e7 ae bc ef 69 0a 3d a2 f7 92 bc ae 4e f5 3c
       -0.021350399 0.033792432 -0.017940346 0.029944744
000310 11 56 3a bd 22 aa f0 3b c0 3b 95 bc d5 9c e7 3c
       -0.045492236 0.0073445 -0.018216968 0.028273026
000320 f4 14 4a 3d 51 7b 83 bc 94 52 ec bc c6 1b 59 bd
       0.04933639 -0.016050013 -0.02884797 -0.053005002
000330 59 a0 a8 3c f4 2e c4 3c 85 61 e1 3c 5a 1d 38 3c
       0.020584272 0.02394817 0.027512321 0.011237467
000340 ce c3 2a bc 87 d7 6c bc cd 83 37 3d 55 e4 16 bc
       -0.01042266 -0.014455683 0.04480343 -0.009209712
000350 d3 1c 45 bd 0e a8 b3 3b 7f 73 2b 3d 38 01 15 3c
       -0.048123192 0.00548268 0.041858193 0.009094529
000360 fb 43 89 3c c1 11 a8 3c a8 5f 11 bd ea d6 37 3d
       0.016756048 0.020516278 -0.035491616 0.044882692
000370 a5 98 26 bd 12 bf d1 3c 01 02 05 3d a8 4b 06 3c
       -0.040672917 0.025603805 0.032472614 0.008196749
000380 ba 44 0b 3c 44 25 9c bc ea 8f 8f bb e8 8a 13 bc
       0.008500272 -0.019060738 -0.0043811696 -0.009005286
000390 a3 b5 bc bc b7 40 2e bd f3 6b 9d bc 16 be b5 bc
       -0.02303583 -0.042542186 -0.019216513 -0.022185367
0003a0 e0 2e 9b bc 3f a4 dc 3b cb 9c e2 3c 5b 5f 0d bd
       -0.01894325 0.006733447 0.027662655 -0.034514766
0003b0 1e 7e 3c 3d f8 c6 b8 3c 50 1c 43 bc 64 d7 45 bd
       0.046018712 0.022555813 -0.011908606 -0.048301116
0003c0 89 5b 05 bd 20 f5 33 3a ea 90 21 bc 74 3a f1 3c
       -0.032557998 0.00068648346 -0.00986121 0.029446818
0003d0 59 ac d8 3c 15 95 1e 3d 87 a6 5e 3c f0 f5 80 bb
       0.02644937 0.038716394 0.013589508 -0.003935568
0003e0 2b 2a b9 3c a4 54 d1 3c 62 0b 0d bd fd eb d7 bc
       0.022603115 0.025553055 -0.034434684 -0.026357645
0003f0 a3 2d 0b 3d f7 6e fe bc 69 c5 03 bc 24 99 0f 3c
       0.03397907 -0.031058772 -0.008042672 0.008764539

sequential_4/dense_9/MatMul f4 [32, 64]
000000 e3 93 17 be 25 5f af 3d df 3f 49 be f9 d7 e2 bd
       -0.14802508 0.08563069 -0.19653271 -0.1107635
000010 68 91 8e 3d 49 6c e9 bd 84 91 0c be 05 95 00 3c
       0.06961328 -0.11397607 -0.13727385 0.007848029
000020 62 dd 4b 3d b2 ef 47 bc f5 5e cb 3d 8e 6e db bd
       0.049771674 -0.012203144 0.09930221 -0.10714446
000030 2e d8 d7 3d e6 ab 66 3e ba f2 73 3e 94 99 2c 3e
       0.1053928 0.22526512 0.23823062 0.1685546
000040 e6 ab 7a be c6 32 06 bd 81 1e 3d be 98 99 a2 bc
       -0.24479637 -0.032763265 -0.18468668 -0.01984863
000050 ee c2 68 be 30 ff 31 3e 71 e5 4d 3e 4a 0c 16 3e
       -0.2273061 0.17382503 0.20107056 0.14653125
000060 36 7b c6 3d 24 63 49 3e 71 84 ca bb 58 98 2f 3e
       0.09691469 0.19666725 -0.006180339 0.17147958
000070 c0 54 5e 3e 8d d5 8d 3d 71 ef ba 3d 0e e3 75 3e
       0.21712017 0.06925497 0.09127701 0.24012396
000080 a5 a3 53 be f7 b2 6b be 33 6d 3d bd 62 a1 21 be
       -0.20667894 -0.23017488 -0.04624672 -0.15784219
000090 ad d0 74 3e 7c ed 72 3e 31 a0 6c be 4e 18 81 3d
       0.23907728 0.23723406 -0.23107983 0.06303464
0000a0 e9 7a 4e 3d 24 81 d4 bd bb 4c 88 bd 46 ee 3c be
       0.050410185 -0.10376194 -0.0665526 -0.18450269
0000b0 93 59 1d be 1f cc 35 3e b1 d8 ff 3d 05 c6 09 3e
       -0.15366201 0.17753647 0.124925025 0.13454445
0000c0 54 f6 4e be 53 17 11 3d 3b d3 cf 3d 2f 0d 68 3e
       -0.20211154 0.035422634 0.10147711 0.22661279
0000d0 22 81 34 bd 27 c9 5c bd 2e e7 73 be 54 02 67 be
       -0.044068463 -0.05390277 -0.23818657 -0.22559482
0000e0 6b 2a 55 3e 13 17 13 be f8 a8 cc 3b 3d df f0 3c
       0.20816962 -0.14364271 0.0062457286 0.029403323
0000f0 f6 d5 68 be d1 00 48 3d 5f 9c ec bd 47 d4 6c 3e
       -0.2273787 0.048828904 -0.11553263 0.23127852
000100 85 a5 9a 3c fe dd 78 be 72 19 41 be f0 56 48 be
       0.018877754 -0.24303433 -0.18857363 -0.19564414
000110 ba 55 5a 3e 43 3b 6c 3c db 75 82 bd 27 af 74 3e
       0.21321765 0.014418426 -0.063701354 0.2389494
000120 b3 33 27 bc 73 14 fc bc c5 0b 4f 3e 55 5e 6e bc
       -0.010205197 -0.03077147 0.20219333 -0.014548858
000130 6c c0 0d be 26 b7 0a 3e f8 01 54 be cd 7e 95 bd
       -0.13842934 0.13546428 -0.20703876 -0.07299576
000140 35 95 27 3d da cd c6 3d 88 7f 20 be bb 43 e9 bd
       0.04091378 0.09707232 -0.1567365 -0.11389872
000150 73 d4 e9 3d 31 d0 1c 3c a3 ce 8c bd 93 00 77 be
       0.114174746 0.009571121 -0.0687535 -0.24121313
000160 ad 88 e5 bd b8 40 8c 3b 9a 53 5e 3e c0 18 5e be
       -0.112077095 0.004280176 0.21711579 -0.21689129
000170 c7 c6 15 be c7 4b 1d 3e a7 71 dc 3c 02 1c 65 bd
       -0.14626609 0.15360938 0.026909662 -0.055934913
000180 01 e0 17 be 77 c6 4c bd 8e 0c 32 3e 16 89 56 3e
       -0.14831544 -0.04999396 0.17387602 0.20950732
000190 47 31 52 be 9b a6 f3 3c 6f 63 7e be c5 30 db bd
       -0.2052661 0.02974253 -0.24842618 -0.107026614
0001a0 d2 70 5b be d6 67 c8 bd e7 34 27 be 95 11 e7 bd
       -0.21429756 -0.0978543 -0.16328774 -0.112826504
0001b0 25 01 04 3e 42 5a 23 bd 36 e2 42 3e ea 1a 19 be
       0.12891062 -0.039881 0.19031605 -0.14951673
0001c0 67 24 08 3e 27 3d 85 be 2c 4c be bd b4 00 4e be
       0.13295136 -0.26023218 -0.092918724 -0.20117456
0001d0 87 e2 f5 bd 82 42 4c 3e 54 34 b7 bc 52 c9 7b bd
       -0.12006097 0.19947246 -0.02236382 -0.06147129
0001e0 12 0a ca 3d 9c a4 98 3d 5a 99 71 3e f0 f0 81 bd
       0.09865202 0.07453272 0.23593655 -0.06344783
0001f0 ab c2 6a 3e 8a 44 45 3e 1e 9a 31 3d 01 99 2c 3e
       0.22925822 0.19264427 0.04335987 0.16855241
000200 9c 6b 2e be d9 86 56 be da 51 f3 bd 2f fa 10 be
       -0.17033237 -0.20949878 -0.11880846 -0.14157937
000210 41 dd 3e be 1c b9 14 bd 0d b0 08 3e 90 5c b1 3c
       -0.18639089 -0.036309347 0.13348408 0.021650583
000220 bf c5 2b 3e 0d 3c 68 be d8 cf 50 bd 48 66 5b be
       0.16774653 -0.22679158 -0.050979465 -0.21425736
000230 e9 af 0c 3e 91 4b d8 bd 0b 62 e0 3c d4 17 9b bc
       0.1373898 -0.10561288 0.0273905 -0.01893226
000240 0c ae 40 be 80 54 06 3e bb 68 d7 3d e3 c8 3d be
       -0.18816394 0.13118172 0.105180226 -0.18533663
000250 e0 8e 97 bd fd b8 0d be 89 9b 97 bd 08 57 10 3d
       -0.07400298 -0.13840099 -0.07402713 0.03523925
000260 5c 70 0d be 2e b0 f8 bd db 70 25 be 40 16 21 3e
       -0.13812393 -0.121429786 -0.16156332 0.15731144
000270 94 30 fc bb 8e c2 48 3e 7d fa 42 3e c5 d6 0d 3b
       -0.0076962207 0.19605467 0.19040866 0.0021642905
000280 6f 37 41 be 0c 61 14 be 75 7e f6 bd 91 f7 50 3e
       -0.18868802 -0.14490145 -0.120358385 0.20406939
000290 17 a5 da 3c 4c 66 50 3e 76 04 26 3e 62 00 07 be
       0.02669005 0.20351523 0.16212639 -0.1318374
0002a0 43 63 07 be 99 7c fc 3c 62 f9 0c bd f4 97 56 3e
       -0.13221459 0.030821132 -0.034417517 0.20956403
0002b0 fd f4 c1 3d a4 30 06 3e 4e 00 e5 3d 75 98 ff bd
       0.09470556 0.13104492 0.11181699 -0.12480251
0002c0 49 98 c5 bc e4 ac 1b 3e f6 b2 cf 3d 5b 0c 10 be
       -0.024120467 0.15202671 0.10141556 -0.14067213
0002d0 3a e5 63 bc 60 c3 04 be 4e 3b ba 3d a4 29 6c 3d
       -0.013909632 -0.12965155 0.09093343 0.0576569
0002e0 0e 54 04 3e ed 7e 51 be 47 b7 69 be 95 25 49 3e
       0.1292269 -0.20458575 -0.22823821 0.19643243
0002f0 9a 73 56 3d 38 63 ed 3d 51 83 37 be 7a 55 56 3e
       0.05235634 0.1159119 -0.17921187 0.20931044
000300 ed b2 0c be 86 8c 5a 3e 7a 26 99 bc 4e fe 05 3e
       -0.1374013 0.21342668 -0.018695105 0.13085291
000310 2c ab 3e 3e b8 ae 3c be 20 fd 67 be 97 cf db bb
       0.18619984 -0.18426025 -0.22655153 -0.0067080962
000320 fe 97 16 3e ea 14 7f be 10 61 9e bd 75 bb 93 3d
       0.14706418 -0.24910322 -0.07733357 0.07213489
000330 c1 a7 bb 3d 9b 63 51 3e 59 7d 59 3e 58 62 70 be
       0.09162856 0.20448153 0.21239223 -0.23475015
000340 e2 8d 92 bd 13 41 4f be 55 bf 43 3e cf 09 b3 ba
       -0.07155968 -0.20239668 0.19115956 -0.0013659539
000350 5c 72 d8 3d 5f 0c 37 be 2f 6d 75 be 47 e9 de ba
       0.10568687 -0.17875813 -0.23967431 -0.0017006778
000360 a3 c3 0f 3d c8 00 4b 3d fd eb 96 3d f9 ad 68 3c
       0.035098683 0.049561292 0.0736923 0.014201635
000370 e1 bb 12 3e e3 39 8d bc aa 01 21 be aa e9 db bd
       0.14329483 -0.017239517 -0.15723291 -0.10737927
000380 7d 0f 05 3e 34 eb 6b 3e 13 bd a2 3c f2 db 28 3c
       0.1299419 0.23038942 0.019865548 0.010306345
000390 67 a9 11 3d 0d a4 b7 bc 47 91 26 3e 52 07 71 3e
       0.035561945 -0.022417093 0.16266356 0.23537949
0003a0 86 0c 8b be 81 cd 3c bd bf 77 8d 3d c8 82 4d be
       -0.27157992 -0.04609442 0.069076054 -0.2006942
0003b0 a1 70 1b be 23 1c 34 3e 25 2a da 3d e1 6b 91 3d
       -0.15179683 0.17588858 0.1065257 0.071006544
0003c0 6c 31 f5 3d c0 80 81 3d 02 97 1e 3e a5 79 07 3e
       0.11972317 0.06323385 0.15487292 0.13229997
0003d0 ef 4f 80 be 1c 53 d9 3d d0 97 9d 3d d5 25 3a be
       -0.25060984 0.10611555 0.076949716 -0.18178494
0003e0 af d9 81 3d aa be d1 bb 7e 19 90 bd 75 64 32 be
       0.06340348 -0.0064009028 -0.07036112 -0.17421134
0003f0 84 b3 d7 3d fc 5d 7d be 6b a9 96 bc aa 77 4e 3e
       0.10532287 -0.24742883 -0.018391332 0.20162836

sequential_4/dense_10/MatMul f4 [12, 32]
000000 8d e3 44 be b6 2c a0 3e e1 f7 af 3c 7f 93 8e be
       -0.19227429 0.31284112 0.021480503 -0.27846906
000010 ee 8f 4b 3e 81 4f 60 3e 96 e0 9d be 4e ca a2 3d
       0.19879124 0.21905328 -0.30835408 0.07948743
000020 10 81 5b be 44 4d 9f 3e 5a 9e b0 3e 86 52 af be
       -0.21435952 0.31113636 0.34495813 -0.34242648
000030 6f 09 14 be 5b f0 ec bd 49 47 a0 be 22 cd 85 3e
       -0.14456724 -0.11569282 -0.31304386 0.26133066
000040 16 6b 96 be cd 2c 59 3d de 08 94 3e 66 bf a3 be
       -0.29378575 0.05302124 0.28913015 -0.31981963
000050 98 c2 4e bd ae d2 80 3e 78 74 d8 bd 75 40 88 3e
       -0.050478548 0.25160736 -0.1056909 0.26611677
000060 fa e9 96 3d dd 8e 8e 3d 10 bf 85 be b4 74 98 3d
       0.07368846 0.06960843 -0.26122332 0.07444134
000070 56 3e e8 3d 45 25 47 3c 06 fe 00 be 1c 97 e2 bd
       0.11340015 0.012154882 -0.12596902 -0.11063978
000080 5c 3d 32 be 20 1b 6c be 3b 1a b9 3e e1 12 2a be
       -0.17406219 -0.23057222 0.36152825 -0.16608764
000090 25 e4 41 be ce 06 37 3e 4a 5a 2b be 69 93 8a 3d
       -0.18934686 0.1787369 -0.16733661 0.067663975
0000a0 57 bc 91 be 50 a4 a3 3e 76 4b 1f bd 12 e2 03 3e
       -0.28464004 0.31961298 -0.038890325 0.12879208
0000b0 29 f4 48 be 50 17 a5 3e ff 58 9a be c9 27 5b be
       -0.1962439 0.3224435 -0.30146024 -0.21401896
0000c0 37 69 b5 be 8d 9b 9c be 94 ed fd bc 68 63 ba 3e
       -0.35431835 -0.30587426 -0.030997075 0.36403966
0000d0 0f 9b 2b 3d 7f 6c 25 bd 12 3d 48 be da fd 43 be
       0.041895922 -0.040386673 -0.19554546 -0.19139805
0000e0 74 a1 a0 be 45 b6 27 be 12 c7 98 3c e0 32 71 be
       -0.3137318 -0.16378124 0.018649612 -0.23554564
0000f0 7c 09 6c 3e d7 47 ad be 88 35 e1 3d 28 b4 2d 3e
       0.23050493 -0.33843872 0.109965384 0.16963255
000100 75 2e 2d 3e c2 7c 09 be bf f2 06 3d 26 3b 35 be
       0.16912253 -0.13426498 0.032946344 -0.17698345
000110 09 f5 5e be 22 f5 89 be 19 95 af be fa 14 47 3e
       -0.21773161 -0.26944834 -0.3429344 0.19441596
000120 dc 22 87 be 97 2b 1f be 3b 6c a2 3e 97 4c a9 bd
       -0.26393783 -0.15543972 0.31723198 -0.082665615
000130 33 88 9e be 0f 8b e3 bb 11 d8 85 bd 99 1c 31 be
       -0.30963287 -0.0069440673 -0.06535352 -0.17296065
000140 1d c4 68 3e c9 6c bf be f0 dd 94 3e 4b bb 83 3d
       0.22731061 -0.37387684 0.29075575 0.06432208
000150 fa c1 b2 be b0 b9 ae bc c3 b1 37 3e 7a 87 b2 bd
       -0.34913617 -0.021328777 0.17938904 -0.08717246
000160 64 37 26 be 70 95 80 3c 37 cb 97 3e 57 1f a1 3e
       -0.16232067 0.015696257 0.29647228 0.31469223
000170 ca 38 22 be 1e 1f 44 3e c5 d9 bc bd 23 d1 fc bd
       -0.15841976 0.19152495 -0.09221224 -0.12344577
000180 35 b0 81 bc c6 36 96 3e 0a c5 32 3e 5f e1 ab be
       -0.015831092 0.29338664 0.17457977 -0.33570382
000190 26 74 16 be 5a 58 ae be 38 e7 d8 bd c2 45 87 be
       -0.14692745 -0.34051782 -0.105909765 -0.26420408
0001a0 0a 0b 29 be 3d 64 35 3d 78 01 8a bb ee 92 44 3e
       -0.16508117 0.044285048 -0.004211601 0.19196674
0001b0 d4 0f bb be 67 4e 3c be 54 8b 7e 3d 62 83 b4 3e
       -0.36535513 -0.18389283 0.062144592 0.35256487
0001c0 3f fb b7 be bd 8f a8 3d a6 60 ad be 82 02 41 be
       -0.35933873 0.08230541 -0.338628 -0.18848613
0001d0 e2 c6 68 3e 90 0e 85 3e c7 a0 1b 3e 4e f7 5c be
       0.22732118 0.25987673 0.1519805 -0.21578714
0001e0 76 36 73 be 06 ea 63 3e 37 46 73 3e aa e2 40 3e
       -0.23751244 0.22257242 0.23757254 0.18836465
0001f0 35 41 eb 3d 59 9d 8a be 01 b0 b4 3e c8 86 47 3e
       0.11487047 -0.27073172 0.3529053 0.19485009
000200 7d 60 72 be d3 ca 9e be 30 6b a8 be fd f1 ce 3a
       -0.2366962 -0.31014118 -0.32894278 0.0015788671
000210 32 ec 94 3d 70 51 62 be 34 22 61 3e 40 a8 86 bc
       0.07271613 -0.22101378 0.21985704 -0.01643765
000220 44 46 5a be 0c 90 74 3e bc f2 ba bc bf d5 c7 be
       -0.21315867 0.23883075 -0.022820823 -0.39030263
000230 bb 07 7c 3e 7d c7 c5 bd 0f 2c 2d bd c7 5e 91 be
       0.24612324 -0.0965719 -0.042278346 -0.28392622
000240 c8 22 01 be e1 30 84 bd 59 f1 47 3e 39 ff 51 3e
       -0.12610924 -0.064546354 0.1952566 0.20507516
000250 8c c3 65 be ff 33 18 bd 69 5f 6f be 03 e4 e8 bd
       -0.22437876 -0.037158962 -0.2337624 -0.11371615
000260 0c c1 95 3d 0d 34 a4 be af 90 bf 3e 99 71 65 3e
       0.073122114 -0.32070962 0.37415072 0.22406615
000270 18 29 13 3e 15 2c 52 3e 82 06 8f be 71 94 36 3e
       0.14371145 0.20524628 -0.27934653 0.17830063
000280 ba f5 a2 3d 98 21 3f be e8 61 93 be 8d c7 a6 3e
       0.07957025 -0.18665159 -0.28785634 0.3257412
000290 81 ca bb 3e 5f f4 b7 bd ba 66 42 be f7 85 bc be
       0.36677936 -0.08982157 -0.189845 -0.36820957
0002a0 9a 77 92 bd 41 a9 89 3e 63 be 8c be 1e 13 14 be
       -0.071517184 0.26886943 -0.27489004 -0.14460418
0002b0 64 97 94 be 08 50 22 3e 56 03 41 3e 65 a3 bc 3e
       -0.29021752 0.15850842 0.18848929 0.3684341
0002c0 81 a9 95 bd 80 df 18 bd 9c 95 66 be 1f 6e d0 bd
       -0.07307721 -0.03732252 -0.22518009 -0.10177254
0002d0 36 bd 8e be df d3 3e be 7b 5f a5 3e 4a 72 99 be
       -0.2787873 -0.1863551 0.32299408 -0.29970008
0002e0 a0 86 4f be 99 ea 28 be f5 b4 7b be 09 8c 64 be
       -0.20266199 -0.16495742 -0.24580748 -0.22319044
0002f0 bd e8 0d 3e 4f de 17 3e aa 1a 7f be 75 17 6f 3e
       0.13858314 0.14830898 -0.24912515 0.23348792
000300 32 86 3f 3e 15 95 ca 3c 1d fe c5 be 44 50 e4 3d
       0.18703535 0.024729291 -0.38670436 0.11148122
000310 02 3e 30 3e d2 9d ad be cd 3d 34 be 5c fe 99 bd
       0.17211154 -0.3390947 -0.176017 -0.07519218
000320 dc 7c 38 be c8 69 9a 3e 70 ae 0d be c0 63 6b 3e
       -0.1801638 0.3015883 -0.13836074 0.2298727
000330 80 9a 38 3e b0 e6 99 3d 04 1c 7e 3d 39 c6 23 3e
       0.18027687 0.07514703 0.062038437 0.15993585
000340 33 03 8b 3e 21 f2 71 3c 0e 05 19 3e 64 a6 a6 be
       0.27150878 0.014767201 0.14943334 -0.3254882
000350 e1 ba f2 bd bd 63 9a 3e d0 0e 63 be 5a 78 07 3e
       -0.118520506 0.3015422 -0.2217362 0.13229504
000360 93 08 cd 3b b4 da 61 be 7a 73 61 3e 7f 6f ad be
       0.0062571256 -0.22056085 0.22016707 -0.33874127
000370 31 3a b2 3e 7c 11 c5 be 4c 9b 0f 3e 7c f7 86 bd
       0.34810022 -0.38489902 0.14024085 -0.06590173
000380 a3 bf 3e be 1a 9c 8c be b6 33 83 bd 45 f2 68 3e
       -0.18627791 -0.27462846 -0.064063475 0.22748668
000390 98 fa 87 3d c0 34 82 be 9d 7a 58 be 43 ee 9c 3e
       0.06639594 -0.2543087 -0.21140523 0.3065053
0003a0 24 62 85 3e 6c 3e f8 3d 42 4f 8d 3e 98 f8 39 3e
       0.26051438 0.12121281 0.2759953 0.18161237
0003b0 94 67 ac be 2c ac 3b be 9d 51 ba 3c 72 32 a6 3e
       -0.33672774 -0.18327397 0.022743994 0.32460362
0003c0 96 5a 76 3d e7 42 01 3d e5 fa 20 be ae 4d 10 3e
       0.060144983 0.031557944 -0.15720709 0.14092132
0003d0 ef f8 a8 3e dc e9 6f be 88 cd dd bd e3 30 74 be
       0.3300242 -0.23429054 -0.108302176 -0.23846774
0003e0 a2 e2 48 3d 17 81 4a 3e 5c 7c ab bd 11 c2 80 be
       0.04904426 0.19775806 -0.08373329 -0.2514806
0003f0 ff 2d 7f be b4 5a 85 be 85 ac 72 be 7a d1 b3 be
       -0.2491989 -0.26045763 -0.23698623 -0.35120755
