frontend/pdiot_app/assets/models/model_online_task_1_5_class.tflite (tflite, 823420 bytes, 14 tensors)

sequential/conv1d/BiasAdd/ReadVariableOp f4 [64]
000000 bb 28 cd 3d e2 8f 00 bd 58 7a 33 3d ac 1b 23 bd
       0.10017534 -0.031387217 0.043817848 -0.03982131
000010 77 d1 4d bd 78 ae df bc 58 e5 c5 bc 27 d2 73 3c
       -0.05024859 -0.027304873 -0.024157211 0.014881647
000020 f5 c5 e2 bc 05 90 9d bd 72 97 4f 3c c8 01 e0 bc
       -0.027682284 -0.07693485 0.012670385 -0.0273446
000030 03 30 a8 bc aa c1 ed bb b6 68 98 bd cb 66 97 bd
       -0.020530706 -0.0072557526 -0.07441847 -0.07392653
000040 fe 99 ed bc 8c 1f b0 bb c8 36 4c bd 03 fd cb bc
       -0.029004093 -0.0053748544 -0.04985693 -0.024900919
000050 40 54 11 bd 41 9a 8c bc 2a 88 3f 3d a2 c9 a7 bc
       -0.035480738 -0.017163398 0.046760716 -0.020481888
000060 74 a6 4d bd c9 1f b3 bc 58 29 5d 3d eb 90 c2 bc
       -0.05020757 -0.021865742 0.053994507 -0.023750743
000070 73 f5 e2 bc b7 85 a9 bc 9c a5 91 bc eb bf 4f 3d
       -0.02770493 -0.020693643 -0.017779164 0.050720137
000080 55 17 0a bd 22 ff c0 bb 64 7c d1 bc a6 d4 52 bd
       -0.033713657 -0.005889789 -0.02557201 -0.05147233
000090 3c 2f 5e 3d 45 5e 03 bd 77 38 30 bd 52 b9 89 bd
       0.054244265 -0.032072324 -0.0430226 -0.067248
0000a0 48 ad 9f bd 3a 52 5b bd ae dd a6 bc 10 6e 49 bd
       -0.07796723 -0.053545214 -0.020369377 -0.04917723
0000b0 4a 07 ec bc 35 41 a8 bd 95 1a 33 bd f1 e8 1e bd
       -0.02881207 -0.08215562 -0.043726522 -0.03879637
0000c0 c6 d7 cb bc db e6 e0 bc d6 f3 95 3d 4e 00 eb bc
       -0.024883162 -0.02745383 0.07321899 -0.028686669
0000d0 90 0b 98 3c 3f e2 ad bd 71 f1 a4 3b 7e 1e ce bc
       0.0185602 -0.08490419 0.005033665 -0.025161024
0000e0 52 e7 92 bd ce 6c 38 bd 66 49 56 3d db af 53 bb
       -0.07173027 -0.04502564 0.052316092 -0.0032300863
0000f0 f5 05 15 bd 7d 93 9e bd 61 de 3d bd 61 30 1d bc
       -0.036382634 -0.07742975 -0.046354655 -0.009594054

sequential/conv1d_1/BiasAdd/ReadVariableOp f4 [64]
000000 ff ab 07 bd d1 b8 6e bc 58 39 3c bc 61 2f 8c bb
       -0.033123013 -0.014570431 -0.011488281 -0.004278109
000010 45 50 8f 3b c2 e2 1f bc 1a 15 3f 3c 23 38 9b bb
       0.0043735825 -0.009758653 0.011662746 -0.0047369166
000020 23 b0 b4 bc 70 f0 b5 bb c8 ca 6a bb 39 fd 4c bc
       -0.022056645 -0.005552344 -0.0035826433 -0.012511545
000030 9b f4 ff ba 6b 25 97 bc 2b d4 68 bc 09 44 b9 bb
       -0.0019527854 -0.01845046 -0.014210741 -0.0056538624
000040 c1 11 b9 bb 72 f8 7e bc 9c 95 c3 b8 6d 1f 77 3b
       -0.0056478684 -0.015562164 -9.3261915e-05 0.003770794
000050 f5 74 f1 ba 15 a2 2b ba 92 9a 95 bc 20 b0 3f bc
       -0.0018421697 -0.00065472844 -0.018262181 -0.011699706
000060 87 08 33 3c cb b5 81 3d 97 9a 1a 3d ad 7f b9 bc
       0.010927326 0.063335024 0.037745085 -0.022643888
000070 64 72 98 bd 3e 4d 96 bc 88 24 53 bc 8e bb 16 bc
       -0.07443693 -0.018347379 -0.012887128 -0.00919999
000080 79 54 b4 bb 4a fe 5d bc ca 9b 67 bc 63 26 f3 bb
       -0.005503234 -0.013549397 -0.014136264 -0.0074203475
000090 f7 62 60 3c 62 d7 98 bc 53 bd 52 bc 0d 15 e2 bc
       0.01369547 -0.01865739 -0.012862521 -0.027597928
0000a0 22 ff 77 bb 37 d5 0e 3b b2 a1 95 bc d5 34 13 bd
       -0.003784128 0.0021794566 -0.018265579 -0.035939056
0000b0 f4 64 c5 bb 2f 1c 12 bc 9e 3d 92 bc c4 50 27 bc
       -0.0060239974 -0.008917852 -0.017851647 -0.010212127
0000c0 e8 56 b3 bb 93 d9 4f bc 0a df af bc 1c 58 1f bc
       -0.0054730065 -0.012686151 -0.021468658 -0.009725597
0000d0 f4 02 67 bb b0 5a 25 bc 6a 40 84 bc fb a0 95 b7
       -0.0035249563 -0.010092422 -0.016143996 -1.7837147e-05
0000e0 9a f1 a2 bc 06 3c 0e bc 37 bb cf 3b f9 9f 9a bc
       -0.019890595 -0.008681303 0.0063394564 -0.018875109
0000f0 32 c9 e2 bc 42 d9 30 bc 52 84 71 ba 61 72 87 bc
       -0.027683828 -0.010793986 -0.00092131377 -0.016534032

sequential/conv1d_2/BiasAdd/ReadVariableOp f4 [64]
000000 7c e8 d0 3c bd 7d 64 bd 3c 47 73 bb d0 73 ac bd
       0.025501482 -0.055783976 -0.0037121316 -0.08420527
000010 9b 66 30 bc c8 ed 91 bb 8f e5 7c 3d 53 0e 22 bd
       -0.010766651 -0.0044533946 0.06174236 -0.039564442
000020 6d 3a 8b bb 08 47 86 bc 07 6f b4 3c c8 a5 92 3b
       -0.0042489083 -0.016391292 0.022025598 0.004475329
000030 ab ca 8d bb bc b3 8e bc bf a4 a0 b9 1a 0a ad bc
       -0.0043271384 -0.017419688 -0.00030640324 -0.02112298
000040 2b 70 7f bc 2a 80 9f bc 05 f4 63 bc a2 2e 27 bc
       -0.015590708 -0.019470293 -0.013913159 -0.010203989
000050 aa 1d 8b bb ba 83 af bb 23 2c 5c bc bd 4f 15 bc
       -0.0042454796 -0.005356279 -0.013438257 -0.009113249
000060 92 b5 10 bc fd 63 e1 bb fa 02 23 b6 1e cb 23 bc
       -0.008832352 -0.0068783746 -2.4290625e-06 -0.009997157
000070 c8 23 eb b9 f4 0d 6d bb a6 78 31 b8 d4 61 bc ba
       -0.00044849352 -0.0036171647 -4.231245e-05 -0.0014372417
000080 1c fe 7e b9 34 f6 0d bc f5 c6 1b bc 79 9a 84 3d
       -0.00024317991 -0.008664656 -0.009507884 0.06474776
000090 0f 65 70 bb 84 30 dc b4 ca b4 c1 3c 5f 5a cf 3b
       -0.003668133 -4.1013493e-07 0.023645777 0.0063279117
0000a0 5a b2 c2 bb 14 ca 00 bc 69 5d 27 bc d4 af 26 ba
       -0.0059416713 -0.007860679 -0.010215142 -0.0006358598
0000b0 95 71 7d bc ab 35 14 bc a3 67 eb bb bb e8 4d bb
       -0.015468975 -0.009045999 -0.0071839853 -0.0031419236
0000c0 b6 1a 2f 3b 7c c4 2a 3d 9f 9f 1c bc 08 42 f2 bb
       0.0026718802 0.04169129 -0.009559541 -0.0073931254
0000d0 8a 3c 2b bb f1 6c 86 bb f8 2f 1e bc 4d 5d 1e bb
       -0.0026128613 -0.0041023423 -0.009654991 -0.0024164498
0000e0 e8 a9 05 ba 11 a1 63 3c 72 a7 03 bd 50 1a 69 bc
       -0.00050988654 0.013893382 -0.03214211 -0.014227465
0000f0 65 bb e9 bb 17 57 9f b8 b3 24 6a bc a8 d9 4a ba
       -0.007132935 -7.5979326e-05 -0.014290976 -0.0007738122

sequential/conv1d_3/BiasAdd/ReadVariableOp f4 [64]
000000 0d e0 63 3d 7f 9a 9a bb 66 0b 73 bd 75 70 22 bc
       0.055633593 -0.0047181244 -0.059337042 -0.009914507
000010 e0 7c ac bb 23 c7 43 bd dc 33 27 3c 13 2f 83 bc
       -0.0052639097 -0.047797333 0.010205235 -0.016013658
000020 0a 4b a3 3b e9 5a 2f 3d f6 c2 82 3a 61 f4 76 3d
       0.0049833106 0.042811308 0.0009976316 0.06029165
000030 bf 4c 35 3d 62 9b e1 3c 17 d8 77 bc 3d 05 67 bd
       0.044262644 0.027539913 -0.015127203 -0.05640148
000040 7b 6d 69 3c 07 96 00 3c d4 0c 88 3b 21 22 5b 3d
       0.014247294 0.007848269 0.00415192 0.053499345
000050 0b 17 48 3d 22 ec 15 3d ca 29 48 3a 7d c2 01 3d
       0.0488501 0.036602147 0.00076356216 0.03167962
000060 4a ff a0 ba 4a db d0 3c 19 5d 7b 3c 0e 5a 52 3d
       -0.0012283113 0.02549519 0.01534202 0.051355414
000070 ef 08 7c 3c ad c5 45 bb 76 30 63 bc ad 36 aa 3c
       0.015382989 -0.0030177638 -0.013866534 0.020778025
000080 8e fd c0 bc 63 05 32 3c ea 9c 8f bc cb 9c 70 bc
       -0.023558404 0.010865542 -0.017530877 -0.01468582
000090 70 e2 2a bc 27 32 d9 3b 87 fb 29 3d 20 dc 4e 3d
       -0.0104299635 0.006628293 0.04149964 0.050502896
0000a0 3e 69 98 ba 27 b1 55 3d 2c f1 9f 3c d9 32 88 bb
       -0.0011628044 0.0521709 0.01952418 -0.004156452
0000b0 99 70 17 3c c8 86 a7 3a 5b 8d 43 bd 5a 1f 5d bd
       0.009243154 0.0012781257 -0.04774223 -0.053984977
0000c0 d2 1b 5d 3d 0f b6 25 3d 4f a0 51 bc 6b 57 0e 3c
       0.05398161 0.040456828 -0.012794568 0.008687834
0000d0 39 05 0f 3d 8c b3 00 3d de 74 0a bc bc 92 98 3c
       0.03491709 0.03142123 -0.008450715 0.018624656
0000e0 cc 3a 0b 3d f1 2b aa 3c 44 b5 28 3d b0 85 12 bc
       0.03399162 0.020772906 0.041188493 -0.008943006
0000f0 b6 4a 3e bb 99 37 18 3d 8e 06 76 bc bd 5f 98 3b
       -0.002903623 0.037162397 -0.015016211 0.004650085

sequential/conv1d/Conv1D f4 [64, 1, 5, 3]
000000 88 85 21 3e 81 16 66 3c 0c f7 f9 3c d9 de 27 3e
       0.15773594 0.014043451 0.030513309 0.16393603
000010 ad 96 ef 3c dd 92 ab bd 29 1b 27 3e 9e c9 c2 bc
       0.029246652 -0.08377621 0.16318955 -0.02377778
000020 44 48 a6 bc ad a4 0e 3e 4b c1 99 3c 10 46 30 bc
       -0.02029813 0.13930006 0.018768927 -0.010758892
000030 00 46 15 3e e1 d4 fd bc 36 6d 9f bc 5a c9 ab 3a
       0.14577484 -0.030985298 -0.019461256 0.0013106272
000040 ee 0d dc 38 3a 16 09 3d 08 81 67 3b 79 42 dd 38
       0.00010493012 0.033468463 0.0035324711 0.00010550483
000050 7b 16 b1 3b 02 80 b9 3a 0f e7 df 38 05 f6 08 bd
       0.005404291 0.0014152529 0.00010676507 -0.033437748
000060 ba 4f 5f 3b 28 38 df 38 03 37 c2 bc 66 aa 9c 3a
       0.003407462 0.000106439285 -0.023707872 0.0011952638
000070 61 2f e3 38 59 25 2e 3c 09 22 ce 3d 49 2e 25 bd
       0.000108330285 0.010629022 0.100650854 -0.040327344
000080 41 03 00 3d 3d 3e d3 3d 59 77 82 bd 52 5d 34 3d
       0.031253103 0.103146054 -0.0637042 0.04403431
000090 b4 d1 d6 3d b8 dd 95 bd ff 59 2b bd c8 32 c9 3d
       0.104892164 -0.0731768 -0.041833874 0.09824139
0000a0 ca 60 b5 bd 15 0f 19 3c 9a f1 bb 3d 6d 50 aa bd
       -0.08856352 0.009341975 0.09176941 -0.08316121
0000b0 41 67 df bc af 1f 5d bc 43 9d 1c 3d 86 39 5b 3d
       -0.027270915 -0.0134963235 0.038235914 0.053521655
0000c0 a8 0c 5b bc 4d 73 f8 3c 7c 9f 35 3d 7e d2 75 bc
       -0.013369717 0.030328417 0.04434155 -0.0150037985
0000d0 2a 01 11 3d 1e b9 c0 3c b9 ca d4 bc 73 cd 39 3d
       0.0354015 0.02352577 -0.025975572 0.045361947
0000e0 a9 0a 28 3d cb 51 74 bb 62 98 33 3d 60 c9 de 3b
       0.04102579 -0.0037280198 0.043846495 0.006798908
0000f0 76 30 04 bd 6a 10 66 3d d0 9a 8f 3d 39 9d 01 bd
       -0.03227278 0.056167997 0.0701195 -0.03164408
000100 1b 12 76 3d f0 4a 47 3d ef 2e b4 bc db 10 7b 3d
       0.06007586 0.04865545 -0.021995036 0.06129537
000110 69 e9 d9 3c 2b 0f 5a bc 0a db 87 3d ca 74 70 3d
       0.026600556 -0.01330928 0.06633575 0.05870513
000120 7f df 81 bc 7a ff 8d 3d 39 5d 7d 3d 2d 05 5b bd
       -0.015853642 0.06933494 0.061856482 -0.053471733
000130 c8 ba c9 3a c2 53 01 b8 20 b0 38 bd 7e 76 93 3b
       0.0015390748 -3.0834002e-05 -0.04508984 0.0045002094
000140 c9 86 94 bd 74 dc 21 bd 21 5a fe bb 25 28 9c bd
       -0.07252271 -0.03951688 -0.007762209 -0.076248445
000150 34 5f 8b bc 79 5c 4b bc 85 72 8b bd 3d b8 0a bd
       -0.01701317 -0.012412184 -0.06808952 -0.03386711
000160 75 e8 ee ba ae 65 ab bd de 13 14 b9 33 c4 00 39
       -0.0018227237 -0.08369003 -0.00014121781 0.00012280121
000170 9e 97 5c bc d9 a2 94 b9 ce 27 9f 38 3f d5 38 3c
       -0.013463883 -0.0002835009 7.589125e-05 0.011281311
000180 ce 05 9e b9 dc a2 bd b7 7a 6c 15 3b fa b7 c1 b9
       -0.00030140433 -2.2606393e-05 0.0022800253 -0.00036948902
000190 cb 52 c4 38 25 d7 87 bb b7 0d 09 b9 bf ee ae b8
       9.36143e-05 -0.0041455203 -0.00013070447 -8.3414365e-05
0001a0 ef b5 b3 bb 72 ae ea 3c 2f 5b 6f 3d 7c 7a 86 3d
       -0.0054843347 0.028647635 0.05843657 0.06566331
0001b0 b6 57 92 bb 40 13 99 3d 8b a8 c1 3c b7 14 f0 bb
       -0.0044660224 0.07474375 0.023639938 -0.007326688
0001c0 be 7d 4b 3d 46 00 a0 3d 69 dc e0 bb 72 cd 7a 3d
       0.049680464 0.07812552 -0.0068622124 0.061231084
0001d0 ef cf 69 3d 24 7c 0b bc 7d c9 97 3d 14 86 12 3d
       0.057083067 -0.008513484 0.07411478 0.035772398
0001e0 e3 f3 df 3c e8 0c 2e 3d a9 58 fc 3c 17 16 ad 3c
       0.027337974 0.042492777 0.030803995 0.021128697
0001f0 d3 b7 2a 3d 94 3b 1d 3d bf 15 d6 3c 2d 5a 2e 3d
       0.041679215 0.038386896 0.026133416 0.042566467
000200 fa 60 da 3c 18 c1 7f 3c d6 1d 24 3d 71 d3 07 3d
       0.02665757 0.015610002 0.040067516 0.03316063
000210 59 51 cf 3c b1 93 23 3d 83 f6 fd 3c b2 a4 20 bb
       0.025307344 0.03993577 0.031001335 -0.0024512229
000220 0d 2c 21 3a ba 18 5f bc ee fb 70 bb 1e 7e ca 39
       0.00061482267 -0.013616735 -0.0036771256 0.00038622407
000230 f4 3f 87 bc e2 df 13 bb c4 c2 18 3a a7 19 0e bc
       -0.016509987 -0.0022563864 0.0005827362 -0.008673108
000240 5f 5f 48 bb 5c c4 df 39 46 b6 60 3c 23 b3 77 bb
       -0.0030574424 0.00042680174 0.013715332 -0.0037795983
000250 d9 f5 12 3a 39 e2 5a 3c 68 41 6b 3d 4e 16 91 3d
       0.0005606092 0.0133596 0.057435423 0.070843324
000260 02 7f a8 3c 72 81 81 3d 0a bf 92 3d f7 46 18 bd
       0.020568375 0.06323518 0.07165344 -0.037177052
000270 d3 5b 72 3d 4d 75 91 3d e7 86 2e bd 5f ce 79 3d
       0.0591696 0.071024515 -0.04260912 0.060987826
000280 c1 86 92 3d 4c 53 1f 3d 2d 95 50 3d 54 cd 90 3d
       0.071546085 0.038897797 0.050923515 0.07070413
000290 1f 23 8a bd 4e f9 5f b8 88 fe 80 37 39 e7 d7 ba
       -0.0674498 -5.3399526e-05 1.5377314e-05 -0.0016472108
0002a0 60 34 bf b8 62 4a e2 37 57 40 23 bc 53 4f 55 b8
       -9.117345e-05 2.6975937e-05 -0.00996407 -5.0857034e-05
0002b0 80 b5 e9 b7 a6 33 31 3c 54 7a ec 37 86 d3 d8 37
       -2.7860282e-05 0.010815537 2.8190356e-05 2.5847705e-05
0002c0 ff 21 60 bc f9 11 d4 b7 46 7f 1c b8 ec 48 2d 3c
       -0.01367998 -2.5280739e-05 -3.731183e-05 0.010576468
0002d0 73 e9 b0 38 5d cf 34 b9 63 fe 03 ba 71 7f d9 38
       8.435817e-05 -0.00017243387 -0.000503516 0.00010371104
0002e0 0a a4 dd 38 2e 9a 1c 3b 04 0f 25 39 f9 bb 75 b9
       0.00010568656 0.002389561 0.0001574122 -0.00023435046
0002f0 9f 7e e1 3a e8 7e 2b 39 ec 6f a6 39 63 22 ca b9
       0.0017203874 0.00016355107 0.00031745376 -0.00038554062
000300 e1 ad d7 38 06 f3 de b9 34 29 4b ba d5 67 45 bb
       0.000102843864 -0.00042524206 -0.0007749975 -0.0030121703
000310 04 22 57 3b 9e 31 11 3c 47 fd 46 bb ab 95 61 3b
       0.0032826671 0.008861927 -0.0030363367 0.0034421484
000320 bb 36 7e 3a c8 df 34 bb 7c 72 37 3b b7 49 10 bc
       0.00096974865 -0.0027599204 0.0027991822 -0.0088066375
000330 d3 d1 33 bb 8c 3b 5b 3b 53 f6 12 3c 97 d3 35 bb
       -0.0027438297 0.003345224 0.008969861 -0.0027744526
000340 5f 7c 86 3b 69 2b fb ba ca 05 b3 bc d0 c4 54 3b
       0.0041041817 -0.0019162718 -0.021853346 0.0032465942
000350 8f 5f a9 3c 8a 9c 16 bd c6 42 d1 3a ea e9 28 bd
       0.020675449 -0.03677038 0.0015965335 -0.041238703
000360 0d 59 1d bd c7 5b 65 3b b5 d4 20 3d c3 f0 09 bd
       -0.038415004 0.003499733 0.039265353 -0.033676874
000370 0b 65 61 bb f3 ec 18 bd a7 4f fd bc a8 cb 34 3b
       -0.0034392502 -0.037335347 -0.03092177 0.002758721
000380 e8 35 83 bc 0a 1f 7e 3c 2e 40 8e 3c fa 6d 8d 3b
       -0.016016915 0.01551033 0.017364588 0.0043160887
000390 6f 9d d9 3c fa 6b ba 3c ca 30 02 3c b8 87 c7 3c
       0.026564328 0.022756565 0.0079462025 0.024356708
0003a0 e5 78 97 3c 99 01 ba bc d4 34 e2 3c 1b 71 92 3c
       0.018490264 -0.02270584 0.027613081 0.017876199
0003b0 e5 e4 fc 3a 3c 5c d5 3c 8f 1e a0 3c 2f f2 07 bb
       0.001929429 0.026044957 0.019545821 -0.0020743718
0003c0 b4 70 12 3c 84 bc 6c 3b 0f 1f 1d bd d4 29 26 3c
       0.008938003 0.0036123106 -0.038359698 0.010141809
0003d0 a3 1d 06 3c a0 3c 10 bd 3c 27 3b 3c d2 91 a9 3a
       0.008185777 -0.035214067 0.011422928 0.0012937135
0003e0 01 a8 b7 3c 50 ec e0 3b 4b ed 1f 3c ef 6c e7 3c
       0.022418978 0.006864108 0.009761165 0.028250186
0003f0 36 e1 1b 3c 27 9c 9c 3b 32 ba 3d 3b f2 f5 02 38
       0.009514144 0.004779357 0.0028950092 3.122347e-05

sequential/conv1d_1/Conv1D f4 [64, 1, 5, 64]
000000 3b 01 7b bc 5c c0 85 32 15 d5 93 3c b4 30 24 bc
       -0.015320118 1.5570713e-08 0.018045941 -0.010021377
000010 63 f3 c6 bc e6 a8 92 bc 79 3c d5 ad b2 38 a7 bc
       -0.024285978 -0.017902803 -2.4242152e-11 -0.020412777
000020 25 b3 36 bc b9 89 9e 2b 58 1c c1 ba af 11 31 a7
       -0.01115111 1.1264801e-12 -0.0014733179 -2.457327e-15
000030 3f 53 93 b1 7f 6e b4 b8 d5 19 63 ba 42 a1 5d b9
       -4.287727e-09 -8.60365e-05 -0.0008663212 -0.00021136276
000040 78 7e 89 ba 32 82 5d b7 d4 10 a5 bb e3 06 28 03
       -0.0010489961 -1.320294e-05 -0.0050374065 4.937867e-37
000050 c2 52 a3 ba 7a be ef bc 4a 96 ef 3c 10 01 11 9e
       -0.0012460577 -0.029265631 0.029246468 -7.676456e-21
000060 26 be 87 aa 64 6e 40 3d 2e 8b 54 bb 88 e0 29 bc
       -2.411276e-13 0.046980277 -0.003243159 -0.010368474
000070 98 3b 5f 14 22 32 fe bb 74 ec 5a 02 13 ae 20 bb
       1.1270376e-26 -0.007757441 1.6083969e-37 -0.0024517819
000080 fb 24 b7 83 9e 12 a9 3c 45 fd da b9 0a 13 da b1
       -1.0764264e-36 0.02063876 -0.000417689 -6.3467995e-09
000090 c8 ab 96 bb ac 99 5b 03 79 26 de 02 f2 cf 97 b5
       -0.0045981146 6.4534722e-37 3.264205e-37 -1.1310897e-06
0000a0 93 3d 58 b7 42 9c a4 bb 71 b7 a9 bc 80 db c1 03
       -1.288894e-05 -0.00502351 -0.020717354 1.1393915e-36
0000b0 01 e4 9c 36 3c fd 31 bb c0 cc 84 ae 4c c8 40 39
       4.6757054e-06 -0.0027158996 -6.039036e-11 0.00018385163
0000c0 4a cd 73 83 c4 8e 05 ba 62 47 d0 bc 5e f1 08 b4
       -7.164694e-37 -0.0005094821 -0.025424663 -1.2753796e-07
0000d0 2b 51 21 ba 64 50 9e ba b0 cc e5 ba 52 e1 5b 0c
       -0.00061537576 -0.0012078402 -0.0017532315 1.6938951e-31
0000e0 e4 b4 84 3c a5 ad 87 3c 7e 4d 09 bc 25 ec 1b ac
       0.016199537 0.016562292 -0.008380292 -2.2157911e-12
0000f0 73 92 1f 39 d0 a7 d2 b9 3b de af 36 cb 61 e0 02
       0.00015217978 -0.0004017935 5.2412774e-06 3.2969972e-37
000100 7c 18 7e bc 63 38 36 33 9c 60 94 3c ad 40 23 bc
       -0.015508767 4.242646e-08 0.018112473 -0.00996415
000110 a8 e0 c5 bc 4a 75 90 bc db 24 80 ae 31 da a3 bc
       -0.024154976 -0.017634053 -5.827313e-11 -0.020001503
000120 e0 d8 32 bc 7b 3e 59 2c 25 54 c6 ba b9 b3 a1 24
       -0.010915965 3.0872238e-12 -0.0015131278 7.012708e-17
000130 3b 5c 90 b1 3b 68 a8 b8 85 15 67 ba df d9 5e b9
       -4.201437e-09 -8.030279e-05 -0.00088151573 -0.00021252733
000140 8b 0a 8c ba 0a 9d 60 b7 45 3e a7 bb ce f6 4c 03
       -0.0010684294 -1.3388004e-05 -0.0051038587 6.023353e-37
000150 f7 23 a2 ba 19 11 f3 bc 63 5a f0 3c 5f 7c 1b 9f
       -0.0012370337 -0.029671239 0.029339975 -3.2925404e-20
000160 77 c8 84 aa 53 ab 32 3d 48 10 56 bb ea 0f 2d bc
       -2.358701e-13 0.04362042 -0.0032663513 -0.010562876
000170 d6 d3 8b 11 f9 92 01 bc ee e7 b2 03 24 88 22 bb
       2.2060887e-28 -0.007908576 1.0515148e-36 -0.0024800384
000180 43 7c 69 83 2f e5 b1 3c 9d f3 01 ba 4d 1a cb b1
       -6.861519e-37 0.021715729 -0.00049572607 -5.9110676e-09
000190 12 32 a0 bb 04 43 ba 82 2e 2c c4 03 a6 c9 95 b5
       -0.0048887813 -2.7368709e-37 1.1529988e-36 -1.1160053e-06
0001a0 b3 0b 58 b7 ec 51 58 bb 25 8d ab bc cb 58 40 81
       -1.2877327e-05 -0.0033007814 -0.020941326 -3.5328536e-38
0001b0 ea 38 7f 36 8d 7f 22 bb ab 78 87 ae 08 c0 42 39
       3.803109e-06 -0.0024795264 -6.160524e-11 0.00018572819
0001c0 82 13 68 83 10 4c 0b ba f2 e1 d2 bc 09 48 c8 b3
       -6.8201066e-37 -0.00053137634 -0.025742505 -9.326329e-08
0001d0 a8 1f 2b ba ff 0f 9b ba ea de eb ba 26 eb a0 0d
       -0.00065278495 -0.0011830329 -0.0017995511 9.917371e-31
0001e0 ca d0 80 3c cf a3 8a 3c 44 d1 03 bc 65 36 45 ac
       0.015724558 0.016923813 -0.008045498 -2.8025579e-12
0001f0 98 fe 2b 39 a9 eb d7 b9 d1 6b ec 35 fa 86 2c 83
       0.00016402674 -0.00041183576 1.7614749e-06 -5.0701203e-37
000200 a8 1f 7b bc 87 bc 33 33 7d e0 97 3c 28 e4 27 bc
       -0.015327372 4.184815e-08 0.018539662 -0.010247268
000210 26 96 c4 bc ea e0 91 bc 09 8a 81 ae 44 c3 9f bc
       -0.023997378 -0.017807443 -5.890761e-11 -0.01950229
000220 b1 32 30 bc a4 aa 43 2c d8 73 bc ba 68 26 13 a2
       -0.010754273 2.7805891e-12 -0.0014377786 -1.9942547e-18
000230 77 5f ac b1 e4 58 a9 b8 14 3d 6d ba f4 7f 6a b9
       -5.016712e-09 -8.075105e-05 -0.0009049934 -0.00022363645
000240 51 b4 8a ba 41 f7 73 b7 9f 08 a4 bb e9 68 3f 03
       -0.0010582303 -1.4541497e-05 -0.0050059105 5.6250286e-37
000250 0f ec a1 ba 4a ca f7 bc 5f 79 eb 3c f9 8b 80 9d
       -0.0012353676 -0.030247826 0.028744398 -3.4026046e-21
000260 cb 6b 56 aa 20 4f 2d 3d e6 cb 57 bb 35 90 30 bc
       -1.9044416e-13 0.042311788 -0.003292793 -0.010776569
000270 4a 73 b8 92 dd 83 ff bb f8 7a 50 82 d9 33 23 bb
       -1.1640453e-27 -0.0077977017 -1.5316717e-37 -0.002490273
000280 2c 74 b6 83 2f d2 98 3c 77 09 e2 b9 89 28 11 b2
       -1.072367e-36 0.01865491 -0.0004311313 -8.4493275e-09
000290 bc 13 9b bb d5 b2 3e 02 e5 24 13 83 b9 65 98 b5
       -0.004732577 1.4010318e-37 -4.324177e-37 -1.1354488e-06
0002a0 28 82 4d b7 29 af 66 bb ff ed ab bc 22 9f 53 83
       -1.22492565e-05 -0.0035199618 -0.020987509 -6.2190003e-37
0002b0 9d cb 53 36 7c 3a 1f bb ee a8 60 ae 6a 26 4c 39
       3.1559969e-06 -0.0024296334 -5.1081743e-11 0.00019469266
0002c0 ae a3 1f 82 0a 9c f9 b9 1d dc d3 bc 65 33 dc b3
       -1.1728449e-37 -0.0004760924 -0.025861794 -1.0253897e-07
0002d0 2a 2c 34 ba c3 8c 9f ba 3a 34 e5 ba 71 10 4e 0e
       -0.0006873036 -0.0012172688 -0.0017486878 2.5399377e-30
0002e0 8d 6c 73 3c 3f bf 87 3c 55 14 01 bc 63 be 25 ac
       0.0148574235 0.016570685 -0.007878383 -2.3553596e-12
0002f0 85 76 43 39 a1 79 f6 b9 40 8c 3b 36 ec 0c 80 82
       0.00018640801 -0.00047011397 2.7946808e-06 -1.8815326e-37
000300 ba 5c 75 bc a2 35 1a 33 1e bb 9c 3c 68 c7 27 bc
       -0.014975721 3.5904698e-08 0.019132193 -0.010240413
000310 7a 86 c6 bc 7f d3 92 bc e5 5a 86 ae 73 af 9e bc
       -0.024234045 -0.017923115 -6.1097606e-11 -0.01937077
000320 36 44 2f bc f6 ba e3 26 75 63 b7 ba 6c 06 19 24
       -0.010697415 1.5801965e-15 -0.0013991432 3.3182026e-17
000330 cd 16 a1 b1 45 cd a0 b8 4f cc 6d ba 96 5f 6e b9
       -4.688309e-09 -7.667629e-05 -0.0009071277 -0.00022733057
000340 4f ff 79 ba 7a d2 79 b7 0b d5 a7 bb 67 3a 5d 03
       -0.000953664 -1.4890562e-05 -0.0051218322 6.5013105e-37
000350 13 67 94 ba 22 1e fe bc ff d1 e8 3c 40 f9 18 9e
       -0.0011322222 -0.031020228 0.028420446 -8.098357e-21
000360 51 8c 3c aa 33 a6 2c 3d fd b8 57 bb fb 21 2e bc
       -1.6746436e-13 0.042150687 -0.0032916658 -0.010628219
000370 38 4d af 13 5c 2b 00 bc 9e 48 20 83 48 80 23 bb
       4.4252354e-27 -0.007822838 -4.7103134e-37 -0.0024948288
000380 c4 73 41 83 f5 87 a0 3c 98 76 0b ba bf 89 b3 b1
       -5.6850495e-37 0.01959608 -0.0005320101 -5.2252456e-09
000390 2d a6 8c bb 4f f0 bb 83 0e 84 bb 82 bb ab 9c b5
       -0.0042922706 -1.1046044e-36 -2.7552976e-37 -1.1672886e-06
0003a0 63 83 6f b7 60 2d 08 3b 20 79 aa bc 40 95 35 03
       -1.4276101e-05 0.0020778999 -0.02080971 5.336245e-37
0003b0 fa d6 77 35 7d c2 25 bb ec 07 9e ae b0 ab 44 39
       9.23275e-07 -0.0025292926 -7.1864154e-11 0.00018755975
0003c0 d2 e1 a8 83 c0 f9 04 ba 62 40 d5 bc 92 c7 c0 b3
       -9.925998e-37 -0.0005072616 -0.026031677 -8.976998e-08
0003d0 13 bb 48 ba 5c 1d 9e ba 5a 9a f0 ba 5c 6b 30 0d
       -0.0007657271 -0.0012063193 -0.0018356547 5.4363416e-31
0003e0 5c c5 6e 3c e9 68 7a 3c f1 9e 04 bc ae 28 e0 ac
       0.014573421 0.015283802 -0.008094535 -6.3709793e-12
0003f0 02 50 61 39 26 3b 08 ba 4d 1b 00 37 34 cd 41 81
       0.00021487477 -0.0005196802 7.635751e-06 -3.5595728e-38

sequential/conv1d_2/Conv1D f4 [64, 1, 3, 64]
000000 46 eb 12 bd e4 be 21 33 7f 27 96 af b3 77 e9 35
       -0.035868905 3.7659348e-08 -2.7312905e-10 1.739469e-06
000010 d9 f3 13 bb 5f 31 60 33 63 df a6 3d 3a 56 06 2a
       -0.0022575764 5.2198967e-08 0.081480764 1.1931507e-13
000020 3c 0c 0b 34 5e 81 50 bb 20 c2 c0 ae 7b e1 5b 83
       1.2949835e-07 -0.003181539 -8.765633e-11 -6.4617155e-37
000030 f8 89 ca bd 0d 19 20 83 ca bb 58 0f 17 b6 1f b9
       -0.09889597 -4.704853e-37 1.0685789e-29 -0.00015231255
000040 a3 41 b0 37 1a 8f 98 03 ea ca b0 a6 37 a7 03 bb
       2.10114e-05 8.966612e-37 -1.2267453e-15 -0.0020088681
000050 31 8a b1 37 ba 2f 9e b9 53 8d 00 83 eb ec 6a b2
       2.1164395e-05 -0.00030171667 -3.777805e-37 -1.3674462e-08
000060 2b b5 77 3d 40 6b 9b 3d b5 e3 47 3d ce f3 37 b6
       0.06047551 0.07588816 0.048801143 -2.7411038e-06
000070 9a f9 fa 3b b3 ad 0a 06 cd 70 05 9b 57 4c 7e 83
       0.0076591494 2.608253e-35 -1.103795e-22 -7.4731525e-37
000080 25 fc bc b8 e9 99 04 38 b4 8a 5a 94 0b e0 4e 83
       -9.011504e-05 3.1614592e-05 -1.1033542e-26 -6.079515e-37
000090 5c 18 ee bc 52 09 11 bb 93 a2 84 ae 8e 64 0e b2
       -0.02906435 -0.00221308 -6.031544e-11 -8.288351e-09
0000a0 31 22 d8 a3 de 06 9d bc d7 7f db b6 66 c3 bc bc
       -2.3433248e-17 -0.019168314 -6.541591e-06 -0.023042392
0000b0 5a cc cd bc cb ce fc ac 80 5e 9f 02 31 1f c3 02
       -0.025121856 -7.1852294e-12 2.341719e-37 2.8670578e-37
0000c0 61 17 b9 81 cf 2f 4b ba 90 9c 25 03 4c d2 58 1e
       -6.7991814e-38 -0.00077509595 4.8668867e-37 1.1478433e-20
0000d0 ee 34 bd 2a 27 45 2c 9e 98 d5 62 9e 32 94 14 22
       3.3609872e-13 -9.1199046e-21 -1.20085105e-20 2.0136194e-18
0000e0 14 72 0b 02 83 85 8e 03 03 b0 84 3c dc 16 f0 02
       1.0244846e-37 8.376663e-37 0.01619721 3.5277951e-37
0000f0 d9 81 58 bd ac b4 c8 00 c7 b8 97 95 5a 17 2c 03
       -0.052858207 1.8431912e-38 -6.127994e-26 5.0573063e-37
000100 2e 0a 11 bd 48 ab 53 b3 16 72 9d af ed 50 1b 36
       -0.0354101 -4.9283045e-08 -2.8639197e-10 2.3143905e-06
000110 63 c2 26 bb f8 d5 aa 33 4f fa ab 3d cf 47 31 2a
       -0.0025445453 7.9551626e-08 0.08397352 1.5745672e-13
000120 8e 8d 4f b3 4c b0 45 bb e3 69 7d ae d4 58 7f 83
       -4.8324686e-08 -0.0030164896 -5.7619586e-11 -7.5039735e-37
000130 9a fa c7 bd 61 3f 95 82 1a ce ad 0e bf 84 84 39
       -0.09764595 -2.192996e-37 4.284626e-30 0.00025275906
000140 75 14 b3 b7 92 23 1e 81 6c 4a 91 a6 1e be 03 bb
       -2.1347989e-05 -2.9045537e-38 -1.0081568e-15 -0.0020102332
000150 d7 8d 8d 36 55 55 a4 b9 fd 0d 85 03 35 75 62 b2
       4.21864e-06 -0.00031344095 7.820249e-37 -1.3181581e-08
000160 12 df 5d 3d 80 0e 9b 3d 05 ae a7 3d 4f 0d 93 33
       0.054167815 0.07571125 0.081874885 6.847642e-08
000170 98 8a 30 3b 8c e7 2f 06 18 19 d4 9a 7f 8b 9b 02
       0.0026938077 3.3083956e-35 -8.7721686e-23 2.285527e-37
000180 9d 21 c3 b8 b5 56 97 37 9c 87 5f 96 08 de c5 82
       -9.3045855e-05 1.8040979e-05 -1.8056587e-25 -2.9073988e-37
000190 f8 78 f1 bc de 31 10 bb 72 4b 83 ae a9 c5 04 b2
       -0.029476628 -0.002200238 -5.970592e-11 -7.728354e-09
0001a0 21 c2 3d a3 b9 0c 9e bc bc 52 d8 b6 06 3b bb bc
       -1.0286819e-17 -0.019293176 -6.446933e-06 -0.022855293
0001b0 52 43 39 bd 8e 5c c3 ac 8d 5c a9 02 4d 3d 7a 02
       -0.045230217 -5.552509e-12 2.488544e-37 1.8384692e-37
0001c0 ff 5d de 82 70 f1 2f ba 22 e3 34 03 8e 72 28 20
       -3.267392e-37 -0.0006711697 5.315798e-37 1.4268056e-19
0001d0 7c c2 4d 2a 2a 07 30 20 d4 79 09 9e 0a 8a 5a a2
       1.8275133e-13 1.491015e-19 -7.277913e-21 -2.9617586e-18
0001e0 ab 08 54 80 7c 3c 4d 03 d3 7a 37 3c fb 46 2f 03
       -7.717291e-39 6.031352e-37 0.011198717 5.150936e-37
0001f0 88 25 55 bd f0 63 94 82 b3 84 92 95 d3 43 91 02
       -0.052037746 -2.1804007e-37 -5.917829e-26 2.1344764e-37
000200 63 a7 12 bd 78 7a dc b2 dd f8 80 af a4 65 be 35
       -0.035804164 -2.5667063e-08 -2.3459892e-10 1.4185684e-06
000210 b6 ac c8 ba 36 4b 85 33 92 27 a9 3d dc e1 0b 2a
       -0.0015310261 6.206976e-08 0.082595006 1.2424041e-13
000220 c7 17 84 b5 2e b7 38 bb 4b b4 61 af 26 d7 d2 82
       -9.841687e-07 -0.0028185355 -2.0527684e-10 -3.0980216e-37
000230 a9 6d c7 bd 20 e3 6f 03 97 b8 c7 0f d8 6d 4a 39
       -0.09737713 7.0496514e-37 1.9694016e-29 0.00019305141
000240 8d c5 c9 b7 ac 7d 7e 83 8d fa 69 a6 bb 13 07 bb
       -2.4053059e-05 -7.4788156e-37 -8.1177674e-16 -0.0020611126
000250 28 ad 25 37 07 dd 99 b9 e2 1e 8f 81 55 28 72 b2
       9.8750825e-06 -0.00029347112 -5.257422e-38 -1.4095424e-08
000260 93 6a 38 3d c7 18 a6 3d fa 4f c1 3d 90 b5 bf b5
       0.045023512 0.08110195 0.094390824 -1.4283451e-06
000270 2c db 8d 3b 63 fc 6a 83 bb 4b 8a 9b e7 08 a3 83
       0.004329106 -6.9056145e-37 -2.2879125e-22 -9.582323e-37
000280 05 b0 11 b9 fe c1 dd 37 0f 3e c4 95 c4 88 cc 82
       -0.0001389385 2.6435588e-05 -7.926168e-26 -3.0053606e-37
000290 73 7c f1 bc a9 9e 13 bb 19 7d 89 ae 07 ad 5e b2
       -0.029478287 -0.0022524989 -6.2522605e-11 -1.2961443e-08
0002a0 d2 ee 26 a3 4d e2 98 bc 35 4b 12 b7 49 0f da bc
       -9.04945e-18 -0.018662596 -8.719789e-06 -0.026618617
0002b0 d7 a6 8a bc 91 29 ec ac 3e 07 f8 82 3f dd 0d 03
       -0.016925259 -6.7121382e-12 -3.6444482e-37 4.1690154e-37
0002c0 2b 37 e8 01 54 1f 27 ba a3 e7 1c 03 a1 a3 51 a1
       8.53025e-38 -0.00063752127 4.6110186e-37 -7.1028515e-19
0002d0 ef f6 39 2a 73 d6 6f 1f a2 fb 06 9e ce 63 80 a2
       1.6516973e-13 5.0787607e-20 -7.145937e-21 -3.480014e-18
0002e0 62 7e a7 02 8a f1 9f 03 4e da 9d 3c d8 1a 62 03
       2.4610985e-37 9.400635e-37 0.019269135 6.6446246e-37
0002f0 04 14 58 bd ec 23 ac 83 e7 cc ac 95 cc ea 05 82
       -0.052753463 -1.0117499e-36 -6.9793526e-26 -9.83868e-38
000300 b9 97 8a ba 9b 45 4a 2e 0c 75 d6 08 d3 b4 22 b7
       -0.0010573781 4.5991305e-11 1.2907174e-33 -9.698054e-06
000310 41 60 11 b7 44 47 99 b7 bf 89 0a bc 0c 24 28 20
       -8.665084e-06 -1.8272207e-05 -0.008455693 1.424208e-19
000320 00 4d f0 ae 63 7d 27 ba 6d 6c 18 27 36 a9 b5 02
       -1.09276144e-10 -0.00063892285 2.1153015e-15 2.6692682e-37
000330 93 05 36 3b 88 eb b0 83 62 86 f2 82 41 1b 34 b6
       0.0027774319 -1.0398426e-36 -3.5635836e-37 -2.6837954e-06
000340 0e 5d be ae 52 46 8d 02 5d 68 f5 2d bb 6f a7 b6
       -8.6567295e-11 2.075845e-37 2.7899622e-11 -4.989995e-06
000350 35 be 20 32 18 31 1f b2 23 1d 09 83 a5 49 f8 ac
       9.356474e-09 -9.266181e-09 -4.029413e-37 -7.05676e-12
000360 d9 20 f9 bb 2c 86 65 bc c8 20 79 39 06 20 19 34
       -0.0076027927 -0.01400904 0.00023758702 1.4260885e-07
000370 81 5a 5f ba 2c 41 ea 02 d8 ad 9e 1f ee 1a 34 03
       -0.0008520261 3.4420617e-37 6.72032e-20 5.292816e-37
000380 8e 52 92 a8 d9 3b 4c ae 7b 79 9b 83 1e c7 22 03
       -1.6245059e-14 -4.6437385e-11 -9.137972e-37 4.7836097e-37
000390 46 98 2e 2e e9 74 1c b7 6b 45 4e 83 72 65 ec 30
       3.9698266e-11 -9.325545e-06 -6.0617647e-37 1.7200092e-09
0003a0 6f 87 b8 03 ba a6 9c 2c f8 61 dc ae c4 ca a4 b9
       1.0845642e-36 4.452297e-12 -1.00218445e-10 -0.0003143159
0003b0 df 34 b6 bb 95 86 34 36 59 d5 aa 83 65 9a 4e 03
       -0.005560502 2.6900427e-06 -1.0040684e-36 6.0715195e-37
0003c0 bc 72 ce 02 7a d4 0d bb fe a0 8c 82 a4 72 a3 82
       3.0334834e-37 -0.0021641538 -2.0663556e-37 -2.4016498e-37
0003d0 9e 7d 06 b7 fa 7d bd 02 03 0b 96 83 23 fc 56 29
       -8.01627e-06 2.784336e-37 -8.818736e-37 4.773624e-14
0003e0 4e f2 a8 03 f3 d0 35 02 17 3d 97 b9 ce a3 7d 83
       9.929783e-37 1.3357745e-37 -0.0002884648 -7.4538056e-37
0003f0 16 15 91 ba 41 6a 9a 82 c2 e0 79 2e b4 40 cc 17
       -0.0011068906 -2.2689253e-37 5.681567e-11 1.3199524e-24

sequential/conv1d_3/Conv1D f4 [64, 1, 3, 64]
000000 9e ea 88 bc 8c 8c 06 ba 0b bc 44 83 20 45 ac 39
       -0.016713437 -0.00051326375 -5.7815086e-37 0.000328579
000010 9e df e9 02 79 a1 98 02 47 a2 1e bc ca 6f f4 91
       3.4364623e-37 2.2427073e-37 -0.009682245 -3.8565308e-28
000020 7d e0 81 03 1b 25 18 83 bf e5 60 3b 73 aa 04 3b
       7.6334785e-37 -4.471138e-37 0.0034316627 0.0020243197
000030 c9 b3 5d 9b d1 f3 03 b8 52 46 76 2d 3f a6 61 83
       -1.8338783e-22 -3.1459906e-05 1.3999095e-11 -6.63124e-37
000040 6e 7f 93 83 3f 6f db b5 d0 7d 8e 02 6a 43 5a a5
       -8.66914e-37 -1.6349148e-06 2.0937238e-37 -1.8931327e-16
000050 ce 41 22 03 9a c7 71 89 9e 99 e0 82 a3 4c 0a 3b
       4.768306e-37 -2.9103172e-33 -3.3002014e-37 0.0021102808
000060 bc af 73 83 50 01 f8 82 f0 ee 37 37 40 7f 5e 83
       -7.1613015e-37 -3.6441078e-37 1.0963282e-05 -6.5386012e-37
000070 be bc a6 83 d2 8c f9 32 94 75 42 03 02 a3 91 ac
       -9.799936e-37 2.9051453e-08 5.714645e-37 -4.1392454e-12
000080 e1 f0 ab 36 af 96 86 83 f9 46 9d 3a 33 bd dd bb
       5.124239e-06 -7.910407e-37 0.0011999301 -0.006766939
000090 0c ac 98 03 88 a7 30 2c bf 4c 57 bb ed 55 6c 3c
       8.973257e-37 2.5104103e-12 -0.003285214 0.014424783
0000a0 87 2e 46 bd d5 9c 1e ba f0 e7 73 83 16 18 c3 83
       -0.048384216 -0.00060505915 -7.1677533e-37 -1.14666e-36
0000b0 da 55 2b 83 2e 3f 0c 82 6c 95 2b 83 8f 36 be 24
       -5.0350936e-37 -1.0303707e-37 -5.042391e-37 8.249179e-17
0000c0 b4 f4 21 3a d3 c5 87 3c 92 0a 96 81 f2 0a 09 bb
       0.0006178126 0.016573822 -5.5116465e-38 -0.0020911065
0000d0 8e 79 01 82 62 29 c3 83 7a da 0a 82 e2 c4 4c 81
       -9.512308e-38 -1.1470571e-36 -1.0201338e-37 -3.761014e-38
0000e0 14 a6 47 ab dd 79 99 bc 81 55 3c a6 36 f6 6e 83
       -7.092948e-13 -0.018734867 -6.534148e-16 -7.022455e-37
0000f0 83 3d ab 83 58 e6 e2 9f 22 3b ac 83 79 83 4a bc
       -1.0064599e-36 -9.6095795e-20 -1.0122828e-36 -0.012360447
000100 e1 54 7c bc b6 20 04 ba 82 b1 b6 03 e1 f7 a3 39
       -0.015401096 -0.00050402747 1.0737752e-36 0.00031274467
000110 5c a5 43 03 cc 0a 41 03 e9 57 dc bb 90 de 7e 92
       5.7495173e-37 5.6729997e-37 -0.006724347 -8.0422597e-28
000120 43 ee de 82 dd 4b 04 82 dc e9 22 3b b7 a7 08 3b
       -3.2756724e-37 -9.7196e-38 0.002485863 0.002085192
000130 60 29 27 98 24 90 41 38 12 34 3c 2c c7 eb da 82
       -2.1605133e-24 4.6149027e-05 2.6745312e-12 -3.216755e-37
000140 69 26 a2 03 ec e9 8c b6 c6 52 2d 03 6b 38 c3 a5
       9.530323e-37 -4.199557e-06 5.093515e-37 -3.3865338e-16
000150 2a e6 bf 03 40 33 49 89 68 5f 34 03 16 09 03 3b
       1.1278814e-36 -2.4218593e-33 5.3006767e-37 0.001999443
000160 66 da 79 03 db 67 31 83 07 02 2c 37 01 f1 8b 82
       7.3425232e-37 -5.2134845e-37 1.0252471e-05 -2.0562544e-37
000170 8f aa c1 03 cd 69 9a 34 49 ca 36 03 62 6c c5 ab
       1.1382679e-36 2.8761715e-07 5.3717205e-37 -1.4027774e-12
000180 9f a5 b4 36 4e 1c 65 82 20 ff a8 3a 8e 1f 26 bc
       5.383699e-06 -1.6832386e-37 0.0012893416 -0.010139359
000190 3c 6b 31 03 1e 3c 7f 2c cb e2 3f bb 54 91 46 3c
       5.2138724e-37 3.6271051e-12 -0.0029279466 0.01211961
0001a0 3e ce 36 bd cd 99 a3 b9 42 6b 2f 83 50 8d eb 81
       -0.04463028 -0.00031204373 -5.1551004e-37 -8.652814e-38
0001b0 1b 2c 83 02 60 a1 b6 01 77 6a 5b 83 f5 0a 6f a4
       1.9274035e-37 6.7087803e-38 -6.448053e-37 -5.1834145e-17
0001c0 71 ed 42 3a 7f d7 8e 3c 53 17 1e 82 ae 43 a9 ba
       0.0007435894 0.01743674 -1.16147e-37 -0.0012913847
0001d0 e8 2d ed 01 aa 75 43 02 ce 10 37 83 fe 40 b1 83
       8.712592e-38 1.4360105e-37 -5.3798157e-37 -1.04180465e-36
0001e0 d8 b5 85 ab 39 46 a1 bc fb e6 70 a5 ff ce c2 83
       -9.50069e-13 -0.019686805 -2.0894941e-16 -1.1449819e-36
0001f0 33 c3 c2 02 36 51 f6 9f ad c3 2d 03 fa a3 55 bc
       2.8617777e-37 -1.04319405e-19 5.1064755e-37 -0.013039583
000200 4e 47 95 bc b2 da 36 ba 9f ad e1 02 3a 37 8a 39
       -0.018222477 -0.0006975337 3.3160432e-37 0.00026362558
000210 58 b5 ec 82 28 74 8e 02 11 48 01 bc d2 58 4f 8d
       -3.478117e-37 2.0931695e-37 -0.007890717 -6.3893713e-31
000220 32 44 36 82 74 c4 95 03 19 63 39 3b ad 03 aa 3a
       -1.3390819e-37 8.802536e-37 0.0028287827 0.0012971066
000230 70 e7 2d 99 b7 e3 c0 37 3d 9a 4a 2d fb 1e 63 02
       -8.990629e-24 2.2994222e-05 1.1516618e-11 1.6686217e-37
000240 d8 eb 0b 03 57 cb 8c b6 50 41 88 83 01 2f 31 a7
       4.1119164e-37 -4.195997e-06 -8.008357e-37 -2.4589165e-15
000250 b4 5f 95 03 fd 33 90 8a 29 f6 3b 02 27 a1 0c 3b
       8.779405e-37 -1.3886251e-32 1.3809235e-37 0.002145836
000260 6e 7d 59 02 a3 bb 36 83 56 c7 33 37 8c 79 36 82
       1.5978639e-37 -5.370039e-37 1.0715643e-05 -1.340613e-37
000270 b9 7f a7 03 d9 a3 94 b3 74 e5 4f 03 e1 91 15 ac
       9.8447015e-37 -6.921591e-08 6.109523e-37 -2.1255153e-12
000280 7f 43 d4 36 74 5c ec 82 ea 04 aa 3a e6 d9 22 bc
       6.32595e-06 -3.4730149e-37 0.0012971435 -0.009939646
000290 e1 ff 0a 85 c7 18 0c ab bd 2f 4b bb 67 de 58 3c
       -6.535726e-36 -4.9772377e-13 -0.0031003796 0.013236619
0002a0 b7 9c 3f bd f0 01 89 b8 e0 b4 3b 83 5c 80 3e 03
       -0.046780314 -6.53303e-05 -5.5161995e-37 5.598333e-37
0002b0 92 2f cf 02 39 a4 9d 83 8b 46 80 03 3b 41 13 a4
       3.044322e-37 -9.265334e-37 7.53936e-37 -3.1930796e-17
0002c0 63 a9 04 3a 25 6c 8b 3c 36 c2 3f 01 09 14 80 ba
       0.0005060641 0.01701934 3.52205e-38 -0.0009771596
0002d0 b7 15 3b 00 5b 7e 03 03 f5 0a 45 83 8c 80 55 83
       5.426084e-39 3.864249e-37 -5.7905675e-37 -6.274264e-37
0002e0 91 05 4c ab 0b 99 b1 bc 0e fd 04 a6 46 66 8f 02
       -7.2483084e-13 -0.021679422 -4.6139653e-16 2.1070664e-37
0002f0 45 85 80 03 9d af 6e a1 4e 54 0f 83 2b 4e 76 bc
       7.553761e-37 -8.086996e-19 -4.21207e-37 -0.015033285
000300 6a 70 80 ba 93 41 d5 a2 13 ea de 82 fd 44 28 94
       -0.0009799127 -5.7803195e-18 -3.275432e-37 -8.495438e-27
000310 38 b0 51 02 fa 2d ac 03 1f 4f 8a b9 0c d6 92 02
       1.5405467e-37 1.0119807e-36 -0.0002638036 2.1575629e-37
000320 f4 d3 43 83 64 29 ce 02 a1 50 6b 36 11 dd a5 b2
       -5.754866e-37 3.0292737e-37 3.506466e-06 -1.9309057e-08
000330 1d eb 70 0e 9f 13 90 1c f7 cb 41 a7 bb 99 a8 83
       2.9695487e-30 9.534193e-22 -2.68947e-15 -9.909447e-37
000340 80 01 dc 02 ad b7 e2 ab 0e 6b a4 03 64 5b 59 a9
       3.2326956e-37 -1.6109246e-12 9.663632e-37 -4.8262948e-14
000350 eb 27 0c 83 98 91 ae a3 f5 12 9c 02 e2 22 e8 b2
       -4.1188126e-37 -1.8926779e-17 2.293302e-37 -2.7024218e-08
000360 36 bb 1b 82 d9 a5 77 03 57 50 db 1d f9 d7 8f 83
       -1.1441328e-37 7.277716e-37 5.8051887e-21 -8.4543695e-37
000370 7f 31 b9 03 83 41 00 af 7d ec 7e 03 63 5b c4 aa
       1.08846865e-36 -1.1664807e-10 7.4915367e-37 -3.4880006e-13
000380 50 da d0 2d e0 eb 58 83 4c f9 3a b4 46 e3 ac 39
       2.3743812e-11 -6.3747466e-37 -1.7413294e-07 0.00032975728
000390 76 17 48 83 fc 93 0c 91 3b 37 87 b8 3a fc b0 b4
       -5.880165e-37 -1.1089654e-28 -6.447589e-05 -3.2966074e-07
0003a0 ec fe ac b8 88 66 e0 ac 17 f0 5d 02 fa 79 1b 83
       -8.249082e-05 -6.377846e-12 1.6305418e-37 -4.569043e-37
0003b0 e4 e1 b2 02 85 9b 6f 83 b2 cf 40 02 33 a8 08 a6
       2.6284404e-37 -7.0414315e-37 1.4165538e-37 -4.741243e-16
0003c0 d8 2c e1 b3 38 b5 66 3a 2c e5 3b 83 47 e4 65 ae
       -1.0485536e-07 0.00088008074 -5.5217437e-37 -5.2271323e-11
0003d0 26 44 09 03 ae ff fc 08 2a 44 f9 02 10 73 e9 82
       4.033891e-37 1.5226808e-33 3.6626386e-37 -3.4302316e-37
0003e0 0c 87 0f 2b aa 44 65 b8 7c da 34 02 12 f2 de 82
       5.099122e-13 -5.4661803e-05 1.3287013e-37 -3.275891e-37
0003f0 dc b6 2b 83 3d 6b aa 03 30 3f d2 82 27 c7 fe b7
       -5.0462296e-37 1.0016323e-36 -3.0892995e-37 -3.0371897e-05

sequential/dense/BiasAdd/ReadVariableOp f4 [64]
000000 60 4b b5 bb 6f 1f 41 3d 33 3b 5d 3d a2 b2 c4 bb
       -0.005532667 0.047149118 0.054011535 -0.00600274
000010 87 78 95 bb 33 22 03 3d ff 6a 37 3d 22 6b aa 3c
       -0.004561487 0.032015037 0.044779774 0.020803038
000020 37 89 99 3d 0a 2c 03 bc f4 be f8 bb c8 68 03 3d
       0.07496875 -0.008006105 -0.0075911228 0.03208235
000030 6f 82 12 3d eb fe 5c 3d b7 b8 c4 bb 23 b2 17 bc
       0.035768922 0.053954046 -0.006003465 -0.00925878
000040 93 5b 18 3e 94 3e c4 bb 9f b2 62 3d 52 91 0f 3d
       0.14878683 -0.005988905 0.055346128 0.035050698
000050 74 13 0c 3d 64 85 1c bc 23 01 4d 3d 9f 5e 83 bb
       0.03419824 -0.009553287 0.050049912 -0.0040090824
000060 e0 4e 9c 3d 30 c9 94 bc 27 37 d9 3d 02 a4 46 3d
       0.07632232 -0.01816234 0.106062226 0.048496254
000070 d9 5e f0 bb fd 45 32 bc 45 fb 04 3d 5b 0c 20 3d
       -0.0073355255 -0.010880944 0.03246619 0.039074283
000080 78 72 6b 3d 81 35 c2 3d 40 ef ae bb cb e8 44 3d
       0.057482213 0.09482861 -0.0053385794 0.04807357
000090 40 3a 4b 3d 3c e5 3e ba ab 08 73 3d 8f 2d 27 3d
       0.0496161 -0.00072820834 0.05933444 0.040814932
0000a0 3e bb c4 bb 34 23 ff 3c 9d 1a 13 bc b6 55 a9 3c
       -0.0060037663 0.031144716 -0.008978513 0.020670753
0000b0 2a 1b 89 3d df 2d 16 3d 26 9f 8d 3d 56 6f c6 3d
       0.06694634 0.03666484 0.06915121 0.096892044
0000c0 7a bf c4 bb 7c 89 9e bb ff e5 05 3e e3 19 61 3d
       -0.006004271 -0.0048381668 0.13076018 0.054956328
0000d0 48 7c 71 3d f3 4d b9 3d db 06 37 3d 59 f2 09 bc
       0.058956414 0.09048071 0.044684272 -0.008419597
0000e0 83 ec 60 3d 6c 02 d0 bb 8d 06 82 3d ab 65 a9 3b
       0.054913055 -0.006347945 0.06348906 0.0051695905
0000f0 c4 09 50 ba cd 84 d2 3c c3 70 8e 3d 55 98 d8 bb
       -0.00079360255 0.02569809 0.06955101 -0.0066099563

sequential/dense_2/BiasAdd/ReadVariableOp f4 [5]
000000 ed f1 84 3c 31 8c 4c 3d 7a 13 f7 bd de 82 69 3d
       0.01622864 0.049938384 -0.12064262 0.05700957
000010 b1 7c b0 bc
       -0.021543832

sequential/dense_1/BiasAdd/ReadVariableOp f4 [32]
000000 87 bf c4 bb b1 ce f4 3c 2d a6 07 3c ac b5 c4 3b
       -0.006004277 0.029883714 0.0082793655 0.0060031023
000010 98 d0 af bc 0d 40 0c 3d b2 49 79 bd be 2d bb bc
       -0.02146177 0.03424077 -0.060861297 -0.02284896
000020 f6 c5 c4 bb cf 98 91 bb 2f 9d 67 bd 3e 50 38 3d
       -0.006005044 -0.004443265 -0.056546386 0.0449984
000030 e7 25 ac 3c 92 7d 96 bd c1 6c 9a 3d 9c 74 ea 3d
       0.021014167 -0.073481694 0.075402744 0.11448023
000040 fd bb bc 3c 49 f7 8e 3c 57 40 40 bc 44 8a 80 3d
       0.023038859 0.0174519 -0.01173409 0.06276372
000050 9a e6 dd 3d 3e bc c4 bb 07 1c ec 3d ac 99 69 3c
       0.108349994 -0.0060038855 0.11528783 0.01425783
000060 1b fe 61 3d de 3c 67 3d 5e ce 46 3d c9 20 b3 3d
       0.055173974 0.05645453 0.04853665 0.08746488
000070 a6 2b a3 3d 67 70 71 3d 79 a9 5c bc 33 9a 80 3d
       0.0796731 0.058945086 -0.01346814 0.06279411

sequential/dense/MatMul f4 [64, 2432]
000000 22 5b 2b bd 3c c8 b7 3c 05 d7 38 bd c3 85 f7 bc
       -0.041834958 0.022434346 -0.045126934 -0.03021515
000010 89 5d 3c 3d e8 08 f7 bc 43 9b 3f 3c 10 18 f8 bc
       0.04598764 -0.030155614 0.011694732 -0.030284911
000020 dc 7b 45 bd dc 58 4d bc b9 01 16 3d 55 5a 98 bc
       -0.048213825 -0.012533393 0.036622737 -0.018597761
000030 a8 11 58 bd cd 8e 23 bd 40 4b 22 3c cb 8b f3 3c
       -0.052751213 -0.039931107 0.009905636 0.029729744
000040 b0 1f 13 bb 11 04 34 bd 45 bf 08 bd 25 42 c0 bc
       -0.0022449307 -0.04394919 -0.033385534 -0.02346904
000050 5f 4b 38 bd fa 99 4a bd 94 bc 84 bc 46 5d 23 bd
       -0.044993754 -0.04946325 -0.016203202 -0.039883874
000060 7d 96 24 3d 63 a0 8b 3c 27 98 00 bd c4 8a 86 3c
       0.04018258 0.017044252 -0.031395104 0.01642359
000070 fd eb 31 3d c2 e1 30 bd 08 5e 57 3c cb 39 27 3c
       0.043437947 -0.04318405 0.013144977 0.01020665
000080 4c ae 61 bc 72 0f f0 3c 8c 0c 0c bd 01 0f f7 3a
       -0.013774466 0.02930424 -0.034191653 0.0018849076
000090 3e ea 74 bc be 0d 53 bc fa 53 39 bc a7 9e 44 bd
       -0.014948426 -0.012881694 -0.0113115255 -0.048002865
0000a0 15 6e ad bc 1a 42 00 bd 1f 69 fd bb e0 14 33 3b
       -0.021170655 -0.03131304 -0.0077334787 0.0027325675
0000b0 39 25 23 bd 21 2b c5 bc a7 5d 0b 3d 3e 0f 99 3c
       -0.03983042 -0.024068417 0.03402486 0.018684026
0000c0 23 76 cc 3c 6a 97 8f 3c e0 86 0b bd 1e cc 5a 3c
       0.024958676 0.017528255 -0.034064174 0.013354329
0000d0 10 1a b5 bb 44 eb c9 bc d0 b9 29 bd 42 e8 0f bd
       -0.0055267885 -0.024648316 -0.04143697 -0.035133608
0000e0 ba 96 ba 3c f2 e8 f7 bc cb e1 21 3c de f4 fe 3c
       0.02277695 -0.030262444 0.009880493 0.031122621
0000f0 1c 29 87 bc b7 f9 c4 bc 30 b4 cc 3b ae 69 bb 3c
       -0.016499095 -0.024044855 0.006247066 0.02287754
000100 be 8f f3 bc 6e 3a 3d bd 00 8a 72 bb 16 90 5c 3c
       -0.029731628 -0.0461983 -0.0037008524 0.013462087
000110 04 58 42 3c 0a d7 0d bd 99 72 0a bd d7 9b c4 3c
       0.011861805 -0.034628905 -0.033800695 0.024000091
000120 34 39 78 3c b5 7b d1 3c e9 b7 52 bc 66 27 8a 3c
       0.015150357 0.025571683 -0.01286123 0.01686449
000130 5a 37 fa bc fa 00 24 3d e7 3f 3b bd b2 6d b6 bc
       -0.030543972 0.040039994 -0.04571524 -0.022269104
000140 9c 19 4c bc d0 57 a3 bc c0 c3 07 3a 6c 89 db bc
       -0.012457278 -0.019939333 0.00051790103 -0.026798926
000150 39 d7 ba bc 26 e5 21 3d 4f 4b 83 bb c7 44 32 bd
       -0.022807704 0.039525174 -0.00400678 -0.043522622
000160 87 29 4e bd 10 3b 6c bc 4a 85 cf 3c ea 5f 9f bc
       -0.050332572 -0.0144183785 0.025332112 -0.019454915
000170 a9 98 08 3d 5f f6 4a bd 74 6c 1a 3c b2 14 32 bd
       0.033348713 -0.049551364 0.009425271 -0.043476768
000180 75 06 08 3d fd 04 42 bd 20 29 ac ba 6f 99 19 bc
       0.033209283 -0.04736804 -0.0013134815 -0.00937496
000190 f2 94 3c 3c cc de 1a bd 76 41 f1 3b 96 48 c1 3c
       0.011510121 -0.037810132 0.00736254 0.023594182
0001a0 b8 8d 21 bd ed f2 27 3d 0c e6 66 3c ed d2 96 bb
       -0.039441794 0.041003156 0.014092933 -0.004602781
0001b0 54 04 0a bc 0f 2d 84 3c 82 12 99 3c d7 36 39 3d
       -0.0084238835 0.016134767 0.018685583 0.045218315
0001c0 b0 f0 87 bc f7 04 1d bc 4c 82 67 bc 5c 97 90 3c
       -0.01659426 -0.009583703 -0.014130186 0.017650299
0001d0 94 10 80 bc 12 c2 c0 bb 22 eb c9 3c a1 ad ca 3c
       -0.015632905 -0.00588251 0.024648253 0.024740996
0001e0 9a 3f 1e bc 4e a1 10 bd 7e 53 40 bd d2 24 2d bd
       -0.0096587185 -0.035310082 -0.046954624 -0.042271443
0001f0 c4 1e 0f 3c 1f 99 bf bc eb 9b 2c bd 54 d5 f2 bc
       0.008735362 -0.023388444 -0.042140882 -0.029642738
000200 ae 75 c3 3c 43 65 04 3d e5 44 be bc b1 39 23 bd
       0.023859825 0.032323133 -0.02322621 -0.03984994
000210 b2 ae 29 bd 1f 03 1b 3d 12 da d2 3c f9 34 47 3d
       -0.041426368 0.037844773 0.02573875 0.048634503
000220 6e 1d 00 bd a1 82 03 3d a3 63 af bb 74 58 1a 3c
       -0.031278066 0.032107 -0.005352454 0.009420503
000230 c9 fb 29 3c 1a 85 a2 3c f4 5b 61 bc a1 20 26 bd
       0.010374972 0.019838858 -0.0137548335 -0.04055846
000240 6f 75 39 3d 95 1c c9 3c e6 ba a2 3c 2f 22 5d bd
       0.04527801 0.024549762 0.01986451 -0.05398768
000250 cd 41 69 3b 68 d6 21 bd fe fe ac 3c 3d 93 24 bd
       0.00355922 -0.039511114 0.021117684 -0.04017948
000260 cf b1 1f bd d4 af 48 bc cc 85 83 3c 72 dd 9e bc
       -0.03898793 -0.012248952 0.01605501 -0.019392703
000270 62 e3 6e 3c 9f a7 b0 bc 60 84 03 bd 83 9c 2e 3c
       0.0145805795 -0.021564303 -0.032108665 0.0106574325
000280 b1 a3 03 3d 2b 24 3f bb ca db 41 3c 9a af d3 3c
       0.03213853 -0.0029165845 0.011832187 0.02584057
000290 ba ab e7 bc b3 25 0f 3d da 8c f8 bc 7e f4 46 bc
       -0.028280128 0.034948062 -0.0303406 -0.012143252
0002a0 88 81 45 3c 30 22 cc 3b 6c 02 86 bc ba ac 0f bc
       0.012054808 0.0062296614 -0.016358577 -0.008769209
0002b0 98 cf 1a 3c 00 23 39 bb bc a9 59 3c 39 a4 34 bd
       0.009448908 -0.0028249621 0.013285097 -0.044101927
0002c0 ac 57 4a bc d0 36 24 bd 10 bb 52 3b 81 7c 22 3d
       -0.012350004 -0.040091336 0.0032154955 0.039669517
0002d0 84 53 e3 3b de e0 1e bd fb cd 5b bd 18 46 bd bc
       0.006937446 -0.03878867 -0.053663235 -0.023104712
0002e0 9a 40 8e bc ee 4f ba 3c bd a7 db 3c 31 5d 25 3d
       -0.017364789 0.022743192 0.026813382 0.040372077
0002f0 7c 7d 05 bc 90 ef 47 3a 98 2d c7 3b e0 cf eb 3b
       -0.008147594 0.0007626945 0.0060784332 0.0071964115
000300 f1 54 ea 3b d6 33 78 3c 25 c0 34 3c df c1 c2 bc
       0.007151239 0.015149077 0.011032139 -0.023774086
000310 26 69 9a 3c 3a 07 38 bd 86 26 59 bd c5 1b f1 3c
       0.018848967 -0.044928767 -0.053015254 0.029432187
000320 80 a3 e2 bb 61 9f 40 bd c6 97 43 bd 10 9d 65 bc
       -0.0069164634 -0.047026996 -0.047752164 -0.014014497
000330 95 ff 3d bd 1b a3 e6 bc ce 0d 3b bb d4 48 f4 bc
       -0.04638632 -0.028153947 -0.0028542164 -0.029819883
000340 e8 3d 89 bb 5f 5e 8e 3c 1c 60 3d 3c 95 96 0b 3d
       -0.004188288 0.017378984 0.011558559 0.034079153
000350 f1 a8 0e bd cf a3 2b bd 00 69 94 b9 0c d2 5b bc
       -0.034829084 -0.041904267 -0.0002830699 -0.013416778
000360 f4 7d 4f bc 18 e3 18 bd 30 8c 35 bb 58 6e c4 bb
       -0.012664307 -0.03732595 -0.0027701966 -0.0059945993
000370 8d 6c 40 3d 6f 8c fb bc 80 65 77 3c ee fe 1d bc
       0.046978522 -0.030706612 0.015099883 -0.0096432995
000380 5a ca 93 3c 18 af 29 bd 92 e4 bb 3c 24 d7 27 3c
       0.018040825 -0.041426748 0.02293614 0.010244165
000390 26 f5 02 3c 48 54 fd bb 58 e8 db bc 07 2a 49 bd
       0.007993018 -0.0077309944 -0.026844189 -0.049112346
0003a0 7a 60 e1 3c 26 b7 04 bd 7e 4c 21 3d e8 f3 17 bd
       0.027511824 -0.032401226 0.03937959 -0.03709784
0003b0 da 7a 89 bc 88 a3 8f bc 5c 39 70 3c 98 3f f7 bb
       -0.016782213 -0.017534032 0.014662113 -0.0075454228
0003c0 c2 0e 87 bc 7f 1c 14 3d e7 0a 0a bd aa 0d 1f bc
       -0.01648653 0.03615999 -0.033701804 -0.009707848
0003d0 c1 f7 5b bc 08 ae 0e bd 6e 67 bd 3c 0c d9 a7 bc
       -0.013425768 -0.034833938 0.023120608 -0.020489238
0003e0 fe 13 5c bd b1 aa 09 3d 61 79 03 3d fb d6 a1 bc
       -0.053730004 0.03361005 0.032098178 -0.019755831
0003f0 d7 e4 3d bd f0 7e 5e bd a5 ed 28 3d 8b 37 2c 3d
       -0.046360817 -0.054320276 0.04124226 0.042045157
