frontend/pdiot_app/assets/models/model_online_2CNN_1dense_75.tflite (tflite, 293516 bytes, 6 tensors)

sequential_9/conv1d_23/BiasAdd/ReadVariableOp f4 [64]
0	0xbd61b411	-0.055103365
1	0x3cf7be76	0.030242186
2	0xbe5df679	-0.21676053
3	0xbe03bbad	-0.12864561
4	0xbcde761b	-0.027155926
5	0xbe84a725	-0.2590877
6	0xbdc132ca	-0.09433515
7	0xbd41cd4d	-0.04731493
8	0xbe694bca	-0.22782817
9	0xbd0be60b	-0.034154933
10	0xbe741289	-0.23835196
11	0xbec6eaa8	-0.38850904
12	0xbf092ffd	-0.5358885
13	0xbdf15239	-0.11783261
14	0xbe41809d	-0.18896718
15	0xbe92b10a	-0.28650695
16	0xbe26a548	-0.16273987
17	0xbe523ca8	-0.20530951
18	0xbe71194d	-0.23544808
19	0xbd730de6	-0.059339426
20	0xbe78934d	-0.24274941
21	0xbe19572f	-0.14974664
22	0xbea64913	-0.32477626
23	0xbd809234	-0.06277886
24	0xbe09177f	-0.1338787
25	0xbf29f97e	-0.6639632
26	0xbd247559	-0.040150974
27	0xbe4e1462	-0.20124963
28	0xbe1745a9	-0.14772667
29	0xbdecc3de	-0.11560796
30	0xbe50187d	-0.20321842
31	0xbe17a7dc	-0.14810127
32	0xbe130bd8	-0.14359987
33	0xbd5499e7	-0.051904585
34	0xbdbe2af0	-0.092855334
35	0xbe5d991c	-0.21640438
36	0x3b7aa88c	0.0038247434
37	0xbe0ca99f	-0.1373658
38	0xbe9816c4	-0.2970487
39	0xbc800315	-0.01562647
40	0xbe6b78c4	-0.22995287
41	0xbe664f6d	-0.22491236
42	0xbd29109b	-0.0412756
43	0xbe173691	-0.14766909
44	0x3d85b011	0.065277226
45	0xbe5c1ec6	-0.21496114
46	0xbec686a2	-0.38774592
47	0xbe0b65b9	-0.13613023
48	0xbe5502f4	-0.20801908
49	0x3e8959f6	0.26826447
50	0xbe4e1d81	-0.20128442
51	0xbd0437de	-0.03227984
52	0xbdc8d745	-0.098066844
53	0xbe1f9148	-0.15582764
54	0xbecedb0f	-0.40401503
55	0xbe16d522	-0.14729741
56	0xbe944b80	-0.28963852
57	0xbe3b2bc4	-0.18278414
58	0xbe552a14	-0.20816833
59	0xbe5a0a4d	-0.21292992
60	0xbe05926f	-0.13044141
61	0xbe7c54b9	-0.24641694
62	0xbd9047de	-0.070449576
63	0xbed1e505	-0.4099504

sequential_9/conv1d_24/BiasAdd/ReadVariableOp f4 [64]
0	0x3e50dd28	0.20396864
1	0xbe0bd1e9	-0.13654293
2	0x3d524062	0.05133093
3	0xbdad1002	-0.08450319
4	0x3e12ec1e	0.14347884
5	0x3c179380	0.009251475
6	0xbcfe449a	-0.031038571
7	0x3e55ab28	0.20866072
8	0xbda3c06b	-0.07995685
9	0xbe0921c8	-0.13391793
10	0xbd4091ef	-0.047014173
11	0x3dd3b16b	0.10336574
12	0x3d82da72	0.063893214
13	0xbac83926	-0.0015275821
14	0x3dece562	0.11567189
15	0x3cf77854	0.030208744
16	0xbcec7a98	-0.028867051
17	0xbf0ba1ae	-0.5454358
18	0x3d5c8eb0	0.053847015
19	0xbc6ba67d	-0.014382956
20	0xbdd462ee	-0.10370432
21	0x3d87f913	0.06639304
22	0x3dcf6806	0.10127263
23	0x3db5dd22	0.08880068
24	0xbdfd6910	-0.12373555
25	0xbd6b58d3	-0.057457756
26	0xbd254594	-0.040349558
27	0x3dfa7463	0.1222923
28	0xbe2d27db	-0.16909735
29	0xbd7734fc	-0.060353264
30	0x3d7bfb65	0.061519045
31	0x3ce09b93	0.027417934
32	0xbbaedecb	-0.0053366176
33	0x3cb397d9	0.021922993
34	0xbd9a1af3	-0.075246714
35	0xbd139c3d	-0.036037672
36	0x3d963cde	0.07335828
37	0x3e0f8c24	0.14018303
38	0x3e2128b1	0.15738179
39	0xbd2e4568	-0.04254666
40	0xbce8a0ad	-0.028396929
41	0x3e4e448b	0.20143335
42	0x3cfc8ef0	0.030829877
43	0xbdc04532	-0.09388198
44	0x3e3b720a	0.18305221
45	0x39ed2567	0.0004523203
46	0xbc142d03	-0.009043935
47	0xbce43438	-0.027856931
48	0x3cdc439e	0.026887711
49	0xbc0e0537	-0.0086682355
50	0x3e0d91f2	0.13825205
51	0xbc64c34d	-0.013962579
52	0x3cdf3b95	0.02725009
53	0x3c190b6e	0.009341104
54	0xbcc2d194	-0.023781575
55	0xbd498de6	-0.04920759
56	0x3e3c27d7	0.18374573
57	0xbd0c50a9	-0.03425661
58	0x3e11e8f3	0.1424902
59	0x3d25e492	0.040501185
60	0x3ba99ddf	0.0051762904
61	0xbd80e205	-0.0629311
62	0x3dbea09f	0.0930798
63	0x3c8f20c0	0.017471671

sequential_9/conv1d_23/Conv1D f4 [64, 1, 3, 6]
0	0x8265c0ee	-1.6879631e-37
1	0x01c61a54	7.277149e-38
2	0x0316b732	4.4291336e-37
3	0x9797357b	-9.771647e-25
4	0x9f98f5ee	-6.478136e-20
5	0x0325556a	4.8587193e-37
6	0x825b7610	-1.6123461e-37
7	0x82ddbba8	-3.258074e-37
8	0x030b1d52	4.0882087e-37
9	0x1e649a21	1.2102093e-20
10	0x9e42f5f3	-1.03211356e-20
11	0x83392d1f	-5.441841e-37
12	0x82822887	-1.9125045e-37
13	0x82306258	-1.2958661e-37
14	0x0316d003	4.4319824e-37
15	0x983a40ba	-2.4072615e-24
16	0x1e836eeb	1.3916039e-20
17	0x031494f5	4.3664285e-37
18	0x3c6a6406	0.014306074
19	0xbc0c0e77	-0.008548371
20	0xbd14fd1c	-0.036374196
21	0x3e15ae67	0.1461731
22	0xbe2803f2	-0.16407755
23	0xbdde0403	-0.10840609
24	0x3c50408d	0.012710703
25	0xbc2163d9	-0.009850466
26	0xbd0ad7aa	-0.03389708
27	0xbbebcddd	-0.0071961717
28	0xbd0e56fe	-0.03475093
29	0xbc19a3e5	-0.009377454
30	0x3c30d48a	0.010792861
31	0xbb97bcfc	-0.004630683
32	0xbcf4b005	-0.029869089
33	0xbe2130df	-0.15741299
34	0x3e53909f	0.20660637
35	0x3e13f05a	0.14447156
36	0x01b13346	6.5093105e-38
37	0x83617b5b	-6.6263162e-37
38	0x839745f2	-8.891041e-37
39	0x8338afa8	-5.4274384e-37
40	0x8342caad	-5.7244136e-37
41	0x803e26b5	-5.707686e-39
42	0x018442f8	4.858524e-38
43	0x83083cca	-4.003659e-37
44	0x83ac1776	-1.0114638e-36
45	0x832ca4a4	-5.0735255e-37
46	0x832b0f74	-5.0270123e-37
47	0x027ae262	1.8432068e-37
48	0x82ad577c	-2.547028e-37
49	0x81dd1eaf	-8.122661e-38
50	0x83c1a7b8	-1.1382027e-36
51	0x0312416a	4.2980635e-37
52	0x83753354	-7.205795e-37
53	0x8187b152	-4.984561e-38
54	0xbdb3c423	-0.087776445
55	0xbd82f88f	-0.06395065
56	0x3deeaa8b	0.11653622
57	0x3cb72c98	0.022360131
58	0xbd2596f8	-0.04042718
59	0x3d2445cd	0.04010563
60	0xbdb7c919	-0.08973903
61	0xbd87faf3	-0.06639662
62	0x3df5b065	0.11996535
63	0x3d0284ef	0.031865057
64	0xbcc865a5	-0.02446253
65	0xbbaaa916	-0.005208145
66	0xbdb0f0c1	-0.0863967
67	0xbd83a7d5	-0.06428496
68	0x3dff6de0	0.12472129
69	0xbd9592b0	-0.07303369
70	0x3d460bb3	0.048351
71	0xbd3a33c6	-0.04545953
72	0x3d7d4ce4	0.061840907
73	0x3db286f8	0.087171495
74	0xbda285ba	-0.079356626
75	0x3cf8abd5	0.030355373
76	0xbafa5199	-0.0019097804
77	0x3d180e9e	0.037123315
78	0x3d8474b2	0.0646757
79	0x3db5fd92	0.08886255
80	0xbd9f349d	-0.07773707
81	0x3cd02dba	0.02541243
82	0x3cb36c9e	0.021902379
83	0x3ceae2ed	0.02867266
84	0x3d8169f4	0.06319037
85	0x3db36b96	0.08760755
86	0xbd9fb744	-0.07798627
87	0xbd967ac3	-0.07347634
88	0xbbd38cec	-0.006456008
89	0xbc7319ca	-0.014837692
90	0x3cedd5e8	0.029032663
91	0xbcee3139	-0.029076206
92	0xbd6b9e90	-0.057524264
93	0xbe14cb89	-0.14530768
94	0xbd04397d	-0.032281388
95	0x3b10e6a1	0.0022110122
96	0x3cf32f80	0.029685736
97	0xbd0b38ba	-0.033989646
98	0xbd5ff24e	-0.05467444
99	0x3e442176	0.1915339
100	0x3ce7f935	0.028317073
101	0x3c9fe044	0.019516118
102	0x3d027979	0.031854127
103	0xbd0f08d3	-0.034920525
104	0xbd61a908	-0.05509284
105	0xbdb28ca3	-0.087182306
106	0xbbccd5b6	-0.0062510623
107	0xbd3fe78b	-0.046851676
108	0xbe03d95a	-0.12875882
109	0xbd437848	-0.04772213
110	0xbd1088d1	-0.03528673
111	0x3ca04100	0.019562244
112	0xbd3cc06f	-0.046081956
113	0x3d54eb97	0.05198249
114	0xbe07459f	-0.13210152
115	0xbd407c73	-0.046993684
116	0xbd2ac58a	-0.041692294
117	0x3cd13a0f	0.02554038
118	0x3d08dca5	0.033413548
119	0xbd8113eb	-0.06302627
120	0xbe07f76a	-0.13277975
121	0xbd47d610	-0.04878813
122	0xbd0a0f23	-0.03370584
123	0xbd127961	-0.035760287
124	0x3ab53f68	0.0013828101
125	0x3c51d285	0.012806539
126	0xbc9d9ace	-0.019238856
127	0x3c0b16b3	0.008489299
128	0xbcd75dea	-0.026289899
129	0x3d7639ae	0.0601136
130	0x3e4f91d5	0.20270474
131	0x3e6f8c92	0.23393467
132	0xbbe5d22d	-0.0070135803
133	0x3c3427bc	0.010995802
134	0xbcfcdfc8	-0.030868426
135	0x3ca6bc62	0.0203535
136	0xbc8d2973	-0.017231679
137	0xbd823b0f	-0.06358921
138	0xbbf1a80d	-0.0073747695
139	0x3c781b92	0.015143292
140	0xbcc9533b	-0.02457582
141	0xbdb9b4b0	-0.090676665
142	0xbe433294	-0.19062263
143	0xbe072b30	-0.13200068
144	0xbb8a4440	-0.004219562
145	0x3d7a3a51	0.06109077
146	0xbad67529	-0.0016361821
147	0xbdb28ed5	-0.08718649
148	0xbdbf7856	-0.09349124
149	0xbe2eeca6	-0.17082462
150	0xbb7b9c30	-0.0038392656
151	0x3d763807	0.060112026
152	0xbb75cded	-0.0037506775
153	0xbc3f48ea	-0.011675099
154	0xbcfe83ad	-0.031068647
155	0xbdacc1a2	-0.0843537
156	0xbb0c8118	-0.002143925
157	0x3d70a268	0.058748633
158	0xbbce23de	-0.006290897
159	0xbe133f3b	-0.1437959
160	0xbd8c40e2	-0.06848313
161	0xbe21e017	-0.1580814
162	0x3c16e2ed	0.009209377
163	0x3cecff3f	0.028930305
164	0x3b75d6a0	0.003751196
165	0xbe79b7f2	-0.24386576
166	0xbdc53c18	-0.096306026
167	0xbd33966b	-0.04384462
168	0x3c1bc4f9	0.009507411
169	0x3d080e5b	0.033216815
170	0xbc16cde1	-0.009204359
171	0xbc500f74	-0.012698997
172	0x3c5dabed	0.01352976
173	0xbd800b58	-0.06252164
174	0x3982bc79	0.00024935955
175	0x3cde634a	0.027146954
176	0xbbdfab53	-0.0068258434
177	0x3e829733	0.2550598
178	0x3dacbe9f	0.084347956
179	0x3def1825	0.11674527
180	0xbbdd36ab	-0.0067509017
181	0xbdb863b8	-0.09003395
182	0x3df99548	0.12186676
183	0x3cccd941	0.025005938
184	0xbc88f0b0	-0.016716331
185	0x3cf07c27	0.029356075
186	0xbc1bbde0	-0.009505719
187	0xbdc507f2	-0.09620656
188	0x3e01ad6e	0.12663814
189	0x3cb75344	0.022378571
190	0xbcf33831	-0.02968988
191	0x3d5095d8	0.050924152
192	0xbb8699f6	-0.004107709
193	0xbdc3db64	-0.0956333
194	0x3e04c0a8	0.12964118
195	0xbd461ea4	-0.048369065
196	0x3cdf63d2	0.027269278
197	0xbdd8721b	-0.10568639
198	0xbd195abb	-0.037440043
199	0x3d13c4ec	0.03607647
200	0xbaaf6a01	-0.0013383032
201	0x3ddc72e9	0.10764105
202	0xbdf1bab4	-0.11803189
203	0x3d1ad9ad	0.037805248
204	0xbd11c69e	-0.035589807
205	0x3d15a633	0.036535453
206	0x3a3f0a40	0.0007287599
207	0x3cc7cecd	0.024390602
208	0xbd30c4d0	-0.043156445
209	0x3d44c176	0.04803606
210	0xbd0b85ad	-0.03406303
211	0x3d0adf3c	0.0339043
212	0x3af0f36d	0.0018383093
213	0x3d8ec0f5	0.069703974
214	0xbdc7929b	-0.0974476
215	0x3e136152	0.14392594
216	0xbae2bf3a	-0.0017299422
217	0x3c68f7df	0.014219253
218	0xbbb9f947	-0.005675468
219	0xbd0980fa	-0.033570267
220	0x3cbe240b	0.023210546
221	0x3cd0ad13	0.025473153
222	0xbaf03b52	-0.0018328226
223	0x3c516847	0.012781209
224	0xbb71b333	-0.0036880493
225	0xbc8d83b2	-0.017274711
226	0x3bcc8dfa	0.006242511
227	0xbc865075	-0.016395787
228	0xbb147194	-0.0022650706
229	0x3c57b317	0.013165257
230	0xbb439d95	-0.0029848565
231	0x3d2c7091	0.04209954
232	0xbcdab4a7	-0.02669747
233	0xbd1844f0	-0.03717512
234	0x3a7587c0	0.00093662366
235	0x3da94188	0.08264452
236	0x3acf5730	0.001581883
237	0xbdfff5d8	-0.12498063
238	0xbce0ba04	-0.02743245
239	0x3cd188be	0.025577899
240	0x3b3d2a2d	0.002886425
241	0x3da79279	0.08182234
242	0xba8383a3	-0.0010033738
243	0x3c817d7e	0.01580691
244	0xbc85afb2	-0.01631913
245	0x3d262742	0.040564783
246	0x3ac0aaf0	0.0014699381
247	0x3da86b86	0.082236335
248	0xbaf8375d	-0.0018937398
249	0xbe2bb97f	-0.1676998
250	0xbc402a5c	-0.011728849
251	0x3d900510	0.070322156
252	0xbdab6ffa	-0.08370967
253	0x3cfaac13	0.03059963
254	0xbb78e220	-0.0037976578
255	0x3dda4a62	0.10658719

sequential_9/conv1d_24/Conv1D f4 [64, 1, 3, 64]
0	0x0347384a	5.854546e-37
1	0xbb4c10b1	-0.0031137879
2	0x0360d254	6.606913e-37
3	0xbcfcc86d	-0.03085729
4	0x3d35c4af	0.044377025
5	0xbd0f2e10	-0.034956038
6	0x3c081e6f	0.008308037
7	0xbddc36ca	-0.10752638
8	0x3cbfa759	0.023395227
9	0x3a67892c	0.0008832391
10	0xbca2605c	-0.019821338
11	0xbcf42ecb	-0.029807469
12	0xb9a93718	-0.0003227524
13	0xbcd30f5a	-0.025764156
14	0xbd258963	-0.040414225
15	0x819aef76	-5.6914275e-38
16	0x022f415d	1.2875728e-37
17	0x8a01cd7b	-6.249771e-33
18	0xbca55af4	-0.020184971
19	0x3a778363	0.00094418804
20	0xbb2d1bf4	-0.0026414366
21	0xbd0eb883	-0.034843933
22	0x032756d8	4.917658e-37
23	0xbcf825a3	-0.030291384
24	0xbd2f7d28	-0.042843968
25	0xbce193b7	-0.027536256
26	0xbcbaf9b6	-0.02282415
27	0xbb139353	-0.0022518232
28	0xbc84800f	-0.016174344
29	0xbca5b8e3	-0.020229762
30	0xbd42fa38	-0.04760191
31	0xbd2a24ab	-0.041538876
32	0xbce93a14	-0.028470077
33	0xbcf7b70d	-0.030238653
34	0xbcc22404	-0.023698814
35	0xbc0e715c	-0.008694019
36	0xbd878f7b	-0.066191636
37	0x032417be	4.8222523e-37
38	0xbbe69185	-0.0070363902
39	0xbd224965	-0.039620776
40	0xbaa6fb53	-0.0012739695
41	0xbb043266	-0.0020171641
42	0xbdc11419	-0.094276614
43	0xbca0eb35	-0.019643405
44	0xbc565099	-0.013080739
45	0x824e5b5c	-1.5160709e-37
46	0x30679adf	8.4257396e-10
47	0x837abed4	-7.3687457e-37
48	0xbbbdf1da	-0.005796653
49	0xbd3469c0	-0.044046164
50	0xbd1cdd1e	-0.03829681
51	0xbd8cc442	-0.06873371
52	0xbc2af2d9	-0.010433876
53	0xbbb1448b	-0.0054097823
54	0xbcf03c66	-0.029325675
55	0x839ad66b	-9.1005345e-37
56	0x82aaf0c6	-2.5117452e-37
57	0x3becdc98	0.0072284453
58	0xbd71e523	-0.059056412
59	0xbc137a04	-0.009001259
60	0x3bcddc4d	0.0062823654
61	0x3c589865	0.013219927
62	0x3c4f8626	0.012666261
63	0xbd197f88	-0.03747514
64	0x02ccb58b	3.0079306e-37
65	0x3bcf967a	0.006335077
66	0x83a2322d	-9.533024e-37
67	0xbd233453	-0.039844822
68	0x3d871c0a	0.06597145
69	0xbd293c0c	-0.04131703
70	0x3cb90597	0.022585673
71	0xbdce00b4	-0.10058728
72	0x3c778554	0.0151074715
73	0xbc7e7a4e	-0.015532089
74	0xbcda89b8	-0.026676998
75	0xbd6c9125	-0.057755608
76	0xba3cb103	-0.00071980077
77	0xbc5e16c3	-0.0135552315
78	0xbc480d1f	-0.01221016
79	0x831053d2	-4.2414018e-37
80	0x02e536d0	3.3679987e-37
81	0x8786c9c6	-2.028067e-34
82	0xbc1058fb	-0.008810277
83	0xbc9a1c94	-0.018812455
84	0x3b6da20a	0.0036259913
85	0xbc9ee594	-0.01939658
86	0x0300cd8c	3.7851775e-37
87	0xbd313e44	-0.04327227
88	0xbd65973f	-0.056052443
89	0xbcabc47a	-0.02096771
90	0xbcc488fd	-0.023991102
91	0xbc959c01	-0.018262865
92	0x3b8057fc	0.0039167386
93	0xbc9d124d	-0.019173766
94	0xbcec120d	-0.028817201
95	0xbd1d3563	-0.03838099
96	0xbc8d88e6	-0.017277192
97	0xbaa4ec02	-0.0012582543
98	0xbd05d7d4	-0.032676533
99	0x3caadf49	0.020858424
100	0xbd4a8476	-0.04944273
101	0x82e5be26	-3.3757666e-37
102	0xba0ae506	-0.00052984094
103	0xbcce9b36	-0.025220495
104	0xbb0cd6c3	-0.0021490313
105	0x3b95df98	0.0045737736
106	0xbd798669	-0.0609192
107	0xbc9c0678	-0.019046053
108	0xbcaea31c	-0.021318011
109	0x831d5c0d	-4.6243822e-37
110	0xb8d89d86	-0.00010329024
111	0x83188224	-4.481818e-37
112	0x3b3f9ef9	0.0029239042
113	0xbd14a0b6	-0.03628608
114	0xbce9eef3	-0.028556323
115	0xbdaf753b	-0.08567282
116	0x3c926db6	0.01787458
117	0xba979cee	-0.0011567154
118	0x3b99c253	0.0046923547
119	0x82dfc016	-3.2877157e-37
120	0x837ae1ca	-7.372759e-37
121	0x3c5387d4	0.012910802
122	0xbd4ee95a	-0.05051551
123	0xbc3f888c	-0.01169027
124	0x3c4b5f2e	0.012412829
125	0x3d39e72d	0.045386482
126	0x3c5198b8	0.012792759
127	0xbd018e49	-0.031629834
128	0x0357a642	6.3373676e-37
129	0x3ca65299	0.020303058
130	0x82b9799d	-2.725311e-37
131	0xbd3cbe91	-0.046080176
132	0x3db2c418	0.08728808
133	0xbc932ace	-0.017964747
134	0x3c95023f	0.018189548
135	0xbdfe44db	-0.12415477
136	0x3d460513	0.048344683
137	0xbca4edc3	-0.020132905
138	0xbcef67d6	-0.029224318
139	0xbd1da575	-0.03848787
140	0x3b3471f9	0.0027533753
141	0x3cc76139	0.024338352
142	0xbbd3bb86	-0.0064615635
143	0x830dabde	-4.163347e-37
144	0x81ca33ae	-7.427724e-38
145	0x8fedaf9c	-2.3437647e-29
146	0x3a12ac94	0.0005595174
147	0x3c905fd2	0.017623816
148	0xbbff38b4	-0.007788742
149	0xbc8491d7	-0.016182823
150	0x8388a53a	-8.031296e-37
151	0xbd1600d5	-0.036621887
152	0xbd29a730	-0.041419208
153	0xbc23f03f	-0.01000601
154	0xbcb585ea	-0.022158582
155	0xbc872e0c	-0.016501449
156	0xbc6016d9	-0.013677322
157	0xbbffa5d3	-0.00780175
158	0xbb77fdb6	-0.0037840432
159	0xbd38fa44	-0.045160547
160	0xbcb09cc2	-0.021559123
161	0x3b050891	0.0020299295
162	0xbd448738	-0.047980517
163	0x3d0ea710	0.034827292
164	0xbd39e517	-0.045384493
165	0x83994173	-9.007558e-37
166	0x3c555b67	0.01302228
167	0xbc7dc41c	-0.015488651
168	0xb9e8e1b6	-0.00044418656
169	0x3b8221d5	0.0039713182
170	0xbd92d7ef	-0.07170092
171	0x3d105fe1	0.035247687
172	0xbc86ac9c	-0.016439728
173	0x0391f250	8.577966e-37
174	0xbbde8e22	-0.006791846
175	0x024cf44a	1.505766e-37
176	0xbc1c85a8	-0.0095533505
177	0xbd5108da	-0.051033832
178	0xbce0ac75	-0.027425984
179	0xbdc9b249	-0.09848458
180	0x3cd1b2ba	0.025597919
181	0x3af6ecec	0.0018838919
182	0x3d1655f9	0.036703084
183	0x833535fe	-5.32531e-37
184	0x028a408e	2.031433e-37
185	0x3cac7314	0.021050967
186	0xbd404f04	-0.046950355
187	0xbbe7a230	-0.007068895
188	0x3c2c151e	0.010503082
189	0x3d8e72dc	0.069555014
190	0x3cb57c06	0.022153866
191	0xbd2f61aa	-0.04281775
192	0x8251f312	-1.5424653e-37
193	0xbc99863e	-0.01874077
194	0x839fffdc	-9.4039225e-37
195	0xbbbb6e45	-0.0057199323
196	0xbc8aa40a	-0.016923923
197	0xbb369976	-0.0027862466
198	0xbc7e8ab2	-0.015535997
199	0xbca62194	-0.020279683
200	0x3d4f65ba	0.050634123
201	0xbd2e15c3	-0.042501222
202	0x3be9fd63	0.0071408018
203	0xbb62bb4a	-0.0034596496
204	0xbc48fabc	-0.012266811
205	0xbb7b5a5f	-0.0038353426
206	0xbd351760	-0.044211745
207	0x82a4b270	-2.4200052e-37
208	0x839895ac	-8.96812e-37
209	0xafc2e98b	-3.5454337e-10
210	0x3ae208c1	0.001724504
211	0xbc4387b7	-0.011934212
212	0xbba25a4e	-0.004954613
213	0xbd45ad11	-0.048260752
214	0x82f6cd19	-3.6264172e-37
215	0xbc3b9ee7	-0.0114514595
216	0xbc5a5b80	-0.013327479
217	0xbcdb0e91	-0.026740344
218	0xbbd401c7	-0.0064699384
219	0x3c036a89	0.008021005
220	0xbd760003	-0.060058605
221	0x3bb38b5b	0.005479259
222	0x3c997d08	0.018736377
223	0xbcef7239	-0.02922927
224	0xbb4f8b3f	-0.003166869
225	0xbd120bb9	-0.03565571
226	0xbca6da68	-0.020367816
227	0xbd52a740	-0.051429033
228	0xbd13cee9	-0.036085997
229	0x833c15e4	-5.5273364e-37
230	0xbaa060ee	-0.0012235919
231	0x3c62f12a	0.013851443
232	0xbb9dbc72	-0.004813724
233	0xbd11a578	-0.035558194
234	0xbc8b625c	-0.017014675
235	0xbaf6ce22	-0.0018829743
236	0xbce128c6	-0.027485263
237	0x833e3e0e	-5.5907217e-37
238	0xba8709c6	-0.0010302595
239	0x03194922	4.504661e-37
240	0x3c8ca703	0.017169481
241	0x3d0d36d3	0.034476113
242	0xbd1ceefb	-0.038313847
243	0xbd290506	-0.041264556
244	0xbd3a785a	-0.045524932
245	0x3beab87a	0.0071631046
246	0xbd53d4a4	-0.05171646
247	0x032d55ef	5.0938778e-37
248	0x83b334ec	-1.0532825e-36
249	0x3d2e8259	0.042604778
250	0xbc9524d8	-0.018206045
251	0x3c32159e	0.010869412
252	0xb9bf2568	-0.0003645823
253	0x3bff550e	0.0077921217
254	0xbc8c2d5b	-0.01711147
255	0x3bac99cd	0.005267358

sequential_9/dense_14/BiasAdd/ReadVariableOp f4 [20]
0	0xbd881ab6	-0.0664572
1	0xbd55c1c0	-0.052186728
2	0x3e5c2148	0.21497071
3	0xbdaeb54d	-0.08530674
4	0x3d6975ea	0.056997217
5	0x3d4e2c9c	0.05033551
6	0x3e42c5eb	0.19020812
7	0xbdfaf33f	-0.12253427
8	0xbe289093	-0.164614
9	0xbe29954a	-0.16560856
10	0x3e583b17	0.21116291
11	0xbcc863ce	-0.024461653
12	0x3ce2ab81	0.02766967
13	0x3c1aa123	0.009437832
14	0x3dae332b	0.08505853
15	0x3da3063b	0.07960173
16	0xbd2d935e	-0.04237687
17	0xbe935475	-0.28775373
18	0x3e81171d	0.25212947
19	0xbc93fce4	-0.018064924

sequential_9/dense_14/MatMul f4 [20, 2944]
0	0x3e544fc2	0.2073355
1	0xbea92e48	-0.33043122
2	0xbd9c1e5c	-0.07622978
3	0xbf06e0bd	-0.52686673
4	0xbeb47c32	-0.35251004
5	0xbcda7348	-0.026666299
6	0xbe1985e7	-0.14992486
7	0xbf59b75e	-0.8504542
8	0xbe17d8c2	-0.1482878
9	0xbefbaa38	-0.49153304
10	0xbf5933ff	-0.84844965
11	0x3e8a5331	0.27016595
12	0xbf39ca08	-0.725739
13	0xbdaf6bee	-0.08565508
14	0x3d967fce	0.073485956
15	0xbe337b57	-0.17527519
16	0xbc85379c	-0.016261868
17	0xbeacd6bc	-0.3375758
18	0xbf9f0f04	-1.2426457
19	0xbe299bff	-0.16563414
20	0xbe9b821e	-0.3037271
21	0xbea4ce78	-0.32188773
22	0x3e40be5a	0.18822613
23	0x3e2e7e92	0.1704047
24	0x3dbb62b4	0.091496855
25	0xbd86b027	-0.06576567
26	0xbc338135	-0.010956098
27	0x3ef54280	0.47902298
28	0xbf12baee	-0.5731648
29	0x3e24a873	0.16079883
30	0x3c2be9ea	0.010492781
31	0xbefafd15	-0.4902121
32	0xbbcbd095	-0.0062199333
33	0x3e3d8bab	0.1851031
34	0xbd1d686e	-0.03842967
35	0xbae66a39	-0.0017579264
36	0x3e6ddc58	0.23228586
37	0xbe8505c6	-0.25980967
38	0x3e96a167	0.29420015
39	0x3d237dd3	0.039914917
40	0x3c7d604d	0.015464854
41	0x3d6997af	0.057029422
42	0xbd22571a	-0.039633848
43	0xbd453373	-0.04814477
44	0x3f06b57f	0.5262069
45	0x3cc58d51	0.024115236
46	0x3b164c17	0.0022933537
47	0xbd5eea62	-0.054422744
48	0xbf94520a	-1.1587536
49	0xbe741913	-0.2383769
50	0xbe8e03a5	-0.27737156
51	0x3b69ab85	0.0035655212
52	0xbf1bb121	-0.6081715
53	0xbcba9b93	-0.022779262
54	0xbc5d4b9a	-0.013506794
55	0xbccafcce	-0.02477875
56	0x3f09a5f1	0.5376883
57	0xbd690c12	-0.056896277
58	0x3ebdb82a	0.3705457
59	0xbc9c7be8	-0.019102052
60	0xbeeaa3ce	-0.45828098
61	0xbe819653	-0.2531
62	0xbfb28846	-1.3947837
63	0x3e09c095	0.1345237
64	0x3e5a9162	0.21344522
65	0xbee164ef	-0.4402232
66	0xbd677e8f	-0.05651718
67	0xbee8ee54	-0.4549433
68	0xbe9a4851	-0.30133298
69	0xbd51f0d7	-0.051255073
70	0x3e80f86a	0.25189525
71	0xbf80ca87	-1.0061806
72	0xbe67f6b8	-0.2265271
73	0xbefbb512	-0.49161583
74	0xbf074df1	-0.52853304
75	0x3e2271a8	0.15863669
76	0xbf436b69	-0.7633577
77	0xbd09323b	-0.03349517
78	0x3d995f58	0.074888885
79	0xbebd5acc	-0.36983335
80	0xbdb672a6	-0.08908586
81	0xbe93897d	-0.28815833
82	0xbf89822d	-1.0742851
83	0xbd7d5599	-0.06184921
84	0xbe1b37f7	-0.15158068
85	0xbe342c4c	-0.17595023
86	0x3e2673f6	0.16255173
87	0x3e533983	0.20627408
88	0x3c699dec	0.014258843
89	0xbd820dd0	-0.06350291
90	0x3bc22d77	0.00592583
91	0x3ebcc9b4	0.36872637
92	0xbf091143	-0.53541964
93	0x3dad99c9	0.08476598
94	0xbe06afed	-0.13153048
95	0xbef036c2	-0.46916777
96	0xbd65902e	-0.056045704
97	0x3e08fa4d	0.13376732
98	0xbca2fd98	-0.019896314
99	0xbd2154d8	-0.039387554
100	0x3e1dbc0c	0.15403765
101	0xbe2fb98b	-0.17160623
102	0x3e31840c	0.17335528
103	0xbd0e1c26	-0.034694813
104	0xbc5c5422	-0.013447793
105	0x3dbb56d4	0.091474205
106	0xbcc1bbeb	-0.023649177
107	0x3d347bfd	0.044063557
108	0x3eb31745	0.3497869
109	0x3c5bdd1e	0.013419418
110	0xbce82e70	-0.028342456
111	0xbd85884d	-0.06520138
112	0xbf76fec8	-0.96482515
113	0xbe55c478	-0.20875728
114	0xbe681c22	-0.22666982
115	0xbd3fb73d	-0.04680561
116	0xbe08ad3e	-0.13347337
117	0x3b683970	0.0035434626
118	0x3cfd03b7	0.03088556
119	0xbd998c0a	-0.074974135
120	0x3ea585a7	0.3232853
121	0xbe264e17	-0.16240726
122	0x3df6744f	0.12033903
123	0x3e18f726	0.1493803
124	0xbebc4f34	-0.36779177
125	0xbe18b4f6	-0.14912781
126	0xbf6c33e5	-0.92266685
127	0x3e1e429f	0.15455101
128	0x3d7be781	0.061500076
129	0xbf1cb4b1	-0.61213213
130	0xbde05230	-0.10953176
131	0xbeb60a57	-0.35554764
132	0xbe24003b	-0.16015713
133	0xbdba1bdd	-0.09087346
134	0xbeae9d05	-0.3410417
135	0xbf88c676	-1.0685565
136	0x3ec8a8cc	0.39191282
137	0xbf0c09c5	-0.5470241
138	0xbefe2234	-0.4963547
139	0x3d8a8ef6	0.06765549
140	0xbf386695	-0.7203153
141	0xbc95472b	-0.018222412
142	0xbe01a3e5	-0.12660177
143	0xbd539db2	-0.05166406
144	0xbd8e32c4	-0.069432765
145	0xbeaccfc1	-0.33752254
146	0xbf45f704	-0.7733004
147	0xbe11c84f	-0.14236568
148	0xbe912216	-0.28346318
149	0xbe09a29d	-0.13440938
150	0xbc861e30	-0.016371816
151	0x3dec623f	0.115421765
152	0xbc46623f	-0.012108385
153	0xbabb5ef9	-0.0014295272
154	0x3c7c5aa8	0.0154024735
155	0x3e53227c	0.20618623
156	0xbee6bfb0	-0.4506812
157	0x3dd89794	0.10575786
158	0xbe22bda6	-0.15892658
159	0xbcd6e7f6	-0.026233654
160	0xbde6d0c5	-0.112702884
161	0xbc9a600b	-0.018844625
162	0xbd921746	-0.07133345
163	0xbd781795	-0.060569365
164	0x3df3d0ea	0.119050816
165	0xbd6283c5	-0.055301446
166	0x3e73c8ee	0.23807117
167	0x3c22e594	0.009942431
168	0xbcde7eb3	-0.027160024
169	0x3d034c50	0.0320552
170	0xbdb137c6	-0.08653216
171	0x3c828107	0.015930666
172	0x3e7b7da2	0.24559644
173	0x39263b0b	0.00015852989
174	0xbcafc18f	-0.0214546
175	0x3c858c4d	0.016302252
176	0xbf6c5426	-0.923159
177	0xbd187309	-0.03721908
178	0xbe2599a5	-0.16171892
179	0x3ba99a3f	0.0051758583
180	0xbeb9df03	-0.36302957
181	0x3c4c6952	0.012476282
182	0x3c92ef58	0.017936394
183	0xbd92af55	-0.07162348
184	0x3e666521	0.22499515
185	0x3e0fa86c	0.14029092
186	0x3d7935a9	0.06084219
187	0x3d7e20b3	0.062042903
188	0x3df59659	0.11991567
189	0xbe6f76c0	-0.23385143
190	0xbf5de1ae	-0.86672485
191	0x3dd85400	0.10562897
192	0x3db443ae	0.088019714
193	0xbede4d1a	-0.434182
194	0xbe061b25	-0.13096292
195	0xbf085fa6	-0.5327095
196	0xbe412505	-0.18861778
197	0xbd50d451	-0.05098373
198	0x3e6d3411	0.23164393
199	0xbf62ee23	-0.8864462
200	0xbccc5cc6	-0.024946582
201	0xbec36e6e	-0.3817019
202	0xbdaf39c4	-0.0855594
203	0x3cc4e9d0	0.024037272
204	0xbf04daa0	-0.51896095
205	0xbd7421aa	-0.059602417
206	0xbe18771f	-0.14889191
207	0xbec6f26d	-0.3885683
208	0xbdac18c9	-0.08403165
209	0xbe39b78c	-0.18136424
210	0xbf13a107	-0.57667583
211	0xbe04bcf5	-0.12962706
212	0xbe8840f9	-0.2661207
213	0xbdee234c	-0.11627826
214	0xbd9f6176	-0.07782261
215	0x3d5f4a92	0.054514475
216	0xbbe9a5d8	-0.007130366
217	0xbd8e6f73	-0.06954851
218	0x3cbd113c	0.023079507
219	0x3e3886c9	0.18020166
220	0xbf27c0ed	-0.65528756
221	0xbd05f9af	-0.03270882
222	0xbdff6ce5	-0.12471942
223	0x3de61300	0.11234093
224	0x3d08163f	0.03322434
225	0x3b66b454	0.0035202699
226	0xbdc81f59	-0.09771604
227	0xbcf28574	-0.029604651
228	0x3e96413c	0.29346645
229	0xbe1aa4fe	-0.15102002
230	0x3e5f3587	0.21797763
231	0x3d08f35b	0.033435207
232	0xbd3e8ea3	-0.046522748
233	0xbe1fff07	-0.15624629
234	0xbdabc3a8	-0.08386928
235	0x3dec2345	0.11530165
236	0x3e57174f	0.21004985
237	0x3cbcfcc6	0.02306975
238	0xbb8ac5a9	-0.0042349887
239	0xbd44699e	-0.047952287
240	0xbf808d67	-1.0043153
241	0xbd820e63	-0.063504
242	0xbd8ac267	-0.067753606
243	0xbd76654d	-0.0601552
244	0xbe583373	-0.21113376
245	0xbcc70e07	-0.024298681
246	0xbcd224e8	-0.025652364
247	0xbdf75e10	-0.12078488
248	0x3e354c9a	0.17705002
249	0x3e149992	0.14511707
250	0x3d6b4cab	0.057446163
251	0xbd96c485	-0.07361702
252	0xbe830713	-0.25591335
253	0xbde89066	-0.11355667
254	0xbf7fd411	-0.9993296
255	0x3db505e7	0.088390164
