frontend/pdiot_app/assets/models/model/model_online_4CNN_3dense_4class_79.tflite (tflite, 827452 bytes, 14 tensors)

sequential_16/conv1d_48/BiasAdd/ReadVariableOp f4 [64]
-0.25662258 -0.1675338 -0.26893383 -0.033812158 -0.49217582 -0.09872032 -0.09110224 -0.24568063
-0.117415644 -0.67039466 -0.22331546 -0.32893273 0.11069144 -0.18522847 -0.1794243 -0.18072633
-0.0131556 -0.12182957 -0.07819302 -0.2503846 -0.24502735 -0.09529503 -0.2965508 0.08708419
-0.019886855 -0.5843914 -0.16050534 0.058707997 -0.2210982 -0.27043477 -0.10479309 -0.5513222
-0.075252086 -0.12711224 -0.32767898 -0.17155123 -0.13599132 -0.021802595 -0.16466692 -0.2806813
0.08574852 -0.08021972 -0.15660234 -0.090693995 -0.22607128 -0.35874218 -0.1401751 -0.32822528
-0.4688346 -0.12442336 -0.3950686 -0.24226579 -0.59024537 -0.5381631 0.026876515 -0.12895791
-0.34000394 0.0047162795 -0.23314865 -0.1269776 -0.1324943 -0.4231246 -0.045542955 -0.0431619
00000000: 0964 83be fb8d 2bbe b2b1 89be 9e7e 0abd
00000010: 78fe fbbe e12d cabd d093 babd b493 7bbe
00000020: 9d77 f0bd fc9e 2bbf cfac 64be df69 a8be
00000030: 32b2 e23d 88ac 3dbe 01bb 37be 5310 39be
00000040: 968a 57bc c881 f9bd a923 a0bd 6932 80be
00000050: 73e8 7abe 0a2a c3bd 82d5 97be 3259 b23d
00000060: c2e9 a2bc ad9a 15bf 835b 24be cc77 703d
00000070: 9167 62be 6d76 8abe c29d d6bd 7423 0dbf
00000080: c41d 9abd b629 02be 8ac5 a7be 20ab 2fbe
00000090: 4f41 0bbe 5b9b b2bc 729e 28be 76b5 8fbe
000000a0: ec9c af3d 3d4a a4bd 5d5c 20be c6bd b9bd
000000b0: 3b7f 67be 0ead b7be 108a 0fbe 250d a8be
000000c0: 170b f0be add1 febd 6e46 cabe 8614 78be
000000d0: 521a 17bf 0fc5 09bf 232c dc3c 8b0d 04be
000000e0: ff14 aebe 058b 9a3b 85be 6ebe 6a06 02be
000000f0: 96ac 07be caa3 d8be 408b 3abd 88ca 30bd

sequential_16/conv1d_49/BiasAdd/ReadVariableOp f4 [64]
-0.013120168 -0.029041234 -0.009292948 -0.0020887533 -0.034795947 -0.032544706 -0.0001930722 -0.058940854
-0.16064358 -3.0531388e-05 -0.004813107 -6.714582e-05 0.12051606 -0.013361423 -0.0018740043 0.012061118
-9.17542e-05 -0.013637866 -0.041207474 -0.005807443 -0.011716921 -0.0062647667 -0.012600894 -0.02073164
0.016783359 0.03239596 -1.2536308e-05 -0.004680699 -0.008328394 -0.017755678 -0.00019237334 -0.00014212377
0.02418587 -0.03539667 -0.024888953 -0.0007221954 -1.9731162e-06 -0.038315266 -0.020629745 -0.06923707
-2.3268683e-08 0.0033388282 -0.0031314648 -0.006854733 -0.00030883146 -0.0014559852 -0.026567966 0.01846957
-0.02082798 -0.016563239 -0.062073756 -0.0016253225 -0.062206987 -0.032909494 -0.18664469 -0.04671724
-0.03614479 -0.030764475 -7.7868165e-08 -0.00033407897 -0.0018269161 0.00078928063 -0.007057458 -0.0050375215
00000000: f9f5 56bc e2e7 edbc 7341 18bc 77e3 08bb
00000010: 3286 0ebd 994d 05bd 6d73 4ab9 f76b 71bd
00000020: c07f 24be d40e 00b8 45b7 9dbb a3d0 8cb8
00000030: 20d1 f63d dfe9 5abc 26a1 f5ba ff9b 453c
00000040: 296c c0b8 5b71 5fbc 2bc9 28bd 5d4c bebb
00000050: 54f8 3fbc ac48 cdbb fb73 4ebc 66d5 a9bc
00000060: 417d 893c a0b1 043d 0853 52b7 8d60 99bb
00000070: d173 08bc 5b74 91bc d3b7 49b9 0f07 15b9
00000080: 7221 c63c 19fc 10bd ebe3 cbbc b651 3dba
00000090: e169 04b6 78f0 1cbd b6ff a8bc 2acc 8dbd
000000a0: 60e0 c7b2 3ed0 5a3b 4339 4dbb ab9d e0bb
000000b0: a8ea a1b9 c2d6 beba 10a5 d9bc 7f4d 973c
000000c0: 719f aabc a1af 87bc 0d41 7ebd c608 d5ba
000000d0: c1cc 7ebd 1bcc 06bd c91f 3fbe 945a 3fbd
000000e0: 8f0c 14bd c805 fcbc 7a38 a7b3 5227 afb9
000000f0: 2275 efba bae7 4e3a 4042 e7bb cb11 a5bb

sequential_16/conv1d_50/BiasAdd/ReadVariableOp f4 [64]
-0.06845273 -0.015425849 0.012440278 -0.00012324999 -0.051204953 -0.01137804 -3.315699e-08 0.0023737284
0.06333076 -0.04655708 -0.07104713 -0.0049012806 -0.041150007 -0.10134754 -0.123194456 -2.4727326e-05
-0.027264232 -0.0009067021 -0.035843633 0.011996523 0.07124398 -0.53728557 0.048618983 -3.6127194e-06
0.022842096 -0.011070599 -0.0012473203 0.044597678 -0.044200696 -4.4022297e-08 -0.00037704196 -0.00015954266
-0.00087252527 0.06607126 -0.03439353 -0.12358655 -0.017468583 0.018849982 -4.840411e-06 -0.009374669
-0.007790845 -0.0038166093 -0.0020265647 -0.00054266286 -0.00046340024 -0.025973601 0.053195875 -0.03640976
-0.013177277 -0.012303053 -0.010959742 -0.012740962 -0.00011228814 -0.00065369456 -0.040195014 0.031571917
-2.1075617e-05 -0.013885204 -0.042349204 -0.000113598435 -0.00026468548 -0.00020230543 -0.00030457217 0.06272957
00000000: f230 8cbd b3bc 7cbc 4fd2 4b3c ab3c 01b9
00000010: 49bc 51bd f56a 3abc 7f68 0eb3 8e90 1b3b
00000020: 8fb3 813d a3b2 3ebd 2881 91bd ec9a a0bb
00000030: e98c 28bd 4d8f cfbd 604d fcbd 876d cfb7
00000040: 3d59 dfbc bfaf 6dba c6d0 12bd 108d 443c
00000050: 5de8 913d 8c8b 09bf b324 473d 0c72 72b6
00000060: 591f bb3c 7561 35bc 207d a3ba 0eac 363d
00000070: ca0b 35bd 0713 3db3 b7ad c5b9 e84a 27b9
00000080: 2eba 64ba 5e50 873d 3be0 0cbd f21a fdbd
00000090: 461a 8fbc 476b 9a3c d06a a2b6 3698 19bc
000000a0: 584a ffbb 1420 7abb 1dd0 04bb 7d41 0eba
000000b0: 87f4 f2b9 97c6 d4bc ebe3 593d 6722 15bd
000000c0: 81e5 57bc bf92 49bc 7d90 33bc 78bf 50bc
000000d0: 3c7c ebb8 b35c 2bba 87a3 24bd 8e51 013d
000000e0: 8bcb b0b7 c47e 63bc 5c76 2dbd b23b eeb8
000000f0: 7cc5 8ab9 f321 54b9 fcae 9fb9 5c78 803d

sequential_16/conv1d_51/BiasAdd/ReadVariableOp f4 [64]
-0.02571677 0.07320671 -0.004729121 0.03895145 0.03431002 -0.021285115 0.06808394 0.051115207
-0.029871777 -0.033461694 0.08588545 0.104417235 -0.0060519013 -0.0034747627 -0.007596078 -0.0027518605
-0.08068181 0.023372544 -0.02506369 -0.04557939 0.002466005 0.009523363 -0.0015750239 -0.005890682
-0.052733187 -0.0024024926 -0.024097573 -0.015128713 0.025500754 -0.4137128 -0.010389588 -0.015382883
-0.060433045 -0.017955976 -0.001471031 0.047902755 -0.015958978 -0.003179015 -0.035195272 -0.029118747
0.031926543 -0.015361703 -0.04109375 -0.006474002 0.09498926 -0.011388848 -0.017961457 -0.015966931
-0.03819127 -0.005721147 0.075928055 -0.012055535 -0.0067681167 -0.016500289 -0.036478106 -0.056382705
-0.0017402258 -0.0005918196 -0.031786136 -0.019362532 -0.0488843 -0.010981572 -0.006944233 -0.040123086
00000000: faab d2bc 66ed 953d bef6 9abb 8e8b 1f3d
00000010: aa88 0c3d 1f5e aebc 986f 8b3d 2e5e 513d
00000020: a8b5 f4bc 210f 09bd b6e4 af3d b4d8 d53d
00000030: 074f c6bb d8b8 63bb 85e8 f8bb 8f58 34bb
00000040: 813c a5bd c777 bf3c 5e52 cdbc 74b1 3abd
00000050: b39c 213b e107 1c3c 0871 ceba 9f06 c1bb
00000060: c1fe 57bd 2373 1dbb 4668 c5bc 6cde 77bc
00000070: f5e6 d03c 2ad2 d3be 1739 2abc 7d08 7cbc
00000080: a488 77bd 6918 93bc 9ccf c0ba ae35 443d
00000090: 67bc 82bc 0557 50bb eb28 10bd 708a eebc
000000a0: 68c5 023d a7af 7bbc ec51 28bd dd23 d4bb
000000b0: bb89 c23d 4a98 3abc e823 93bc 15cd 82bc
000000c0: 736e 1cbd 7678 bbbb 2b80 9b3d 9484 45bc
000000d0: 14c7 ddbb 9d2b 87bc 116a 15bd 8df1 66bd
000000e0: 4a18 e4ba 5724 1bba 2e32 02bd 2c9e 9ebc
000000f0: e73a 48bd 0dec 33bc 738c e3bb 1b58 24bd

sequential_16/conv1d_48/Conv1D f4 [64, 1, 5, 6]
9.168822e-37 -7.404654e-37 -5.1946753e-37 3.0364479e-37 -6.9409537e-37 4.8624285e-37 1.0503445e-36 -7.8479055e-37
-5.6814366e-37 4.0790713e-37 -4.753304e-37 5.407596e-37 8.903475e-37 -7.279862e-37 -4.0601006e-37 4.37208e-37
5.59655e-37 6.6330263e-37 8.532501e-37 -7.414918e-37 -6.218782e-37 -3.0818854e-37 4.2704985e-37 6.442771e-37
7.3442976e-37 -7.91526e-37 -6.0104615e-37 -4.937042e-37 4.4195196e-37 6.0290488e-37 1.7461387e-38 -7.690267e-37
2.527673e-37 7.711781e-37 -4.11799e-37 3.915419e-37 3.2294602e-37 -6.6086823e-37 -3.930893e-37 -3.790081e-37
3.2361266e-37 -2.084443e-37 -1.1840923e-37 -5.8108596e-37 -1.5847309e-37 2.7801923e-37 4.894164e-37 -1.4806021e-37
-2.9708025e-37 -6.473338e-37 -2.3639963e-37 3.1757876e-37 -6.440575e-37 -4.1087425e-38 2.2321236e-37 -5.92382e-37
-2.8375819e-37 2.9274699e-37 -5.8463714e-37 -1.4677364e-37 0.00096994074 0.00030122054 -0.0007939097 -0.013770648
-0.011930283 -0.0041013407 0.0010894088 6.185133e-05 -0.0009757768 0.015229073 -0.0006087426 -0.008966056
0.0011947204 0.00034285436 -0.0011456579 0.001255438 0.0030385763 -0.003374158 0.0011244208 0.0006085907
-0.0009968687 0.0018651986 0.0006862661 -0.0028096617 0.0011167899 0.00060186104 -0.0010582284 -0.010153179
-0.003797876 0.0071978327 0.001999537 -0.004654889 -0.011131875 0.010974956 -0.13179837 0.08225194
0.003005954 -0.0052290284 -0.012924402 0.002166725 -0.08105044 0.0810114 0.003209476 -0.0035761225
-0.011448986 -0.038124513 -0.037007812 0.066217825 0.0026255057 -0.004300561 -0.008400147 -0.084273666
0.027477339 0.005692481 0.0012331392 -0.0058146124 -0.0045827124 -0.08389208 0.12733632 -0.010611359
-0.0053452947 -0.026512846 -0.0050439546 -0.035744417 0.017855322 0.041177064 -0.005313772 -0.02653765
-0.0058084084 -0.014036358 -0.006177258 0.05178372 -0.0055559278 -0.025854932 -0.006126222 -0.027744045
-0.003532111 0.060759854 -0.005675752 -0.025427764 -0.006566341 -0.016303323 0.015743239 0.07272118
-0.005770116 -0.025472617 -0.005426921 -0.016379166 0.014337043 0.07752251 -0.00018312903 0.0017709803
0.013212829 -0.021838823 0.016331846 0.2263131 -0.0006011222 0.00046065307 0.010309472 -0.035694107
-0.001061112 0.24331133 -0.00020436061 -0.00071057153 0.015008046 -0.02805317 0.007655391 0.09135479
0.004420205 -0.003764859 0.018843934 0.032323122 -0.0146201 -0.25636265 -0.0014697862 0.004356548
0.017000953 0.04610742 -0.009241113 -0.33874997 0.03998015 -0.05161021 0.0031229402 0.07587789
0.008023013 0.045137346 0.041940503 -0.05063563 0.0027743764 -0.013406867 -0.06558899 0.08811466
0.043167993 -0.04892716 0.0060280133 -0.01380769 -0.06273256 0.0572282 0.044022083 -0.048406508
0.010520107 -0.00795863 0.059630316 -0.067303576 0.04315527 -0.051013123 0.013027146 -0.004944597
0.046829667 -0.12401472 0.06329345 -0.049052592 -0.017697312 -0.10396297 0.012913594 0.08656923
0.06290845 -0.048821732 -0.018477378 -0.0040110946 -0.012543177 0.15696822 0.063067116 -0.04781623
-0.020278044 -0.018108636 0.0386804 0.15099831 0.065538175 -0.044870663 -0.01987365 0.009472907
0.02447505 0.023778286 0.06694582 -0.044962298 -0.018800342 -0.04740427 -0.005616802 -0.032231122
2.9472672e-37 4.7910264e-37 6.236605e-37 6.4094688e-37 4.5114685e-37 -6.960144e-37 3.8589177e-37 5.1225077e-37
6.245289e-37 -2.8486864e-37 3.8204096e-37 -6.2627643e-37 4.9883683e-37 5.2698365e-37 5.835924e-37 -4.5648044e-37
00000000: daff 9b03 a2f7 7b83 01c4 3083 62a6 ce02
00000010: 3c30 6c83 ba75 2503 f5b4 b203 7386 8583
00000020: 4b54 4183 b9cd 0a03 1ebf 2183 ce02 3803
00000030: 1a7c 9703 8bb8 7783 7728 0a83 30c6 1403
00000040: d470 3e03 cfb5 6103 492c 9103 0c51 7c83
00000050: 3b9d 5383 04be d182 4a51 1103 733c 5b03
00000060: dbe9 7903 d2ab 8683 8186 4c83 b4ff 2783
00000070: 7263 1603 6c28 4d03 3e23 be00 d6d7 8283
00000080: 4606 ac02 8b35 8303 c120 0c83 1c3c 0503
00000090: 22c9 db02 bee1 6083 e8c2 0583 43f8 0083
000000a0: 473d dc02 1edc 8d82 982b 2182 babb 4583
000000b0: d0b3 5782 c835 bd02 2e8a 2603 7487 4982
000000c0: ae2e ca82 ba46 5c83 a0e2 a082 0622 d802
000000d0: 5229 5b83 83b3 5f81 14e9 9702 c093 4983
000000e0: a61d c182 b83b c702 14f1 4683 26c7 4782
000000f0: 9f43 7e3a 23ed 9d39 611e 50ba 499e 61bc
00000100: 3c77 43bc 8a64 86bb 7eca 8e3a 2eb6 8138
00000110: 46cb 7fba 5d83 793c 0694 1fba 5de6 12bc
00000120: 2a98 9c3a 22c1 b339 e629 96ba 828d a43a
00000130: da22 473b fa20 5dbb 4d61 933a d589 1f3a
00000140: 5da9 82ba ae79 f43a 8ae6 333a 4d22 38bb
00000150: 4061 923a 36c6 1d3a 41b4 8aba 8559 26bc
00000160: c9e5 78bb ccdb eb3b aa0a 033b 0a88 98bb
00000170: 7862 36bc 4dd0 333c 27f6 06be b573 a83d
00000180: 8aff 443b 4558 abbb dfc0 53bc 9dff 0d3b
00000190: c6fd a5bd 4ee9 a53d 1256 523b 615d 6abb
000001a0: 8794 3bbc 7328 1cbd 8195 17bd 369d 873d
000001b0: ad10 2c3b b8eb 8cbb c5a0 09bc ac97 acbd
000001c0: 2818 e13c fe87 ba3b 49a1 a13a 8188 bebb
000001d0: 942a 96bb 9ccf abbd 7464 023e 44db 2dbc
000001e0: 9527 afbb 7831 d9bc c247 a5bb bd68 12bd
000001f0: 5345 923c 48a9 283d 261f aebb 7c65 d9bc
00000200: 7654 bebb c1f8 65bc 996a cabb 2a1b 543d
00000210: 800e b6bb b9cd d3bc 7abe c8bb 7b47 e3bc
00000220: fd7a 67bb 53df 783d a9fb b9bb e34d d0bc
00000230: 762a d7bb 8c8e 85bc f7f7 803c d8ee 943d
00000240: 3e13 bdbb f3ab d0bc 50d4 b1bb 9a2d 86bc
00000250: ebe5 6a3c 1fc4 9e3d 5306 40b9 3d20 e83a
00000260: 9f7a 583c 55e7 b2bc 5dca 853c 9fbe 673e
00000270: a194 1dba cf83 f139 0fe9 283c fc33 12bd
00000280: 0315 8bba 9b26 793e a249 56b9 a645 3aba
00000290: 4fe4 753c c3cf e5bc 13da fa3b 3818 bb3d
000002a0: 5ed7 903b dabb 76bb 985e 9a3c 4065 043d
000002b0: 2589 6fbc f741 83be d7a5 c0ba 60c1 8e3b
000002c0: 9545 8b3c 22db 3c3d 0a68 17bc a370 adbe
000002d0: 3ac2 233d 3a65 53bd 3eaa 4c3b de65 9b3d
000002e0: f572 033c f0e1 383d cec9 2b3d 4e67 4fbd
000002f0: 50d2 353b 7aa8 5bbc 8553 86bd 7575 b43d
00000300: ecd0 303d d967 48bd a486 c53b a639 62bc
00000310: ee79 80bd 1e68 6a3d 8050 343d e745 46bd
00000320: 875c 2c3c ea64 02bc eb3e 743d 75d6 89bd
00000330: 95c3 303d 23f3 50bd d06f 553c 4906 a2bb
00000340: 77d0 3f3d 6efb fdbd ff9f 813d 5feb 48bd
00000350: f4f9 90bc 8aea d4bd 8a93 533c 354b b13d
00000360: 25d6 803d 4cf9 47bd df5d 97bc 806f 83bb
00000370: e681 4dbc 47bc 203e 5529 813d f4da 43bd
00000380: 241e a6bc 9058 94bc 576f 1e3d 4d9f 1a3e
00000390: e138 863d 4dca 37bd 11ce a2bc 4034 1b3c
000003a0: e67f c83c aeca c23c e41a 893d 632a 38bd
000003b0: 2d03 9abc fb2a 42bd 260d b8bb c804 04bd
000003c0: a394 c802 ba07 2303 7e38 5403 591a 5a03
000003d0: 6f84 1903 68d7 6c83 ea4f 0303 564f 2e03
000003e0: 2484 5403 1edf c182 7600 0203 5f1c 5583
000003f0: d1be 2903 c052 3303 1196 4603 0e55 1b83

sequential_16/conv1d_49/Conv1D f4 [64, 1, 5, 64]
3.4791844e-37 -5.691312e-37 0.0016076028 -0.06326514 -0.0038434917 0.0058785034 -0.049688492 0.0022185992
-6.664148e-37 -0.019986369 0.010623674 -0.026226286 0.03406521 -0.004281748 0.042892408 -6.6835923e-37
-0.019504335 -6.7561397e-37 -7.0974068e-37 -0.013587833 -0.0048379423 -0.010626213 -0.010575982 -0.08653489
0.034598425 -0.060435336 5.7254643e-37 -0.05233448 6.371512e-37 -0.009879848 -4.552289e-37 -0.0078013553
2.7200977e-37 0.06376922 -0.003161361 0.004329185 0.02668845 0.09101936 7.458581e-12 -0.003327256
-0.121615626 -0.029032713 -0.012336859 5.2385285e-37 -1.7221728e-38 0.005603433 0.038098052 -0.0059218598
-0.007212505 -5.6532694e-37 1.8988922e-37 -0.010787576 -0.025063002 -0.015272347 0.120286755 -0.027836083
-0.009110484 0.108608775 -0.02888125 -2.545379e-37 0.067462936 -0.033811063 -0.058524694 -5.554692e-37
-5.010691e-37 1.9687486e-37 -0.0012173234 -0.055100486 -0.0012422034 0.0017638751 -0.015959607 0.0010184429
-9.353317e-37 -0.021290844 0.004798148 -0.008174068 0.046193127 -0.011110485 0.015835129 2.2641165e-37
0.011076363 -2.6865052e-38 -1.0459989e-36 0.018011218 -0.012507644 -0.01983002 -0.007840454 -0.035656136
0.053994797 -0.06797953 -8.440215e-37 -0.044790465 6.2334285e-37 -0.008155014 -9.295088e-37 -0.002977822
-1.6467286e-37 0.017884532 -0.013498304 0.036923014 0.038401637 0.05938952 6.8301467e-12 0.0037942373
-0.041950993 -0.03176805 -0.0125087295 3.426366e-37 4.4015583e-37 0.001496861 0.026654975 0.012112484
0.00039892198 -2.549957e-37 6.3530733e-37 -0.0024164312 -0.012882447 -0.0058083744 0.0063606934 -0.011820655
-0.0014333876 0.09065366 -0.031333353 -2.3853064e-37 0.03228023 -0.015346744 -0.016281098 5.08591e-37
6.895974e-37 6.38294e-37 0.00022194877 -0.0011895779 0.002059506 0.0020008883 -0.011493157 -0.009117739
4.686189e-37 -0.028465806 -0.0066956924 0.0024057264 -0.03742317 -0.014730263 -0.01905405 2.7714518e-37
0.0066880314 -9.850346e-37 -7.399205e-37 0.02684107 -0.005472282 -0.02588273 -0.015224916 -0.011862112
0.050981387 -0.059980974 8.738112e-37 -0.02982268 8.1469385e-37 -0.0029856656 -5.3416085e-38 -0.020133441
-5.0654917e-37 -0.03129788 -0.013945464 0.020533156 0.064308755 -0.012745397 -3.7178203e-15 0.013232916
0.0076431623 0.0022655115 -0.02499667 1.916036e-37 8.882145e-37 -0.0250322 -0.021732634 -0.00821879
-0.004210689 -8.083412e-37 5.2859785e-37 0.013137155 -0.021643385 0.012560447 -0.08291304 -0.0017530507
-0.0053645805 -0.00060398754 -0.011547371 -9.716301e-37 0.0050853104 -0.020310681 0.049347494 -3.7538264e-37
-7.4073695e-37 5.4484453e-37 -0.002637319 0.05523486 -0.0050168564 0.015506305 0.027477296 -0.032141816
2.192172e-37 -0.027288752 -0.011283733 0.009086778 -0.074944116 -0.014715548 -0.04112748 9.335969e-37
-0.025399994 -1.1524854e-36 8.432179e-37 0.0001095137 -0.05491595 -0.025554685 0.017528888 0.03651185
-0.012718873 -0.06418721 -3.1354347e-37 0.036648385 1.7611623e-37 0.0025137162 4.7427675e-37 -0.027821427
-5.584956e-37 -0.045534052 -0.013847436 0.00903054 0.026076214 -0.037615206 2.2438006e-19 0.032125887
0.06937533 0.043120317 -0.02163881 2.6932983e-37 1.0550218e-36 -0.032613873 -0.027098507 -0.00740806
0.010160328 -7.1587397e-37 -8.205076e-37 0.025731146 -0.050818834 0.016057855 -0.076659106 0.0017047175
-0.01209332 -0.009778649 -0.004317324 2.5616462e-37 -0.00069958664 -0.042709477 0.040176786 -5.0359366e-37
00000000: f1c7 ec02 52aa 4183 33b6 d23a 2791 81bd
00000010: 17e3 7bbb 76a0 c03b 2986 4bbd eb65 113b
00000020: ebc4 6283 74ba a3bc eb0e 2e3c 82d8 d6bc
00000030: f687 0b3d e84d 8cbb f3af 2f3d 4d6e 6383
00000040: 8ec7 9fbc 47e6 6583 2283 7183 819f 5ebc
00000050: 9a87 9ebb 9119 2ebc e246 2dbc 3439 b1bd
00000060: 14b7 0d3d 0b8b 77bd d4d3 4203 ae5c 56bd
00000070: b3cf 5803 16df 21bc 08e8 1a83 83a2 ffbb
00000080: c91e b902 7099 823d d62e 4fbb d6db 8d3b
00000090: bca1 da3c 5c68 ba3d 7636 032d 180e 5abb
000000a0: 9d11 f9bd 03d6 edbc 8920 4abc 0542 3203
000000b0: 2c87 bb80 019d b73b b40c 1c3d 290c c2bb
000000c0: e156 ecbb ec5e 4083 5e3b 8102 60be 30bc
000000d0: ed50 cdbc de38 7abc e758 f63d 7f08 e4bc
000000e0: 2444 15bc 476e de3d 5f98 ecbc c23a ad82
000000f0: 022a 8a3d 787d 0abd 97b7 6fbd 3104 3d83
00000100: 4681 2a83 70fc 8502 988e 9fba 0cb1 61bd
00000110: 6ed1 a2ba d431 e73a b9bd 82bc 467d 853a
00000120: 7123 9f83 236a aebc c839 9d3b 87ec 05bc
00000130: 0135 3d3d c008 36bc acb8 813c 7916 9a02
00000140: a279 353c 6b44 1281 adf7 b183 438c 933c
00000150: dcec 4cbc 9172 a2bc 3f75 00bc 2b0c 12bd
00000160: a629 5d3d da38 8bbd 529a 8f83 3576 37bd
00000170: d21c 5403 9c9c 05bc d125 9e83 9027 43bb
00000180: 1e24 6082 9582 923c fe27 5dbc 963c 173d
00000190: 094b 1d3d 6d42 733d 7e50 f02c bda8 783b
000001a0: ced4 2bbd 371f 02bd 6af1 4cbc b72f e902
000001b0: fbc6 1503 5232 c43a 895b da3c 7173 463c
000001c0: 6726 d139 848a ad82 132f 5803 fd5c 1ebb
000001d0: e610 53bc 2d54 bebb 5d6d d03b 6cab 41bc
000001e0: 82e0 bbba a0a8 b93d 6757 00bd e655 a282
000001f0: 4638 043d e970 7bbc f05f 85bc 8610 2d03
00000200: 68a8 6a03 4033 5903 ebba 6839 9ceb 9bba
00000210: c7f8 063b 5621 033b cb4d 3cbc 9262 15bc
00000220: 7776 1f03 1f31 e9bc 8a67 dbbb 64a9 1d3b
00000230: 0a49 19bd 3357 71bc 3d17 9cbc 809d bc02
00000240: 4627 db3b 4f98 a783 2bc8 7b83 cee1 db3c
00000250: d450 b3bb 0508 d4bc ed71 79bc 4e59 42bc
00000260: dcd1 503d 9cae 75bd d8ab 9403 b14e f4bc
00000270: ec9c 8a03 28ab 43bb 9469 9181 e3ee a4bc
00000280: a85e 2c83 3532 00bd 847b 64bc 2635 a83c
00000290: 4fb4 833d 12d2 50bc d7f2 85a7 dfce 583c
000002a0: 7e73 fa3b fa78 143b d1c5 ccbc 0e66 8202
000002b0: 331f 9703 5410 cdbc a308 b2bc 1ba8 06bc
000002c0: d2f9 89bb 3a88 8983 5edf 3303 393d 573c
000002d0: 784d b1bc 55ca 4d3c 50ce a9bd 9fc6 e5ba
000002e0: 5dc9 afbb eb54 1eba 2f31 3dbc 7650 a583
000002f0: ada2 a63b 9662 a6bc 9920 4a3d e178 ff82
00000300: 4a0f 7c83 a766 3903 dfd6 2cbb f33d 623d
00000310: 7164 a4bb 280e 7e3c 1118 e13c 23a7 03bd
00000320: 0631 9502 a98c dfbc 68df 38bc b6e0 143c
00000330: 4d7c 99bd 7b19 71bc 4a75 28bd e1d7 9e03
00000340: a613 d0bc d215 c483 5277 8f03 b8aa e538
00000350: 8cef 60bd 0f58 d1bc be98 8f3c 738d 153d
00000360: d262 50bc 9574 83bd fa62 d582 9e1c 163d
00000370: 8db7 6f02 29bd 243b 5563 2103 c3e9 e3bc
00000380: d40b 3e83 ea81 3abd 5be0 62bc d4f4 133c
00000390: c99d d53c 6712 1abd 5b73 8420 6f96 033d
000003a0: a714 8e3d ee9e 303d e043 b1bc e04b b702
000003b0: ae80 b303 2096 05bd b0fd ddbc 50bf f2bb
000003c0: 8177 263c 6b99 7383 259a 8b83 20ca d23c
000003d0: 6927 50bd c38b 833c 73ff 9cbd d470 df3a
000003e0: 0f23 46bc a036 20bc 5778 8dbb 2c56 ae02
000003f0: 7764 37ba 22f0 2ebd 6a90 243d 325d 2b83

sequential_16/conv1d_50/Conv1D f4 [64, 1, 3, 64]
-0.02891524 -6.771313e-37 5.732447e-37 5.1048438e-37 1.2645942e-37 -2.736859e-38 7.3674236e-38 4.05263e-39
7.800805e-37 8.176576e-37 2.9406175e-38 -9.719214e-37 0.00066106336 0.008567325 0.047287356 -0.010187727
-7.243023e-37 -5.1872733e-37 4.1757264e-37 -6.1502555e-37 1.1075953e-36 0.008492354 9.406109e-37 1.9719668e-37
0.0036242877 -0.00028446957 -9.242212e-39 -6.548319e-37 6.6286323e-37 -8.127472e-37 -5.794997e-37 8.4568587e-38
0.0011774892 5.34308e-37 -8.1351515e-37 -1.468142e-37 6.4123445e-37 1.6303957e-37 -5.652317e-37 9.585821e-38
-1.8905317e-37 -0.044249635 -1.2260707e-38 -6.6986277e-37 6.977586e-37 -5.642345e-37 8.845421e-37 -0.03694808
-4.046757e-37 -2.6386972e-37 0.028596466 -4.795932e-37 -0.007689584 -2.9100384e-37 0.07104147 4.087946e-37
0.023982897 -2.5408149e-37 -1.3367495e-37 1.0064787e-37 3.5463884e-37 0.014123592 6.7524304e-37 -5.172215e-37
0.0002705196 -3.0515819e-37 8.5171e-37 -4.7026056e-37 -1.6408032e-38 9.509507e-37 1.1064583e-37 9.3870316e-38
6.7556913e-37 1.0735936e-37 -4.4861595e-37 3.0528316e-37 0.0022434746 -0.028103488 0.03687747 -0.024452915
2.0631084e-37 -2.62206e-37 2.36787e-37 -6.518906e-37 7.9741775e-37 -0.022718739 6.728414e-37 1.1154945e-36
0.004534991 -0.0046306425 4.761598e-37 -9.192664e-37 -5.921452e-37 1.6533087e-37 5.3132583e-37 -5.487718e-37
-0.027296467 5.937948e-37 -1.0307783e-37 -6.3201892e-37 -1.4044461e-37 3.1808796e-37 5.1983e-37 4.2408282e-37
-3.47473e-40 -0.041274764 6.629075e-37 -7.754209e-37 7.53804e-37 -2.9190271e-37 5.022587e-37 -0.024153244
-1.1556061e-36 7.156281e-37 0.048953492 -5.565089e-37 -0.0042859055 -7.046052e-37 0.056596734 3.7489267e-37
0.02343904 -6.308435e-37 -5.8445155e-37 -6.052181e-38 -1.6072227e-37 0.015771568 6.5425693e-37 -7.0488703e-37
0.023778334 1.056894e-36 -1.1605582e-37 -2.5771222e-37 -2.706557e-38 -7.459282e-37 1.5376224e-38 -5.869873e-37
7.4896385e-37 -4.5764125e-37 -4.2765033e-37 6.323208e-37 0.0068848925 -0.06497185 0.024497412 -0.0028725867
9.253782e-37 -4.6269647e-37 1.8246764e-37 -8.72944e-37 5.8674075e-37 -0.049064346 -3.344112e-37 1.077628e-36
0.005144608 -0.0028476107 2.0758273e-37 -5.7713856e-37 -9.662235e-37 1.9292967e-37 3.754557e-37 -5.451536e-37
-0.02865633 4.3009504e-37 -2.2302528e-37 2.3221843e-37 -2.0142943e-37 -2.9716958e-37 -9.872689e-38 3.7637944e-37
-9.203139e-37 -0.042438183 -3.1365781e-37 -1.2596726e-38 3.4549603e-37 -2.366984e-37 1.0603703e-36 -0.01849738
1.8773057e-37 1.0178435e-36 0.048877914 3.414102e-37 -0.008507535 9.1768e-37 0.04553834 3.108399e-37
0.008721134 6.514439e-37 -8.606468e-37 -3.7773827e-37 -5.116255e-37 0.025480112 6.5783116e-37 -5.961738e-37
2.4852905e-37 -7.625783e-37 -2.8142134e-37 -1.9168348e-37 -3.018656e-37 9.499333e-37 4.4925095e-37 -1.4650294e-38
-4.6481106e-38 -3.6537282e-38 2.3997707e-37 -3.0887017e-37 -2.2387806e-37 1.4981391e-37 -2.5871795e-37 -6.285834e-37
8.85122e-37 -5.451035e-38 3.58406e-37 -1.897181e-37 4.2361813e-37 -1.8142625e-37 -8.490462e-37 -6.636645e-37
2.9126078e-37 5.2318395e-37 7.68451e-37 -8.659916e-37 -2.046796e-37 7.124215e-37 -1.119151e-37 -2.0962165e-37
-8.603056e-37 2.3759336e-37 -3.6530602e-37 -5.4725386e-37 -1.2159159e-37 -1.2229323e-37 -5.3079975e-37 3.7401405e-37
1.076709e-36 -6.192713e-37 -3.80014e-37 3.1377992e-37 -1.1133529e-37 -4.248764e-37 -2.56095e-37 7.896948e-37
-4.497147e-39 1.0906018e-36 -1.1524841e-36 7.208416e-37 6.840637e-37 -7.43531e-37 -6.109117e-37 1.00621875e-36
-3.9801683e-37 5.195852e-37 -4.915018e-37 -4.61176e-37 1.1613717e-36 7.572365e-37 -1.9700503e-37 -2.977017e-39
00000000: a7df ecbc 756a 6683 a810 4303 76b5 2d03
00000010: ad20 2c02 3f02 1581 738f c801 1521 2c00
00000020: 4cb9 8403 031e 8b03 3a1a 2001 265d a583
00000030: 364b 2d3a f75d 0c3c 63b0 413d 6dea 26bc
00000040: a177 7683 8683 3083 b517 0e03 4848 5183
00000050: 9472 bc03 8423 0b3c 6209 a003 8234 8602
00000060: 7585 6d3b dc24 95b9 87a3 6480 e7d3 5e83
00000070: 888f 6103 2248 8a83 8b31 4583 b437 e601
00000080: fb55 9a3a cbd0 3503 9569 8a83 48d5 4782
00000090: 6633 5a03 00eb 5d02 a056 4083 b679 0202
000000a0: b5a9 8082 1b3f 35bd dd81 8580 47f1 6383
000000b0: 596f 6d03 c2ff 3f83 3e7f 9603 df56 17bd
000000c0: 3ab4 0983 9794 b382 2343 ea3c 7632 2383
000000d0: e8f8 fbbb 050c c682 317e 913d 081b 0b03
000000e0: c877 c43c 3deb ac82 ecf2 3582 aafe 0802
000000f0: cd5a f102 a366 673c f7c5 6503 5900 3083
00000100: 87d4 8d39 0eae cf82 34e9 9003 7905 2083
00000110: ebaa b280 bfcb a103 729a 1602 108a ff01
00000120: 5fe2 6503 4721 1202 f6a7 1883 d4c3 cf02
00000130: 4207 133b 4939 e6bc d40c 173d 7b51 c8bc
00000140: 6b68 8c02 ba72 b282 1d26 a102 aed3 5d83
00000150: 71ac 8703 a61c babc c1f4 6403 a3ca bd03
00000160: 439a 943b a5bc 97bb 5e07 2203 b367 9c83
00000170: 1f7f 4983 6609 6102 02cd 3403 c4bc 3a83
00000180: d79c dfbc d30e 4a03 624d 0c82 9d10 5783
00000190: ce29 3f82 bd7a d802 94e3 3003 d34e 1003
000001a0: 9dc8 0380 ba0f 29bd 6393 6103 58ee 8383
000001b0: cb40 8003 a0a8 c682 e7e8 2a03 06dd c5bc
000001c0: bf9d c483 0084 7303 7583 483d c35e 3d83
000001d0: c870 8cbb c5c3 6f83 fad1 673d 8423 ff02
000001e0: 3b03 c03c 38aa 5683 e9e0 4683 8cc1 a481
000001f0: 8ac3 5a82 6033 813c d1a1 5e03 52dc 6f83
00000200: c8ca c23c 3ad2 b303 8df7 1d82 cd63 af82
00000210: e65b 1381 83d3 7d83 a86e a700 cebd 4783
00000220: f4db 7e03 2dba 1b83 9985 1183 e92a 5703
00000230: aa9a e13b f60f 85bd ccae c83c 0242 3cbb
00000240: e871 9d03 8c72 1d83 b15c 7802 1386 9483
00000250: 54a8 4703 b2f7 48bd a696 e382 5259 b703
00000260: 1a94 a83b fb9e 3abb 0346 8d02 dc63 4483
00000270: f864 a483 174d 8302 9c85 ff02 9481 3983
00000280: aec0 eabc 905a 1203 7cc8 9782 280a 9e02
00000290: f515 8982 3e3e ca82 4d61 0682 4613 0003
000002a0: 5395 9c83 a9d3 2dbd e676 d582 8c2a 8980
000002b0: e621 eb02 ad16 a182 a469 b403 d187 97bc
000002c0: 8e86 7f02 562d ad03 3534 483d 0c5a e802
000002d0: 3063 0bbc 9a22 9c03 6986 3a3d f38b d302
000002e0: 16e3 0e3c c4ac 5d03 746e 9283 a589 0083
000002f0: de18 2e83 abbb d03c 2dd9 5f03 10de 4a83
00000300: de23 a902 f8be 8183 8386 bf82 f973 8282
00000310: 6870 cd82 6e9f a103 47df 1803 0f87 9f80
00000320: 3511 7d81 8aed 4681 e751 a302 c634 d282
00000330: 0f5d 9882 87ea 4b02 0613 b082 56e5 5583
00000340: 8098 9603 2b64 9481 22eb f302 8e1d 8182
00000350: 5826 1003 d2f1 7682 2d75 9083 55d5 6183
00000360: c938 c602 c007 3203 c3be 8203 4157 9383
00000370: 374c 8b82 aa6c 7203 b954 1882 3ea9 8e82
00000380: 985f 9283 9ab2 a102 499d f882 8938 3a83
00000390: 7c80 2582 f974 2682 2e9f 3483 708a fe02
000003a0: 4b31 b703 23ba 5283 e34f 0183 2c8c d502
000003b0: b08a 1782 f493 1083 0b4a ae82 0f5c 8603
000003c0: 37f8 3080 688e b903 c315 c483 294a 7503
000003d0: 5ac6 6803 af02 7d83 eae1 4f83 0233 ab03
000003e0: 2870 0783 41ce 3003 d83f 2783 18ee 1c83
000003f0: df98 c503 4dd6 8003 1e13 8682 b66a 2080

sequential_16/conv1d_51/Conv1D f4 [64, 1, 3, 64]
5.808048e-37 1.0629336e-36 -3.8925645e-37 -9.277332e-37 -7.532356e-37 -2.925961e-37 2.6178495e-37 5.3905015e-37
3.7284138e-38 -7.8303195e-37 -2.4117367e-37 -7.0493747e-37 3.295174e-37 1.07446535e-36 4.7844737e-37 2.8293167e-37
-9.008281e-37 9.622594e-37 -4.3290343e-37 4.4473913e-37 9.4384075e-37 5.69664e-37 1.3600676e-37 -3.3587212e-37
4.2420233e-37 -9.174207e-37 3.7521517e-37 1.8699605e-37 -9.252566e-37 -3.1827694e-37 6.8654864e-38 -6.0351464e-38
2.6783145e-37 -9.084633e-37 6.545946e-37 8.093222e-37 -4.5072637e-37 4.178444e-37 -8.1818145e-37 6.047867e-37
8.857916e-37 -6.0199406e-38 7.5646575e-37 -5.795502e-37 -5.9700534e-37 4.2507427e-37 -5.0467475e-37 1.1381602e-37
-3.0635372e-38 5.646138e-37 -3.874091e-37 2.89252e-37 -4.7300635e-37 3.5920033e-37 3.910107e-37 -2.379877e-37
4.873395e-37 -4.2076876e-37 -1.1285444e-36 -3.515763e-37 6.696272e-37 -1.0398411e-36 -2.513768e-37 -5.6579316e-37
-6.424481e-37 7.0600506e-37 -2.7196667e-37 8.224026e-37 5.0720978e-37 1.3686066e-37 -2.4344346e-37 -1.6311115e-37
3.339475e-39 -1.6398545e-37 3.6716908e-37 -4.575918e-37 9.774295e-37 6.873792e-38 -1.1028111e-36 -4.5877e-37
-4.5627704e-37 -6.3002957e-37 -8.869897e-37 4.192512e-37 3.1213943e-37 -6.0982236e-37 3.865712e-37 -2.3410213e-37
5.744636e-37 1.0616903e-37 -6.8950835e-37 1.5504526e-37 4.432204e-37 5.5072783e-37 -3.8257914e-37 5.169029e-37
-1.5936351e-37 -4.3576405e-37 -2.9028967e-37 -1.3402158e-37 -4.8643787e-37 8.487602e-37 -6.7175446e-37 -2.2275025e-37
3.6988006e-37 -8.028377e-37 -9.607101e-37 6.529658e-37 1.4457459e-37 1.00693155e-36 -6.1618362e-37 -5.5719304e-37
4.4957498e-37 6.853214e-37 3.0236164e-37 1.4618119e-37 -4.785598e-37 -3.937499e-37 6.803254e-37 6.443114e-37
9.717248e-37 4.684936e-37 5.4290204e-37 4.4098966e-37 -4.1579615e-37 -5.4010383e-37 9.713043e-37 1.7053651e-37
-3.647183e-37 7.9677225e-38 5.0948226e-37 6.3282518e-37 2.758114e-37 -1.3891833e-37 4.8196806e-37 4.10709e-37
-2.7153389e-37 1.1522977e-36 -7.4069516e-37 1.0080627e-36 -1.1919792e-37 5.7023193e-37 6.7074407e-38 -8.377024e-37
6.873294e-37 -1.4722857e-37 2.5708266e-37 -5.977986e-37 -1.6356659e-37 5.497502e-37 -2.2614872e-37 8.077262e-37
2.2134641e-37 -9.48743e-37 -7.70519e-37 -1.4362218e-37 -1.1209746e-36 -1.2483475e-37 2.6953202e-37 5.521524e-37
6.4152346e-38 6.0970447e-37 2.644864e-37 7.108241e-37 1.11186805e-36 -7.998624e-37 6.6153785e-37 9.999427e-37
2.664798e-37 1.0701919e-36 -4.8533423e-37 -5.8129107e-37 -9.177453e-37 -5.6801275e-38 2.0622358e-37 4.0976843e-38
9.174601e-37 -1.453878e-39 -8.528051e-37 -8.311289e-37 -3.3039703e-37 8.738851e-37 3.055405e-37 3.2057962e-37
-2.7965846e-37 -1.0481944e-36 -5.09205e-40 -1.6286267e-37 -8.145166e-37 1.0290407e-36 4.735501e-37 3.287091e-37
-0.018596265 -8.908012e-37 0.050846912 -1.3298798e-14 -0.11303051 2.450788e-37 4.5478382e-38 0.029293567
0.07072313 -7.689482e-38 5.093325e-10 -5.926557e-37 -2.4331315e-37 2.023732e-37 5.3098e-37 8.832267e-38
-1.97891e-37 4.8415902e-37 -7.741869e-37 -0.0782611 0.10847382 -0.0076208953 0.08448579 8.714577e-37
0.030647688 4.231651e-38 -6.67654e-37 -0.021995034 -3.5100168e-37 -2.4263086e-37 -5.428454e-37 -9.023936e-38
2.1822376e-37 -0.058617506 6.4422686e-37 -4.690378e-37 1.0823825e-36 -0.07534596 5.078209e-37 -0.1247358
-0.040029388 -3.806885e-38 5.8267156e-38 3.3177574e-38 3.2676895e-37 -2.5481328e-37 0.10023999 -3.6613142e-37
-0.12202388 8.506604e-37 -4.9091337e-37 8.327407e-37 -1.6811523e-37 1.2291759e-37 7.3762504e-37 0.038332533
-4.934089e-37 6.9394026e-37 -5.2790137e-37 -6.878978e-37 -1.02245875e-36 -4.6968215e-37 6.9581563e-37 0.013570298
00000000: 3ca3 4503 4ad9 b403 0575 0483 7bd8 9d83
00000010: 0a28 8083 6e21 c782 5f29 b202 e46d 3703
00000020: 81fe 4a01 da39 8583 6122 a482 b7e0 6f83
00000030: 0742 e002 91cf b603 a5ce 2203 a68d c002
00000040: 9944 9983 4fb8 a303 354f 1383 3e56 1703
00000050: 1096 a003 bcd8 4103 701f 3902 2d95 e482
00000060: 3c59 1003 4f17 9c83 b45b ff02 9d86 7e02
00000070: 9c6c 9d83 aa9b d882 75e5 ba01 d54a a481
00000080: d246 b602 2891 9a83 3bbf 5e03 f4b2 8903
00000090: ce5f 1983 612f 0e03 d434 8b83 5acc 4d03
000000a0: aab5 9603 dde0 a381 bbb4 8003 f135 4583
000000b0: 8026 4b83 31a5 1003 5fbb 2b83 18eb 1a02
000000c0: 7acb 2681 cc20 4003 18d4 0383 ceda c402
000000d0: aaf4 2083 8675 f402 d60d 0503 4ef7 a182
000000e0: 42d5 2503 212e 0f83 0b03 c083 3b45 ef82
000000f0: c2dc 6303 78eb b083 0414 ab82 8987 4083
00000100: 1f9d 5a83 b73d 7003 4717 b982 afec 8b03
00000110: 3498 2c03 fb48 3a02 d5ad a582 f103 5e82
00000120: 195d 2400 9734 5f82 e0e1 f902 deb5 1b83
00000130: 0f4d a603 571f bb01 33a2 bb83 811c 1c83
00000140: 5643 1b83 5163 5683 dae9 9683 eea9 0e03
00000150: 5c6e d402 0583 4f83 1a8b 0303 5852 9f82
00000160: d67a 4303 8282 1002 a6a0 6a83 6309 5302
00000170: f1d1 1603 2967 3b03 582f 0283 98e4 2f03
00000180: 14ea 5882 6748 1483 988f c582 b46b 3682
00000190: b786 2583 b868 9003 1196 6483 9198 9782
000001a0: 32ba fb02 8398 8883 d474 a383 5831 5e03
000001b0: e4c8 4402 0e52 ab03 2aad 5183 5c9a 3d83
000001c0: 81fb 1803 ea33 6903 d4c6 cd02 b6f8 4602
000001d0: 70d8 2283 74fc 0583 b380 6703 703f 5b03
000001e0: 9654 a503 8c6b 1f03 70bd 3803 9e0f 1603
000001f0: f47c 0d83 aec9 3783 4542 a503 4d1f 6802
00000200: e436 f882 ece6 d801 2a5e 2d03 d956 5703
00000210: 20b5 bb02 f915 3d82 5701 2403 cdc1 0b03
00000220: e0cb b882 a50d c403 a60b 7c83 5383 ab03
00000230: 6a3e 2282 350a 4203 0a98 b601 1687 8e83
00000240: d6e2 6903 ab65 4882 1ef6 ae02 9a6b 4b83
00000250: a3a2 5e82 ff11 3b03 aae8 9982 706d 8903
00000260: fca3 9602 966b a183 d618 8383 077d 4382
00000270: 54b9 be83 90ea 2982 1a6f b702 42e3 3b03
00000280: a9a3 ae01 c078 4f03 0800 b402 83e1 7103
00000290: af2c bd03 ec16 8883 131c 6103 a621 aa03
000002a0: 545b b502 6e15 b603 9326 2583 98cd 4583
000002b0: 7225 9c83 b6a0 9a81 3759 8c02 6219 5f01
000002c0: 0619 9c03 d2d4 0f80 e718 9183 c568 8d83
000002d0: 48db e082 10af 9403 aaf0 cf02 d92c da02
000002e0: 6053 be82 4e57 b283 758b 0580 5cad 5d82
000002f0: 3495 8a83 0b15 af03 0824 2103 34b5 df02
00000300: 3257 98bc dd8f 9783 da44 503d e191 6fa8
00000310: 8a7c e7bd c0ca a602 9d9b 7701 10f9 ef3c
00000320: 4ad7 903d de53 d181 1701 0c30 98ab 4983
00000330: 2197 a582 62ba 8902 e2ae 3403 eb6f f001
00000340: 7aad 8682 33c0 2403 98b8 8383 5b47 a0bd
00000350: 8627 de3d b4b8 f9bb e306 ad3d 5645 9403
00000360: dc10 fb3c 9b64 6601 de30 6383 ee2e b4bc
00000370: 1ee1 ee82 4220 a582 81b8 3883 a8a7 f581
00000380: f183 9402 e918 70bd 1338 5b03 f49a 1f83
00000390: 6828 b803 fc4e 9abd 70cd 2c03 7c75 ffbd
000003a0: dbf5 23bd 3c44 4f81 489e 9e01 caa2 3401
000003b0: 2e63 de02 bc6a ad82 a04a cd3d 172d f982
000003c0: a8e7 f9bd 7cbb 9003 960c 2783 f9ae 8d03
000003d0: 9cd3 6482 874e 2702 3400 7b03 9302 1d3d
000003e0: fae5 2783 b922 6c03 b2a2 3383 5a14 6a83
000003f0: 5cf6 ad83 16d3 1f83 17c6 6c03 f555 5e3c

sequential_16/dense_34/BiasAdd/ReadVariableOp f4 [4]
-0.29914483 0.11677315 0.07435157 0.084284306
00000000: 8329 99be c326 ef3d a345 983d 409d ac3d

sequential_16/dense_33/BiasAdd/ReadVariableOp f4 [32]
-0.10179721 -0.017415285 -0.065658 0.098287605 -0.047122076 0.118864186 0.029581442 -0.09604469
0.10468674 0.1593869 0.23856692 0.2482595 0.23830329 0.13976078 -0.107311405 -0.28864023
-0.06943933 0.10154268 0.03763356 0.10180672 0.37744212 -0.14133036 0.23763995 -0.10276688
0.33083934 0.3519566 -0.02202867 -0.108634114 0.008630673 0.21714897 -0.002893366 0.18867978
00000000: 0e7b d0bd 80aa 8ebc b477 86bd 034b c93d
00000010: 1403 41bd 116f f33d c854 f23c 14b3 c4bd
00000020: 0066 d63d 5236 233e e34a 743e bd37 7e3e
00000030: c705 743e 731d 0f3e 15c6 dbbd a7c8 93be
00000040: 3536 8ebd 9cf5 cf3d a625 1a3d 0b80 d03d
00000050: 1840 c13e e8b8 10be e357 733e 7177 d2bd
00000060: c663 a93e a833 b43e 7875 b4bc 907b debd
00000070: ab67 0d3c 4d5c 5e3e a09e 3dbb 4635 413e

sequential_16/dense_32/BiasAdd/ReadVariableOp f4 [64]
-0.052470915 -0.0131183835 -0.031180136 -0.01810974 -0.035570174 -0.025732456 -0.024344077 0.07560016
-0.029013416 -0.02329899 -0.02420598 0.11478788 -0.033578694 -0.08195247 0.041195735 -0.025330259
-0.031376135 -0.039838325 0.17186373 -0.02304679 0.17254294 -0.0068382346 -0.025052581 -0.04986212
-0.033475015 0.040836375 0.3026874 0.042398512 -0.0911393 -0.008850163 0.25462806 0.37952396
-0.063729905 0.0051829517 -0.03822782 0.010863043 -0.073059924 -0.006721392 -0.03524014 -0.012478691
0.16216594 -0.082963035 -0.037297327 -0.04094152 -0.03301627 -0.06254934 -0.031890433 -0.033788063
0.012687093 -0.028837053 -0.037714727 -0.059573747 -0.015319635 -0.013150021 0.4262515 0.21274264
-0.031166442 -0.040725682 -0.07551603 -0.019911239 -0.03125635 -0.28084454 -0.022119835 -0.12722601
00000000: beeb 56bd 7dee 56bc 7c6d ffbc e15a 94bc
00000010: 08b2 11bd dfcc d2bc 3b6d c7bc 42d4 9a3d
00000020: 8bad edbc 86dd bebc 9f4b c6bc e815 eb3d
00000030: d089 09bd b2d6 a7bd dcbc 283d 6781 cfbc
00000040: 4384 00bd 832d 23bd 0cfd 2f3e 9fcc bcbc
00000050: 19af 303e 4513 e0bb 123b cdbc 393c 4cbd
00000060: 191d 09bd 0b44 273d d8f9 9a3e 10aa 2d3d
00000070: 3ea7 babd 4600 11bc 9c5e 823e f750 c23e
00000080: d384 82bd c0d5 a93b c694 1cbd e8fa 313c
00000090: 71a0 95bd 1f3f dcbb f757 10bd 6c73 4cbc
000000a0: d40e 263e 86e8 a9bd 15c5 18bd 4cb2 27bd
000000b0: 113c 07bd de19 80bd 8b9f 02bd 5a65 0abd
000000c0: 86dd 4f3c af3b ecbc c27a 1abd 9a03 74bd
000000d0: 35ff 7abc 3073 57bc a33d da3e 35d9 593e
000000e0: c450 ffbc f9cf 26bd 26a8 9abd e51c a3bc
000000f0: a906 00bd dbca 8fbe a834 b5bc 8947 02be

sequential_16/dense_32/MatMul f4 [64, 2432]
-0.026230477 -0.33071122 -0.03809903 0.06122486 -0.50123036 0.031334188 -0.044845637 0.12873077
-0.031800326 -0.037506294 -0.052713167 0.021184688 -0.039165813 -0.0061971294 0.04025087 0.029722529
0.02938602 0.27949882 0.079290055 -0.043928396 0.21885471 0.07654516 -0.06827258 -0.048331566
0.052689124 0.03882144 0.102022424 0.13321656 0.07982538 0.069195226 -0.06572498 0.016412726
0.012561144 -0.15623264 -0.009946894 -0.32911536 -0.0017968323 -0.059197605 0.039859727 -0.020251645
0.15117317 0.030881131 0.0060938643 -0.054637596 -0.03991918 0.03964361 -0.027790423 0.0075339014
-0.0091764275 0.02353191 -0.42595896 -0.0014045323 0.028700817 -0.060882136 -0.01772398 -0.044762623
0.013659502 -0.029348025 -0.0003145267 0.021683855 -0.021636445 0.059640378 -0.032153063 -0.020432236
0.035946913 -0.33522114 -0.067942426 0.18738423 -0.37257347 0.016543018 -0.17216079 -0.101357564
0.0013337621 0.0566193 -0.15737535 -0.010423702 -0.0055530933 0.052443795 -0.02399387 -0.044856947
0.109591484 0.30873454 0.091085866 -0.03998539 0.1804184 0.049790535 -0.040565055 0.044302627
-0.020270146 0.0019061705 0.07973652 0.11964404 0.003908396 0.06406907 -0.06635497 -0.0010634535
0.03385328 -0.15388581 0.02110439 -0.36018845 -0.016510516 0.019743113 0.002473484 0.032423068
0.03132192 -0.04699025 -0.001927299 -0.0032018023 -0.07035101 0.03790282 -0.030235564 -0.04489295
0.024451671 0.039655846 -0.34382388 -0.0106827095 0.016641969 -0.01870079 -0.043277077 -0.010489082
-0.051300976 -0.02388525 -0.0046355072 -0.03812534 0.009308288 0.0728961 0.014112343 -0.031816043
-0.04251097 -0.22056465 -0.055237133 0.19091578 -0.42399558 -0.046788726 -0.23471327 -0.11624872
-0.0088027725 -0.034678463 -0.21945815 -0.0821097 -0.0046619102 -0.025795417 0.026847938 -0.008690023
0.20380393 0.34247437 0.07560582 -0.036542468 0.19016999 -0.0053147506 -0.046917237 0.037706602
-0.020322958 -0.023559283 0.060706876 0.23960082 0.026766075 -0.02676595 0.004149963 0.017464718
0.012476399 0.14696665 0.01620764 -0.42494667 -0.031552978 -0.0050476794 0.02070203 -0.014590548
-0.07379753 -0.0033548572 0.0023544277 -0.04057568 -0.06916934 0.0010077094 0.042392775 0.023641331
0.030837737 -0.010099854 -0.462675 -0.039883286 0.010463521 0.035755478 0.015402187 -0.026330726
-0.041980267 0.019288091 0.009932065 -0.021549666 -0.020990334 0.06953921 0.02079289 -0.03783419
-0.0058216136 -0.13533238 -0.022612924 0.19013435 -0.29394472 0.006448425 -0.24294251 -0.07527003
0.040116575 0.019927604 -0.20684983 -0.11170212 -0.042997397 -0.02667648 0.05010454 -0.052537963
0.10381327 0.24568133 0.058943167 -0.008969724 0.17602374 -0.025134493 0.009120261 -0.0018600154
-0.03321542 -0.022218985 0.07128226 0.12104804 -0.080656566 0.008986683 -0.053496726 -0.042751186
-0.0395059 0.14481518 -0.025287133 -0.35567397 0.05134238 -0.0073456806 0.0101805385 -0.018273272
-0.1401118 0.016055048 -0.013061397 -0.047926504 -0.087272875 -0.03094344 0.0052488353 -0.00025125884
-0.02922055 -0.012517042 -0.45616937 0.023638625 -0.005804714 0.040333845 0.032096233 0.037459176
-0.0068282676 -0.02666226 -0.012879271 -0.01357509 -0.0020152864 0.118024856 -0.0024421695 -0.02912069
00000000: 4ce1 d6bc fb52 a9be ba0d 1cbd ebc6 7a3d
00000010: a250 00bf 4758 003d 0fb0 37bd 00d2 033e
00000020: 0f41 02bd 33a0 19bd c3e9 57bd 838b ad3c
00000030: 556c 20bd 4a11 cbbb 19de 243d a97c f33c
00000040: f3ba f03c 781a 8f3e d362 a23d 43ee 33bd
00000050: 731b 603e b5c3 9c3d 7fd2 8bbd 52f7 45bd
00000060: 8dd0 573d 3b03 1f3d 22f1 d03d ec69 083e
00000070: 7d7b a33d 3ab6 8d3d d19a 86bd fb73 863c
00000080: 42cd 4d3c 73fb 1fbe 4cf8 22bc cf81 a8be
00000090: b083 ebba 3079 72bd f443 233d c7e6 a5bc
000000a0: 24cd 1a3e 6dfa fc3c 0aaf c73b accb 5fbd
000000b0: 4b82 23bd 5761 223d bea8 e3bc f2de f63b
000000c0: ba58 16bc fec5 c03c 4b17 dabe 4918 b8ba
000000d0: fa1d eb3c 8c5f 79bd e131 91bc 0359 37bd
000000e0: 1bcc 5f3c 456b f0bc 0fe7 a4b9 57a2 b13c
000000f0: ea3e b1bc 7849 743d eeb2 03bd 8161 a7bc
00000100: 123d 133d 1ba2 abbe 6625 8bbd a7e1 3f3e
00000110: f3c1 bebe 3985 873c eb4a 30be 8e94 cfbd
00000120: a1d1 ae3a a4e9 673d 0127 21be 2dc8 2abc
00000130: b9f6 b5bb 4ecf 563d cb8e c4bc ebbb 37bd
00000140: 8071 e03d 7412 9e3e 3a8b ba3d b8c7 23bd
00000150: 9abf 383e 29f1 4b3d 8b27 26bd ac76 353d
00000160: 940d a6bc 78d8 f93a e74c a33d ef07 f53d
00000170: 0012 803b a536 833d 1de5 87bd 9463 8bba
00000180: bda9 0a3d 3e94 1dbe 1de3 ac3c 9f6a b8be
00000190: 1041 87bc 4fbc a13c 2d1a 223b 0dce 043d
000001a0: 6a4b 003d d978 40bd 6c9d fcba 54d5 51bb
000001b0: 3114 90bd fd3f 1b3d 93b0 f7bc ace1 37bd
000001c0: df4e c83c 2b6e 223d af09 b0be 8806 2fbc
000001d0: bd54 883c 6632 99bc 4e43 31bd 66da 2bbc
000001e0: f920 52bd 00ab c3bc 74e5 97bb 5129 1cbd
000001f0: ca81 183c 8d4a 953d 7537 673c 8a51 02bd
00000200: fc1f 2ebd b3db 61be 5540 62bd 6d7f 433e
00000210: f315 d9be 89a5 3fbd ad58 70be cf13 eebd
00000220: 8139 10bc 010b 0ebd a3b9 60be 2129 a8bd
00000230: f0c2 98bb e950 d3bc 35f0 db3c 9960 0ebc
00000240: fab1 503e cd58 af3e 39d7 9a3d 8ead 15bd
00000250: ecbb 423e 5c27 aebb 4a2c 40bd 3d72 1a3d
00000260: 557c a6bc 66ff c0bc c6a7 783d eb59 753e
00000270: 8744 db3c 4444 dbbc 6afc 873b 2b12 8f3c
00000280: cf69 4c3c 6d7e 163e e2c5 843c 9c92 d9be
00000290: b23d 01bd 0167 a5bb 4e97 a93c 320d 6fbc
000002a0: 2923 97bd 2add 5bbb be4c 1a3b af32 26bd
000002b0: a8a8 8dbd 1e15 843a 0ca4 2d3d 77ab c13c
000002c0: 6c9f fc3c dc79 25bc bde3 ecbe a85c 23bd
000002d0: 306f 2b3c 5674 123d 7459 7c3c 89b3 d7bc
000002e0: 80f3 2bbd 0f02 9e3c 1aba 223c ed88 b0bc
000002f0: ecf3 abbc 936a 8e3d da55 aa3c 06f8 1abd
00000300: 3cc3 bebb 9294 0abe bd3e b9bc 94b2 423e
00000310: ec7f 96be 4f4d d33b ecc5 78be 2c27 9abd
00000320: 4751 243d 373f a33c 71d0 53be 15c4 e4bd
00000330: 0a1e 30bd a288 dabc 6b3a 4d3d 0c32 57bd
00000340: 0d9c d43d e393 7b3e 646e 713d c0f5 12bc
00000350: 913f 343e dae6 cdbc 266d 153c c3cb f3ba
00000360: e40c 08bd 9704 b6bc 6ffc 913d 09e8 f73d
00000370: 452f a5bd e13c 133c 621f 5bbd de1b 2fbd
00000380: f0d0 21bd 6e4a 143e f626 cfbc e61a b6be
00000390: 634c 523d 09b4 f0bb 46cc 263c d4b1 95bc
000003a0: 7879 0fbe e085 833c 78ff 55bc 954e 44bd
000003b0: 1fbc b2bd 197d fdbc 6cfe ab3b 64bb 83b9
000003c0: ef5f efbc 4814 4dbc 088f e9be caa5 c13c
000003d0: 7835 bebb 1a35 253d 5777 033d cb6e 193d
000003e0: a9bf dfbb d06a dabc 9403 53bc 0e6a 5ebc
000003f0: e512 04bb 04b7 f13d ce0c 20bb 838e eebc

sequential_16/dense_33/MatMul f4 [32, 64]
0.19462246 -0.19794776 -0.008460295 0.080431096 -0.053376146 -0.2116891 0.2375928 -0.1153558
-0.2178938 -0.10101164 0.15339613 -0.24653065 -0.14070304 0.046709903 0.27893454 0.13340437
-0.25208375 -0.15156707 0.103137404 -0.08536667 -0.040228043 0.12550732 -0.23411775 -0.0103678135
0.16218787 0.27391928 -0.11462503 0.32917437 -0.09001858 -0.08069157 -0.34500006 -0.37024572
-0.25008053 -0.019913083 -0.23294842 0.08843183 -0.07207712 -0.031131951 0.11588048 -0.2482348
0.14868306 0.15706925 -0.0023323558 0.08217038 0.15879704 0.009366477 -0.13511053 -0.24355957
-0.30730754 0.07699829 0.009430405 -0.042639572 0.12016154 -0.07720387 -0.14479066 0.12871546
0.21854833 -0.051421724 -0.083926596 0.2401492 0.36698452 0.19250351 -0.029883444 0.28269112
-0.07816735 -0.0077829277 -0.07141893 -0.070854135 0.09397261 0.20924969 -0.07284613 -0.4033688
-0.104083695 0.19531739 -0.04455141 0.22984028 -0.19418481 -0.099760495 0.48882827 0.12405238
-0.014118137 -0.08654997 -0.09092469 0.45517752 -0.086134814 0.20670167 0.04562373 -0.21640106
0.10217178 0.13474657 0.110133104 0.13450874 0.43201384 -0.09680688 -0.18324003 -0.073165365
-0.010449111 -0.002283208 0.10309537 0.13429138 0.22165897 0.05480897 0.1824982 -0.17964627
-0.33495152 -0.06584716 -0.1749466 -0.13206685 -0.09452123 0.27993447 -0.11888691 -0.050257515
-0.03125437 -0.08706233 -0.027041864 -0.075130254 -0.19983648 0.21352024 0.19263618 -0.025635937
0.16612114 -0.0006287052 0.08588872 0.11786779 -0.11465236 -0.10763205 0.093109965 0.3210845
0.22954223 0.07973083 0.12890327 -0.16465242 0.053643644 0.24099 -0.03017053 -0.089806
0.21896173 -0.13617225 0.32158768 -0.25701547 -0.102493234 -0.09959608 -0.16454746 -0.015879402
-0.094454095 0.04774481 0.25550547 0.22058193 0.08308872 -0.08103034 -0.21335201 0.15353052
-0.14580928 0.014866373 -0.107088305 -0.08675921 0.18735588 -0.08621827 -0.26718852 -0.22518939
0.056120463 0.18636747 0.13456489 -0.055889655 -0.15680444 -0.018599326 0.17017452 -0.0881876
0.2473153 -0.046685036 0.0693516 0.19185373 -0.18932064 -0.0485859 0.0024887917 -0.16864596
-0.63800234 0.1554964 -0.13155375 -0.15604599 0.08933083 0.11962064 -0.0006744118 -0.0192322
-0.04949052 -0.16941327 0.076701015 0.1608935 -0.06751001 0.048200767 -0.22312963 -0.04380345
-0.33809412 0.1712966 0.08639289 0.07247521 0.08386282 0.21099877 -0.066529326 -0.32627508
0.0022934328 -0.18736301 0.3021681 0.15872416 0.0626048 0.29553813 0.27961478 0.0015485992
0.15047272 -0.074241824 -0.25981775 0.025592908 0.010405737 -0.21852243 0.18112291 -0.22469899
-0.10263198 -0.014687463 0.24749306 0.3587489 0.48416218 -0.04231293 -0.0262356 0.2956554
0.34333006 0.09833282 0.173392 0.50170773 -0.009746215 0.16870393 0.11070547 0.18190324
-0.057193186 -0.3209059 0.201472 -0.18859021 0.22338049 0.5945899 -0.027968872 -0.06720219
-0.25939152 0.1384055 0.098097585 -0.20611954 0.08554949 -0.19504035 -0.07873075 0.37679863
0.15176742 0.008681344 0.16828145 0.16961887 -0.11488165 -0.124348655 -0.24977891 0.09482587
00000000: 1c4b 473e d1b2 4abe 0d9d 0abc 0fb9 a43d
00000010: f2a0 5abd 07c5 58be 874b 733e a93f ecbd
00000020: 8d1f 5fbe 31df cebd e013 1d3e 8872 7cbe
00000030: 7514 10be e252 3f3d 82d0 8e3e 289b 083e
00000040: 1f11 81be 6634 1bbe b439 d33d b8d4 aebd
00000050: 29c6 24bd fe84 003e 90bc 6fbe c3dd 29bc
00000060: 9414 263e 263f 8c3e 87c0 eabd 8b89 a83e
00000070: a95b b8bd 9f41 a5bd d9a3 b0be d990 bdbe
00000080: 8e0a 80be c320 a3bc 088a 6ebe bf1b b53d
00000090: 2b9d 93bd 6f08 ffbc bf52 ed3d 4331 7ebe
000000a0: 5f40 183e c3d6 203e 70da 18bb f248 a83d
000000b0: b19b 223e da75 193c 6a5a 0abe ae67 79be
000000c0: 6a57 9dbe 48b1 9d3d fc81 1a3c d5a6 2ebd
000000d0: 4117 f63d 101d 9ebd 0144 14be fccd 033e
000000e0: 22cb 5f3e 969f 52bd b5e1 abbd ace9 753e
000000f0: 65e5 bb3e a41f 453e 20ce f4bc e4bc 903e
00000100: 3416 a0bd ee07 ffbb 1744 92bd f91b 91bd
00000110: b674 c03d 8d45 563e 5a30 95bd 5b86 cebe
00000120: d529 d5bd 4801 483e 8a7b 36bd 405b 6b3e
00000130: 62d8 46be 3b4f ccbd b347 fa3e 2d0f fe3d
00000140: c24f 67bc 1c41 b1bd b936 babd 070d e93e
00000150: 7367 b0bd 9aa9 533e f3df 3a3d 3d98 5dbe
00000160: 703f d13d 01fb 093e 778d e13d a9bc 093e
00000170: eb30 dd3e af42 c6bd 46a3 3bbe b9d7 95bd
00000180: c032 2bbc e0a1 15bb aa23 d33d ae83 093e
00000190: 92fa 623e 5f7f 603d cfe0 3a3e 31f5 37be
000001a0: c47e abbe e0da 86bd 3425 33be 883c 07be
000001b0: 5994 c1bd 9253 8f3e fb7a f3bd d3da 4dbd
000001c0: 9504 00bd bc4d b2bd e686 ddbc e4dd 99bd
000001d0: efa1 4cbe 0da5 5a3e 6b42 453e 7502 d2bc
000001e0: a91b 2a3e b1cf 24ba 6de6 af3d ab64 f13d
000001f0: dbce eabd 316e dcbd 70b0 be3d 3065 a43e
00000200: 1e0d 6b3e eb49 a33d 38ff 033e a59a 28be
00000210: 70b9 5b3d 15c6 763e 3028 f7bc 35ec b7bd
00000220: 8137 603e bd70 0bbe 24a7 a43e 8897 83be
00000230: f9e7 d1bd 08f9 cbbd 217f 28be 8515 82bc
00000240: 2671 c1bd 1090 433d 9dd1 823e 3be0 613e
00000250: 6b2a aa3d 3cf3 a5bd f378 5abe 1b37 1d3e
00000260: 074f 15be 1692 733c 1d51 dbbd d0ae b1bd
00000270: 38da 3f3e 3493 b0bd efcc 88be 0c98 66be
00000280: 92de 653d 1dd7 3e3e 61cb 093e 8dec 64bd
00000290: 5891 20be 9d5d 98bc 3b42 2e3e b39b b4bd
000002a0: 3940 7d3e cf38 3fbd 3608 8e3d 4e75 443e
000002b0: 45dd 41be 0202 47bd ff1a 233b 87b1 2cbe
000002c0: 1f54 23bf 733a 1f3e 07b6 06be 85ca 1fbe
000002d0: 15f3 b63d abfb f43d 03cb 30ba d98c 9dbc
000002e0: 92b6 4abd ac7a 2dbe 6c15 9d3d 44c1 243e
000002f0: b042 8abd 2b6e 453d 187c 64be 3f6b 33bd
00000300: ac1a adbe 6068 2f3e c1ee b03d e26d 943d
00000310: 45c0 ab3d 1010 583e 8740 88bd 870d a7be
00000320: 6b4d 163b 17dc 3fbe c7b5 9a3e 9688 223e
00000330: f236 803d c650 973e ab29 8f3e 5efa ca3a
00000340: 8515 1a3e 190c 98bd d506 85be 38a8 d13c
00000350: d37c 2a3c 58c4 5fbe 4978 393e 7e17 66be
00000360: b730 d2bd afa3 70bc d26e 7d3e f0ad b73e
00000370: 1be4 f73e 5350 2dbd 0aec d6bc 2560 973e
00000380: f5c8 af3e b862 c93d ac8d 313e eb6f 003f
00000390: 97ae 1fbc b9c0 2c3e 8db9 e23d d844 3a3e
000003a0: 6743 6abd c74d a4be ad4e 4e3e cb1d 41be
000003b0: dbbd 643e 0b37 183f fa1e e5bc 4da1 89bd
000003c0: f7ce 84be 2cba 0d3e 63e7 c83d 0011 53be
000003d0: 9234 af3d a8b8 47be 963d a1bd c0eb c03e
000003e0: eb68 1b3e 323c 0e3c f951 2c3e 92b0 2d3e
000003f0: 1247 ebbd 82aa febd 0bc6 7fbe 1134 c23d
